models/model_run_14.pth (torch, 145937 bytes, 6 tensors)

fc1.weight f4 [256, 8]
00000000: 8989 56bf 15a8 4bbf 103b 6fbf 9f34 4abd
00000010: 4cb7 7bbe aa5a 933e 5696 83be c246 20bd
00000020: 5e2d 1e3e e026 3e3f d329 743e 2cf9 15be
00000030: 836f 8a3e e75f 693f c7ae e43c d59d 353e
00000040: 71ec 2bbe 2758 5abf fb88 003f 923f d73f
00000050: 3736 723f 5d36 ba3d 841d 303f 83d2 4c3f
00000060: 8d6c 17be b546 d7be cdd3 3fbe 4d9c 4abf
00000070: f2e9 0d3f 6d2e 523f 6653 7c3c 47f0 013e
00000080: f841 a6bd de25 01bf 714b a6be d9a1 11bf
00000090: a195 203f 341f 1a3d 1280 dc3e 59fd cb3e
000000a0: c1a5 f2bc ac36 0dbe e1ae b6be 99b5 68bf
000000b0: 91a0 02bd dc24 29bd 184f 343e d2ca 88bd
000000c0: f369 be3e d1dd bfbe 1fd0 d73d a2a4 02bf
000000d0: 82a3 11bf 3554 dcbd 505c d83c 0868 cb3e
000000e0: ce75 613e c3da 96be 830c 763e 1ee4 30bd
000000f0: b791 a9be 4443 bfbe 9349 bbbe e5f1 30bf
00000100: bb93 1e3f cd3d 17bf 7ab0 5c3e 5f22 ecbd
00000110: 7733 103f 162e aa3e e9c4 163f 0270 653e
00000120: efbf 073d daa2 833e 50e4 91be 86d3 90bd
00000130: 2153 4dbf 1f08 34bf 5d27 67be 9e9f 9cbf
00000140: 6566 6fbe 246e ba3e 54c6 8ebd 01a6 0c3f
00000150: 5c7f 1ebf edfc 30bf bf27 b8be 75eb 833e
00000160: 39d6 b6be a6e8 ee3c b330 aa3d 777d 99be
00000170: 4ea5 163e 3a4a 063f 8922 84be 7d63 75be
00000180: 3729 88be 1e78 93be ce19 623e 34f5 693e
00000190: 8d51 f93c 1813 7fbe 7fa6 7cbe 85b7 213f
000001a0: 0980 0ebf ce96 b23d 1c56 f8be 9a6c 2abe
000001b0: c511 24bf 42a5 9d3c 1f8f b53d 56f1 b63c
000001c0: e7af 51be 14a0 8a3f 1e98 093e b8a6 ca3d
000001d0: 07a7 713e 4207 923d 113a e63b 8ed9 97be
000001e0: ecd9 bf3d 5a9a 0a3f 698d b1be e422 053f
000001f0: 2264 b23e e81a 883e 0b17 ba3e b34e 62be
00000200: f69c a93e a9ca 2ebd 7da5 0c3f 38e2 1d3d
00000210: 5036 523d 8903 243f df8b c93d 84e5 35bf
00000220: 96a5 49be e091 4c3d 8a00 d8be a239 a73e
00000230: cd11 04bf ebba 8bbe 5cf0 94bd 96c0 e83c
00000240: d891 99be 1e1d d8bf 3bf1 5a3e d345 db3d
00000250: 62c1 083e 70b7 233f 6eac 6fbe f7dd 0c3f
00000260: e168 663e 9c4d 96be 0788 133d fcd0 e9be
00000270: 7e9a 1ebf 3521 2c3b 96f1 bdbc 2118 ad3e
00000280: d487 a63e 4fc6 28be 9c10 5f3e ef25 edbe
00000290: c79e b6be 99ba 74be b4de f33e 0824 53bd
000002a0: f4cd 663d 4d13 373e ed36 2a3c 90bc e53e
000002b0: 495b 0cbf 8572 2bbf 67b0 55bf 6e6b 19be
000002c0: 125a 4ebd 7d3d 693f 3ffb d73c 93c6 c53d
000002d0: 5b91 16be b6d9 043f d884 10bf eda2 35bf
000002e0: fe77 f73e 4ee9 8a3e f4d5 9b3b 1d85 e33e
000002f0: bd91 38bf 6494 31bf 19bc 893d 8574 933d
00000300: 61d5 2abf a74e 283f b7d4 923e 07b3 803d
00000310: 27eb 6abe 94ac 9ebd e391 a5be 5978 423e
00000320: 7a9c 7cbc dbbd 37be 7c3a c3be 77ea 0d3e
00000330: bfdb 543f 0087 823e 618c 893e 4977 ff3e
00000340: 6cb0 023f 079a e7be ed66 613e 7025 01bf
00000350: bb89 17bf 38b0 4fbe 02f0 a23e a29b 873e
00000360: 5462 0d3e 6387 a83e 70c5 abb9 1e10 e83d
00000370: 693a 76be 3121 173d a146 9dbd 7802 fa3d
00000380: 188c 5fbe 7c01 0c3d 26cb b03e 3e6e 533f
00000390: 0d70 d4be a8ce 9f3e 21e2 05bd 5c93 8d3d
000003a0: 8d6d f4be 607b f13d e589 bdbd 04b7 003e
000003b0: 095d e6bc 270c 34be b938 afbc 722c b03e
000003c0: a27c 24bf ab4b 933e dcd8 b8be c638 133e
000003d0: 860d e53e 0cc3 4f3e a461 29bf 70eb 3e3e
000003e0: ccaa 59be b3a9 06bc 9cb9 b7bd c9f2 ffbe
000003f0: 59a7 b5bd 9de3 493e 2f26 fa3e 1f5e abbd
-0.8380361 -0.7955335 -0.934495 -0.04936659 -0.24581641 0.2878011 -0.25700635 -0.03912998
0.15446994 0.7427807 0.2384408 -0.14645833 0.27038202 0.9116196 0.027915372 0.1773599
-0.16789414 -0.8529076 0.50209016 1.6816275 0.94613975 0.090924 0.6879504 0.80008715
-0.14787503 -0.42046133 -0.1873314 -0.79144746 0.554351 0.8210209 0.015400743 0.12689315
-0.08118051 -0.50448406 -0.32479432 -0.56887585 0.62728316 0.037627414 0.4306646 0.39841726
-0.029620053 -0.13790387 -0.35680297 -0.90902096 -0.03189141 -0.041294917 0.17608297 -0.0667931
0.37190208 -0.3747392 0.10537743 -0.5103246 -0.5689012 -0.10758249 0.026411206 0.39727807
0.22017595 -0.29463777 0.2402821 -0.0431863 -0.33118984 -0.37356007 -0.3657957 -0.691191
0.6194417 -0.59078676 0.21551695 -0.11529993 0.5632853 0.33238286 0.5889421 0.22406009
0.033142027 0.25710183 -0.284945 -0.07071595 -0.8020497 -0.7032489 -0.2257361 -1.2236211
-0.23378904 0.36412156 -0.06971422 0.549408 -0.61913085 -0.69135934 -0.35967824 0.25765577
-0.35710314 0.02916367 0.0831007 -0.29978535 0.14711496 0.5245701 -0.25807598 -0.23963733
-0.26593944 -0.2880258 0.22080156 0.22847444 0.030434394 -0.24909627 -0.24672888 0.63170654
-0.55664116 0.0872017 -0.48503196 -0.1664299 -0.64089614 0.01924384 0.08865189 0.022331875
-0.20477258 1.0830102 0.13436934 0.0989508 0.23598872 0.071302906 0.007025965 -0.2965817
0.09367737 0.5414177 -0.346782 0.52006364 0.3484202 0.26583028 0.36345705 -0.22100334
0.33127564 -0.04267374 0.54940015 0.038545817 0.051321328 0.64067894 0.098411314 -0.7105334
-0.19692072 0.049943805 -0.4218791 0.32661158 -0.5158966 -0.27291045 -0.072724074 0.028412145
-0.29994082 -1.6883886 0.21381085 0.10706677 0.1335502 0.6395178 -0.2340562 0.5502619
0.22500946 -0.29356086 0.036018398 -0.45667255 -0.61954486 0.002626491 -0.023186486 0.3380747
0.32525504 -0.16481899 0.2178368 -0.46318004 -0.35668012 -0.23899306 0.47630847 -0.051548034
0.056348756 0.17878456 0.010389072 0.44870424 -0.5482679 -0.6697162 -0.83472294 -0.14982387
-0.050378866 0.9110945 0.02636492 0.09657016 -0.14703886 0.518947 -0.56452703 -0.7095173
0.48333734 0.27131122 0.00475573 0.44437495 -0.7209738 -0.6936705 0.0672533 0.07199959
-0.6673184 0.65745014 0.28677914 0.06284147 -0.22941266 -0.077477604 -0.32337865 0.18991221
-0.015418166 -0.17943518 -0.38130558 0.13858972 0.83147806 0.25493622 0.26864913 0.49895695
0.5105045 -0.452347 0.2201192 -0.5044775 -0.59194535 -0.20282066 0.31823736 0.26485926
0.1380704 0.32915792 -0.00032762764 0.11331199 -0.24045719 0.03689689 -0.07679487 0.12207502
-0.21830785 0.034181103 0.3452999 0.8259009 -0.41491738 0.31212354 -0.032686356 0.06912872
-0.4773983 0.1179111 -0.09254817 0.12569815 -0.028120534 -0.17582761 -0.021389352 0.3440891
-0.64252675 0.28768668 -0.3610295 0.14377126 0.4473688 0.20289248 -0.6616461 0.186445
-0.2125656 -0.00821917 -0.08970949 -0.49989918 -0.0886981 0.19715734 0.48857257 -0.083675615

fc1.bias f4 [256]
00000000: 5c67 aa3d 8e92 c53d aab1 023f 0f55 0ebf
00000010: 5768 61be 790f fbbe 7daf 72be 4a0a 993e
00000020: 001b a7be b812 c6be 48c9 c03e 819c 2e3f
00000030: 425b c53e ca61 b3be 9034 5c3f 0eb3 443f
00000040: 7630 903e 4705 ac3e 0989 a23e 9e99 93be
00000050: 33de 4ebe edfb d03e bd23 543e e29d 383e
00000060: 55be 963f 0021 c93e 9432 3bbe 76c5 4d3f
00000070: 36ec 233f 520d 803d 441f 4c3d e283 453e
00000080: 69f8 333f 5cc7 0dbf 67a6 523f 6b48 0b3f
00000090: da21 993f 8aaa a83e ac5d 2f3f b8d2 5c3f
000000a0: 0d3c b0be 4757 2e3e f56f 433f bea8 203f
000000b0: 9fe9 3d3f 0514 553f 0ab9 5f3e 7065 023f
000000c0: ccb3 303f 26a8 213d 4a96 5e3f ed4e 8b3e
000000d0: c344 87be b769 1ebd d145 273e 2c48 833e
000000e0: 1e83 463f 793a c73e 5eb4 493f d738 39bf
000000f0: bb28 2bbc 17d1 36bf ce39 9abb b078 13bd
00000100: 025f 1f3f 96e6 423d d7e0 3abf a4f8 0ebf
00000110: f951 b43e eb55 bbbe 7c2a a2be 36db a6bd
00000120: 4640 713e 3b66 2e3e f37f 963e f434 cb3e
00000130: ea2b a73e 2d7d 253e b78d 4d3e cb14 593e
00000140: e8fb 03be 2611 35be f725 34bf 67c5 a63d
00000150: c7ab debe f088 5dbe 15b1 7d3e 3556 a5be
00000160: ae90 3dbe f6e1 163f 4d7a f9be 012d 153f
00000170: cddb 82be 553c 993f bf18 e3be c0cc 85be
00000180: f567 513d c309 bbbe eb8d 153f f8e2 1c3f
00000190: 4baa 9d3e b39d 843e af58 483e fa48 abbe
000001a0: 376f aebe 4390 b73e 44ad 503e 7ddb 1cbe
000001b0: 20fd ca3d 7aa1 ccbe f1b2 86be ecb2 80be
000001c0: 9868 4c3e 3122 743e 506d 09bc 3f90 153f
000001d0: 018c 9d3e 1f32 943c 2f3e 053e 6c1d 203f
000001e0: 1fb2 bbbe 1c17 cb3e c08b 70be 3c56 353f
000001f0: c3ad 1abf e46d 2a3d d919 37be 7c46 383f
00000200: abbb 1cbf f537 223f 206e cf3e 687e af3e
00000210: 35a5 c43e 64c7 a2bd 5a02 a53e c543 433e
00000220: 779b bb3e 8d23 d43e 1435 00bf 8e12 1abc
00000230: 275e 013f 5327 303f ed78 19be b8c9 84bd
00000240: b832 f53e b1cb 54bf 5971 863e 8318 4d3f
00000250: a17d a53e 2150 833e a223 62be 88bc 4c3e
00000260: d832 933e 6c64 5b3f 61da 2c3f 8e33 e33d
00000270: e7e9 d33e 2b0d 1dbf 210e 07bf 14a0 19be
00000280: ceac b73d 0ae8 c73e 95c3 b4be 45f0 493e
00000290: 29b8 c33e ae8b 553e 5bdb 9b3f 4de3 f73e
000002a0: 6c66 64be 7f69 033f c235 05be 063a 943e
000002b0: a41d a13e be88 e83e 4414 30bf c57f fdbe
000002c0: 1b52 92be b493 bfbe 30d6 693f ff45 bc3e
000002d0: 649e e4ba 1372 f1be 9b31 3f3e a5db 4a3f
000002e0: f873 323f 8bde 163e b338 933e 1a66 133f
000002f0: d1bc 333e 4c05 243f 7c1c 533f 115f 5a3e
00000300: 7bfa 313f 5dd0 85be bafb c03e 1042 98be
00000310: f410 113f f82e 573f 37dc 9a3e f441 aabc
00000320: b977 d1be 83b2 6dbd b4c3 32bf 5bf5 b33e
00000330: 1f84 ef3e e3e2 e23e 40cf 263e fcc2 cf3e
00000340: 14a0 493f 27e0 b7bd dc98 553e daca 97bd
00000350: b3fa 5b3e 8ccf c2bd f25d 27be 62e2 c03d
00000360: 37c5 2dbf 44e1 6c3c 9984 2c3f 0c8f 97bd
00000370: cc2c b93e 6c85 853e 8b53 9a3e 483b a7be
00000380: d7e6 ce3e a1a7 8bbe 8b9f 05be ec4b b9be
00000390: 5b53 473f 1c64 1c3e faf8 843e d0f3 56bd
000003a0: d4a7 1e3f 4457 0f3f 8b64 d93e 9b77 9d3e
000003b0: de24 ae3e b9e9 e43d 688a 613e 8005 463e
000003c0: ecba 423f f9ab d03e 6536 b5be 89f0 ae3e
000003d0: 26cd edbb 6bcd 393e d0c6 87be 4972 5c3e
000003e0: 349f 2e3f 8858 b03d 2974 213f 9a27 543e
000003f0: e37b be3e 8488 c93e d090 793e 3593 f3ba
0.083204955 0.09647094 0.51052344 -0.5559854 -0.22012459 -0.49035242 -0.23699756 0.29890662
-0.32637787 -0.38686156 0.37653565 0.68207556 0.38546187 -0.35035545 0.86017704 0.76835716
0.28161973 0.33597776 0.31745175 -0.28828138 -0.2020195 0.40817204 0.20716758 0.18028978
1.1776835 0.3928299 -0.18281013 0.80379426 0.64032304 0.06252541 0.049834505 0.1928859
0.7030092 -0.55382323 0.8228516 0.54407376 1.1963456 0.3294261 0.68502307 0.8625903
-0.34420815 0.17025481 0.7634271 0.6275748 0.741846 0.8323367 0.2184793 0.5093603
0.6902435 0.039467 0.8694807 0.27208653 -0.2641965 -0.038675036 0.16335227 0.25641
0.7754382 0.389118 0.78790843 -0.72352356 -0.010446723 -0.71412796 -0.004706598 -0.03600377
0.62254345 0.047583185 -0.7299933 -0.55848145 0.3521879 -0.36588988 -0.31673038 -0.0814728
0.23559675 0.17031185 0.29394493 0.39688838 0.3265069 0.16161032 0.20073591 0.21199338
-0.12889063 -0.17682323 -0.7037043 0.0814312 -0.4349043 -0.21634269 0.24774583 -0.32292333
-0.18512222 0.5893854 -0.4872612 0.58271796 -0.2555832 1.1971537 -0.44354817 -0.26132774
0.05112453 -0.36530885 0.58419675 0.61283827 0.30793986 0.25901565 0.1956508 -0.33454114
-0.34069225 0.3585225 0.20378596 -0.15318103 0.09911561 -0.39966947 -0.26308396 -0.25136507
0.19961774 0.23841168 -0.008387879 0.5842323 0.30770877 0.018090306 0.13012002 0.62544894
-0.36659333 0.3966607 -0.2349081 0.7083471 -0.6042139 0.041608706 -0.17880954 0.7198255
-0.6122386 0.63366634 0.40513706 0.34276128 0.38407293 -0.07948187 0.32228357 0.19068821
0.36642048 0.41433373 -0.5008099 -0.009403838 0.5053429 0.68810004 -0.14987536 -0.06483787
0.47890258 -0.8312331 0.26258352 0.80115527 0.3232241 0.2564707 -0.22083905 0.19993794
0.28749728 0.85700107 0.6752072 0.11093818 0.4138939 -0.6134822 -0.52755934 -0.15002471
0.08968507 0.3904422 -0.35305467 0.19720562 0.3822644 0.20854065 1.2176317 0.48415604
-0.22304696 0.5133285 -0.13008788 0.28950518 0.31467927 0.45416826 -0.6878092 -0.49511543
-0.28578267 -0.37417376 0.9134245 0.36772153 -0.0017442224 -0.47157344 0.18671267 0.792414
0.69708204 0.14733331 0.28754196 0.5757767 0.17552496 0.6407058 0.8246534 0.21325327
0.6952283 -0.2613553 0.37692052 -0.29737902 0.56666493 0.84056044 0.30246136 -0.020783402
-0.40911654 -0.05803157 -0.6982987 0.3514813 0.46780488 0.44313726 0.16289997 0.4057845
0.78759885 -0.089783005 0.20859092 -0.07411738 0.21482353 -0.09512243 -0.16344431 0.09418179
-0.6787905 0.014458004 0.6738983 -0.07400331 0.3616699 0.26078355 0.30141863 -0.32662416
0.40410492 -0.27276328 -0.13049142 -0.36190736 0.77861565 0.15272564 0.25971204 -0.05247861
0.61974835 0.5599253 0.4245952 0.30755314 0.34012502 0.111773916 0.22025454 0.19338036
0.7606647 0.40756205 -0.35393062 0.3416789 -0.0072571216 0.18144767 -0.2651887 0.21527971
0.68211675 0.08610636 0.6306787 0.20718232 0.37203893 0.39361966 0.24371648 -0.00185833

fc2.weight f4 [128, 256]
00000000: 5f8e 023f 5213 e03d f9d5 83be edf8 97be
00000010: d2d7 873d e829 12bf b21c a5bd f607 b7bd
00000020: f3f1 f5be b5ea 12bf e6b0 12bf b15e 403d
00000030: bd5a e3bd 3e25 36be 8e49 463e 1966 e33d
00000040: 62c6 5b3d d778 413d fb91 193e 2684 63be
00000050: 8f72 02be 73f1 883e f8e4 9d3e 4c81 c7be
00000060: 9f6b bf3d d962 88bd a4af 38be 8524 6d3e
00000070: d0d1 96be a051 1abe ad47 07be e1fb 363e
00000080: 808c 933e 4826 99bf be47 933e ab96 5a3d
00000090: f8cf 753e 8273 c93d 47be 763e ce7b 753e
000000a0: b40b 23bf e7b3 8fbe 39f1 483e af27 16bd
000000b0: ada1 3a3b dcbc 353d aaca 85be d256 423e
000000c0: 4933 b13d 50f3 efbd 3c56 903e a4ba 323e
000000d0: 610a 26be 0fb8 8fbe dc12 293d 4aad 0f3e
000000e0: 05a9 c13e 76cf 15be a080 df3c 93c7 99be
000000f0: e44f 683f b4fb a6be 3b46 5d3e 3388 113f
00000100: 4501 603e 6db3 553e aaf4 943f 54de 9bbf
00000110: 45bf 46be 3a30 e4be cbf7 e6be 4107 6a3c
00000120: 4d23 7d3d a57c aebe 7a29 a13d ae98 ab3e
00000130: e4b0 ab3e 5907 0abe 49ef 253f d625 d2be
00000140: eff3 583f a96e b13e 9cdc 2dbf bc8c f73e
00000150: 1a7b 9cbd fe76 263f 6a29 0ebf b568 aebe
00000160: c4ba 19bf 2795 ff3e 2d1c a0be 3a19 f4be
00000170: 4279 30be f51a 3f3e bcb3 efbd 035b 50be
00000180: 877c e6bd 537c cebe 3839 0a3f 6c60 893e
00000190: 8bf7 bdbe 07c8 40be 2d2d fabd e421 883d
000001a0: a319 6dbe 6d6f 4f3c 1b50 393e 9222 e63d
000001b0: fc9c e1be 8d93 53be 62cf 453f 1543 ffbd
000001c0: c9a1 443e f734 15be 8c92 1cbe b8f4 4a3d
000001d0: 98e2 48bf 1110 2d3e 7e54 0a3d 2393 c13d
000001e0: 505f 48bf b7d1 183f 2deb 57bd be60 36be
000001f0: 2e43 a23f aa4b b4be 379c 64bd 3d21 c53d
00000200: ff66 513f 0139 3b3e aab3 afbd 19a2 a83d
00000210: 4e3b 5d3e 199e e4bd e5eb 80bd b313 84bb
00000220: 4002 17be 982b 6b3d 543c 37bf 5594 3abe
00000230: 1136 3a3f 50e5 f73d 8d12 6bbd 1899 0a3f
00000240: 6403 393e a6e3 edbf 9ef7 a5be b21e 983e
00000250: 1822 d1bd 000c fa3a 6b69 36bf 95b5 2e3e
00000260: 1e8d 6abd 20ab 693e e344 a23d f624 21be
00000270: 32db bf3e b2fc 1cbf e21b 51be 6085 41be
00000280: cd90 733e a159 a1bc 6249 d1be d90b 8bbe
00000290: cf48 59be 3aeb 193c 2134 7a3e 3581 e13d
000002a0: 8408 113f 2ff2 183d e5c5 8f3d 2024 64bd
000002b0: 6249 2a3e 2e77 493e c9cb 06c0 f605 c4be
000002c0: 08aa 3cbe 0cc8 e7be 1372 883e b54e 203e
000002d0: 76a8 39bd c013 5ebe 8cc8 41bd 9147 7f3e
000002e0: a8c0 a23d e8a0 36bf 5264 93be 3707 47bd
000002f0: deac 0dbe aabd 4e3e cd16 b53d 0fcb 013d
00000300: 7770 803e 04c7 c2be 30a5 37be fc19 febe
00000310: 1cd3 8ebe f113 693e be60 1abf 02be 9a3f
00000320: 99fb acbd 5b0e 763f f9bc 33bf 805a ccbd
00000330: fffe 78bd bb59 c6bd c398 5a3d 41b3 993e
00000340: 226e 353e 9222 7fbd 1fb7 3bbb d1b5 c1bd
00000350: 496d 79bd 8110 ee3e 5e6a 2dbe 42f0 983e
00000360: 0087 99bf 0177 1fbf 3fd4 ea3e f41f 02bf
00000370: ca8c e93e e531 02bf e385 92bd 87c6 2ebe
00000380: b40b efbe c70b 313e 8ac8 313e f643 53bf
00000390: ee52 5e3e 6c56 68be 3757 9c3d a981 20be
000003a0: febe a03d 885d da3e cbbe 393d 610f 6bbc
000003b0: b053 2dbd b1f3 49be 905a b8be 0ac5 8b3e
000003c0: a807 783e 35fe 8d3e 3668 17bf 8bc3 763c
000003d0: e6dc bc3c 3ff5 a2be 52fc adbe df13 7d3d
000003e0: e476 d03d 7729 e3be 96c4 203d 155b 513e
000003f0: a08b d2bd 72af 1f3d 2869 093e da1c 2b3f
0.5099849 0.10941185 -0.25749186 -0.29682103 0.06632961 -0.57095194 -0.08062114 -0.08937065
-0.48036155 -0.57389385 -0.57301176 0.046965305 -0.11101291 -0.17787644 0.19363996 0.11103458
0.05365599 0.047234382 0.14997093 -0.2221838 -0.12739013 0.2674671 0.30838752 -0.38965833
0.09346699 -0.06659479 -0.18035752 0.23158462 -0.2945695 -0.150702 -0.13210936 0.17869522
0.2881813 -1.1964808 0.28765672 0.053366344 0.24005115 0.098364845 0.24096023 0.23973009
-0.6368973 -0.28066942 0.19623269 -0.03665894 0.0028477714 0.044369563 -0.26131183 0.18978432
0.0865236 -0.1171633 0.28190792 0.1745401 -0.16214897 -0.28070113 0.04127775 0.14030948
0.37824264 -0.14629921 0.027283013 -0.30035076 0.90746903 -0.3261391 0.21608822 0.5684845
0.21875484 0.20869227 1.1637166 -1.2177224 -0.19408901 -0.44568044 -0.45110926 0.014283956
0.061801244 -0.3407947 0.07869239 0.33514923 0.33533394 -0.13479365 0.64818245 -0.41044492
0.84747213 0.3465474 -0.6791475 0.4834956 -0.07640667 0.6502532 -0.5553194 -0.3406426
-0.60050607 0.49918482 -0.31271496 -0.47675496 -0.17233756 0.18662627 -0.117042035 -0.20347218
-0.112542205 -0.40329227 0.5399356 0.26831377 -0.37102923 -0.18826304 -0.12215648 0.06647089
-0.23154311 0.012660843 0.18096964 0.112370625 -0.44065082 -0.20661755 0.77269566 -0.12463967
0.19202341 -0.14570986 -0.15290278 0.04954979 -0.78470755 0.1690066 0.033771984 0.09451892
-0.78270435 0.59695 -0.052714515 -0.17810342 1.2676752 -0.35213977 -0.05581304 0.0962548
0.81797785 0.18283464 -0.0857919 0.08234043 0.21604654 -0.11162967 -0.06294993 -0.0040306686
-0.14746952 0.05741462 -0.7157643 -0.18220647 0.7273875 0.12104285 -0.05739074 0.5413985
0.180677 -1.8585098 -0.3241548 0.2971092 -0.10211581 0.0019077063 -0.71254605 0.17061456
-0.057263486 0.22819185 0.07923295 -0.15736756 0.3747192 -0.6132308 -0.20420793 -0.18898535
0.23785706 -0.019696059 -0.408763 -0.27157477 -0.2121918 0.009394461 0.24433948 0.110109724
0.5665362 0.03734034 0.07020167 -0.055698514 0.16629556 0.1967437 -2.106188 -0.38285798
-0.18424237 -0.4526981 0.26649532 0.15655024 -0.045326672 -0.21687222 -0.047310397 0.24929644
0.079469025 -0.71339273 -0.28787476 -0.048590865 -0.13835475 0.20189539 0.088422395 0.031687792
0.25085804 -0.38042462 -0.17934108 -0.496292 -0.2789544 0.22761513 -0.60303867 1.2089236
-0.08446426 0.96115655 -0.70210224 -0.09978199 -0.06079006 -0.096850835 0.05336834 0.30019572
0.17717794 -0.06228883 -0.0028643084 -0.09458507 -0.060895238 0.46496966 -0.16935107 0.29870802
-1.1994324 -0.6229096 0.45865056 -0.50830007 0.45615226 -0.50857383 -0.07154443 -0.1706792
-0.46688616 0.17289649 0.17361656 -0.82525575 0.21711323 -0.22689217 0.076338224 -0.15674461
0.07848929 0.42649484 0.04534797 -0.014346928 -0.04231614 -0.19721867 -0.36006594 0.27298766
0.2422167 0.27733007 -0.5914339 0.0150612695 0.023054551 -0.31827733 -0.33981568 0.06178653
0.101789266 -0.44367573 0.03924998 0.20444901 -0.102805376 0.038985677 0.1341902 0.668409

fc2.bias f4 [128]
00000000: 10c1 e23d fa24 1b3f bb18 823e 95da 773e
00000010: 4be8 5ebf f5d7 5a3e e481 463e bed7 813e
00000020: e139 633e d6ec 713e 839b 1d3f ceee b73c
00000030: 792f 593d cb0c 3b3e a244 853e b33d 6b3e
00000040: 86c0 523e 484c 5b3e 750e f63d 0e74 493e
00000050: dc4f 1f3e fbbc cfb9 f610 e63d c9be 4a3e
00000060: c149 edbc 5d35 2d3e 03a8 d6bc bccc 863e
00000070: 46b6 25bc e639 d63d cf49 bbbc 0800 423e
00000080: 535f f53e e7ed 843e 0c52 81bd dd47 593e
00000090: f96a 2b3e 2950 5e3e a0fc 8c3e abfe 2c3e
000000a0: c7bb beba 2e43 773e 3ca9 c03c c1bd 893e
000000b0: 2dee 323e 5dc0 41bd 80aa 1d3e 34d1 873e
000000c0: 1bb5 b6be b68b 3a3e 73c6 81bd 68f9 eebd
000000d0: ecb6 1f3e e343 713d 6fd7 3f3e 8fd3 013d
000000e0: df71 443e fae4 323e bd4c 113e 380f 4d3f
000000f0: 2a60 56bd 26ea 833e c23f 443e df3a 603e
00000100: 2f03 bb3c 1284 033d 80db 353f 160c 543e
00000110: c83d 773e a4af 9e3e 8e76 823e c66d 823e
00000120: f3b7 cfbd 80f8 253f ee73 773e 254b 653e
00000130: c689 febd e53a 3dbd 8f2f 3a3e 19dd 153e
00000140: 336f 8b3e 05c4 3a3e 87b2 14be 7d74 4a3e
00000150: c1f9 263e 214e 893e 5ff5 533e aa0d 6a3e
00000160: bad5 24bd 76a4 533e 3118 843d 41bf 9dbc
00000170: 4681 973e 47fe 833e 2f14 d0bb 8035 903e
00000180: bf7e 063d a6e0 6a3e e07b 853e 69b5 033e
00000190: c8b1 023e 8029 293e 65b9 94bd 1ff8 643e
000001a0: c054 c5bc 280d 6a3e 5267 87bd 15d6 cf3e
000001b0: fb6c 5c3e bfb8 e23b 12ae e63d ddc2 803c
000001c0: b620 38bd f300 533e e472 413f 3875 c2bb
000001d0: a561 683e dbc1 90bd 7f7e 283f 06ef 923e
000001e0: 7c46 6d3e 65e2 a5bd 753f 193e 52be 623e
000001f0: de6d 013f 4791 ce3c 38f3 513e 2cdf 8cbd
0.1107198 0.60603297 0.25409493 0.24204476 -0.870732 0.21371444 0.19385487 0.2535991
0.22190048 0.23625502 0.6156542 0.022452738 0.05302379 0.18266599 0.26028925 0.22972755
0.20581254 0.21415818 0.12014476 0.19673178 0.15557808 -0.00039622918 0.11233704 0.19799341
-0.028965833 0.16914888 -0.026203161 0.26328075 -0.010114258 0.10460262 -0.022862343 0.18945324
0.4792429 0.25962755 -0.06314477 0.2121882 0.16740026 0.21710266 0.27536488 0.16894023
-0.0014551812 0.24146721 0.023518197 0.26902583 0.1747367 -0.047302593 0.15397072 0.26526797
-0.35685048 0.18217358 -0.06336679 -0.11668664 0.15597123 0.058902632 0.18734525 0.0316959
0.19184063 0.1747016 0.1418943 0.80101347 -0.052337803 0.2576458 0.19164947 0.21897458
0.022828666 0.032108374 0.71038055 0.20707735 0.24144661 0.30993378 0.25481075 0.25474375
-0.101425074 0.64832306 0.24165317 0.22391947 -0.12428622 -0.046198744 0.18182205 0.14635123
0.27233276 0.18238838 -0.14521228 0.19770999 0.16306211 0.2681742 0.2069907 0.22856775
-0.040242888 0.20668206 0.06449927 -0.019256236 0.29590815 0.25779936 -0.0063500623 0.28165817
0.03283572 0.22937259 0.26071072 0.12862171 0.1276313 0.16519737 -0.07261924 0.22360276
-0.024088264 0.22856581 -0.06611504 0.4059302 0.21525948 0.006918996 0.1126367 0.015717918
-0.04495307 0.20605831 0.75565934 -0.0059343837 0.22693498 -0.07068225 0.6581802 0.28697985
0.23171419 -0.08099822 0.14965613 0.22142914 0.5055827 0.025215758 0.20502937 -0.06878504

fc3.weight f4 [4, 128]
00000000: 0bed e73e d638 a73f caeb a1be 3725 85be
00000010: aec0 9a3f 68c2 a4be ee0b aebe 47ea b5be
00000020: 6321 a7be b2d1 43be 8094 a73f 4ba5 683c
00000030: d753 b1bd 479b c1be 25d7 c4be e6f2 b6be
00000040: e0b5 64be 0df3 abbe 9ac2 093f acf4 9ebe
00000050: aa2f a3be 3f21 a1bd 32a7 f0bd 117e 2fbe
00000060: 71d3 cc3c 4524 20be 0604 453d ee9f 9abe
00000070: f508 823f c3ae 103f 5cdf 2e3d 5784 8c3c
00000080: eb30 973f c46a 8bbe cbbd 59bc bbd8 b7be
00000090: e166 b4be f0ef 68be b671 463f 9cf9 1bbe
000000a0: 2f16 32bd 50d3 23be ca85 c63e 3acd 93be
000000b0: 2840 75be eed5 243d d107 1c3f 39ff 97be
000000c0: 5f0a 0b3f a96e debe 2e8e 073d a3c1 a33f
000000d0: 07a7 d0be 894b 213e d4d6 89be 8090 983b
000000e0: f303 40be a4e0 0b3f c3ab 94be b3a1 9a3f
000000f0: 1847 03bc d4e9 66be 0c8b 7ebe 2396 bbbe
00000100: 304f 8cbd 4eb9 613d 1ae1 7a3f 1c46 05bf
00000110: 5d65 91be c63e 1d3f a28e 5dbe 0b5c a0be
00000120: 93db a13e 8669 8f3f ee73 be3f f66b bfbe
00000130: 2423 ca3d f3ec 41bf c3c1 9bbe b6ed 31be
00000140: 4234 56bd 4527 3abe 121d ab3f 9048 4fbe
00000150: e2a0 3a3f c0ff b7be cd4d 80be e3a4 b7be
00000160: 6993 513d 091f 28bf 8b26 d4be 7735 98bd
00000170: 7c99 66be 247d 8bbe 44c7 e43c 59be 9dbe
00000180: 90a3 cb3b e251 51be ccdc abbe 84b3 983f
00000190: d799 79be 3c84 2fbe 385e f6bc dd81 babe
000001a0: aa46 163d 4d4d ccbe 079d 6d3c 1604 b03f
000001b0: 4e59 aebe 675e 893c cdaf 65be c27b 203d
000001c0: e059 1d3b ff80 95be 2f8c 463f 1bf4 803c
000001d0: 2726 6bbe 92ee c6bb d16b 893f 5e32 afbe
000001e0: defa b7be f8f3 0f3d 4a79 46be 79e6 b1be
000001f0: d580 943f 5015 743d b742 73be 8703 433e
00000200: 5de9 cc3e fd82 ae3f 6662 7bbe d271 36be
00000210: 9255 773f 4a5a 74be a1c3 d6be b4aa 96be
00000220: 4d52 78be 92b8 edbd a44d 9d3f 70db 513c
00000230: c511 95bd ae75 54be acf2 64be 03fd 72be
00000240: 5918 75be cd4a 2abe d518 743e 25f4 9bbe
00000250: ad98 d1be 5226 873d 06ed 93be 0f49 84be
00000260: db12 5e3c b3d2 a1be 9e00 08bc 7838 88be
00000270: dbb0 b83f 0477 29be 7a2e 553d 10ae 19bf
00000280: 43a9 7b3f de14 4ebe 154a 1a3c 5d52 b7be
00000290: a192 a3be 1dda 72be 84d5 383f 163f 62be
000002a0: 1c33 393d f7de 9fbe d8c6 3a3f f1e9 81be
000002b0: cce0 acbe 361b f43c 8835 3bbd 03eb 2fbe
000002c0: 1bc8 8e3f ca54 cfbe 07d6 93bd 7343 0740
000002d0: 084c c0be 1119 82be a523 34be 7f82 9e3d
000002e0: 53e5 7dbe 1891 113f 76bd 4fbe 24d2 893f
000002f0: b875 1f3c f655 eabd 11c5 75be f322 57be
00000300: fffe 873c 7471 e23c 8367 823f 8e51 d6be
00000310: 5618 3cbf 2500 113f e9d3 77be fd89 34be
00000320: ba70 db3e 3f09 853f 1fdc b83f a521 6cbe
00000330: d79d a1bd 21d1 21bf c1c8 c3be 7da0 38be
00000340: a494 f7be 3b64 ccbe 8d06 583f 67c6 82be
00000350: 006d 963f d79a 84be 96f6 77be 1a55 aebe
00000360: 5272 793d 8811 31bf e4ea 34bf 099d 9a3d
00000370: c9f1 3cbe 629b 5fbe 3a78 613d f522 4ebe
00000380: 9b8f a13c 1969 aabe ea1c 0dbf 71b0 903f
00000390: e906 b9be eca8 7abe 41a7 1a3d 18a9 b8be
000003a0: 6c4a 37bd 0bf1 a5be 0914 5f3d 367c b83f
000003b0: 3f12 e2be 8f60 783d c5ee acbe 7c88 f9bc
000003c0: 3cbf 9a3c 6986 c3be e611 463f 5591 0dbd
000003d0: 697c a9be 5e7e 6b3d 6573 963f 1201 29be
000003e0: 4987 94be 8925 9cbb 8aab 59be 6ef3 98be
000003f0: 86aa 833f a857 5cbc ea4b 2dbe bf48 1c3e
0.45298037 1.306422 -0.31625205 -0.26004955 1.2090051 -0.3217957 -0.33993477 -0.35530302
-0.3264266 -0.19122961 1.3092194 0.014199565 -0.08658569 -0.3781378 -0.38445392 -0.35732192
-0.22335005 -0.3358387 0.53812563 -0.31046045 -0.31872302 -0.07867669 -0.1175064 -0.17137934
0.025003167 -0.15638836 0.04809954 -0.30200142 1.0158983 0.56516665 0.04269348 0.017152948
1.1811804 -0.27229893 -0.013289879 -0.3590754 -0.3523474 -0.22747779 0.7751726 -0.15231937
-0.043478187 -0.15998578 0.38773948 -0.28867513 -0.23950255 0.04024308 0.60949427 -0.29686907
0.543127 -0.43443802 0.033094577 1.2793468 -0.40752432 0.1575147 -0.26921713 0.0046558976
-0.18751507 0.5463965 -0.29037294 1.2080597 -0.008012556 -0.22550136 -0.2485773 -0.36637983
-0.06851041 0.05510836 0.9799973 -0.52060103 -0.28397647 0.6142391 -0.21636441 -0.31320223
0.31612834 1.1204078 1.4879129 -0.37387055 0.09869984 -0.7575218 -0.30421266 -0.17375836
-0.05229593 -0.18179043 1.3368247 -0.20242524 0.7290174 -0.3593731 -0.25059357 -0.35867986
0.051165972 -0.65672356 -0.41435656 -0.074320726 -0.22519487 -0.27243912 0.027927049 -0.30809286
0.0062145665 -0.20441392 -0.33566892 1.1929784 -0.24375091 -0.17140287 -0.030074224 -0.36427203
0.036688484 -0.39902726 0.01450277 1.3751247 -0.3405251 0.016768647 -0.22430344 0.039180525
0.0024009869 -0.2919998 0.77557653 0.015741399 -0.22963773 -0.0060709203 1.0736028 -0.34218115
-0.35933584 0.035144776 -0.19382206 -0.3474615 1.1601816 0.059590638 -0.23755918 0.19044314
0.40021792 1.3633724 -0.24549255 -0.17816857 0.96614945 -0.23862568 -0.41946128 -0.2942711
-0.24250145 -0.116074696 1.2289319 0.012808666 -0.0727878 -0.20748016 -0.22358197 -0.23729329
-0.23935069 -0.16630097 0.23837598 -0.30459705 -0.40936795 0.06599106 -0.28891772 -0.2583699
0.0135543 -0.31606063 -0.008300928 -0.26605582 1.4428972 -0.16549307 0.052046277 -0.60031223
0.9830515 -0.20125148 0.009417077 -0.35805026 -0.31947806 -0.23716016 0.722008 -0.22094378
0.045214757 -0.31224796 0.7295966 -0.25373796 -0.33765256 0.029798131 -0.04570535 -0.17179494
1.1154817 -0.40494376 -0.07218557 2.1134918 -0.37558007 -0.2540975 -0.17591722 0.07739734
-0.24794511 0.5686202 -0.20287117 1.0767255 0.009732656 -0.11442177 -0.24000956 -0.21009426
0.016601084 0.02764199 1.0187839 -0.41859096 -0.73474634 0.56640846 -0.24201931 -0.17630763
0.4285944 1.0393447 1.4442176 -0.2305971 -0.07891434 -0.6320973 -0.382391 -0.18029971
-0.4835559 -0.3992022 0.84384996 -0.25541994 1.1752014 -0.25899383 -0.24215159 -0.34049302
0.06090004 -0.69167376 -0.70670915 0.07549483 -0.18451609 -0.21836618 0.055046298 -0.20130523
0.019721797 -0.33283308 -0.55122244 1.1303846 -0.36138085 -0.24478501 0.037757162 -0.36066508
-0.04474871 -0.32410464 0.054462466 1.4412906 -0.44154546 0.06063896 -0.33775917 -0.030460589
0.018890016 -0.38188484 0.7737106 -0.034562428 -0.3310273 0.05749356 1.1753966 -0.16504315
-0.29009464 -0.0047652167 -0.21256843 -0.29873222 1.0286415 -0.013448633 -0.1692349 0.15262125

fc3.bias f4 [4]
00000000: f03b d3bd a336 3ebe 9658 48be a7ed e6bd
-0.103141665 -0.1857553 -0.19565043 -0.11275797
