models/model_run_5.pth (torch, 92165 bytes, 6 tensors)

fc1.weight f4 [200, 8]
000000 5f f6 1f bf c3 9e 54 be 65 2a cb 3d 63 a5 fe bc
       -0.6248531 -0.20763688 0.099201955 -0.031084722
000010 06 b5 63 3f 77 d6 36 be 57 d2 12 bf ba e0 2e be
       0.88948095 -0.1785525 -0.57352203 -0.17077914
000020 33 47 f1 3e 6a 0f 13 bf 41 f3 55 3f fa a4 80 be
       0.47124633 -0.57445395 0.835743 -0.25125867
000030 85 da 03 3f 5e 11 b8 bc ee ce 03 bc e8 17 d8 3e
       0.5150531 -0.022469219 -0.008044941 0.4220574
000040 71 72 9a 3e 0a 2a b0 3e 6d 4e d4 3d b2 46 79 3e
       0.30165437 0.34407073 0.10366521 0.24343374
000050 35 6b 84 bf c7 b6 11 3f 08 9e 06 3f e2 4d 31 bd
       -1.0345217 0.5691952 0.52584887 -0.043287165
000060 7c 9c 3c be 97 9d 78 be 44 17 e9 be 15 3a 4e bf
       -0.18419069 -0.24278866 -0.45525563 -0.80557376
000070 8e 26 c9 3d 9a f9 88 3e 15 82 e9 3e 9a e8 0e 3e
       0.09821807 0.2675293 0.45607057 0.13955918
000080 75 bc c3 bd 2c f1 0b be fd 44 b9 3e 72 bd 14 be
       -0.0955743 -0.13666219 0.36185446 -0.14525393
000090 7e 81 8f 3e 00 a5 6c 3f 05 74 15 bf 34 12 2e be
       0.28028482 0.9243927 -0.58380157 -0.16999131
0000a0 4a 34 3c be 99 1b bb bb e6 c3 1f 3e 24 be bb 3d
       -0.18379322 -0.005710077 0.15602073 0.09167126
0000b0 04 9f 22 3e d1 23 39 3f 50 86 ab 3c 4b 61 b2 3e
       0.15880972 0.72320276 0.020938069 0.34839854
0000c0 13 0e a5 bc 36 c7 a5 3c 1e 1b 09 3f ad 53 c9 bc
       -0.020148313 0.020236593 0.53557 -0.024576033
0000d0 54 3d 54 bf bb 22 85 3e b1 61 09 3f da fa 09 3f
       -0.8290608 0.2600306 0.5366469 0.53898394
0000e0 74 22 36 3e 95 58 39 3e a7 c3 a0 be 3f d2 a3 3e
       0.1778658 0.18100198 -0.3139927 0.31996343
0000f0 d7 33 2b 3f c1 33 0f 3f 17 6b 4e 3f 3a 77 0e bf
       0.66875976 0.55938345 0.80632156 -0.55650675
000100 24 29 e1 be 38 93 23 be a3 37 9f be b2 ac 35 bf
       -0.439767 -0.15974128 -0.31097135 -0.7096664
000110 b9 2f ea be c7 3f 34 3f c5 01 14 3f 79 6c 01 3d
       -0.45739534 0.70409817 0.578152 0.03159759
000120 38 46 b3 3e 90 03 1f be c9 8e 19 3e ac 10 f2 bd
       0.3501451 -0.15528703 0.14995874 -0.11819586
000130 42 19 0e 3f 0d 23 f1 3e 37 32 29 3e 79 c1 48 3e
       0.5550729 0.47097054 0.16523062 0.19605054
000140 a9 4b ec bd 3b 8c 0a 3f 58 7c 8a 3e 3e 27 ee 3e
       -0.115378685 0.54120225 0.27047992 0.46514314
000150 9b b7 3f bf d1 e3 81 3e 85 74 ac 3e 3d 7e 22 3f
       -0.74889535 0.25369123 0.33682647 0.63473874
000160 19 ba 97 3d 12 5f 34 be 25 0e 84 be 20 e6 3d 3d
       0.07408542 -0.17614391 -0.2579204 0.046362042
000170 bc e1 7f 3e 21 b2 cd 3e 08 25 b8 3e 95 6f b5 be
       0.24988455 0.40174964 0.35965753 -0.35436693
000180 e6 34 f6 be 7b 20 a6 be dd d0 7c 3e 78 af ae be
       -0.48087233 -0.32446656 0.2468905 -0.34118247
000190 32 07 de bf d9 84 3a bf 53 14 2d bd 8f 39 a7 be
       -1.7345946 -0.7285896 -0.04225571 -0.326611
0001a0 c8 39 99 3e 36 00 f5 bd 02 00 7d 3e 8e d4 4d be
       0.29926896 -0.11962931 0.24707034 -0.20100614
0001b0 38 c9 b6 3e 21 20 2d 3f fb 69 b4 3e f2 b7 34 3e
       0.35700393 0.6762715 0.35237107 0.17648295
0001c0 e8 f7 33 be b6 a5 01 3c 58 a1 14 bf 91 cb 1c 3e
       -0.17575037 0.007913044 -0.5805869 0.1531203
0001d0 71 42 90 3f 17 5b 14 3e bb 73 77 bf 99 40 b7 bf
       1.1270276 0.14487873 -0.96660966 -1.4316589
0001e0 a8 88 cd bd 36 4d 1c 3e c8 3f f1 3e 41 d7 f0 bd
       -0.10035831 0.15263829 0.47118974 -0.117598064
0001f0 30 46 96 3e d6 e5 18 3f c8 ea a4 be c8 01 3a 3f
       0.29350424 0.597257 -0.32210374 0.7265897
000200 6f 8b a8 3d 96 03 e0 bd af 0e 3a 3d f9 a9 02 be
       0.0822972 -0.10938184 0.04542416 -0.12760152
000210 bf 4e 41 bd 72 e8 02 3f 6e da 06 3f 23 e9 da bd
       -0.04719424 0.51135933 0.5267705 -0.106889986
000220 f2 52 7d 3e ad e1 a6 be 2b 1e e5 3e 6c 19 8d be
       0.24738672 -0.32594052 0.4474958 -0.27558458
000230 cb b7 53 bf 48 6c c4 be 9c 5d e8 3e 21 f1 00 3f
       -0.8270232 -0.38363862 0.45383918 0.50367934
000240 7f cd 36 3e 68 3a 42 3f d1 0c 8b 3e b9 14 11 3e
       0.17851828 0.7587037 0.27158216 0.14168061
000250 97 79 35 bf b9 6f 40 be 77 b0 ba bf 53 d1 fa 3e
       -0.70888656 -0.18792619 -1.4585103 0.48987827
000260 69 f7 4a be a2 3d 13 be ec 49 b9 be c7 18 df be
       -0.19820942 -0.1437898 -0.3618921 -0.4357359
000270 51 93 0a 3f f9 52 79 3f d9 1c 05 3f 43 36 96 be
       0.54131037 0.9739223 0.51997143 -0.29338273
000280 fa e7 ef bd 53 50 82 be 18 05 95 be 01 5e 96 be
       -0.11714168 -0.25451908 -0.2910545 -0.29368594
000290 f8 e8 15 3f 05 12 8e 3e 0e 89 0c bd cf 02 9e 3e
       0.5855861 0.27748123 -0.034310393 0.30861518
0002a0 25 1c 52 be 0d 85 27 be b6 e4 09 be 76 4a 93 be
       -0.20518549 -0.16359349 -0.13466153 -0.28767747
0002b0 67 7c 33 3f 10 71 13 3d dd 8b 21 be 1a 3c 47 3e
       0.701117 0.035996497 -0.1577601 0.1945652
0002c0 f5 86 72 3d 47 78 ce be 2a 0f d1 be de 10 85 be
       0.059210736 -0.4032614 -0.40831882 -0.2598943
0002d0 d9 f8 b4 3e 45 cc 2b 3e fa 55 9d 3e 77 2b 68 3e
       0.35346106 0.16777141 0.30729657 0.2267283
0002e0 c4 82 11 3e 91 79 79 3f 6a 9b 91 3e 53 3d 36 3f
       0.1421004 0.9745112 0.28438884 0.71187323
0002f0 f1 c4 0b bc f6 f5 a6 be b1 40 93 3e f0 a8 85 bf
       -0.008530841 -0.32609528 0.28760293 -1.0442181
000300 3d f5 b2 bd 49 05 d0 3e bd b9 a1 bd 12 f6 e6 3c
       -0.08738182 0.40629032 -0.07896755 0.028193507
000310 96 7e b8 3e 5e 40 97 3e 67 54 3e 3f 65 0f e7 3e
       0.36034077 0.29541296 0.7434754 0.45128933
000320 2c ce 2e 3e 61 34 1c bf f9 66 fc 3d 50 85 39 bf
       0.17070836 -0.61017424 0.12324328 -0.72469044
000330 a7 e6 0a bf cb 1d 8a bf 7b ed a5 3e 1a 13 b1 bd
       -0.542582 -1.0790342 0.32407746 -0.086462215
000340 cd f7 30 be 3b 22 4d be ea c8 37 be 3c 16 26 bf
       -0.17282028 -0.20032589 -0.17947736 -0.64877677
000350 c1 19 05 3f 66 4b 3a 3f 7c 1e 32 3d b4 9c ca be
       0.5199242 0.727713 0.043486103 -0.3957268
000360 6a 24 7e bd fb b2 e1 3e bf ed fb 3e ed 1f d1 3e
       -0.062046446 0.44081864 0.49204823 0.4084467
000370 e7 42 23 bf 14 63 d6 be 14 0c 11 bf 6c 55 8d be
       -0.6377396 -0.41872466 -0.56659055 -0.27604234
000380 63 89 28 3f c5 28 09 3f 9d 74 f1 3e 8a fa 95 bf
       0.65834635 0.53577834 0.4715928 -1.1717083
000390 84 cb 00 3f 58 ec 56 3e 71 3f 80 bd 09 8e f1 be
       0.5031054 0.20988595 -0.062621005 -0.47178677
0003a0 9b db 34 bf d3 01 88 be 35 10 14 bf c4 d2 1e bf
       -0.7064759 -0.26563892 -0.5783723 -0.6204035
0003b0 81 fc d0 be 79 3e 23 3e 43 85 43 3d 40 81 e6 3e
       -0.40817645 0.159418 0.04773451 0.45020485
0003c0 0d 9d c0 3d dc 9d cf 3e a7 92 8d be f7 3d 82 3e
       0.09404955 0.40550125 -0.2765095 0.254379
0003d0 59 d7 d0 3e b5 8d 32 3f 60 fe 5e 3f f9 57 75 be
       0.40789297 0.6974748 0.87106895 -0.2395934
0003e0 c3 18 6b bf c3 c5 b5 be 24 cf 37 bf 97 b1 a9 39
       -0.9183466 -0.35502443 -0.71800447 0.00032366507
0003f0 f0 ec b4 be f9 aa 2b be 98 68 01 3f c9 f1 e3 3d
       -0.3533702 -0.1676444 0.5055022 0.11130101

fc1.bias f4 [200]
000000 b4 78 34 bd a7 95 80 be 8c 83 74 be 11 36 81 be
       -0.044060424 -0.25114176 -0.23878306 -0.25236562
000010 ae d9 a5 3e 69 7c 41 3e 4e 78 74 3d 20 23 a0 3e
       0.3239264 0.18895115 0.059685044 0.31276798
000020 bd 16 1d bf 62 54 0c bf 7e 61 be 3d f8 02 73 3e
       -0.6136282 -0.5481626 0.09295939 0.23731601
000030 a5 f8 91 3e 1a 64 6e 3e 81 6d b4 be 55 1a a7 3e
       0.28510013 0.23280373 -0.35239795 0.32637277
000040 fd ed 4b 3f cb ff 67 be a2 1b 81 3e f2 07 8a be
       0.79660016 -0.22656171 0.25216395 -0.26959187
000050 50 de f7 3e 63 38 d4 3e 70 25 a8 bd c6 db 46 3e
       0.48411798 0.4144927 -0.08210266 0.19419774
000060 e5 2b a8 3d 62 e8 09 3f 31 21 a5 be e1 e9 4b 3d
       0.08211497 0.53870213 -0.32251886 0.04978359
000070 a1 f3 25 3e 66 49 7f be c4 44 bf bb 61 1e 8f be
       0.16206218 -0.24930343 -0.005837055 -0.27952865
000080 6d 86 81 3e b7 51 d0 3e 6d ed 00 3f db b6 0c 3e
       0.2529787 0.40687343 0.50362283 0.13741629
000090 cf 15 01 3f 64 17 0a be b0 29 0e be 12 a2 b4 3e
       0.504239 -0.13485485 -0.1388309 0.352799
0000a0 5c c9 70 3f d7 01 0c 3f 0f 08 33 3e de 56 d9 3e
       0.9405725 0.5469031 0.17483543 0.42449087
0000b0 4b e1 27 bf 21 73 7c be d4 c9 88 3d 54 f0 05 bf
       -0.65578145 -0.24653293 0.06679121 -0.52319837
0000c0 0e 01 4d be 72 9f eb 3e 6f 85 67 be eb 9c 98 3e
       -0.20019934 0.46020085 -0.22609495 0.2980722
0000d0 dd ab 23 bc 83 6a 18 3f 64 c7 b9 be 5a b8 d5 be
       -0.009989706 0.59537524 -0.36284935 -0.41742212
0000e0 89 4c 72 be 26 a1 08 be ba 19 0b 3e 1a a2 84 3c
       -0.23662008 -0.13342723 0.13584033 0.016190577
0000f0 19 34 6a be d9 9b 87 be 45 b8 c5 bd d2 64 fa 3d
       -0.22871436 -0.2648609 -0.09654287 0.12226261
000100 91 a6 1c 3f 20 6d c5 3f 41 35 3a bf 8a c3 20 be
       0.6119166 1.5423927 -0.7273751 -0.15699592
000110 4c 4b a7 3e f3 03 20 3f c9 e4 88 bd 87 ed 8a 3e
       0.32674634 0.62506026 -0.06684262 0.27134344
000120 8b 68 b7 bd 83 e3 1c 3e 92 6e 16 3f b5 fd 00 3e
       -0.08955487 0.15321164 0.58762467 0.12596782
000130 03 ce 3f 3f d3 10 90 be 15 25 ff 3d a7 1a 55 3e
       0.74923724 -0.28137836 0.12458245 0.20810948
000140 90 45 5e bd 64 6c 84 be 94 57 b1 3e f8 85 09 be
       -0.05426556 -0.25863945 0.3463713 -0.13430011
000150 45 67 25 be 30 b4 08 3f ae 3e bb 3b dd fc 78 3e
       -0.16152675 0.53399944 0.005714259 0.2431521
000160 f4 d8 e7 3c 67 18 a7 3e d9 a3 07 3e f7 d3 fc 3e
       0.028301693 0.32635805 0.13246097 0.49380466
000170 74 24 c1 be cf 95 e6 3e 5a 8b d6 3e ee 5f 11 3f
       -0.37723124 0.4503617 0.41903192 0.56787
000180 a2 a1 ef 3e 76 11 91 bc a0 0c 5f 3e fe ff 43 3d
       0.46803004 -0.017708521 0.2178216 0.047851555
000190 ea cd 17 3e 2c d8 c5 3c 8a 9e ee bd e0 42 9a 3e
       0.14824644 0.02415093 -0.11651333 0.30129147
0001a0 8b 12 7e be 50 d6 91 bd a9 15 2a 3f d9 0a 3e 3f
       -0.24811761 -0.07120955 0.664393 0.742353
0001b0 a6 86 81 3f 07 1f ab 3e ce cb 94 3f 1f 99 90 3f
       1.0119216 0.3342211 1.1624696 1.1296729
0001c0 04 45 6a 3e 1e 7e 93 3e 80 f1 37 3f 49 64 56 bf
       0.2287789 0.28807157 0.71852875 -0.83746773
0001d0 d1 7a 88 3e 53 2c 92 3e 71 f2 c6 3e b6 33 63 3e
       0.266562 0.28549442 0.38856843 0.22187695
0001e0 6d d2 6e 3f 58 f3 da 3d 17 98 3d bd 4c 6d 42 be
       0.93289834 0.106909454 -0.046287622 -0.18987006
0001f0 bc e0 e0 3e 5b df e4 be 48 b2 fd bd cb 0e b6 3e
       0.4392146 -0.44701657 -0.1238752 0.3555816
000200 1b 58 a6 bd c7 72 c1 3c 80 48 d6 be ff 0d 48 3d
       -0.081222735 0.0236143 -0.41852188 0.048841473
000210 c3 84 e6 3e 91 67 fc 3d 18 d1 00 3f 79 46 81 be
       0.45023164 0.12324441 0.5031905 -0.2524908
000220 56 7a c2 bd d6 db 55 3e 41 e4 7e 3e 4a 23 72 3e
       -0.0949599 0.20884642 0.2489176 0.23646274
000230 32 eb 8c be f5 4f 82 be 34 30 31 bc 8e f5 a8 3e
       -0.2752319 -0.25451627 -0.010814715 0.32999843
000240 5f 95 69 3f b3 ca 17 3e f5 75 01 3e d3 3f 9e 3e
       0.9124355 0.14823417 0.12642653 0.3090807
000250 43 50 9b 3e 0f 65 61 3e c1 2c 89 3e 13 50 69 be
       0.30334672 0.22011207 0.26791957 -0.22784452
000260 16 77 6d 3e 54 1f 83 be 04 bf fe 3e be 85 1b bf
       0.23189959 -0.2560984 0.49755108 -0.6075095
000270 bb ce 22 3f 34 be ed 3e 9d 62 85 be 49 29 c6 3e
       0.63596696 0.46434176 -0.26051798 0.38703373
000280 af 8d ae 3e 9a 78 7b 3f 5a ed 89 be cc 29 cf 3f
       0.3409247 0.982309 -0.26938897 1.618463
000290 2f 23 f3 3e ad 6c 6b 3f a6 36 80 3e 0f 5a 3c 3f
       0.4748778 0.919627 0.25041693 0.7357492
0002a0 11 2d 47 3e 94 74 d5 3e 43 39 34 be df 7f 5b be
       0.19450785 0.41690505 -0.17599969 -0.21435498
0002b0 61 3d 70 3f 57 85 e8 3e 80 46 bb 3e c0 fd d0 3e
       0.93843657 0.4541423 0.36577225 0.40818596
0002c0 c9 db 9f bb ac b2 31 bf 8e e7 f7 3e e4 0e c5 be
       -0.0048784954 -0.69413257 0.4841885 -0.38487923
0002d0 6d ef 4d bd d4 31 a3 3d c2 9a 3a 3f e0 d2 31 be
       -0.050277162 0.07968488 0.7289239 -0.17365599
0002e0 1a d0 d2 be 96 7f 18 bc 0e 3a 34 be d8 54 7a 3f
       -0.41174394 -0.009307763 -0.17600271 0.9778571
0002f0 31 45 eb 3e 29 94 be 3e a9 32 40 be b4 a4 29 3e
       0.45951226 0.37222412 -0.18769325 0.16566736
000300 f5 09 97 be 25 e0 7a bc a8 6b 8f 3f 24 65 76 3e
       -0.29499784 -0.015312229 1.1204729 0.2406202
000310 a5 c6 94 3f 36 5c 73 be 65 db 2d 3f ac 10 8e 3f
       1.1623122 -0.23765644 0.67912894 1.1098838

fc2.weight f4 [100, 200]
000000 1f 29 01 bf 68 de 03 bf 51 f3 e3 bd 86 55 9c 3e
       -0.5045337 -0.5151124 -0.11130393 0.30534
000010 7f 1c 85 bb cf 4d fc 3c 3e 7c 3f bf 67 c9 be ba
       -0.004062235 0.03079882 -0.74798954 -0.0014555872
000020 27 e6 56 3f 57 b0 6a be 7f 82 8b bd e7 46 31 3e
       0.83944935 -0.22918831 -0.068119995 0.17312203
000030 0d 77 25 3f 2f f2 10 3e 3c a9 ae 3f 5f 24 b5 3e
       0.6463478 0.14154886 1.3645396 0.3537931
000040 88 05 9b 3e 3e 8d ba bf 16 a7 2a 3f 92 3f 8e 3d
       0.30277658 -1.4574354 0.666612 0.06945719
000050 83 85 11 3e 55 6d 5f 3e c0 35 1a 3e 6e 83 07 3e
       0.14211087 0.2181905 0.15059566 0.1323373
000060 52 0f 19 3f 10 37 2b 3f cd 5e 17 be 9d 32 d0 bd
       0.59789 0.66880894 -0.14782257 -0.10165904
000070 e0 fd e1 3e 63 5d 6f 3c 52 cd eb 3d a6 f6 da be
       0.44139004 0.0146096675 0.11513771 -0.42766303
000080 75 ee ef 3d a0 4f da 3e 9d 58 9a 3c 3c 3b 70 bf
       0.11715404 0.42638874 0.018841082 -0.93840384
000090 7e 36 f6 3e 2a 06 df 3b 63 ec 37 3d a1 89 a6 bf
       0.4808845 0.0068061547 0.04490317 -1.3010751
0000a0 3f e8 19 3f 80 47 c5 3d e1 fe c5 be 6b 8c 2c 3e
       0.60120004 0.09632778 -0.3867102 0.1685044
0000b0 d1 d9 d5 bf 18 31 82 3d 52 1a 1c 3f 90 d6 c9 bd
       -1.6707097 0.0635702 0.6097766 -0.09855378
0000c0 f7 89 a4 be 75 c8 4d 3f f6 3a a9 be bc 8c a9 3d
       -0.3213651 0.80384 -0.33052796 0.08278796
0000d0 a8 0d 91 3c 94 6d 28 3f 01 59 a6 bc d2 de 98 bd
       0.017706707 0.657922 -0.020306112 -0.074643746
0000e0 4c de 34 bf 2f 83 80 be da c5 04 3e c0 21 33 3f
       -0.706517 -0.25100085 0.129661 0.69973373
0000f0 43 d4 56 bd d9 6f bc 3e 26 8e 0b 3f ae a0 94 bd
       -0.052448522 0.36804083 0.54513776 -0.0725721
000100 10 ab 8c 3e 6e 35 6e 3e c2 31 60 bf 5d 2f ab bf
       0.2747426 0.2326257 -0.87575924 -1.3373829
000110 04 1a b6 3e e8 3f 95 3e 39 6c 18 3f 82 02 0a c0
       0.35566723 0.2915032 0.59540135 -2.156403
000120 1e 15 b6 bf 52 65 be 3e fc 80 de bd 75 80 71 be
       -1.4225194 0.37186676 -0.108644456 -0.23584159
000130 c6 2b 18 3f 63 cf ee 3d 9b 50 b6 3e ef db 7e 3e
       0.5944179 0.116606496 0.35608372 0.24888586
000140 94 bb 64 3d 2c e6 a7 bc 66 76 35 bf e7 73 2d 3f
       0.05584295 -0.020495497 -0.70883787 0.6775498
000150 22 0e 09 be 6e 6e 84 3e ba ec 4a be 65 dd 0b be
       -0.13384297 0.258655 -0.19816867 -0.13658674
000160 43 16 e2 bf a4 62 28 3e 9e ab ab 3f e7 6d ce bd
       -1.7663044 0.16443878 1.3411748 -0.10079556
000170 5a 02 29 bf 8c 98 6f bf 9d 5d 22 bf da ac 61 bf
       -0.66019213 -0.93592143 -0.6342409 -0.88154376
000180 03 7a 73 bf 33 e1 f1 3e 5a 04 62 3f 8f af eb 3e
       -0.9510805 0.47242126 0.8828789 0.46032378
000190 9c ec 84 be 16 fc d2 3e 05 ed f8 bd 9d 1e 29 3f
       -0.2596177 0.4120795 -0.12154583 0.6606234
0001a0 74 03 9e 3d d7 87 e4 bf 4a eb ed be a3 f3 1e 3d
       0.077155024 -1.7853955 -0.46468574 0.03880657
0001b0 be 58 88 3e a2 e6 da 3e 27 9c 59 3e f1 83 43 3e
       0.26630205 0.42754084 0.21250974 0.190933
0001c0 60 9a ac be 9b bf 45 be b8 4e d7 be 56 04 93 3f
       -0.3371153 -0.19311373 -0.42052245 1.1485698
0001d0 b5 1e 45 bd dd 01 b7 bf 48 30 20 3e ed 6e a7 3d
       -0.048124988 -1.4297444 0.15643418 0.08175454
0001e0 ac 3c 28 3f 91 9d e0 be 32 2a b1 bd e5 8c 4f 3f
       0.6571758 -0.43870214 -0.08650626 0.81074363
0001f0 71 39 38 bf 33 ee 14 be 41 96 7f bd 1f b1 bf 3e
       -0.7196265 -0.14543991 -0.062399153 0.3743982
000200 3b 1b b4 be f5 04 b4 3e b5 f6 8e be 49 a0 53 3f
       -0.35177025 0.35160032 -0.27922598 0.8266645
000210 70 b1 0e 3e 1d f9 3d be 07 35 32 be 21 ba a8 bf
       0.13934875 -0.1855206 -0.17403041 -1.3181802
000220 1f 3d f1 3c 0f b0 dd be 2b 20 5f 3f 7a 1f 8a 3d
       0.02944809 -0.43298385 0.8715846 0.06744285
000230 01 60 13 3f 54 3a 71 3d bb a8 04 3f e2 97 55 3f
       0.57568365 0.058893517 0.5181996 0.8343488
000240 a3 2e 22 3e 0b e9 15 40 84 3b f7 3e 16 0a 34 bd
       0.15838103 2.3423488 0.48287594 -0.04395493
000250 40 e3 6a 3e b5 95 a8 be 39 3d 27 3e fc 5c 89 3b
       0.22938251 -0.32926717 0.16331948 0.004191993
000260 98 d7 91 bf 1c 50 2d 3f e9 eb 0f 3f 9f fc 71 bf
       -1.1393919 0.6770036 0.56219345 -0.94526094
000270 6c a3 5e bc 38 4a 31 be 68 63 54 3d 81 af c4 bf
       -0.0135887675 -0.17313468 0.051852614 -1.536606
000280 bc d7 9c bf 4f 7a 8c be f7 f8 4c c0 dc 6b 1a 3e
       -1.2253337 -0.27437064 -3.2026956 0.15080208
000290 8f 3b b5 3e d8 6c ea 3e e7 ca db bb a6 c0 0f 3c
       0.35397002 0.45786166 -0.0067075375 0.008773958
0002a0 bf 0b 6e 3f 17 e2 57 3e f7 71 0c 3f 4f 19 d1 bf
       0.92986673 0.2108234 0.54861397 -1.6335849
0002b0 83 a2 35 3d 7d 24 32 bf 6f ba ae 3e 46 da 5c 3d
       0.044344436 -0.69586927 0.34126613 0.0539191
0002c0 f5 da 00 40 57 e0 c1 3f c5 1b e9 be 32 6f 12 bf
       2.013364 1.5146588 -0.45529 -0.5720092
0002d0 96 40 13 3e 6a 0e c8 3e dc 87 b8 3d 9a d2 c0 3e
       0.14380106 0.39073497 0.09010288 0.37660676
0002e0 63 06 0f 3f d6 62 d5 3e 88 12 88 be 46 ec 29 bd
       0.5586912 0.41676968 -0.26576638 -0.041485094
0002f0 83 2a 0c 3e 26 3e 89 be b9 e0 e3 bc e7 de 94 be
       0.13688092 -0.26805228 -0.027817117 -0.2907631
000300 dd 09 f1 bf 7c 2e d1 3f a2 ee fe bd e0 a0 a4 3e
       -1.8831135 1.6342311 -0.12447859 0.32153988
000310 56 55 08 3e 0a 7b f0 3d 1f bf c4 bc 77 00 13 3b
       0.13313803 0.11742218 -0.024016915 0.0022430697
000320 91 88 ec 3e 59 a2 7b 3f 02 91 cc 3e 19 89 e5 3e
       0.46197942 0.982946 0.39954382 0.4483116
000330 b5 f9 05 3e d4 3f aa 3d b0 87 67 3e 91 20 37 3e
       0.13083537 0.083129555 0.22610354 0.17883517
000340 47 2d c4 bc 02 d4 0c 3e b9 00 25 3c 54 c9 36 3e
       -0.023947371 0.1375275 0.010070973 0.17850238
000350 82 6f 6e be 4a 0b 21 3e f9 99 29 bf e2 22 c6 bd
       -0.23284724 0.15726963 -0.6625057 -0.09674622
000360 d5 21 f1 bc 62 62 d5 3e b3 3c c9 bf 78 e9 9c 3e
       -0.029435078 0.41676623 -1.5721649 0.30646873
000370 dc 43 e8 3d 8b bc 8c 3e 47 e9 35 3e 09 74 08 3f
       0.11341068 0.27487597 0.1776477 0.53302056
000380 85 a3 cd be 2c 50 f1 3c af 45 ef 3e 55 ca 8e be
       -0.40163818 0.029457174 0.46732852 -0.27888742
000390 f0 8f 4c 3f 4f dd 0f 3f 86 b6 9c 3e f2 9b c6 3e
       0.7990713 0.56197065 0.30608004 0.38790852
0003a0 75 32 59 3e 0d bd 50 3e bc d2 28 bd d9 f3 bd bc
       0.21210654 0.20384617 -0.041216597 -0.023187565
0003b0 0c 1c d8 be 9f ad f5 3e 14 8f ba 3e d2 5b 52 3e
       -0.42208898 0.47984025 0.36437285 0.20542839
0003c0 80 76 8e bf 37 67 08 bf 37 cb 8d 3e ce fa 2b 3e
       -1.1129913 -0.53282493 0.27694103 0.16794893
0003d0 4e 12 80 3e b4 89 d5 3e a4 b3 4e 3e 96 54 d4 3e
       0.25013965 0.41706622 0.20185715 0.41470784
0003e0 92 20 b9 3e 6a 2e c2 bf 84 9a c8 3e a8 e8 e2 3d
       0.36157662 -1.5170414 0.39180386 0.11079532
0003f0 d7 07 05 3f 30 4c 74 be bd 6c 16 3f 27 51 ee 3e
       0.5196509 -0.23857188 0.5875967 0.4654629

fc2.bias f4 [100]
000000 a1 f0 0e 3e f2 4c 0b be 3e 01 19 be 16 7f 50 3e
       0.1395898 -0.13603571 -0.1494188 0.2036098
000010 3a f0 0c 3d 3d 93 1a bd 76 80 4f bc bb bd 52 3e
       0.034408785 -0.037738074 -0.012664905 0.20580189
000020 cd 6a ed bd 50 0a 16 3e 56 27 e6 be a9 9c 92 3d
       -0.11592636 0.14652371 -0.44951886 0.07158787
000030 2c e1 93 bd 6d 83 5a bd 09 1b 22 3d c2 c5 01 3e
       -0.072206825 -0.053347994 0.039576564 0.12673095
000040 08 b5 20 3c e9 c6 39 3d 8b 95 d3 3d 7f 77 0d 3e
       0.009808786 0.04535571 0.103312574 0.13815115
000050 d4 8e 71 3d 76 29 ae bd 21 83 94 3d 76 32 cb bc
       0.058974102 -0.08504002 0.07251573 -0.024804335
000060 d6 3c 0e 3e ac 9f 85 bd 9c 97 0d 3e 12 b5 4c 3e
       0.13890395 -0.065245956 0.13827366 0.19990948
000070 03 2b 30 3e 9e e6 fc 3c 0a ff aa 3d 44 cd 4a bd
       0.17203908 0.030871686 0.08349426 -0.049512163
000080 f1 39 f4 3d 4c 6b 11 3f 68 a9 76 3e 77 1b 26 3e
       0.11925114 0.5680435 0.24088061 0.16221415
000090 b2 83 16 3e dc 91 a2 3d 1e c7 65 3e c2 ee 04 3c
       0.14698675 0.07937977 0.22439238 0.008113565
0000a0 80 25 ff 3a 6b 42 56 3d 50 aa 11 3e 52 4e 83 3c
       0.0019466132 0.052309435 0.14225125 0.016028557
0000b0 a1 f4 e1 3d df 52 1f 3e c1 5a 62 3e 54 ba 97 3c
       0.110329874 0.15558957 0.22104932 0.018521465
0000c0 0b 38 00 3f c3 65 df 3e 73 db 05 3e 71 83 71 3c
       0.50085515 0.43632326 0.13071994 0.014740811
0000d0 fb fd 48 3e 4b cf 09 bc 90 e1 b2 bb 56 c6 43 3e
       0.19628136 -0.008411239 -0.005459018 0.19118628
0000e0 39 2e a1 3d 3d 7e f3 3e a8 33 2c bc 90 77 b3 3d
       0.078701444 0.4755725 -0.010510363 0.08763039
0000f0 88 ea 01 bd 6c fe 4e bd e9 5d aa bd 73 a8 b1 bc
       -0.031717807 -0.050535604 -0.08318693 -0.021686768
000100 9f 8a 43 3e 22 3c 51 3e 3f 31 cb 3c f3 cc bd 3d
       0.19095849 0.20433095 0.024803756 0.092676066
000110 c6 2e a8 3e 63 c8 0e 3d 36 b2 3c bc 67 da 21 3d
       0.32848185 0.034859072 -0.011517098 0.039514925
000120 31 1c b0 3c 2c 6e 0a 3e 83 06 73 3e 9c f5 b6 3d
       0.021497818 0.1351859 0.23732953 0.08933565
000130 6c eb 1e 3e 8f dd 18 3e 19 3f a4 3e 25 73 52 3f
       0.15519494 0.14928268 0.3207939 0.82206947
000140 e6 bb eb bc e6 97 f7 3d 4e b0 7b 3d 17 15 09 3e
       -0.02877612 0.12089519 0.061447434 0.13386951
000150 b7 d6 a4 3d 31 71 15 bf c3 9e 19 3e 73 c8 70 3d
       0.08048766 -0.5837584 0.15001969 0.058784913
000160 d5 b6 e1 bd 8e 54 7e 3d 79 3d 27 3e 8e 20 fe bc
       -0.110212006 0.062092356 0.16332044 -0.031021383
000170 7f 25 0f 3e 08 cf 28 3e af df 8b 3f 51 47 8e 3c
       0.13979147 0.16485226 1.0927638 0.01736799
000180 bf 67 99 3d a2 c9 21 3e 41 db fd 3d d5 bb 40 bd
       0.07490491 0.15799573 0.12395335 -0.04705413

fc3.weight f4 [4, 100]
000000 9c 16 82 3f d0 c7 f9 be 60 20 2f bf 03 06 01 3f
       1.016315 -0.48785257 -0.68408775 0.503998
000010 a0 c4 83 bd ec 5e a6 bd 85 6c 0a bf f2 c1 dc be
       -0.064339876 -0.08123574 -0.5407184 -0.4311672
000020 c3 30 1b 3f ef 58 c5 be 18 de 44 3f 41 a2 fb be
       0.6062128 -0.38544413 0.7690139 -0.49147227
000030 24 da 20 3f 96 8e aa bc e8 60 cb bc f1 25 a5 be
       0.62832856 -0.020819943 -0.024826482 -0.3225551
000040 c4 11 5e 3f 06 1c 0c bf 53 55 0e bf 94 7e 04 bf
       0.8674586 -0.5473026 -0.55598944 -0.5175564
000050 0f 39 f1 be 9d 70 55 3c 54 9c d2 be 44 f3 68 bd
       -0.47113845 0.013027337 -0.41134894 -0.05687262
000060 82 49 06 bf 23 64 9a bd 27 19 22 bf d0 04 f4 be
       -0.52455914 -0.07538631 -0.6331963 -0.47659922
000070 83 5c f1 be bb a2 18 3d 13 53 dd be b1 1b c2 3d
       -0.47140893 0.037264567 -0.43227443 0.09477938
000080 a4 ea e1 be 4c 51 68 3f e2 a6 21 bf 30 eb 91 be
       -0.4412433 0.9074905 -0.6314527 -0.28499746
000090 a3 db 00 bf 83 7a bd be a0 21 ee 3e d1 d6 0e bd
       -0.5033514 -0.37007532 0.4651003 -0.034872834
0000a0 a4 b5 e8 3c a6 62 ee be bb e2 7a be f9 ba 53 bf
       0.028406925 -0.46559638 -0.24500553 -0.8270717
0000b0 cf b8 ec be 48 81 b0 be 7b c5 db be 22 a3 0b bc
       -0.46234748 -0.34473634 -0.42924103 -0.008522781
0000c0 c0 16 63 3f 84 0d 8f 3f ce 1f af be 4d 28 7e be
       0.8870659 1.1176 -0.34203953 -0.24820061
0000d0 62 60 0b bf 2d b4 45 bd 5a e4 19 bf 64 e8 e8 be
       -0.54443944 -0.048267532 -0.6011406 -0.454898
0000e0 7c e7 bf be 04 d9 43 3f ed e9 1e bf e2 43 ec be
       -0.37481296 0.76503015 -0.6207569 -0.4614554
0000f0 16 b5 6d 3d f7 bc b7 3d 23 06 27 bf e5 1f a3 3b
       0.058034025 0.08971589 -0.6524374 0.0049781674
000100 7f c3 10 3e b2 ef ef be c1 7d 94 3b 0c 09 93 be
       0.14137076 -0.4686256 0.0045315926 -0.2871784
000110 0e c1 95 3f 24 35 7d 3d f5 1b 94 bd 84 65 8d bf
       1.1699541 0.061818257 -0.07231895 -1.1046605
000120 b3 00 86 3d 0f 7e 13 bf a3 61 b5 be 26 7c fd be
       0.06543102 -0.57614225 -0.35426053 -0.4950878
000130 0b e9 b9 3e 37 e5 8f be 93 4a 4c 3f 45 47 b6 3f
       0.3631061 -0.28104565 0.7980129 1.42405
000140 af 30 b1 3d 9e 7c 30 bf de 1f 3a 3c af 11 2b 3f
       0.08651864 -0.6894015 0.011360137 0.6682386
000150 8e 8d eb be 35 46 aa 3f 71 a4 d6 be 09 1b f9 be
       -0.46006435 1.3302675 -0.41922334 -0.4865344
000160 88 1a 21 be ec 0f 00 3f f1 c9 dc be 98 20 15 bf
       -0.15732777 0.50024295 -0.4312282 -0.5825286
000170 f4 a6 af be a7 98 c4 be 8b e9 c0 3f 85 5f 29 3e
       -0.34307063 -0.38397714 1.5071272 0.16540344
000180 32 f1 47 bf bb 08 ee be 1b 0a fb be f4 3b 4d 3d
       -0.7810241 -0.46491036 -0.49031147 0.050106004
000190 86 a5 86 3f 0e b9 3a be 74 11 66 be 78 5d ba 3e
       1.0519264 -0.18234655 -0.22467595 0.36399436
0001a0 49 a2 cf 3c e7 8b 82 b9 3e a6 98 bf 01 a4 e2 be
       0.025345938 -0.00024899768 -1.1925733 -0.4426575
0001b0 bf 0d 43 3f 4f 67 0c bf e4 81 8b 3f 6e c4 a0 be
       0.7619285 -0.54845136 1.0899014 -0.31399864
0001c0 18 ca 66 bf fc 63 6d 3d f4 29 f2 3c b7 6d c7 be
       -0.9015212 0.05795668 0.02956102 -0.38950893
0001d0 91 1d 00 3f 98 fd 6b bf c3 5b b7 be 50 b0 f5 be
       0.50045115 -0.9218383 -0.35812196 -0.47986078
0001e0 05 eb ed be 4f 14 90 3d ab db e2 be d4 7e fb 3c
       -0.46468368 0.070351236 -0.44308218 0.030700125
0001f0 76 8a f3 be 7c bb e0 3c 2a f3 1e bf 3d ef c5 be
       -0.47566575 0.02743315 -0.6208979 -0.38659087
000200 29 cd cf be 38 d4 85 3d ed 04 d5 be 98 91 93 bc
       -0.40586212 0.06534618 -0.4160532 -0.01801376
000210 84 de fe be 46 94 86 3f 41 0f c9 be 9a 1b a5 be
       -0.4977914 1.0514 -0.3926945 -0.3224762
000220 74 ce d2 be 08 5a 43 bf 89 8c 96 3e d8 f3 dd bc
       -0.41173136 -0.7630925 0.29404095 -0.027093813
000230 65 12 b9 bd 08 d0 41 bf e0 6f 88 be 25 c6 95 be
       -0.090367116 -0.75708055 -0.26647854 -0.29252735
000240 bc 41 08 bf 52 e0 8d bf 30 9c e0 be 15 5c 7b 3d
       -0.532253 -1.1084082 -0.43869162 0.061367113
000250 7b de 18 3f ab 86 be 3f 65 30 ea be bc f1 27 3f
       0.5971448 1.4884847 -0.45740047 0.6560323
000260 06 f2 f8 be 2b 24 54 3d 3f 64 1e be 72 b0 d0 be
       -0.4862215 0.051792305 -0.15467928 -0.40759617
000270 90 17 f4 be b5 d8 5c 3f 62 94 19 bf e0 4a b8 be
       -0.47674227 0.8626817 -0.5999204 -0.35994625
000280 17 00 71 bd d9 4d 5a 3d 0d 63 d2 be c5 26 3e 3d
       -0.058837976 0.053296898 -0.41091195 0.046423692
000290 c8 42 36 3f da 75 ea be f4 99 f3 3c 80 fd f2 be
       0.7119565 -0.4579304 0.029736497 -0.4745903
0002a0 66 ec 55 3f 12 51 7b 3d 5d b8 70 3d 87 f2 d3 bf
       0.8356384 0.06135661 0.058769573 -1.6558388
0002b0 97 25 19 3d c0 12 09 bf b6 14 96 3f 76 a5 fb be
       0.037389364 -0.53544235 1.172507 -0.49149674
0002c0 38 65 aa 3e df 22 03 bf 76 34 a2 3f f5 0f ae 3f
       0.3328035 -0.51225084 1.267226 1.359862
0002d0 b5 2f 34 bd e4 91 2d bf 1c c5 bd 3d 45 7d b3 3e
       -0.04399081 -0.67800736 0.09266111 0.3505651
0002e0 54 3a ea be b2 5e 8f 3f 16 ee e3 be 7e 61 aa be
       -0.45747626 1.1200774 -0.44517583 -0.33277506
0002f0 2c 6e a6 be d7 83 5c 3e d8 53 f1 be 31 4b 2c bf
       -0.3250593 0.21534668 -0.4713428 -0.67302233
000300 d8 17 e5 be 03 3f f1 be c0 5d b5 3f 2c 06 8e bf
       -0.44744754 -0.47118387 1.4169235 -1.1095634
000310 fb 28 08 bf 01 0b c7 be 25 d3 fc be b5 0d ef bc
       -0.5318753 -0.38875583 -0.4937984 -0.02918134
000320 e9 a6 a2 3f b4 b3 62 bf 16 d5 47 bf be f6 15 3f
       1.2707187 -0.88555455 -0.7805952 0.58579624
000330 66 cc 86 3c 5a 8c d1 b9 d2 b1 d6 be 79 cc 98 be
       0.016454887 -0.00039968156 -0.4193254 -0.298435
000340 7f f2 bd be af 64 e1 be 46 8f 5e 3f a6 76 03 bf
       -0.37099072 -0.44022128 0.8693737 -0.5135292
000350 e1 9f 04 be b7 69 b7 bd f4 f0 e4 3c 2a b2 e3 be
       -0.12951614 -0.089557104 0.027946927 -0.44471866
000360 2d 9b 85 3f cb fc 1c bf ff fd 9c be 7c 1c 86 3c
       1.0437981 -0.6132323 -0.30662534 0.016371004
000370 4f 24 06 bf cb cb f0 bc 64 de e6 be b2 39 da 3b
       -0.5239915 -0.029394051 -0.45091546 0.00665971
000380 d5 c3 fa be f0 2f 28 3c 38 cc b7 be 83 2c cc be
       -0.48977533 0.010265335 -0.35897994 -0.3987771
000390 44 67 a2 be 6e 3d 15 3d 3b 4e e7 be 3d a9 89 bd
       -0.3171941 0.036435537 -0.45176873 -0.06721733
0003a0 bd 02 46 bf 12 2e 49 3f d5 fb 1a bf a3 dd cb be
       -0.7734793 0.7858592 -0.60540515 -0.39817533
0003b0 4a 14 02 bf e5 cb 71 bf 8e 48 6f 3f fe 7d 7a 3b
       -0.5081221 -0.94451743 0.93470085 0.003822207
0003c0 ce 8a 02 3d b3 2c a2 be 63 a3 4f bf 9e 23 64 bf
       0.031870656 -0.31674728 -0.81108683 -0.8911685
0003d0 09 d8 8f be dc f3 3b bf 34 88 2a be 66 3b 38 bc
       -0.2809451 -0.73418975 -0.1665352 -0.01124463
0003e0 c2 35 03 3f 7c 75 b1 3e 38 1b dd be eb ce 3c bf
       0.512539 0.34659946 -0.4318483 -0.7375323
0003f0 ce 6f 51 be 2f 34 8f 3d c3 5e 32 bf 03 f0 20 bf
       -0.20452806 0.06992375 -0.69675845 -0.6286623

fc3.bias f4 [4]
000000 54 ea 39 3e cf 92 b3 bb e5 e4 5c 3c 75 ce 3b bd
       0.18155795 -0.0054801474 0.013482307 -0.04585119
