models/model_run_10.pth (torch, 174161 bytes, 6 tensors)

fc1.weight f4 [200, 8]
000000 ce 1a ae 3e b7 3a 9b be 9f 6d 15 3f ae cc 64 be
       0.34004825 -0.30318233 0.58370394 -0.22343704
000010 34 56 76 bf 80 aa f7 be cf cd 09 3e aa 31 5c 3e
       -0.96225286 -0.4837227 0.13457416 0.2150332
000020 72 ee 6a be 04 fc 21 c0 9b a0 3f bd d3 3a 60 bf
       -0.22942522 -2.5310068 -0.046784025 -0.8758976
000030 8b d8 fd 3e 2f 0f 2a 3e 13 ca 3a 3e a5 c9 38 bd
       0.49579272 0.16607355 0.18241148 -0.04511418
000040 17 62 3b bf ce 4b de bd d7 2d 1e 3f 8f 4c 30 3e
       -0.7319655 -0.10854302 0.61788696 0.17216705
000050 00 bb b7 be 97 04 12 3f 02 a5 be 3e 50 6b 84 3e
       -0.35884857 0.57038254 0.37235266 0.25863123
000060 61 bb 45 3f 0e 29 49 3e e8 32 3c bf f4 6b a7 be
       0.7723904 0.19644567 -0.73515177 -0.3269955
000070 8a b1 9b 3c b1 e2 83 be e9 d3 9d bf 41 14 80 3c
       0.019005556 -0.2575889 -1.2330295 0.015634658
000080 4c 90 89 3f 8d 36 09 3e 09 96 c5 3e 8b 7e 82 bd
       1.0747161 0.13399716 0.3859103 -0.063717924
000090 48 95 32 be ed 62 8d bd 3b 59 92 3e a0 fe c8 3d
       -0.17439759 -0.06903634 0.28583702 0.09814191
0000a0 f1 e4 2b bf af d9 41 bf b1 5f bb bd c3 0c 72 be
       -0.6714621 -0.75722784 -0.09149111 -0.2363768
0000b0 58 c2 9c be 86 94 ba be 1b ac 4e be 14 07 75 3e
       -0.30617023 -0.3644144 -0.2018284 0.23928481
0000c0 11 33 66 3e f5 75 aa be 84 4e c5 be 1c ad 1e bf
       0.22480418 -0.3329312 -0.38536465 -0.61982894
0000d0 b2 93 dc be 35 60 cb 3e a4 03 0d bf f9 5d f1 be
       -0.43081433 0.39721838 -0.5508368 -0.47142008
0000e0 73 79 2e 3e 78 19 10 3e 9b e1 4a be a3 a0 ac bd
       0.17038517 0.14072216 -0.19812624 -0.084290765
0000f0 70 59 03 3f c0 23 0e 3f f3 fb 1e 3f d3 b4 57 bf
       0.51308346 0.555233 0.62103194 -0.8426029
000100 c9 1b 5f 3b 8d dc a6 be 5b 9b 31 be 09 38 26 bf
       0.003404366 -0.32590142 -0.1734442 -0.6492925
000110 09 1f a8 be cb ba c1 3e 42 c2 f1 be e5 3d e8 be
       -0.32836178 0.37837824 -0.4721852 -0.45359722
000120 62 76 4c 3e 94 eb 47 3e 19 d9 1c 3f 9e 5f 27 3e
       0.19967034 0.1952346 0.61268765 0.16345069
000130 ac 0c 7a bf 50 0b f4 3e fe 21 64 bc 52 6f 80 3e
       -0.97675586 0.4766488 -0.01392412 0.2508493
000140 8e 79 ff be 7e 7f 4c be e3 04 c4 3e 7f dc 03 3f
       -0.49897426 -0.1997051 0.38284978 0.51508325
000150 82 12 75 3e d4 72 6a 3f 0f 8a 05 3f cd 93 06 bf
       0.23932841 0.91581464 0.52163786 -0.52569276
000160 ca c4 58 be 1d d3 97 3e 8e 00 ca be 42 2b af 3e
       -0.21168819 0.29653254 -0.39453548 0.3421269
000170 87 e8 c3 3e 43 ad ae 3e cb 37 e7 3c 8f 67 2c bf
       0.38263342 0.34116563 0.028224846 -0.6734552
000180 18 37 01 be 9b f3 e9 3e 52 5e 00 bf e2 d3 11 bf
       -0.12618673 0.4569367 -0.5014392 -0.5696393
000190 d2 03 9b be 24 8a 75 bd e4 a7 8f 3e f6 e7 a3 3e
       -0.30276352 -0.059946194 0.28057778 0.3201291
0001a0 78 ba d0 3d 64 0b ec 3d a8 b5 27 3f 96 ce 11 3f
       0.10191816 0.1152561 0.6551156 0.5695585
0001b0 fb 31 2a be 14 60 74 3f 44 6f 12 bf 65 ac f7 be
       -0.16620629 0.95459104 -0.5720103 -0.48373714
0001c0 15 5f ae 3d c8 69 9f 3e 98 e5 26 3e 6d 89 8d 3d
       0.08514229 0.31135392 0.1629852 0.069109775
0001d0 4a 14 ce be 7c ca d4 be 7d 09 2c 3e 19 00 31 3c
       -0.40249854 -0.41560733 0.16800494 0.010803246
0001e0 eb 7d d7 bd 33 48 4a 3e f9 b3 14 bf c5 72 04 bd
       -0.10522064 0.19754104 -0.58087116 -0.032336015
0001f0 e1 cd 8d be 30 2b b5 bf 65 18 c3 be 80 a3 4b 3e
       -0.27696136 -1.4153805 -0.3810455 0.19886589
000200 ac 89 ec 3e a0 fe 9d be a6 4f 15 bf f3 08 0f bf
       0.46198785 -0.30858326 -0.5832466 -0.5587303
000210 42 b1 5a be 04 01 ad 3c 55 5f f8 bd ee e1 7b bd
       -0.21356681 0.021118648 -0.12127558 -0.06149476
000220 eb 28 90 3e f2 c8 75 3e a3 1e 07 3f 57 ec 92 3f
       0.28156218 0.24002436 0.5278112 1.1478375
000230 a9 e7 8d 3e f9 97 1b 3f c6 06 05 3f 7e 73 5f 3e
       0.27715805 0.60778767 0.5196346 0.218214
000240 56 75 4d be 3a 7d 0d 3f 14 84 6f bf c0 e4 ca be
       -0.20064291 0.55269206 -0.9356091 -0.39627647
000250 1b 26 ee 3d 33 53 97 3d 1a 66 68 b9 27 d3 da be
       0.11628362 0.07388916 -0.0002216328 -0.4273922
000260 d5 2e 29 3f af 55 5f bf 1f e4 4c be e0 ec 4b bf
       0.66087085 -0.8724012 -0.20008896 -0.7965832
000270 66 41 14 bf 08 9b ef 3d 03 39 d3 3e 35 61 69 bd
       -0.5791229 0.11699492 0.41254434 -0.05697747
000280 e1 66 cb 3d b1 fe ca bf 0f 87 12 bc ba 6d 5b bf
       0.09931732 -1.5858976 -0.008943333 -0.85714304
000290 5f 7e 5e 3b 7e 23 ac 3e b8 d0 83 3c f1 6f 2d 3d
       0.0033949835 0.33620828 0.016090736 0.042343084
0002a0 1f 81 ba 3e 21 40 91 bf e0 8c 6c bf 56 0c 6e 3f
       0.36426637 -1.1347696 -0.9240246 0.92987573
0002b0 48 3b 9d 3e 53 4e 98 be 9c d0 a9 bd 2b 0d 47 3e
       0.3070929 -0.29747257 -0.08291742 0.19438617
0002c0 d1 52 34 3f b5 f1 00 3e 22 86 6d bd 15 ad 77 bd
       0.7043887 0.12592204 -0.057989247 -0.0604678
0002d0 e9 76 9f 3e 4b 62 52 bf cc cb 02 3f 23 7c 20 3f
       0.3114541 -0.82181233 0.5109222 0.6268942
0002e0 d0 82 7d 3f 51 7c 6a be 69 9e 29 3e ac ef dc be
       0.9902773 -0.22898985 0.16564335 -0.43151605
0002f0 27 d9 00 be 93 82 fc 3e 35 b2 81 bc 13 10 16 3f
       -0.12582837 0.4931837 -0.015832046 0.5861828
000300 b0 2d e8 be a3 16 a1 be e9 a2 d4 3e dc f0 a5 3e
       -0.45347357 -0.31462583 0.4153054 0.32410324
000310 a3 16 13 bd 7d 8c 02 bf 9d 53 12 be 4c f3 0f 3f
       -0.03591026 -0.5099562 -0.14289708 0.56230617
000320 28 6c 48 3f 9a 1a 47 be 8f d7 1f be fb 7b b1 3e
       0.78290033 -0.19443741 -0.15609573 0.34664902
000330 04 6a 15 3e c9 85 c8 be 95 02 ac be 3f e0 2e 3f
       0.14591223 -0.3916457 -0.3359572 0.6831092
000340 97 0b 29 be 68 32 12 bf 5a ea d6 be 22 b7 fa be
       -0.16508327 -0.57108164 -0.4197567 -0.48967844
000350 b5 08 00 3f 9a 65 05 3f 5a c7 98 3e 01 8a 89 be
       0.50013286 0.52108157 0.29839593 -0.268631
000360 05 cd 66 3f b7 ad 5b 3e 8a ce 92 3d 54 64 09 3e
       0.90156585 0.21452986 0.071683004 0.13417178
000370 4f 62 0e 3d 74 41 ba 3e ab 68 b5 3e 0e db 41 bf
       0.034761723 0.36378062 0.35431418 -0.75724876
000380 96 d6 7d 3e 0d e3 61 3e cd d5 d5 be 6a b6 1a 3d
       0.2478889 0.22059269 -0.4176468 0.03777162
000390 ec 22 1b 3d 1b 18 02 3e 0a 46 6c 3b 29 40 0e be
       0.0378751 0.12704508 0.0036052489 -0.13891663
0003a0 3c b4 8e 3d 14 30 bd 3e 46 1e 92 be d1 27 d6 be
       0.06967971 0.36950743 -0.28538722 -0.41827253
0003b0 a4 60 5b 3e 50 3a db 3e 40 17 5a be ea 75 10 bd
       0.21423584 0.42817926 -0.21297932 -0.0352687
0003c0 38 26 8e bc 8e 57 8d 3d 90 08 ac 3e d1 25 3e be
       -0.017352208 0.06901465 0.33600283 -0.18569113
0003d0 9a 76 8e 3e a6 f2 a1 bd 16 c2 56 be 67 db ac 3d
       0.2782486 -0.0790761 -0.20972475 0.08440285
0003e0 ca dd 3b bd 2c a5 99 3e 44 f0 0a bf d3 2e f4 3c
       -0.04586581 0.3000883 -0.54272866 0.029807484
0003f0 25 19 4b bf 2f d6 5d bf 15 c4 05 3c 47 03 74 be
       -0.7933524 -0.86654943 0.008164425 -0.23829375

fc1.bias f4 [200]
000000 95 8d fe 3e 6a 45 0c be 66 d8 8a bd 04 15 86 3b
       0.49717394 -0.13698354 -0.06779556 0.0040918607
000010 4f fb cc bd 1b 35 02 3f 94 a8 f2 3e f5 ac d1 bd
       -0.10008871 0.5086228 0.4739424 -0.10238067
000020 21 22 f6 3e 7b 6c 34 3f cd 51 56 3e 9c e6 aa 3e
       0.48072913 0.7047803 0.20929642 0.33379066
000030 cb c0 8a be 8c d5 bc 3e 2a ca a4 3e a3 6a b9 be
       -0.27100214 0.36881673 0.3218549 -0.3621417
000040 23 bf c1 3e 0e 66 68 3e d1 2d d5 3e ac 1b 8b 3b
       0.37841138 0.22695181 0.41636518 0.004245242
000050 2c 2e 2d be cb a5 cf 3e df 3c 90 3d 16 2c 4a be
       -0.16912144 0.40556177 0.0704286 -0.1974338
000060 2f 7b 87 be 29 7d d0 be 51 e5 9c bd a2 e1 fa be
       -0.2646117 -0.4072049 -0.07660926 -0.4900027
000070 f2 12 16 3f 0a c5 23 bf 61 67 5e 3e 79 28 12 3f
       0.5862266 -0.6397253 0.21719123 0.57093006
000080 de c6 ad be be 15 0f 3f ee c9 c8 3e 4a 69 96 be
       -0.33940786 0.5589255 0.3921656 -0.29377204
000090 f5 f4 32 3e e0 85 ae be 34 9a b2 bd 87 47 f6 bb
       0.17476256 -0.34086514 -0.08720818 -0.007515851
0000a0 ec 33 b1 be b0 21 09 3e 5b 74 07 bf a7 79 35 bc
       -0.34609926 0.13391757 -0.5291192 -0.011076367
0000b0 6f 10 cf bd 0d 6f 90 3e dc b3 a3 be 43 05 5e 3e
       -0.10110556 0.28209725 -0.3197316 0.21681695
0000c0 ec b4 f4 be 22 91 c8 3e cf 35 5a 3e 69 09 13 3f
       -0.47794282 0.39173228 0.21309589 0.57436234
0000d0 4b ed 6b bc 21 65 1b 3e 0c 89 e9 3e cb ca e6 be
       -0.014399837 0.15175296 0.4561237 -0.45076594
0000e0 64 05 ae 3e 54 ce 3f 3f db a0 8e 3e d7 f8 42 be
       0.33988488 0.74924207 0.27857098 -0.19040237
0000f0 c8 bb 4c be 0c 88 2f 3d 82 0e 88 be b4 38 cf be
       -0.19993508 0.042854354 -0.2657357 -0.4047295
000100 9d fb 33 3f 69 4c 4a bd 75 14 d8 3d 62 38 1f be
       0.70305806 -0.049389277 0.10550777 -0.15548852
000110 8f e1 ee be cd 73 da 3e 67 af 14 3f f3 0a 4c 3e
       -0.46656463 0.42666474 0.5808014 0.19926052
000120 4d 58 73 3e d8 0f c9 3d 7a a0 15 bd 07 92 e5 3e
       0.23764153 0.09817475 -0.036529996 0.44837973
000130 2d 77 f1 3e 99 4f 2f 3f 41 43 ef bd 4e ed 3b be
       0.47161236 0.6848083 -0.116827495 -0.18352243
000140 00 93 66 3e f1 7e e7 be be 6e 37 be 4d 01 a5 3e
       0.22517014 -0.45214036 -0.17913339 0.32227555
000150 ff 35 0f bf 60 45 02 3f d9 fc a4 be 75 36 16 bf
       -0.55941767 0.5088711 -0.32224157 -0.58676845
000160 b3 cf 40 bf 75 77 b5 be de 9b cb 3c 78 27 89 bc
       -0.75316924 -0.354427 0.024854597 -0.016742453
000170 cc 55 19 3e 32 6b fc 3e 54 bf 5b be 28 c5 e1 bd
       0.14974135 0.49300534 -0.21459705 -0.11023933
000180 29 1c 9e 3e e8 3f 66 be e1 2d f4 3d 9b ab ae 3c
       0.3088086 -0.22485316 0.11922813 0.021322062
000190 60 6d e7 3b 1b 12 34 be 2b a5 c2 be ec d7 00 bf
       0.007062599 -0.17585032 -0.38016638 -0.5032947
0001a0 c3 d7 8b be af 10 16 3d 72 7a 80 3e 24 e1 ac 3e
       -0.2731305 0.036637004 0.25093418 0.3376552
0001b0 a2 32 2a 3d 94 3a c3 be df 8e 03 3f f2 29 a1 3e
       0.041552193 -0.3813063 0.5138988 0.31477314
0001c0 d7 fd 04 bd fb a5 99 3e 1e 39 30 3e 8e ae 05 3e
       -0.032468643 0.30009446 0.17209288 0.13054869
0001d0 ba 64 cf be 9c 98 bb bc 3a 26 e5 bd 18 24 cb 3c
       -0.40506536 -0.022899918 -0.11188932 0.024797484
0001e0 ed 47 75 3e 28 09 f8 bd ed 9b 77 3e 50 38 9c bd
       0.23953219 -0.121111214 0.24180575 -0.07627928
0001f0 57 29 6a 3e 31 6f 41 3f 4d 51 0f 3e cc 5c 4b 3f
       0.22867332 0.7556029 0.13995858 0.7943847
000200 f3 c0 1f 3f dd 48 db be 3d 2d 65 3e ec 71 c7 be
       0.6240379 -0.42829028 0.22380538 -0.38954103
000210 8b 45 f2 3c c7 23 27 3f 2c 31 73 be 00 21 58 be
       0.029574176 0.65288967 -0.23749226 -0.21106339
000220 55 e7 bc be 06 d9 4d 3d 78 79 e9 3e f3 49 53 be
       -0.36895242 0.050255798 0.45600486 -0.20633678
000230 21 c0 28 3f 5a 53 e6 3e 3b 93 de 3e 25 74 a5 bd
       0.65918165 0.44985467 0.43471703 -0.080787934
000240 a2 1e 19 3d a8 3e 43 3e 2d ff fc 3d c3 5d 4e 3d
       0.03738273 0.1906687 0.123533584 0.050382387
000250 49 5b e4 3d d7 86 25 be 4c 53 70 be 26 06 2e bf
       0.11150224 -0.16164719 -0.23469275 -0.6797813
000260 2b 08 aa be e0 a6 3e be 74 24 bf be 13 eb ac 3e
       -0.33209357 -0.18618345 -0.373325 0.33773097
000270 9b 1e c8 be 10 9a 84 3e 2e f7 8d 3e 67 f1 80 be
       -0.3908585 0.2589879 0.27727646 -0.25184175
000280 5b b2 d9 3a cd 20 c4 3e 85 91 bd be c9 ee 22 3f
       0.001660894 0.38306275 -0.37025085 0.6364561
000290 b7 66 90 3e 68 6b 97 3e 6a 3a 9f 3e 41 91 4d bd
       0.28203365 0.29574132 0.31099254 -0.050187353
0002a0 b7 91 72 3d 10 c7 f6 be 58 98 eb 3e c5 bf 17 3f
       0.059220996 -0.48198748 0.46014667 0.5927699
0002b0 8c 23 3c be 38 ee 04 bf 90 10 1b 3f eb b9 f8 3e
       -0.18372935 -0.5192599 0.6057215 0.48579344
0002c0 66 e0 63 be 70 5f 27 be f0 89 63 be 7f 70 f0 3e
       -0.2225357 -0.16345 -0.22220588 0.46960828
0002d0 cb 28 18 3e 89 83 60 3c 23 ec 45 3f 48 f6 3f 3f
       0.14859311 0.013703235 0.7731344 0.7498517
0002e0 a0 1b 88 3d 89 fa b8 3e a8 b6 83 3e 2b a2 31 3f
       0.06645894 0.36128643 0.25725293 0.69388074
0002f0 56 ec c6 bd e7 0a 10 bd f2 59 d1 bc db 84 f3 3d
       -0.09713046 -0.035166647 -0.025555585 0.118905745
000300 5f da 0e bf 2e d1 9f be 65 bb f6 3e 62 09 ce be
       -0.5580196 -0.3121428 0.48189846 -0.40241534
000310 9c 07 0e 3f 8b c5 24 3f b1 bd cd 3e b7 f8 7f 3e
       0.5548036 0.64363927 0.40183786 0.24997221

fc2.weight f4 [200, 200]
000000 98 cc af bd ca 26 d3 bc 40 1e d6 bd 0f bb c3 bd
       -0.08583945 -0.025775332 -0.104549885 -0.09557163
000010 69 02 f3 3e cb f0 03 3e b5 db 50 3e 87 3d 19 3f
       0.47462776 0.12884824 0.20396312 0.5985951
000020 6e f0 a3 3e 12 8e 7f bd b9 5b 49 3e 2d 61 71 3e
       0.3201937 -0.06239135 0.19663896 0.23572226
000030 38 56 96 be 03 c8 9e 3e 43 c9 4d 3e d1 5c 33 be
       -0.29362655 0.31011972 0.20096307 -0.17515875
000040 b3 b6 07 be 59 c3 0b bf 06 12 59 3e db 3a d3 3d
       -0.13253288 -0.5459495 0.21198282 0.1031396
000050 8f 0b d3 3e 1a 7f a7 bf 00 38 3f bd 5a cb 7f 3e
       0.41219756 -1.3085663 -0.046684265 0.24979916
000060 cd 59 da bc 34 a6 77 3e 47 f3 94 3e 35 72 60 3e
       -0.026654148 0.24184495 0.29091856 0.21918567
000070 08 d2 34 bd 3f d2 08 be d6 8e 41 3d 99 d3 4a 3c
       -0.044145614 -0.13361453 0.04725536 0.01237955
000080 0f 1a ed bd 20 a8 01 be ac ef 4e 3d 58 26 9a 3d
       -0.11577236 -0.12661791 0.050521538 0.07526845
000090 68 51 99 3e 0b a5 8f 3e ab 5c a3 bd 7d b7 b6 3e
       0.2994492 0.28055605 -0.079766594 0.35686865
0000a0 42 0e a8 3d fb 7d ac 3d f3 9b 81 3e 56 ea 78 3f
       0.082058445 0.08422466 0.25314292 0.9723257
0000b0 52 e5 fc 3d 7a f6 fa bd df 95 28 3f 58 de d5 3d
       0.12348427 -0.12254043 0.65853685 0.10442799
0000c0 8c 4a 0b 3f 41 13 ac bd 81 dd bc 3d ed 16 da be
       0.54410625 -0.0840211 0.09221936 -0.42595616
0000d0 37 eb 38 3e ac ae 7c 3e e6 e6 17 3e 10 50 3e 3e
       0.18058477 0.24676007 0.14834175 0.18585229
0000e0 b9 7b b6 bf e8 4c 77 be 24 77 ef 3d 6a d9 94 3e
       -1.4256507 -0.24150431 0.11692646 0.29072124
0000f0 2c cd 56 3d b2 5f 8d 3e 98 73 ab bd cb 1f 0e 3e
       0.05244176 0.27612072 -0.08371657 0.13879316
000100 93 61 0f 3d 89 39 7c bd 38 b5 be bf 6c 81 a3 3e
       0.035005163 -0.061578307 -1.4899054 0.3193468
000110 fb 2a 3b be 32 c5 a1 3d 3f 43 31 3d f7 98 3e 3d
       -0.18278114 0.0789894 0.04327702 0.046532597
000120 31 49 99 3e 8c 3a ff 3e 0f 88 3d be 04 8f 76 be
       0.29938653 0.49849355 -0.18508933 -0.24077994
000130 d5 20 15 3e 19 9f f6 bd f3 f1 f1 bd bd 79 87 be
       0.14563306 -0.12042064 -0.11813726 -0.26460066
000140 33 79 f2 bc c0 d4 42 bf 85 bb e8 bd 98 36 b9 3d
       -0.029598808 -0.7610588 -0.113638915 0.09043616
000150 97 fe 61 3e 7a 95 92 3d 39 6e ff 3d 9f 65 07 bf
       0.22069775 0.07157417 0.12472195 -0.52889436
000160 37 4b 64 be e7 fc 31 3e 1e 77 99 be 19 76 23 3f
       -0.22294317 0.17381631 -0.29973692 0.6385208
000170 7a 4b c4 bd 41 07 fe 3d b6 c9 3d be 00 49 1a 3c
       -0.095847085 0.12403727 -0.18533978 0.009416819
000180 99 e4 fd bd 28 1a 05 3e bc 82 e0 3d f0 60 dc 3e
       -0.12397117 0.12998259 0.109624356 0.43042707
000190 54 49 84 3e ff 0a 0e 3e 75 93 3d 3d 51 31 c0 3c
       0.25837195 0.13871382 0.046283204 0.023461016
0001a0 fc 9e 5f 3d 8b b4 18 bd 6f de 6c bc b7 92 bc be
       0.05459498 -0.037281554 -0.014457329 -0.36830685
0001b0 ed bd 2b 3e 53 84 65 3e 04 a4 91 bb 64 78 6c 3e
       0.1677167 0.22413759 -0.004444601 0.230928
0001c0 5a 39 33 3f 48 a7 ef 3e 06 52 a2 3d 90 f0 cb be
       0.70009387 0.46807313 0.07925801 -0.39831972
0001d0 d7 83 cf 3e 76 3f e4 be 3f 7f 8f 3e 6c c3 9b bc
       0.40530273 -0.44579667 0.2802677 -0.019014083
0001e0 9a 97 8b 3d af 98 f4 3e 9a e8 09 be 1c 60 49 be
       0.06816025 0.47772738 -0.13467637 -0.19665569
0001f0 29 3a 81 3d 18 df f0 be 6b 00 40 3e c3 86 90 3e
       0.06309921 -0.47045207 0.1875016 0.28227815
000200 0e 4a 57 3d a2 40 85 3d 83 16 42 3e 19 7e 11 3f
       0.05256086 0.06506468 0.189539 0.56833035
000210 15 a7 6d be d8 61 f6 bd 20 0c 63 3e 4a 2b 4d 3d
       -0.23208268 -0.12030381 0.22172594 0.05009011
000220 09 06 f4 3e ac e6 17 bf 15 8b 02 3e 02 67 fb 3d
       0.47660854 -0.5933635 0.12748368 0.122755066
000230 f5 cf 19 bc 23 24 46 3d ef 01 b1 3e 7b ee ec bb
       -0.00938796 0.048374306 0.34571788 -0.0072305775
000240 10 15 d7 3e 21 e0 e2 3d 73 b8 8f be d9 95 87 bd
       0.42008257 0.110779054 -0.2807041 -0.06620378
000250 bb 2f 7f 3e ef a7 bd be 47 df c9 3e 8e 7c e5 3b
       0.24920551 -0.37042186 0.3942816 0.0070033735
000260 d1 c2 f9 3c 0d a0 40 be 2a 21 26 3e ec e4 9a be
       0.030488404 -0.18811055 0.16223589 -0.3025278
000270 66 46 30 be e1 1d b3 bd d0 f3 0a 3e ed 76 66 3e
       -0.17214355 -0.08745933 0.1356957 0.22506304
000280 2e fc bd 3e fd 74 9a 3d 8f 13 97 bf 3b 20 16 3e
       0.3710646 0.07541845 -1.1802844 0.14660732
000290 38 57 52 3d 57 ab 59 bd 06 7b bb 3b a7 7a 1c 3e
       0.05135271 -0.053141918 0.0057214526 0.15281163
0002a0 49 f7 67 3d f3 bb fa bc ad 0b e2 3c e9 ab 44 3d
       0.056632314 -0.0306072 0.027593458 0.04801551
0002b0 51 ec fd 3d e4 a5 75 3d e4 bd 3e 3e 86 ec e8 3c
       0.123985894 0.05997266 0.18627125 0.028433096
0002c0 03 6f b7 3d 4d e4 b7 bd 57 ce 9d 3d 45 2a 92 3e
       0.08956721 -0.08979092 0.07705372 0.28547874
0002d0 f2 69 33 be d8 3d a8 3e af c1 10 be 8f 83 f3 3b
       -0.17520884 0.32859683 -0.14136384 0.0074314545
0002e0 27 c9 4f be 97 1a 96 bd ff 16 57 bd a3 8a 8b 3e
       -0.20291577 -0.0732929 -0.052512165 0.2725421
0002f0 e4 f5 49 3c e2 c2 88 be 2d 1b cc bd 44 01 b7 3d
       0.012326691 -0.26711184 -0.09966121 0.08935788
000300 aa a3 7d 3e 07 7f ca be 8e 9d 4b 3e 49 69 b8 3e
       0.24769464 -0.3955004 0.19884321 0.36017826
000310 81 b6 a7 3c 50 a1 ce 3d f7 4c 09 3f 1e 8d 5d 3d
       0.020472767 0.10089362 0.53633064 0.054089658
000320 02 a0 5f be d5 e4 a7 be 9f 30 1c 3e 03 87 5c 3e
       -0.21838382 -0.32791772 0.15252922 0.21535878
000330 58 20 19 bf 5a 22 20 be 12 3a a1 3e 52 04 06 bf
       -0.5981498 -0.15638104 0.31489617 -0.5235034
000340 35 3a 4e 3e 09 c0 fa 3e 07 f7 47 3d 36 03 83 bf
       0.20139392 0.48974636 0.048819568 -1.0235355
000350 68 db 2d 3d 82 e3 86 3e 9a 2b b3 3e dd 6c c9 be
       0.04244557 0.2634545 0.34994203 -0.3934087
000360 4e 83 97 bd d8 38 e8 be 8d 90 d3 3d a4 1c e6 bd
       -0.07398091 -0.45355868 0.10330305 -0.112359315
000370 80 a8 2d bf 98 7b 65 bf f7 e3 0d 3f e4 be 6a be
       -0.67835236 -0.89641714 0.5542597 -0.22924381
000380 4a c5 6c bd 7d f4 91 bd 7d dd 07 be f2 a5 80 bf
       -0.057805337 -0.071267106 -0.13268085 -1.0050642
000390 0c a1 8a bd 9d eb 2c 3e 82 da c8 39 6d d8 12 bf
       -0.067689985 0.16886754 0.00038309774 -0.5736149
0003a0 62 08 9b bf e9 1b a1 3d 26 0b f1 3e af 11 21 bf
       -1.2111933 0.078666516 0.47078818 -0.6291761
0003b0 65 2e 0a 3e 8e 73 93 3f 86 76 b8 3d 99 5d c2 bd
       0.1349426 1.151964 0.090069816 -0.094905086
0003c0 1c 68 15 3e 5f c7 04 3c 02 9b 41 bf b2 f7 ae be
       0.14590496 0.008104174 -0.7562715 -0.34173352
0003d0 f3 7b e8 bd de 6c 2d 3e 19 68 27 bf 4c 73 27 be
       -0.113517664 0.16936061 -0.65393215 -0.16352576
0003e0 ec 52 2b bf cb 14 df 3f f0 09 97 bd 9e a7 c6 bf
       -0.66923404 1.742822 -0.07374942 -1.5519903
0003f0 71 94 e3 3e 3f 01 48 3e ca 66 00 be b1 fe 79 3e
       0.4444919 0.19531725 -0.12539211 0.24413563

fc2.bias f4 [200]
000000 08 7f 87 bc f3 92 6c 3d 2f 93 1a be 58 ad 8d 3e
       -0.016540065 0.05775733 -0.15095209 0.27671313
000010 21 21 31 3d 9a 50 7e be d9 57 23 3e 62 bb 43 3e
       0.043244485 -0.24835435 0.1595148 0.1911445
000020 25 95 23 be 16 c7 82 3c 09 eb f8 be 77 9b d8 3d
       -0.15974863 0.015964072 -0.48616818 0.105765276
000030 88 53 8c 3e d9 dd 86 3d 4d 42 cc 3d a3 e4 83 3e
       0.2740748 0.06585283 0.09973583 0.25760373
000040 54 59 df 3c 94 6a 20 bd c2 84 e0 bd 67 af 7f 3e
       0.027264275 -0.03916414 -0.109628215 0.24969254
000050 b1 a0 94 3e fc 43 26 bd 38 5e 27 3e 00 36 60 bd
       0.29028848 -0.04059218 0.16344535 -0.054739
000060 ba 57 61 3d 29 7e 3b be f6 bf 02 be 66 6b e4 3d
       0.055015303 -0.18309845 -0.1276854 0.11153297
000070 4a cc 7c 3d c3 0b c6 bd bf 43 03 be 25 75 03 3c
       0.061718263 -0.09670212 -0.12818812 0.008023535
000080 e3 7d 2a be ed f4 5f bd 32 4b f8 bc 21 94 19 3c
       -0.16649584 -0.05467694 -0.030309293 0.009373696
000090 0e 51 02 be f2 9d 32 be 6c d9 8c bd 87 58 6c bd
       -0.12726232 -0.17443064 -0.068774074 -0.057701614
0000a0 12 72 1e 3b 2e 94 c9 3d 0e f0 f0 3d e0 4e 7a bd
       0.0024176878 0.09842716 0.11764537 -0.061110377
0000b0 73 74 dd bd 78 65 bc bd 29 0b c0 3e c3 14 0d bc
       -0.108132266 -0.09199041 0.37508515 -0.008610907
0000c0 09 bc 76 bd 2d a4 14 3e 88 91 29 be 37 4c 19 3d
       -0.060237918 0.14515753 -0.16559422 0.0374262
0000d0 fb bc 7f 3e ea ed 97 3e 61 f0 f7 3b 35 1f 42 bd
       0.24974434 0.29673702 0.007566497 -0.047393043
0000e0 66 59 4c 3e bf db b7 3d a4 d4 71 3e 66 ae f1 bd
       0.19955978 0.0897746 0.23616272 -0.11800842
0000f0 88 db 40 be 13 47 fa bc 32 8e ff bb 95 ca 3f bd
       -0.18833745 -0.030551469 -0.0077989334 -0.046824057
000100 04 fc f3 3d f2 ed 97 3d 00 97 99 3e 83 ca 47 3d
       0.119133025 0.07418431 0.29998016 0.048777115
000110 2e 25 ec bd 65 7e 89 bd af ef 5c 3e 7f 00 65 bc
       -0.11530529 -0.06713561 0.21575807 -0.013977169
000120 6c 0c db bd 67 e5 db bd 01 68 a1 3e 56 fa 21 be
       -0.10695729 -0.107371144 0.3152466 -0.15818152
000130 5b 6a 6e 3e 16 d6 65 be 4f a7 1e be 3a c1 16 3d
       0.23282759 -0.22444949 -0.1549351 0.03680537
000140 07 da 41 bd 9a 1b 02 bd 66 45 3d bc dc 85 8b 3e
       -0.047327068 -0.031764604 -0.01155219 0.27250564
000150 10 52 dd 3d 66 31 d3 bd 08 4d ca 3d e0 46 a8 3e
       0.10806668 -0.103121564 0.09877974 0.32866573
000160 bd 87 f5 bd 25 22 26 3e d9 a5 94 3e 6c fd b3 3e
       -0.11988781 0.16223963 0.29032782 0.35154283
000170 1b 94 2d 3e 0a 1c 66 3e a8 fd 0d be 78 b2 c9 bd
       0.16951029 0.22471634 -0.13866293 -0.09848493
000180 39 a5 ec bd 19 10 01 bd 32 ad 0b 3e cd 3c 9e 3e
       -0.11554951 -0.031509493 0.13640288 0.30905762
000190 15 92 7b 3c c9 ec f1 3c b9 c1 4c 3e 57 34 b2 be
       0.015354653 0.029531853 0.19995774 -0.34805557
0001a0 90 73 81 3d 48 41 3d 3d 27 5a 11 be 57 34 59 bc
       0.0632087 0.046204835 -0.14194547 -0.013257108
0001b0 a7 33 2e bf d4 d1 f6 3c 2e 11 ef bd 43 ac 10 3d
       -0.68047565 0.03012935 -0.11673199 0.03532053
0001c0 bb b9 a3 bd 2c a4 a8 3c 2f ca 86 bd 39 f9 09 3e
       -0.0799441 0.020586096 -0.06581532 0.13473977
0001d0 7b c2 98 bd 20 43 8c bd a1 06 18 bd 8c 5f 8a 3e
       -0.07458969 -0.068487406 -0.037115697 0.2702602
0001e0 9c 39 cd 3e e0 6c 7f bd 08 95 29 bd 65 75 fc 3d
       0.40083015 -0.06235969 -0.041401893 0.12327079
0001f0 17 28 2f be 7d bb 68 bd d8 9b 2d be 35 a1 7b 3e
       -0.17105137 -0.056819428 -0.16953981 0.24573214
000200 25 74 1d 3e 91 08 9a be 2e bc ae bd fd 8a 85 3e
       0.15376337 -0.3008466 -0.08531986 0.26082602
000210 28 30 c2 3d 1a d0 4d b9 9e 27 62 be d7 6d 36 bd
       0.09481841 -0.00019627847 -0.22085425 -0.044538345
000220 7e 48 3e 3e 75 36 9a 3c 0c be a5 3e c1 f5 28 be
       0.18582341 0.018824795 0.32371557 -0.16499998
000230 70 70 31 be 74 12 96 bd e9 d2 dc bd fe 59 ab bd
       -0.17328048 -0.073277384 -0.107824154 -0.08366774
000240 55 8e c6 3d 4e 37 8f 3e 8d f1 25 3e f4 5f ab bc
       0.096951164 0.27971882 0.16205426 -0.020919777
000250 7e 96 16 be 5a a0 21 3e 92 a6 1f 3e dd 88 b3 3c
       -0.14705846 0.15783826 0.15590885 0.021915847
000260 6b c3 bf bc 84 bb ce 3c cd a4 9a bd 00 c3 29 bd
       -0.023408612 0.025235899 -0.075509645 -0.041445732
000270 23 49 b2 bd 6b 41 33 bd cc 16 5e 3e a9 ce 2c bd
       -0.08705356 -0.04376356 0.21688384 -0.042189274
000280 fa 21 73 3e 44 d7 a9 bd 08 2c ba bc 0f 1d 1e be
       0.2374343 -0.08293012 -0.022726074 -0.15440772
000290 48 61 73 3d 2b 79 fe bd 7c 2a 4d bd 71 0a 2b 3d
       0.059418947 -0.12425455 -0.050089344 0.041758005
0002a0 b4 54 80 bd 91 09 3d be ac 73 45 3e 46 ce 8a bd
       -0.06266156 -0.1846068 0.19282407 -0.06777625
0002b0 be ed f1 3e fe 88 fc bc dc 7a 82 3e a5 df 09 3e
       0.47251695 -0.030827042 0.2548436 0.1346422
0002c0 50 d9 19 be b9 e1 35 be ac ce 99 bd 87 d4 ea bd
       -0.15024304 -0.17761888 -0.07510123 -0.114663176
0002d0 31 f7 ac 3d a4 1a a8 3e 6c 27 cc bd c8 e4 91 3d
       0.084455855 0.32832825 -0.099684566 0.07123715
0002e0 55 dc 35 be ff 37 b5 3d e2 34 1c 3e 18 a3 05 be
       -0.17759831 0.08848571 0.15254548 -0.13050497
0002f0 5b a8 be bd a2 5c 12 3d b1 c0 bb bd e2 07 42 bd
       -0.09309455 0.035732873 -0.09167612 -0.0473708
000300 d1 33 37 3d 8e 5e 9b 3d 9f 9b 17 be 12 10 03 be
       0.04472715 0.07586394 -0.14805458 -0.12799099
000310 e6 c7 e3 bd 88 f5 43 3c ce ce 47 3d 1b 12 da 3b
       -0.11122112 0.011960395 0.04878121 0.0066549904

fc3.weight f4 [4, 200]
000000 c4 21 39 bf 29 7a 38 3f 19 34 3a bf e3 42 62 3f
       -0.7231715 0.720614 -0.72735745 0.8838331
000010 e2 63 1e 3f 0d ad b9 3d f8 8f 06 3f 39 0a a0 bd
       0.6187116 0.0906621 0.5256343 -0.0781445
000020 38 a4 3a bf 37 f1 20 bc 41 6f cb 3f 53 46 f0 be
       -0.7290683 -0.009823135 1.5893327 -0.46928653
000030 6f e2 e5 3e 97 a9 d0 be b6 12 ce be 18 c2 d1 3e
       0.44899318 -0.40754387 -0.4024865 0.40968394
000040 5b cf a7 3f 10 88 11 bd 6b ca 6e bf 0a 70 a0 3e
       1.3110155 -0.03553015 -0.93277615 0.3133548
000050 5a 5b de 3a 98 f3 7b 3f 57 67 54 3f 7d 4b 0e bf
       0.0016964481 0.9841857 0.82970184 -0.55583936
000060 2b c8 44 bf 1a 6d 07 bf 04 2d 41 bf d8 ff c9 be
       -0.7686793 -0.5290085 -0.75459313 -0.39453006
000070 e0 51 c7 bd e9 a4 df be 0e ea b1 be 7a 9c ed 3e
       -0.09732413 -0.43680504 -0.34748882 0.46408445
000080 28 3d 2b bf c0 6f 8f bf 52 82 28 bf 41 a9 6f 3f
       -0.6689019 -1.1205978 -0.65823853 0.93617636
000090 45 1f 60 bf 51 d7 d9 3e a0 33 2a bc 2f 0c bd bd
       -0.87547714 0.42547086 -0.010388285 -0.092308395
0000a0 c3 59 29 bf fa 35 94 3f 9f d4 35 3e b4 fb 3d bf
       -0.6615259 1.1578972 0.1775689 -0.74212193
0000b0 c3 b3 77 bf 20 4b 96 3f 86 32 ea 3e 34 29 36 3f
       -0.9675867 1.1741676 0.4574167 0.7115662
0000c0 49 69 42 3d 28 fe 3d 3f e0 e2 8a 3f 59 c5 ac bc
       0.04746369 0.74215937 1.0850487 -0.021090196
0000d0 f6 b0 0c 3f 08 74 0f 3f 87 dd a4 3f 7d 4e 62 bf
       0.5495752 0.56036425 1.2880105 -0.88401014
0000e0 f2 92 76 be 26 d2 8f 3f 0d 8d 42 bf 61 27 d4 bf
       -0.24079493 1.1236007 -0.75996476 -1.6574517
0000f0 d5 c3 37 bf 2b ab 5e bf 1a 0b e0 3f 60 01 a6 bc
       -0.7178319 -0.8697993 1.7503388 -0.020264328
000100 a3 f0 36 3f fa 4a 3a 3f 11 2e df be 9c cc a9 3b
       0.7146093 0.72770655 -0.43589833 0.005181862
000110 65 f3 77 bf c1 cf 05 bf 78 fc 0f 3f c2 0f a7 3f
       -0.96855766 -0.5227013 0.5624461 1.3051684
000120 ec 4b c3 3f 45 91 00 3f 73 94 a1 be 9d 1b ca be
       1.5257545 0.50221664 -0.3155857 -0.39474192
000130 04 93 03 3f a9 3f 8d 3f 3f 34 49 3f 21 d8 b4 be
       0.51396203 1.1035053 0.78595346 -0.35321143
000140 e2 b1 92 3f 43 96 2a bf cb 9d 08 bf ed cc 54 3f
       1.1460536 -0.6663553 -0.5336577 0.8312519
000150 aa a0 8f 3f 26 56 82 bf 39 0b 55 3f 5c 87 e6 be
       1.1220906 -1.018254 0.8322025 -0.45025146
000160 e1 24 c1 be 7b 10 2a 3f a2 a2 10 3f 7d 10 1d bf
       -0.3772345 0.664314 0.5649816 -0.61353284
000170 26 a1 34 3f c7 ba e6 3e 28 6b 5d bf 57 8d 2b bf
       0.70558393 0.45064375 -0.8649163 -0.6701254
000180 90 cf 13 bf 6f 6a 10 3d cc 4e 91 3f 75 c6 24 3f
       -0.5773859 0.035257753 1.1352172 0.6436532
000190 4b f1 24 3c b7 2d fb 3c 71 98 34 3f 41 9f 7e 3f
       0.010067294 0.030661447 0.7054511 0.9946175
0001a0 83 af 65 3f 37 20 84 3f 74 27 09 bf 09 5c a3 3c
       0.89720935 1.0322331 -0.53575826 0.019941347
0001b0 73 ca 99 3f 60 e5 12 bf 5d 4f 72 bf c4 dd 82 3f
       1.2014908 -0.5738125 -0.9465235 1.0223927
0001c0 c4 20 20 40 b0 1c 56 3c 14 9f 23 bf 96 fd f8 3e
       2.5019999 0.013068363 -0.6391461 0.4863097
0001d0 b3 9d 08 bd 1d 52 02 3f ee e1 15 bd 70 c9 55 3f
       -0.03335352 0.50906545 -0.036592416 0.83510494
0001e0 e9 eb 79 be 58 b4 dc 3c 0f d6 20 bf 94 6c e3 3e
       -0.24406399 0.026941463 -0.6282663 0.44418776
0001f0 1f d8 01 bf 11 45 11 3d 09 7c 10 bf 9d 5a 54 3f
       -0.507204 0.035466257 -0.5643926 0.82950765
000200 96 8d cd 3e 86 b4 bc 3e 62 cc fa be 24 de 12 3f
       0.40147084 0.36856478 -0.48984057 0.5737021
000210 eb 64 03 3f 92 4a 19 3d 19 6e 20 3f 68 f7 06 bf
       0.51325864 0.03742463 0.62667996 -0.5272126
000220 3e 48 1e 3f c2 a1 17 3f 8f 9d 51 3f 94 c2 26 bf
       0.6182898 0.592312 0.8188104 -0.6514065
000230 2b 6f 9c bd cf 26 a5 be 39 d6 b5 be bb 54 2c bf
       -0.07638391 -0.3225617 -0.35515 -0.6731679
000240 a9 1e 0a 3e e2 e4 19 3f 7e f0 82 3f 07 c5 3e 3f
       0.13488258 0.6011487 1.0229642 0.7451939
000250 57 17 67 3f 60 2c 9f 3f 9a 09 81 3f 67 6a 21 bf
       0.9026999 1.2435417 1.0081055 -0.6305298
000260 17 2d b5 bc a7 34 65 3d 54 f2 05 bf 7a c7 02 bf
       -0.022116227 0.055958416 -0.5232289 -0.5108563
000270 6c 8f fb be 26 5f 2c 3b d3 a7 ea 3e b2 52 80 bd
       -0.4913286 0.002630183 0.45831165 -0.06265773
000280 da b7 10 3f 03 df ca bb 00 ec 9b 3f 46 80 1c bf
       0.56530535 -0.006191136 1.2181396 -0.6113323
000290 35 4b 86 3f 5b f1 a2 be 64 29 d3 3e 34 ce f3 3c
       1.0491701 -0.31824765 0.41242516 0.029761411
0002a0 6d 11 26 bf 83 49 3b bf 39 a4 30 3f df 62 bc bc
       -0.6487034 -0.73159045 0.69000584 -0.022996364
0002b0 8f d7 c4 be 26 2d cb bc fe 19 2f 3f 4c 2d 0b 40
       -0.38445708 -0.024801802 0.68399036 2.1746397
0002c0 5b c5 26 bf 7f 8c 00 bf a9 54 55 bf 9f 11 3d be
       -0.6514489 -0.5021438 -0.83332306 -0.18463753
0002d0 be 90 6e bf 1d 02 ac be ab 53 3c 3e a0 cf 46 3f
       -0.9318961 -0.33595362 0.18391292 0.7766056
0002e0 3d 7a 11 bf d5 8a a6 3f cb 26 86 3f dd 91 b9 3e
       -0.56827146 1.3011118 1.0480589 0.36244097
0002f0 64 6a 90 3c e8 e9 cc 3f 65 87 84 bf ad 97 2b bf
       0.017628856 1.6008883 -1.0353819 -0.67028314
000300 6e 69 60 3f c0 2a a9 ba c5 a5 55 bf 6d 32 c4 3d
       0.8766087 -0.0012906417 -0.8345607 0.095799305
000310 72 9a 2a bf c0 70 fe bb 7c e5 84 3f 4a b6 14 bf
       -0.66641915 -0.0077649057 1.0382533 -0.5809065
000320 a2 ad 2f bf cc e8 45 3f 22 2c 40 bf c3 ff 80 3f
       -0.6862432 0.77308345 -0.7506734 1.0078052
000330 08 ee c0 3f 66 3c b5 bf 17 76 3e 3f f8 f9 58 bf
       1.5072641 -1.4159057 0.7439894 -0.8475642
000340 19 7d 3e bf 0b 29 71 3b 5c e7 c1 3e d5 30 e0 be
       -0.74409634 0.0036798145 0.37871826 -0.43787256
000350 91 db 19 3f b2 9e ba be 80 28 51 3f 41 79 19 3f
       0.60100657 -0.364492 0.81702423 0.59950644
000360 d3 1c 45 3f fe 64 04 3d cc e3 a6 bb 28 33 62 3f
       0.7699711 0.032322876 -0.0050930735 0.8835931
000370 01 88 09 bf 8a bb 25 3f 43 ae 17 3f 4a c5 09 bf
       -0.5372315 0.64739287 0.5925028 -0.53816664
000380 cd 94 46 bf 66 13 33 bf 5c 92 40 bf dd f4 d0 bd
       -0.775708 -0.69951475 -0.75223327 -0.10202954
000390 30 c9 81 be 4b 50 ad be ea 1f 68 be 33 80 71 3f
       -0.25348806 -0.3385032 -0.22668424 0.9433624
0003a0 cb 3c 29 bf 95 8d 13 bf 81 50 2b bf 65 ac 6c 3f
       -0.6610839 -0.5763791 -0.66919714 0.92450553
0003b0 18 dd 37 bf d2 45 54 3d c5 64 75 3c 5d 5a 39 3e
       -0.7182174 0.0518244 0.014977639 0.18100877
0003c0 5c 34 05 bf 69 20 8a 3f b6 55 75 3f 11 71 75 bf
       -0.5203302 1.0791141 0.9583391 -0.9587565
0003d0 72 38 5d bf f7 bd b6 3f 7e 14 c2 3e 31 96 4d 3f
       -0.86414254 1.4276723 0.3790626 0.803073
0003e0 5e 4d 59 3d 30 cd fd 3e fc 38 48 3f d4 91 9a 3c
       0.0530523 0.49570608 0.7821195 0.018868364
0003f0 ed e0 74 3f 63 5b 18 3f 21 8b a1 3f 3c ca 52 bf
       0.9565571 0.59514445 1.2620584 -0.82339835

fc3.bias f4 [4]
000000 e2 27 4f be 95 0d cb bd 24 46 a6 3c 50 f5 9f be
       -0.20230058 -0.099147 0.020297118 -0.31241846
