models/model_run_2.pth (torch, 145925 bytes, 6 tensors)

fc1.weight f4 [256, 8]
00000000: d647 373e e5cc f5be b65a cd3d 2281 15be
00000010: 66db f6bd e058 7a3f c631 8c3e 42e8 8dbc
00000020: 90ac 22bf 814a f9bd b0c9 3bbf a1c2 903e
00000030: 9bf2 353e eb42 29be 1056 c23e 3545 4c3e
00000040: 5d92 e7be efc7 7fbf 3f51 403d 239f 02bf
00000050: f51b 4ebf 6543 0d3f 28b6 a53d c15d 75be
00000060: 627b 123f 0f47 c33e c27d 56be 644a 223e
00000070: 6210 49bc 4dbb 0fbe b6c4 f9be ff55 a4be
00000080: 64ec 12be 1218 21be 56cf d2be b269 51bf
00000090: a44d 103f 2c56 01be 2841 5f3f bf58 ce3e
000000a0: 9892 64be c777 413e 0af3 fe3e 1d14 0cbf
000000b0: 9836 27be b4da a4be 56d9 de3d 238d ed3c
000000c0: 3a51 023e 9114 16bf ab46 26bd 97f7 0fbd
000000d0: dfe6 ebbe ffe4 62bf 0ea8 b13e 59bf 343e
000000e0: b37e f43d e577 16bc 2939 893d e365 88bf
000000f0: ee8d c03d 8dee e03b e02c 4a3e f68a 883d
00000100: af3c eb3e 1dc4 193d 45ac 0b3e 9b60 0e3e
00000110: 28c7 093e 160a 29be e4a7 0d3e a1e9 62be
00000120: 10e1 ca3e 5cad 28bc 7066 b1be 6723 6abe
00000130: 2bde 03bf b6a0 8d3e 34c3 1abd 3f05 7dbe
00000140: 84e1 24bc 9c03 543e 4ca1 22bf a0bc d3bd
00000150: 7753 a13d 7697 093f 9601 b83e e87e 0bbf
00000160: 29fb d8bd b1e3 83be 8a0d 9cbd bc0b cebe
00000170: 555d 30bf 7ce8 183e 4bca b5bd 645f f53e
00000180: f4c5 893e 668c 80bf 6553 113d 04b3 86bf
00000190: fef3 59be 2fe6 883e dc23 d83e fd8f acbe
000001a0: e60e 133f 5bd5 8dbf a275 32bf 4c66 8bbf
000001b0: f2e5 15bf e5eb a6bd 504e 0bbc 0e86 723c
000001c0: 6277 9d3d 025c a8be 79aa 18be 3ad5 edbe
000001d0: 8c76 353a 1529 863e 8525 b9be c62b 5dbe
000001e0: 62f9 1dbf a9db d63e 97f9 8bbd 2d9b f53d
000001f0: 51e1 73bf 36c7 81bf dbaa 2a3c b8f5 3fbf
00000200: f44b 70be 3ed6 513f 7a9f 2a3f 2829 61be
00000210: 6dcd f0be e6d2 41bf 48fb 47ba 7932 e13d
00000220: 8cdc c83d 7e1a ae3e 300d e73e 43ec 903d
00000230: 012c a33d 4de6 ebbe a615 983e 23ff 963e
00000240: 3b2c 763e b346 eebe f6c4 3dbe d8da 1bbe
00000250: 0856 143f 2da4 ce3e 1400 133e 5a77 5e3e
00000260: 429e 4f3e ea5a bb3d 351a eebd 38f4 d0be
00000270: 07fe fcbd 5344 043f 6cba 0c3f a778 4cbf
00000280: f64d 393f 022c 88bf 4caf b3be 8088 c8bd
00000290: 2bd4 113f 72ee 57be aa87 d8bb b2f9 e53e
000002a0: 6e3b c1be 9659 053e a6d6 d7be 3f78 95be
000002b0: 0b9a 683e a714 3d3e b48c 563e 0f03 923e
000002c0: e0a8 af3e a19f b2bf 7c9b 3d3d bd77 cd3d
000002d0: c3c0 553e db40 6cbf 5ea1 17bf e8a4 8a3d
000002e0: 8ce6 f5bd af70 95bf 4f64 fc3e 38d7 73bd
000002f0: a380 16bf e621 f2be 88f6 613c 571f ff3e
00000300: d09f 303e e5af cdbe cea8 bbbd 3231 dcbe
00000310: 3e8d 36bf 706f 08bf f52e ef3e b58a 1e3e
00000320: a092 21be e899 e7be abe9 02bc b177 49bf
00000330: 5a2c 44bf 2f43 3b3e 7323 15bd 8160 483e
00000340: d541 493e d72c 8d3d 649d 37bf 2296 3cbf
00000350: 854f 553f b8b2 043d bcd1 443e cd42 9abe
00000360: fcf8 c5bd b6f9 4c3f 088b 92be 1648 163f
00000370: 3bab 11bf 506b b6bf 6aea a63e 3cba b2bf
00000380: 77a0 14bf adf7 06be 4531 aebd cd1a e0bd
00000390: 59dc 3e3e 8684 de3e 043e 0a3f c7b3 1fbe
000003a0: 3df4 3bbe 0274 15bf 40b1 77bd 92a6 ca3c
000003b0: 5989 dbbe 3e02 89bf 8733 403e a371 8c3e
000003c0: f63a 313e ea74 063f 681c 4c3f d763 24be
000003d0: cee1 3ebf 2776 d23d cead de3c 10cd d53e
000003e0: 2dfe e73e 8d49 0bbd 03a5 4cbd 78d4 5c3d
000003f0: 7202 3dbf d1d7 71bf a6f7 ee3e dc25 7b3e
0.17898497 -0.48007885 0.10027067 -0.14600042 -0.12053566 0.9779186 0.27381724 -0.017322663
-0.6354456 -0.121724136 -0.73354626 0.2827349 0.17768328 -0.16529433 0.37956285 0.19948275
-0.45228854 -0.9991445 0.046952482 -0.51024073 -0.8051141 0.5518096 0.08091384 -0.23961546
0.5721952 0.3814015 -0.2094641 0.1584869 -0.012271972 -0.14036293 -0.4878289 -0.3209686
-0.14347988 -0.15731838 -0.4117381 -0.81801903 0.5636847 -0.12630528 0.87208796 0.40302083
-0.22321546 0.18893348 0.497948 -0.5471819 -0.1632942 -0.32198107 0.10881297 0.028997963
0.12726298 -0.5862513 -0.040594738 -0.03514823 -0.46074578 -0.8863067 0.34698528 0.17651118
0.119382285 -0.0091838585 0.067003556 -1.0656093 0.09402071 0.006864375 0.19743681 0.0666713
0.45944735 0.037540544 0.13639934 0.1390404 0.13454878 -0.16507754 0.13833576 -0.22159435
0.39624834 -0.010295238 -0.34648466 -0.22865067 -0.51510876 0.27661675 -0.037783816 -0.24709032
-0.010063533 0.20704502 -0.6352737 -0.10338712 0.07877248 0.53746736 0.3593871 -0.5449052
-0.1059478 -0.25759652 -0.0761977 -0.40243328 -0.68892413 0.14932436 -0.08876475 0.4792434
0.2690884 -1.0042846 0.03547992 -1.0523381 -0.21284482 0.26738116 0.4221486 -0.33703604
0.5744461 -1.1080736 -0.69710743 -1.0890594 -0.58553994 -0.08150462 -0.008502558 0.014802469
0.07688786 -0.32882696 -0.1490878 -0.4645174 0.0006922267 0.26203218 -0.36161438 -0.2159873
-0.6170865 0.41964462 -0.06834715 0.11992488 -0.9526568 -1.0138919 0.010416712 -0.7498431
-0.23466474 0.8196753 0.6664959 -0.21988356 -0.47031727 -0.7571243 -0.00076286914 0.10995955
0.09807691 0.34004587 0.4512725 0.07076313 0.079673775 -0.46074143 0.29704016 0.2949153
0.2404031 -0.46538314 -0.18532166 -0.15220201 0.57943773 0.4035963 0.14355499 0.21725217
0.20275214 0.091482 -0.11626092 -0.40811324 -0.12353139 0.51666754 0.5497196 -0.798716
0.72384584 -1.063843 -0.35094678 -0.0979166 0.5696437 -0.21087053 -0.0066079693 0.44917065
-0.37740654 0.13022456 -0.4215595 -0.29193303 0.22715013 0.1846491 0.20952111 0.2851796
0.3430853 -1.3954965 0.04629086 0.10032604 0.20874314 -0.9228646 -0.592306 0.067697346
-0.12006864 -1.1675013 0.4929528 -0.05953142 -0.58790034 -0.47291487 0.013791688 0.49828598
0.17248464 -0.4017326 -0.09163056 -0.43006283 -0.7130927 -0.5329504 0.46715513 0.154826
-0.15778589 -0.4523461 -0.007990281 -0.7869826 -0.76630175 0.18287347 -0.03641076 0.19568063
0.19654019 0.06893318 -0.71724534 -0.73666584 0.8332446 0.032397002 0.19220632 -0.3012909
-0.096666306 0.8006853 -0.28621697 0.58703744 -0.569019 -1.4251499 0.3260072 -1.3963084
-0.5805735 -0.13180418 -0.08505491 -0.10942612 0.18638743 0.43460482 0.5400088 -0.15595923
-0.18354888 -0.5838014 -0.060471773 0.02473763 -0.42878225 -1.0703809 0.18769656 0.27430448
0.17307648 0.52522147 0.79730844 -0.16053711 -0.745633 0.10276442 0.027182486 0.41758013
0.45311108 -0.03400569 -0.049962055 0.053913563 -0.73831856 -0.94469935 0.46673316 0.24526161

fc1.bias f4 [256]
00000000: 52de 8fbe 3ff8 cbbe 21eb c4be 9b51 f43e
00000010: 8b85 893e 99c3 c73e 239f 5f3e 7f21 c4be
00000020: b63b d53e a956 753e b57d 19be 1316 a5be
00000030: f1f3 b0be dc9b ad3d 4529 cc3e 05e4 03bf
00000040: 624d 03be 9bbc 39be c339 fa3e 2448 b53e
00000050: 5ba9 ee3c 92bc ef3d 8823 5bbd 1b78 9f3e
00000060: 2363 5ebe 9e1f 11bf e6ff 0fbf 9267 b5bd
00000070: 7556 e13e db30 b13e 7550 e3bd 588b 4e3e
00000080: 634d 49bd 3481 c93e bdab 27be 27db f03e
00000090: 608d 0b3f 883c e13e 32e4 b8be 5069 6dbe
000000a0: f3b3 3abe 4636 03be ed49 71be 1b14 20bf
000000b0: 5653 b23e e376 833e fe63 81be d8a9 b8be
000000c0: d635 b13e 2996 023e d63c 133f ab72 58be
000000d0: 17e3 d23e aa1c fd3e 012d 013f e560 013f
000000e0: 1e46 e33e b238 2f3f 1bf6 aa3e a216 483d
000000f0: 1e84 53be 9345 a63e 8da7 843e 5b58 afbd
00000100: 5f3d e2bc 2bfb c83e d6b6 013d 29c9 613c
00000110: bfb0 b33e 950e a63e 4cec 9f3d 03ca b6be
00000120: 6efd 9fbe 8bd7 743d 86a7 6a3e 9492 f5be
00000130: baa4 76bd d71b c4be bae6 ec3d 7adb 043f
00000140: c692 a8be d4bf a43e b520 db3e 75ff d53d
00000150: 5346 123e 84e2 453e 9602 7a3e 9af9 1bbe
00000160: 64e4 e83e 5a50 453d 3fde 9d3e cb75 56be
00000170: e433 2c3c 140d c83e 9d7d 0a3f 8f8c 79be
00000180: ea87 973d 4a1a acbc c4fa 0e3f 5ef3 833e
00000190: 6742 083f cac0 043e afaf 1fbf bea9 113f
000001a0: 9bcc bdbe bd2c f9be b0a5 e23e d96e b73e
000001b0: f8ac 12be c156 b43e 4a65 d3be 2d48 86bd
000001c0: eab0 53bc e0ab 713d ba05 ba3e 56a5 643e
000001d0: 4b8b cd3e 6355 7c3a f746 0f3f dc85 2bbf
000001e0: 5b0b 98bd 4081 4f3e 092f 393e 5c3f f23e
000001f0: ca2e 303e 50be 1b3e 9ef0 e63e b245 e03e
00000200: 43fb 07bf 3518 bd3e 1fcd f33e 193f b0bd
00000210: eab5 fabc 432b d03e 7e23 313e 3c16 4a3d
00000220: 31a2 a63e a3df 0f3f a259 9c3e 368b 003f
00000230: 7e1a edbe 2f3e fe3c 8f85 2c3f a220 723e
00000240: 561c e13e e8d1 a2be b4d8 833e b944 d5bc
00000250: 81d0 073f 5c56 113e 5181 48be 8ef0 993e
00000260: 2277 ecbe e3ee af3e 15e4 da3d 6f4d f43e
00000270: 989e 30be a42b 803e 984f c23c 4976 5d3e
00000280: d832 b8ba 18c9 363e bec0 133f f2c9 a93c
00000290: ebbc babd b0f3 8cbe ca63 673e 8b91 dc3e
000002a0: 28ec afb9 c854 f9bd 4bb9 433e b765 193e
000002b0: 2fe6 14bf fe12 42bf 9db3 05be 7f67 1ebf
000002c0: b2d2 32bf f009 1d3f 4a46 6e3e a957 c43e
000002d0: 248e 833e f017 93be 6d99 a23e f192 2cbe
000002e0: 826a 2b3e 8804 513e ba3d d6be f2ce ee3e
000002f0: ae26 ed3e efb7 663e e5cd a43d 4f8c 953e
00000300: b88c 823e b52c 3c3e af03 483e 2e98 553e
00000310: 0540 d33e ce98 febe 853f 06bf b9a9 133e
00000320: d934 fd3e 7c2f 51be 577a d83e 153c 833e
00000330: a1c2 073f 5ee8 9bbe a622 2d3f 83f6 3fbd
00000340: d7c5 b13e 6291 ccbe 54fd 5b3e ab4d 6dbe
00000350: 6368 5dbe 879e 3a3f 6e62 973e 5eb6 af3d
00000360: 72a0 83be cc66 453f 175c 2ebf e40f 5d3e
00000370: fae9 65be 387b 513e 6497 cdbd 73ea 10bf
00000380: d0cf bc3d 14e6 0ebf de91 993e f915 0d3e
00000390: 85f4 10bf d996 15be 71ee 893d 37ca 103f
000003a0: 532d 0a3e c1c7 213f 7993 4f3e 2c7b 47bf
000003b0: 383d ab3e 73af 53be 2b9a b63e 3b10 15bd
000003c0: c914 c5be 98c4 003f 9733 2a3d 5a41 c33e
000003d0: 17b0 8c3e c4f9 9bbd fab6 38bd 4efb de3e
000003e0: 1e43 f73e 5b2e c5be d748 e63e 6868 803f
000003f0: 0381 413e 8b08 9c3e 0e4d ab3e 2075 273c
-0.28099304 -0.39837834 -0.3846064 0.4771851 0.26859698 0.39016417 0.2183805 -0.38306805
0.41647118 0.2395884 -0.1498936 -0.32243404 -0.34561113 0.084769934 0.39875236 -0.51519805
-0.12822488 -0.18138354 0.48872194 0.354066 0.02913349 0.11705889 -0.053500682 0.3114632
-0.21717505 -0.5668887 -0.56249845 -0.08857645 0.44011274 0.34607586 -0.1109933 0.20170343
-0.049146067 0.39356387 -0.16374107 0.470422 0.54512596 0.43991494 -0.361116 -0.23184705
-0.18232708 -0.12813672 -0.23563357 -0.6253068 0.34829205 0.2567664 -0.252716 -0.3606708
0.34611386 0.12752594 0.57514703 -0.21137492 0.4118888 0.4943593 0.50459296 0.50538474
0.44389433 0.68445885 0.3339089 0.04884971 -0.20655867 0.32474956 0.2590908 -0.08561774
-0.027617155 0.39254126 0.031668507 0.0137808705 0.35095784 0.32433 0.07808742 -0.35700998
-0.3124804 0.05977587 0.22915468 -0.47963393 -0.06021569 -0.3830249 0.11567445 0.51897395
-0.3292448 0.32177603 0.4279839 0.10449115 0.14284639 0.1932469 0.24415049 -0.15231934
0.45486748 0.048172332 0.30833623 -0.20943372 0.010510419 0.39072478 0.5409792 -0.24370025
0.073989704 -0.02100863 0.5585139 0.25771612 0.5322632 0.12964168 -0.62377447 0.5689963
-0.37070164 -0.48666945 0.44267035 0.35826758 -0.14323795 0.35222438 -0.41288215 -0.06556735
-0.012920598 0.059001803 0.36332494 0.22328696 0.40145335 0.0009625761 0.5596766 -0.6700113
-0.07424041 0.20264149 0.18084349 0.47313964 0.17205349 0.15209317 0.4510545 0.43803173
-0.5311777 0.3693253 0.47617432 -0.08605785 -0.030604322 0.40658006 0.17298695 0.04933761
0.32545617 0.5620062 0.30537134 0.5021242 -0.46309274 0.03103551 0.67391294 0.23645261
0.4396693 -0.3180077 0.2575127 -0.026033746 0.53052527 0.141931 -0.1958058 0.3006634
-0.4618464 0.34361944 0.106880344 0.47715327 -0.17247999 0.25033295 0.023719594 0.21627153
-0.0014053239 0.17850149 0.57715976 0.020726178 -0.091180645 -0.2752967 0.2259666 0.4307979
-0.0003355455 -0.12174374 0.19113652 0.14980207 -0.5816373 -0.7581023 -0.13056798 -0.6187667
-0.69852746 0.6134329 0.23269 0.3834813 0.25694382 -0.287292 0.3175768 -0.16852929
0.16739848 0.20411885 -0.4184397 0.46642262 0.46318573 0.22531103 0.08047084 0.2920861
0.25497985 0.1837643 0.19532655 0.20858833 0.4125978 -0.49725956 -0.52440673 0.14420213
0.49454382 -0.2042827 0.42280838 0.25631776 0.53031355 -0.3045072 0.67630994 -0.04686595
0.34721252 -0.39954668 0.21483356 -0.23174159 -0.21621852 0.72898144 0.29567283 0.08579706
-0.25708348 0.7710998 -0.6810927 0.21588093 -0.22452536 0.2045716 -0.10038641 -0.5660774
0.092193246 -0.5581982 0.299941 0.13777913 -0.5662311 -0.14608325 0.06734932 0.56558555
0.13493852 0.63195425 0.202711 -0.7792232 0.33445144 -0.20672397 0.35664496 -0.03639243
-0.3849242 0.5029998 0.041553106 0.38135797 0.27478096 -0.076159984 -0.045096375 0.43551105
0.48293394 -0.3851193 0.44977447 1.0031862 0.1889687 0.30475268 0.33457226 0.010220796

fc2.weight f4 [128, 256]
00000000: 701e 17be f434 0dbf b692 c8be 47f0 4cbe
00000010: 134d 9c3e 9f24 c1bd 6d49 57be 8bb0 c2be
00000020: 77cc 9e3c e442 5a3e 380d abbe 35d4 fcbe
00000030: f836 c23e 5d5d d13e 3871 d03c a9e6 8bbe
00000040: cc0c 8f3e 231d f1bd d460 9bbe 492f d23c
00000050: c0cc c1be 51e8 d8bd 39c6 923f 03f0 e0be
00000060: ab52 cfbe 6b9c 2cbf 09a4 e6bf 0e19 cabe
00000070: 682e efbe 130f 5fbe 7fe2 9fbe 0d0a 33be
00000080: 2442 17be fc78 e0be 9d7f f03d 9237 273f
00000090: 3975 073d bb77 cdbd d150 d2be 375c 553e
000000a0: c0e5 4bbe 5356 11bf e41f c73e d3a3 93bf
000000b0: 66e3 fbbe 0a31 0d3f a1fb fdbd 7f1f f2bd
000000c0: 85a4 363f d6ef ee3e 04e4 f6be 5054 c13e
000000d0: f7ef d5be 671f 81be dbd9 b2bd 260f 073e
000000e0: ed7e 0b3e 8fae 663f cdae 3cbe 2d99 07bf
000000f0: 9f15 f33e 28cd 073e 4bc7 29bf 58eb c13d
00000100: 1eac adbe 0dcf 17bb 5caf 293f 2f45 823e
00000110: c4e9 473d c059 febb a497 963f ba86 fa3e
00000120: bdf1 e13e cfec 74be 5029 3a3e e2ba 0bbe
00000130: 185c 4dbe fd75 fcbe 7773 253f a30f 313f
00000140: 71ef 763f a43a ebbe d228 c8bc 6bb3 05be
00000150: 64ad e4bd 9ac1 303f e6ff bc3e 59aa 95be
00000160: dafb 0c3e 354c 923e 7679 3cbd b7cc f1bd
00000170: bbec 613d 327e b2be 438b 023f 5a51 26bf
00000180: 695b e1be 4cc6 d33e b7f8 b93c ebbb 623e
00000190: 9287 84bd 1d89 163f e977 62bf d2cd 6abf
000001a0: 3391 aabe 794c aabf 9d11 b9bd 2be9 053e
000001b0: fadf 943d eb98 913d 4c66 79bf 2159 34bf
000001c0: cf7a ab3e c5ca 953e 9673 883c 5166 223f
000001d0: 2779 69bf e701 26bf 58a3 37bd a748 1fbf
000001e0: c623 aa3e 6cad ed3e 407b 02be a820 cf3e
000001f0: cf16 063f f0e9 1f3e 2bfc 8f3d 854a 393e
00000200: b72a 86bd e641 a4bd f793 cabe bc99 04bf
00000210: 78e4 82be f456 2d3e b5b8 383e ecf2 8dbe
00000220: fc5c 88bd bed5 d2be e3d8 0cbf a8b1 423f
00000230: 45f9 11bf b74e a4be 50b2 21be aef8 aa3e
00000240: 30e0 913d df30 a3bf dcff 623e 8e5b 52bf
00000250: 3e6c e13e 83d9 273f 2d95 b1be 2291 e1be
00000260: 752c 54bf 5d97 333f fdf7 f83e 9d18 c2be
00000270: 5c67 27be 6b92 bcbe 5518 3f3f b95a d43d
00000280: 872d 123f a6b9 5c3e bdb7 093f a768 983e
00000290: e84f 703f 5102 d5be 49f8 9c3e f0cd 51be
000002a0: b3fc 033f fbae b6be 1843 49be 5ef8 0abf
000002b0: 1163 cb3e d542 b03e 7c9b 4abe 1a3d f9be
000002c0: 680c 9ebf f1e3 2b3f 7c4d b5be c585 663d
000002d0: f1fa 853c 9f61 b1bf 5a78 853e 0a88 d6be
000002e0: b228 893e 6b83 273e f9d5 963e 9a75 df3e
000002f0: 3b47 17bf 1599 a6be da6d 233e 92d3 a8bc
00000300: 981f 1ebc e351 18be 385d b3bd 8e46 813e
00000310: 49d5 ba3c a58e 01bf 0f92 c53e dba9 ec3e
00000320: 1db0 1fbf d326 9a3f 0bef 23bf 6e0c c63e
00000330: edde 4b3f 5972 46bf aba8 37be e5f8 db3e
00000340: b00c d5be 327c 56bf d45c 89bc 6082 2fbf
00000350: 5976 a4be 1e95 1f3e 234d 0cbf 9a52 0dbf
00000360: 8557 09bf fb80 183f baf1 f2bf 60a7 cd3e
00000370: ad1a 37be a8d1 e3be e488 09bf a063 ccbf
00000380: 1bb5 1b3f bfbf f23f 3584 953e 11ea 943c
00000390: 6958 a5bf abeb 02be 32eb f73e 90cb d73e
000003a0: b436 983e eb97 a0bd 05e7 c43e b2dd 083f
000003b0: 519d fc3e 6da1 5a3f dd22 4abe a2d9 553e
000003c0: d043 b7be a619 59bd b56a 783f 161f d3bc
000003d0: 0829 a43c 9533 5f3f 4f42 b8be 6037 cd3d
000003e0: d31d 733f 20d6 bb3c 5c6e 94bd 5000 eb3d
000003f0: 0195 513f 5d97 0d3d 072c 16bf 53d3 a93e
-0.14757705 -0.55158925 -0.39174432 -0.20013534 0.30527553 -0.09430813 -0.21024103 -0.38025317
0.019384606 0.21314579 -0.33408523 -0.4938065 0.37932563 0.40891543 0.025444612 -0.27324417
0.2793945 -0.117731355 -0.30347311 0.025657313 -0.37851524 -0.10591186 1.1466743 -0.43933114
-0.40492758 -0.67426175 -1.801881 -0.3947224 -0.46715093 -0.21783094 -0.3122749 -0.17484303
-0.14771324 -0.43842304 0.1174309 0.6531917 0.033070777 -0.100326024 -0.41077283 0.20835958
-0.19911861 -0.56772345 0.38891518 -1.153437 -0.4919693 0.5515295 -0.1240151 -0.11822414
0.71344787 0.46667355 -0.48220837 0.37759638 -0.4178464 -0.2521927 -0.08732959 0.13189372
0.13622637 0.90110105 -0.18426056 -0.529681 0.47477433 0.13261855 -0.6631972 0.094687164
-0.33920377 -0.0023164183 0.662832 0.25443408 0.04880692 -0.007762164 1.1765027 0.48930913
0.44129744 -0.2391846 0.18179822 -0.13645509 -0.20054662 -0.49308768 0.6462931 0.69164485
0.9645911 -0.45943177 -0.024433527 -0.13056724 -0.11165884 0.6904541 0.36913985 -0.29231527
0.13767949 0.28573766 -0.04601427 -0.118066244 0.055157404 -0.34861904 0.50993747 -0.6496788
-0.44015053 0.41362226 0.022701604 0.22141998 -0.064711705 0.5880297 -0.8846422 -0.91720307
-0.33313903 -1.3304588 -0.090365626 0.13077228 0.07269283 0.07109245 -0.9742172 -0.704485
0.33492133 0.29256263 0.016656678 0.6343737 -0.9120049 -0.6484665 -0.04483351 -0.62220234
0.33230418 0.46421373 -0.12742329 0.40454602 0.52378553 0.15616584 0.07030519 0.18094833
-0.06551116 -0.08020382 -0.39566013 -0.5179708 -0.25564933 0.16927701 0.1803921 -0.27724397
-0.0665836 -0.41178697 -0.5501844 0.7605233 -0.5702098 -0.32091305 -0.15790677 0.33392853
0.071228385 -1.2749289 0.22167915 -0.8217095 0.44027895 0.6556627 -0.34684125 -0.4405604
-0.82880336 0.7015284 0.486267 -0.37909403 -0.16348022 -0.36830458 0.746465 0.103688665
0.5710072 0.21555194 0.5379599 0.29767343 0.9387193 -0.4160333 0.30658177 -0.20488715
0.51557463 -0.35680375 -0.196545 -0.5428523 0.3972402 0.3442599 -0.19785875 -0.4867943
-1.2347536 0.67144686 -0.35410678 0.056279916 0.01635501 -1.3857917 0.26068383 -0.41900665
0.2678886 0.16358726 0.29460123 0.4364441 -0.59093064 -0.32538667 0.15959874 -0.020608697
-0.009651087 -0.14874987 -0.087580144 0.2524914 0.02280678 -0.50608283 0.38587996 0.4622334
-0.623781 1.2043098 -0.64036626 0.38681358 0.7963703 -0.7751823 -0.17935435 0.4296333
-0.41611242 -0.83783257 -0.016767897 -0.6855831 -0.32121542 0.15584227 -0.548052 -0.55204165
-0.5364917 0.5957181 -1.8980019 0.4016676 -0.1788127 -0.44495893 -0.53724504 -1.5967903
0.6082322 1.8964766 0.29202428 0.018178018 -1.2917606 -0.12785213 0.48421627 0.42147493
0.29729235 -0.07841476 0.38457504 0.5346328 0.49338773 0.85402566 -0.19739862 0.20883802
-0.35793924 -0.053002976 0.9703782 -0.025771659 0.020039096 0.8718808 -0.3598809 0.100203276
0.94967383 0.022929251 -0.07247612 0.11474669 0.81867987 0.03456818 -0.5866093 0.3316904

fc2.bias f4 [128]
00000000: 875c d33d 33af 1a3d e2ba 88bd 610a dcb8
00000010: 0663 3f3e 260e 8ebd a351 ce3d de4a 39bd
00000020: 9257 0b3d 5e4c c9bb 9db0 b33d db41 1cbd
00000030: b32a 41bd 0f89 7fbd d727 a63d fae5 733b
00000040: 946a 8ebd 5221 e13e 1914 e03b 820d 02be
00000050: 92dd 3c3e 4481 6bbd e746 ca3d f43a 843a
00000060: f507 653c 0e8d e43d 5411 be3d fff8 873d
00000070: d0c1 5abd c3a1 e53e 21fc 2c3e 32c7 b53d
00000080: ef99 1fbc 59c9 b23e 4d62 923c 86e3 0b3e
00000090: 2e27 213e df4c 153a 7429 373b 40b6 b23d
000000a0: 4069 313e ff2c 15bc 9f39 22be 6f1d 293d
000000b0: bf11 d7bd c005 0d3c 37a9 b3bc 6ea2 7b3d
000000c0: 82b5 813d ca63 f93b d65c 01bd bb14 c43d
000000d0: ed14 8dbd 2372 f33d ba70 bf3b 7640 b03e
000000e0: c1e2 833e 3a24 dbbd bd7a ca3d a3e2 ab3e
000000f0: 467b 193e e0c6 143e 7401 763d 1e52 80bd
00000100: 3c20 60bd 66b7 4b3b 12b5 a1bd 239f 1d3e
00000110: 3b4c 453c 3ffd 703e 073a 563e 5c64 16bd
00000120: 6fef b9bc 206b 9e3c 768c e0bd c380 fe3d
00000130: bbb3 53bd c133 fabd 8643 c4bd b52b bcbe
00000140: 8c28 3a3d c326 3bbd 8e6a 56bd 7604 333e
00000150: 7461 3a3e 62f4 5ebd 34ef ee3b eac4 893c
00000160: 74bb c03c 3673 e23e a3c0 993d 9f83 123e
00000170: 7e37 06bd b14b ab3b 110a 4b3e b1e7 09bd
00000180: 93fb 30bd 3ccb 20bc cbab 263e 7024 093e
00000190: c36a 35bd c005 553d 43e3 65bb 2b34 21bc
000001a0: d85d 213e 0513 e8bb e7a9 bebb 7484 2d3d
000001b0: 7644 be3d cb2e 613e 6401 163e dade c93b
000001c0: 9be0 da3d ea0f ec3d 1257 803e a1f5 893e
000001d0: 092d fb3d 5988 21be 5ec9 283e 9dbe 9dbb
000001e0: 93de c03d b93e 89bd 9c8c 7cbd f189 573e
000001f0: 4c2f d4bc 24f8 403e 594b d0bd fd1b 93bc
0.103203826 0.03776474 -0.0667627 -0.00010492351 0.18690118 -0.06936292 0.10074165 -0.045237415
0.03401906 -0.006143137 0.08773921 -0.038148742 -0.04715986 -0.06238657 0.081130676 0.0037215934
-0.06953922 0.43970734 0.0068383333 -0.12700465 0.18443897 -0.057496324 0.09876805 0.001008837
0.013978948 0.111597165 0.09280649 0.06639289 -0.05340749 0.44849977 0.16893055 0.08875884
-0.0097412905 0.3491924 0.01786914 0.13661012 0.15737602 0.00056953536 0.0027948292 0.08726168
0.17325306 -0.009104966 -0.15842293 0.041287836 -0.10501432 0.008607328 -0.021931274 0.061434202
0.06333448 0.0076107727 -0.031582676 0.095742665 -0.06888757 0.11887004 0.0058422955 0.3442418
0.25758937 -0.10700269 0.09886692 0.33571348 0.14988431 0.1452899 0.06005998 -0.062656626
-0.05471824 0.0031084656 -0.078958645 0.15392737 0.012042101 0.23534106 0.20920573 -0.036716804
-0.022697179 0.01933819 -0.10964291 0.12426903 -0.051685076 -0.122169025 -0.095831916 -0.36752096
0.045448825 -0.045691263 -0.052347712 0.1748217 0.18201238 -0.05443228 0.007291699 0.016817529
0.023526885 0.44228524 0.07507446 0.14308022 -0.032767765 0.005227529 0.19828059 -0.033668224
-0.04320867 -0.00981408 0.16276471 0.13392806 -0.04429127 0.052007437 -0.0035078085 -0.009839098
0.15758455 -0.0070823454 -0.005818594 0.042362645 0.09290402 0.21990506 0.14648968 0.006160599
0.10687371 0.11526473 0.2506643 0.26945212 0.12264449 -0.15774669 0.16483065 -0.0048139826
0.09417453 -0.067014165 -0.061657533 0.21048714 -0.02590146 0.18844658 -0.101706214 -0.017957682

fc3.weight f4 [4, 128]
00000000: 5279 753f 1643 713e 7218 2abf fd7b 17bd
00000010: d775 19bd 40c6 51bc 04d5 5d3f a80c 3abf
00000020: 15c3 8abf 2c79 8d3d 2f27 593f ca9f 06bf
00000030: 1ab8 31bf 0865 23bc 8f98 6f3f 67a7 cdbc
00000040: a06a 3bbf 794c 24bf 9348 a43d 90b0 0dbf
00000050: 3ebc 853f f6a2 27bf 5b1b 713f f8e0 05bd
00000060: 92a0 703d f03d 823f 7eaf 5d3f d3c7 733f
00000070: 5cf8 013d dbdb 94bf 165b 553f 3fd4 ab3f
00000080: 7a1b 07bf 997e a6bf b50c 903b 3aba 6b3f
00000090: 3d6a 863f 9663 943d ed09 963e ce7a bcbe
000000a0: 85b1 293f d3a3 983d 5106 b83f fd0b e83c
000000b0: a2ce 4bbf c9f2 043d 1d95 93bd ab2e 0e3f
000000c0: 6ee8 ccbf 882f e5bf 6b79 9f3d e98b 673f
000000d0: aa27 6fbe 44c9 babe a88b 5fbf 3c2d 26bf
000000e0: 46af 82bf 0e9c 2fbf b627 4ebf 12c9 923f
000000f0: dfc2 b3bf 5f38 593f b056 59bf 7bf2 eb3c
00000100: 2e38 06bf 3654 8f3c 55b9 8d3c 3f0f efbe
00000110: 1d0a b4be da3d a7be 294b 96be ae3a ba3e
00000120: 8b52 64bd 4cf7 aebc 0043 753f 6365 063f
00000130: 005f 933a 218b de3e 8e4d 42bd 0b76 29bf
00000140: fb87 553c 718d a9bd 2ee7 9c3d fbfb 05bf
00000150: dcbe 88bf 1738 41bf 8c10 463f 6256 34bd
00000160: d27b 3bbf 2d05 32bf 7cbb 173f 3f5d ff3e
00000170: 589b 1bbf de4f 7a3f 31d1 5b3f e55a a43d
00000180: 16c1 2f3e 17c9 843d 8de6 f1be e588 8a3f
00000190: 4c9c 49bf d659 79bf 8cb9 093d 9954 153f
000001a0: 67d6 77bf 8308 07bf 7f08 873d c99a 84bf
000001b0: b7a7 24bf 1ac2 e0bf f9b7 923f f8a0 6a3d
000001c0: 2fb1 833f 82c1 513f 5aa9 a23f b46f dcbe
000001d0: 60ad 553f 4f0b 043f 3cdd 563f 036a a6bc
000001e0: 7342 873f 9501 dfbb 928d a5be 2898 af3f
000001f0: 040d 02c0 a3ed 1c3f da13 12bf fe38 32bd
00000200: 04be 733f 4d0e 623d 1daa 83bf caf8 e9bb
00000210: 3853 52bd 32fa 113d b332 523f 92a1 55bf
00000220: 6cc6 99bc 73b0 293d 23ff 023f c721 05bf
00000230: 2392 86bf cbd2 b0bc 032d 853f b109 39bd
00000240: c1bf 76bf 2f8b eabe 258f a13c 2679 6bbf
00000250: 388c 773f 001e 48bf 23a7 643f 203d b73c
00000260: 74f2 68bc f6e6 743f 25a0 3b3f 25a4 843f
00000270: ed35 68bd 1af0 3dbe 97f5 863f 5891 ad3f
00000280: f54a 2dbf 3101 83bf 8d15 273d e243 483f
00000290: 2ee1 673f ae38 b6ba 5574 753f 4683 21bf
000002a0: feba 243f f417 823d c68d 1ebf bc98 973d
000002b0: 2744 40bf 0895 343d 64f5 523d 1c64 913e
000002c0: dafe bcbe 3c60 38bf 404f e43b d6f7 6c3f
000002d0: 8c62 85bf 1975 5dbf c1de 8ebe 4d25 41bf
000002e0: a520 67bf 33a1 3ebf e2e3 6abf 61f0 8d3f
000002f0: c9c2 f9be 15ad 763f 857b 62bf 7610 893d
00000300: 35f7 e3be 81f4 4d3d 1a81 d93b 44c3 fbbe
00000310: 7002 22bf 13a0 29bf 6abe a2be 5a04 193f
00000320: 302a a73b 4198 4bbb 3636 cfbe 0470 f23e
00000330: 7abc 9bbd 4f05 f43e 7cd8 983e a314 2e3f
00000340: 23e4 89bd 64a9 b93c 879e 37bd 481b e23e
00000350: a6f2 4a3d 89b9 56bf fb62 da3e 4542 5b3d
00000360: 602f 54bf c66a 8dbf bf10 c23e 358e da3e
00000370: e740 08bf 2c66 f13e 55b3 a03f e666 98bd
00000380: bbd1 1f3f b6f7 a23c 6968 0dbf 6310 a73f
00000390: 7fce 2ebf 4453 4ebd a895 00bc a03d 143e
000003a0: e8a5 7cbf 12ce 58bf c9f8 a83b fd78 b0be
000003b0: d5b2 3fbf d250 92bf 2c0c 463f bf40 eb3c
000003c0: 809f 6e3f 2e5f 453f 8929 9c3f 2226 18bf
000003d0: 70da 5f3f ef2a 963e ca44 9c3f ed89 cf3c
000003e0: 5963 7a3f f439 863d e6a2 38be 9e6c 973f
000003f0: 9ca9 95be 6aec e5be 0e9a 02bf 0322 8e3d
0.95888245 0.23560748 -0.6644355 -0.03698348 -0.037465896 -0.012803614 0.8665316 -0.7267556
-1.0840784 0.06907877 0.84825414 -0.5258757 -0.6942154 -0.009972818 0.9359216 -0.025104238
-0.7320957 -0.6417919 0.08021655 -0.5534754 1.0448072 -0.65483034 0.94182366 -0.03268525
0.05874688 1.0175152 0.86595905 0.9522678 0.031730995 -1.1629595 0.8334211 1.3424147
-0.527763 -1.3007385 0.004396046 0.92081034 1.0501171 0.07245557 0.29304448 -0.36812443
0.662865 0.07453122 1.4376928 0.028326029 -0.7961217 0.0324581 -0.072061755 0.5553996
-1.6008432 -1.790513 0.077868305 0.9044786 -0.23354974 -0.36481678 -0.87322474 -0.6491277
-1.0209739 -0.68597496 -0.80529344 1.1467612 -1.4043845 0.8485164 -0.848979 0.028802147
-0.52429473 0.01749621 0.017300287 -0.4669132 -0.35163966 -0.32664376 -0.29354218 0.36372894
-0.05574278 -0.021358155 0.9580536 0.52498454 0.0011243522 0.43465522 -0.047437243 -0.66195744
0.013032909 -0.08278931 0.076612815 -0.52337617 -1.0683246 -0.7547621 0.77369 -0.044027694
-0.7323581 -0.6953915 0.59270453 0.4987583 -0.6078391 0.9777812 0.85866076 0.08025149
0.171635 0.06483667 -0.4724621 1.0823027 -0.78754115 -0.97402704 0.033624217 0.5833221
-0.96811527 -0.5274736 0.065934174 -1.0359737 -0.6431841 -1.7559235 1.1462394 0.057282418
1.0288447 0.81935894 1.2707932 -0.43053973 0.83467674 0.51579756 0.83931327 -0.020314222
1.0567154 -0.0068056085 -0.32334572 1.3718309 -2.0320444 0.61300105 -0.5706154 -0.043511383
0.95211816 0.05518942 -1.028629 -0.0071402537 -0.051348895 0.035638995 0.8210861 -0.8344966
-0.018771373 0.04142804 0.5117056 -0.52004665 -1.0513347 -0.021584889 1.0404361 -0.045175258
-0.96386343 -0.45809314 0.019721577 -0.9198173 0.9669833 -0.78170776 0.8931753 0.022368014
-0.014217962 0.9566492 0.73291236 1.0362593 -0.056692053 -0.18548623 1.0543698 1.355998
-0.676925 -1.0234739 0.040792037 0.7822858 0.9057797 -0.001390239 0.95880634 -0.6309093
0.6434783 0.06352225 -0.6193508 0.07402179 -0.7510399 0.04408744 0.051503554 0.2839669
-0.36913186 -0.7202184 0.006967455 0.9256567 -1.0420699 -0.865068 -0.27904323 -0.7544754
-0.90284187 -0.7446472 -0.9175397 1.1088983 -0.48781422 0.9635785 -0.88469726 0.06692593
-0.44524541 0.050282005 0.0066377046 -0.49172413 -0.6328497 -0.6625988 -0.317859 0.59772265
0.0051014647 -0.0031066092 -0.40471047 0.47351086 -0.076043084 0.476603 0.29852664 0.6800024
-0.06732967 0.02266378 -0.044828918 0.4416144 0.049547814 -0.83876854 0.4265364 0.053529996
-0.8288479 -1.104821 0.379034 0.4268662 -0.53224033 0.47148263 1.2554728 -0.07441501
0.624294 0.019893508 -0.5523744 1.3051876 -0.6828384 -0.050372377 -0.007848181 0.14476633
-0.9869065 -0.8468944 0.0051566106 -0.34467307 -0.7488225 -1.1430914 0.7736232 0.028717397
0.9321213 0.7709836 1.2200176 -0.59433186 0.87442684 0.2932963 1.2208493 0.025334323
0.9780784 0.065540224 -0.18030891 1.1830022 -0.29230964 -0.44906932 -0.5101632 0.06940081

fc3.bias f4 [4]
00000000: b3f2 bd3d c3a5 86bc ccec c4bb 5736 83bb
0.09274807 -0.016436463 -0.0060096737 -0.0040042805
