models/model_run_8.pth (torch, 92165 bytes, 6 tensors)

fc1.weight f4 [200, 8]
000000 42 af 47 3f 5e d6 dc be 8f a9 b0 3e 11 b5 50 3f
       0.780018 -0.431323 0.34504363 0.81526285
000010 6e cc 50 3e 0c d0 9e 3e ba cf b3 3d bc 41 c8 bc
       0.20390484 0.31018102 0.08779855 -0.024445407
000020 c1 c3 d9 be 4a f4 d2 3e 21 df 6c 3d fb 1f ea 3e
       -0.4253216 0.41202003 0.05782998 0.45727524
000030 80 93 86 3d 26 c7 c8 bd 1e 05 c1 3e 81 da 4c be
       0.06571102 -0.098036095 0.37699217 -0.20005228
000040 08 b4 14 3e ac 3b a8 be 4d 8a 9f be 1f 8d 61 bd
       0.14521801 -0.32858026 -0.31160203 -0.055066224
000050 31 66 61 3f 79 27 95 3e 85 c9 27 3e d4 55 9e 3e
       0.88046557 0.29131678 0.16385467 0.30924857
000060 c3 33 99 3c da 5c b3 be f2 2b 7e 3e 66 a7 fa be
       0.01870144 -0.35031778 0.24821451 -0.4895584
000070 41 1d 0f bf 1b 7d 44 be b6 5b ed 3e 4e cc ef 3e
       -0.5590401 -0.19188349 0.46359032 0.4683556
000080 25 1a df 3e d3 90 06 be 15 7e d6 be d4 23 e3 bd
       0.43574634 -0.13141184 -0.41893068 -0.11090818
000090 c9 08 4f 3f 73 ef 62 3f b0 16 7d bf dd b2 bc be
       0.8087278 0.8864662 -0.98862743 -0.36855212
0000a0 37 63 22 3e b3 2e 13 bf ac 51 52 bf f5 7e f0 be
       0.1585816 -0.5749313 -0.8215587 -0.4697186
0000b0 13 d8 76 3f 5e f4 1e 3e ed 68 14 3f 02 a4 02 be
       0.96423453 0.15522906 0.57972604 -0.12757877
0000c0 60 e7 84 3e 06 d8 98 bf 26 9e 20 3f 82 fe 51 bf
       0.25957775 -1.1940925 0.62741315 -0.82028973
0000d0 83 66 ad 3e 5c 9b 00 3e c6 8b a2 be 90 09 01 3f
       0.33867273 0.12559265 -0.31747264 0.50405216
0000e0 f8 b7 0e 3e 0c b1 af be 0d 3f 32 bb 45 1c 00 3f
       0.13937366 -0.34314764 -0.0027198226 0.50043136
0000f0 08 b8 71 3e e7 de 2e be 54 7d bc 3e 39 05 be be
       0.23605359 -0.17077218 0.36814368 -0.3711336
000100 28 24 c7 3c 6e 4a f3 3e 42 b6 8c be 64 02 54 3f
       0.024309233 0.47517723 -0.27482802 0.8281615
000110 fd 2c 21 3f f9 f9 7b 3f 76 32 85 bf 75 73 e1 bd
       0.6295927 0.98428303 -1.0406024 -0.1100835
000120 34 e5 55 be 02 ab 18 bf 8f 19 90 be 42 6b 6d be
       -0.20888215 -0.5963594 -0.281445 -0.23185447
000130 96 f3 60 3f f6 bc 3e 3e 6d 20 87 3e 7d 84 72 3e
       0.8787168 0.1862677 0.26391926 0.23683353
000140 13 35 c3 3c 57 e7 34 3e 33 a5 c5 3e b2 3e 0b bd
       0.023829019 0.17666374 0.386026 -0.033995338
000150 22 e0 2a bf 84 93 e5 3d 71 90 83 3d e3 c6 ee bd
       -0.6674825 0.11209777 0.064240344 -0.116590284
000160 a7 32 25 3d 35 4f 92 be 25 bc a1 3e 04 30 08 be
       0.04033151 -0.28576055 0.31588855 -0.13299567
000170 47 fc 28 bf 0a 2a 3b bf bc f9 ab 3e be 54 f4 3e
       -0.66009945 -0.7311102 0.3358897 0.47720903
000180 27 fd 11 be 52 1f 0a bf ed ab f7 3e 9c eb 20 bf
       -0.14256726 -0.5395404 0.48373356 -0.6285951
000190 d2 7c 2b bf 48 ef 33 be 0a e5 91 3e 1a b8 cc 3e
       -0.66987336 -0.17571747 0.28495055 0.39984208
0001a0 79 fa 7d be 1f ef 5d 3e 9b 00 83 3e e1 9a a7 3e
       -0.24802579 0.21673249 0.255864 0.3273535
0001b0 48 66 8e bc 83 13 80 bf ad f5 0d 3d fb 48 d7 3e
       -0.017382756 -1.0005955 0.034658123 0.42047867
0001c0 50 1f c1 bd 57 ea 8d be 94 03 e3 3e 76 3b 9c be
       -0.094298005 -0.2771785 0.44338667 -0.30514115
0001d0 68 02 33 bf 42 3c b9 be bb f6 c7 3e 62 43 15 3f
       -0.69925547 -0.36178786 0.39055428 0.58305943
0001e0 4b 74 3f 3f 3a 93 c7 3e 6f bb c9 3e 86 f3 4c 3e
       0.74786824 0.38979512 0.39400813 0.20014772
0001f0 b4 9d 53 bf 20 f6 52 3e 83 43 e4 3b a3 57 a6 3d
       -0.8266251 0.20601702 0.006966056 0.08122184
000200 20 61 48 be e0 dd 24 be c9 b4 b1 3e ce 80 d9 be
       -0.195683 -0.16100264 0.3470824 -0.42481083
000210 1a 44 27 bf 44 30 1f bd a4 e9 65 be f4 b1 35 3f
       -0.6533829 -0.03886439 -0.22452408 0.7097466
000220 2f e8 0a be 8c 15 3f bd 94 a2 14 bf 3b 51 08 3f
       -0.13565134 -0.046651408 -0.58060575 0.5324895
000230 c6 69 4c bd be 42 31 bf b5 75 0f be d8 22 8e bd
       -0.04990556 -0.69242465 -0.14009745 -0.0694024
000240 d4 93 af bc 46 50 db be c9 5f 1a 3f 00 f5 29 bf
       -0.021432795 -0.4283468 0.60302407 -0.66389465
000250 eb 4b 68 bf 2a 1d 03 3e 22 89 8e bd d6 38 5c 3d
       -0.9074084 0.12804094 -0.0695975 0.05376514
000260 f2 b6 4f be 7d 10 3d 3f e6 57 cd bd ab 6a ba 3e
       -0.20284632 0.73853284 -0.10026531 0.36409506
000270 89 f5 02 3f f9 aa 97 3f b4 9d 51 3f 48 c6 e2 be
       0.51155907 1.1849052 0.8188126 -0.44291902
000280 64 84 27 3e 4d 69 fa be d2 6a 89 bd 69 2c 91 be
       0.16359097 -0.48908463 -0.067098275 -0.28354195
000290 a8 fa aa 3e 8b 68 69 3f 86 26 be be 7c 64 cd 3e
       0.3339436 0.91175145 -0.37138766 0.40115726
0002a0 b8 1f 9c 3e be 2a d1 3d ec 61 a9 3e f1 63 d9 3d
       0.3049295 0.102132306 0.3308252 0.106147654
0002b0 b8 b6 b7 be 5c 0b e7 be 54 86 81 3e 11 c3 f3 be
       -0.3588159 -0.45125854 0.25297797 -0.4760976
0002c0 32 e9 33 3e 68 51 5b 3d 88 c0 b8 3e 9f 72 0e bf
       0.17569426 0.053544432 0.3608439 -0.5564365
0002d0 11 d4 51 3f 7b ed c5 3e 61 c7 4f bf d1 32 ae bc
       0.8196421 0.38657746 -0.81163603 -0.021264466
0002e0 d1 c9 90 3e 27 b2 14 3e 70 57 83 bf ba 84 74 bf
       0.28278974 0.14521085 -1.0261059 -0.95515025
0002f0 19 8a a6 be 8b 4b c9 be 83 a7 2f 3c d0 0a 1f 3d
       -0.32527235 -0.39315447 0.01072109 0.03882867
000300 b1 d7 57 3f a2 1f 96 3d 72 cb 84 be 60 75 16 3f
       0.84313494 0.07330252 -0.25936466 0.5877285
000310 1c 91 07 3f 63 7c f1 be 6a 45 36 3b 1c 26 eb bc
       0.52955794 -0.47165212 0.002781237 -0.028704695
000320 b5 ba 1b 3f b6 18 5b bf 85 f2 d5 3d b6 48 e3 3f
       0.6083177 -0.8558458 0.104466476 1.7756565
000330 10 42 ba 3e 60 a3 9e 3e 87 91 27 be ac 1e d9 3d
       0.36378527 0.3098402 -0.16364108 0.10601553
000340 a0 5f d9 be 91 18 e0 3e 29 a4 4c bd af 4b 71 3e
       -0.4245577 0.43768743 -0.049961243 0.23564027
000350 fe e4 01 be 7f 8b ae 3c ee 4e 13 be 17 17 a1 3d
       -0.1268501 0.021306751 -0.14385578 0.07865732
000360 22 95 81 3f 66 f2 8e 3f c3 f8 34 3f a8 e3 b0 3e
       1.0123637 1.1167724 0.7069208 0.34548688
000370 46 b1 17 3d 73 d0 15 3f 03 e5 88 3e bd e8 95 be
       0.037034295 0.58521193 0.26737222 -0.29279128
000380 8c 87 22 be f1 46 ee be e7 9a 43 3f e2 89 86 3f
       -0.1587202 -0.465385 0.7640824 1.0510828
000390 51 90 e4 bf 5c 3a d0 be 32 52 20 3f 72 bb 1e be
       -1.7856542 -0.40669525 0.6262542 -0.15501192
0003a0 40 e0 0b bf 68 07 9d 3e 6d fb a3 be 83 44 cf 3d
       -0.54639053 0.30669713 -0.3202776 0.101204894
0003b0 12 5a 8c 3e 97 41 ce be cd 8b 81 3e 80 c5 b9 bd
       0.27412468 -0.40284416 0.25301972 -0.09070873
0003c0 31 c6 9a 3e 2f d6 22 be c8 94 c7 3e b9 fa cf 3e
       0.30229333 -0.15902017 0.389807 0.40620974
0003d0 bd fe da bd ab e1 73 3e 1e 53 36 3f d2 d6 29 3e
       -0.10693119 0.23816554 0.71220577 0.16585854
0003e0 d4 42 2a bf 30 3e 6d 3f f4 df 65 3f ad 01 19 3f
       -0.6650822 0.92673016 0.8979485 0.5976818
0003f0 f9 3d 8b bd b2 d0 7d 3f 78 7a a1 be 23 f5 5b 3d
       -0.0679893 0.9914657 -0.3153875 0.053700577

fc1.bias f4 [200]
000000 02 9a 37 3f 86 d7 71 3f 29 65 f0 3e 87 44 45 be
       0.7171937 0.9446949 0.4695218 -0.19264422
000010 af de 4a be 49 a2 5c bd 03 af 82 3d 7f b2 6a 3f
       -0.1981151 -0.053865705 0.06381037 0.91678613
000020 5f ae b9 3e 37 1b e3 3e 2b 90 5b 3f 6a b0 81 bd
       0.36265847 0.443567 0.8576686 -0.063324764
000030 65 8f f0 bd e4 cd 2f 3e 08 37 61 bd 87 5a 02 3e
       -0.117461 0.17168385 -0.054984123 0.12729846
000040 a0 bd aa be 3a fb 58 be f1 76 e9 be 69 b5 49 be
       -0.33347797 -0.21189585 -0.45598558 -0.19698109
000050 af 3a ec bd 3c 0d 88 3e 5a 08 b8 3e f5 dd 6c bd
       -0.115346305 0.26572597 0.35943872 -0.057828862
000060 98 21 28 3c 45 57 f3 3e aa 75 38 3f 72 7c 0b 3e
       0.010261916 0.4752752 0.7205454 0.13621691
000070 f7 57 22 3e 80 9e 59 3f 8d ee 9c 3d 18 35 c6 be
       0.15853868 0.85007477 0.076626875 -0.38712382
000080 00 9d b8 3e 96 07 cd be 42 31 8a 3d ea 4f 9c 3d
       0.36057281 -0.4004485 0.067476764 0.0763243
000090 be cb 39 be 56 76 63 bd 8e 4f 8d be 0c ec 8d be
       -0.18144128 -0.055532776 -0.27599758 -0.27719152
0000a0 78 57 4a 3e 86 eb 4e 3f 16 d2 04 3e 57 11 f3 3d
       0.19759929 0.8082813 0.12970766 0.11868542
0000b0 47 42 71 3f 27 0a fc 3e 60 99 c0 be fa 69 11 3f
       0.94241756 0.49226496 -0.37617016 0.5680233
0000c0 99 58 01 bd 36 f8 14 be e4 f6 db 3e 17 82 b1 3e
       -0.031578634 -0.1454781 0.429618 0.34669563
0000d0 83 2c 6c 3f c2 2f c9 3e 3f 21 10 bf 28 b6 f8 3d
       0.9225542 0.3929425 -0.5630073 0.121441185
0000e0 8b 82 b1 be 55 11 23 3f 7b 28 2d 3e 44 e0 98 be
       -0.3466991 0.6369832 0.16909973 -0.298586
0000f0 87 7f 3b 3f 06 66 45 3f b9 48 49 3f b9 b3 62 3f
       0.73241466 0.771088 0.7862659 0.88555485
000100 17 0f 13 3f c1 f0 5c 3e de a1 8a be 05 76 22 be
       0.574449 0.21576215 -0.2707662 -0.15865333
000110 3e 54 f5 3e 8e 4e d7 be b8 f1 5b 3e 28 09 d6 be
       0.47915834 -0.4205212 0.21478927 -0.4180386
000120 16 fa 47 be 5e 58 8e be 36 66 15 3f e2 40 0c 3f
       -0.19528994 -0.27801794 0.58359087 0.54786503
000130 01 6e 5c 3f 1f d3 2f be 57 6e c0 3e 2d 32 48 3f
       0.8610535 -0.1717038 0.37584183 0.7820156
000140 5a 59 11 bf fc ab 04 be 8d 31 03 3e 37 e9 06 bf
       -0.56776965 -0.12956232 0.12811871 -0.5269961
000150 4a 30 85 3e 96 85 a8 3e 28 26 d6 be c1 ea e4 be
       0.26013404 0.32914418 -0.41825986 -0.44710353
000160 54 08 a8 3e e2 47 4a 3d e4 f3 22 3f f9 f0 d5 3e
       0.32818854 0.04938496 0.636534 0.4178541
000170 59 85 3f 3f b8 45 43 be f2 c4 b6 3e 8f 47 79 3e
       0.7481285 -0.19069564 0.35697132 0.24343704
000180 a6 1e 49 3e e0 7a 7e be 88 56 f7 3e 80 60 42 3f
       0.19640598 -0.2485156 0.48308206 0.759285
000190 d8 8f ce 3e a3 61 0b bf f6 52 0a bf 5d c3 cb 3e
       0.4034412 -0.54445857 -0.5403284 0.39797488
0001a0 18 4b c3 3e 5a 03 36 3e e4 ea 99 be 92 88 27 be
       0.3814323 0.17774716 -0.3006202 -0.16360691
0001b0 4e 6d 4e 3e 87 ee 1a 3e 05 2e e9 3e 05 44 2b bf
       0.20158884 0.15130053 0.45542923 -0.66900665
0001c0 d7 1a 04 3e 26 70 77 3e 43 55 32 ba f9 aa 2f 3f
       0.12900864 0.24163875 -0.0006802866 0.6862026
0001d0 b8 bf d5 3e df 95 64 3f 5f 6a 03 bf 79 0b 12 3f
       0.41747832 0.89291185 -0.51334184 0.57048756
0001e0 b3 3a 45 be 59 93 c0 3e 8a c7 95 bd 1d b5 f6 bd
       -0.19260673 0.37612417 -0.0731345 -0.12046263
0001f0 48 60 16 3f c1 31 0a be 91 de d9 3e ad 22 55 be
       0.58740664 -0.13495542 0.42552617 -0.20814009
000200 8f a1 a0 bd 8a 33 ab bd 42 90 f5 3c c9 94 d2 be
       -0.07843315 -0.0835944 0.029976014 -0.4112914
000210 57 c8 a1 be 56 12 33 3e 20 dd 9a be 0f de d6 3e
       -0.3159816 0.17487463 -0.3024683 0.41966292
000220 06 2b 7a 3e 70 68 12 be 62 5b 3a 3d c8 8d 59 3f
       0.24430475 -0.14297652 0.045497306 0.84981966
000230 37 e5 d9 3d 14 b0 78 3f 5a 8f 1e be b0 71 f7 3e
       0.106394224 0.97143674 -0.15484372 0.48328924
000240 96 96 68 bd b4 b8 0d 3f 5c 1c 45 bd 09 b6 38 3d
       -0.056784235 0.5535996 -0.04812275 0.045095477
000250 48 d8 57 bf 65 e6 7e 3e 6a d5 ec 3e e0 52 e0 be
       -0.84314394 0.24892576 0.46256572 -0.4381323
000260 84 b3 93 be ce 2f 84 3e bd be 07 3f bb 5f 93 be
       -0.28847897 0.25817722 0.5302542 -0.28783974
000270 b2 28 e0 be 82 62 44 be 5b 99 0d bf e3 2f 57 3f
       -0.43781048 -0.19178203 -0.55312127 0.84057444
000280 b1 ee 81 3e c3 ef 22 bd 78 aa 0d 3f 2c 6f 82 be
       0.2537742 -0.039779436 0.5533824 -0.25475442
000290 68 50 82 3c 65 e3 b0 3e 44 43 a1 3e 9a c8 01 bb
       0.015907481 0.34548488 0.31496632 -0.0019803406
0002a0 78 aa 21 bc 7e 36 59 3e b4 e5 fd 3d 40 b3 d9 ba
       -0.009867303 0.21212193 0.12397328 -0.0016609207
0002b0 38 2f a9 3e 13 16 0a 3e 17 92 74 3e 29 61 ea be
       0.33043838 0.13484983 0.23883854 -0.45777252
0002c0 1f 81 00 3f a0 99 cc be 5a 25 17 3e 35 ff b3 be
       0.50197023 -0.39960957 0.14760342 -0.35155645
0002d0 63 ee b2 3e 68 26 c1 3e d7 cb 77 bd 75 d5 6d 3e
       0.349475 0.37724614 -0.06049713 0.23225959
0002e0 29 c2 a2 3e 51 00 f7 bd 71 cb c9 3e fa b2 40 3c
       0.31788757 -0.12060607 0.39413026 0.011761421
0002f0 bd 37 0a bf 55 ca 11 be d1 c7 9e 3e 80 21 3f 3f
       -0.539913 -0.1423734 0.31011823 0.7466049
000300 b9 f9 18 3b 9c c4 37 3f f0 8b 69 3f ea 9d 9f 3e
       0.0023342206 0.7178438 0.9122915 0.31175166
000310 1e ee c8 bd bb 8d c3 be ca 6f d4 3e c2 92 57 3f
       -0.09811042 -0.3819407 0.41491538 0.8420831

fc2.weight f4 [100, 200]
000000 1e 10 4f 3f 06 77 2a 3d cc 4f e4 bd a2 04 89 3e
       0.8088397 0.041617416 -0.111480325 0.26761347
000010 36 84 42 3f fc 3c 2d be 31 83 b1 3e 1b cd 17 3e
       0.7598299 -0.16917795 0.34670404 0.14824335
000020 4f 02 aa be 25 98 10 3d d6 b1 db 3b 0d 6c ac bd
       -0.33204886 0.035301346 0.0067045493 -0.084190466
000030 e3 71 c5 3e 1a f9 ab be a6 95 26 3e 23 55 fd be
       0.3856345 -0.33588487 0.16268024 -0.49479017
000040 8f 33 5a bc 09 b8 dd 3e 9e d6 a3 be 25 e0 27 bf
       -0.013317957 0.4330447 -0.31999677 -0.6557639
000050 a8 88 0f be a5 9d 3f be 8d 58 70 be 61 f9 7a 3f
       -0.14016974 -0.1871248 -0.2347128 0.9803677
000060 6e b9 24 3f 82 77 bb bf a9 8d 1e bd 30 1f a0 be
       0.64345443 -1.4645846 -0.038709316 -0.31273794
000070 d0 97 bf 3e 42 f5 49 3e 01 02 87 3d 19 2b 89 3f
       0.3742051 0.19722465 0.06592179 1.0716277
000080 2d 88 34 bf b2 f8 16 3f 85 ec ac be 44 8f 4b 3f
       -0.7052029 0.5897323 -0.337742 0.7951548
000090 fd b0 eb 3e b2 0b e6 be ac 56 38 3f ce e8 3a 3f
       0.4603347 -0.44930798 0.7200725 0.7301148
0000a0 76 8e c4 3e c7 62 1a bc e8 7d b7 3e ee fd d6 bc
       0.3838994 -0.009422964 0.35838246 -0.02624413
0000b0 df a7 65 3e f0 ab 70 be bd 68 b9 3e 18 f2 e1 bd
       0.22427319 -0.23503089 0.3621272 -0.11032504
0000c0 ac 68 27 be 9f 1a a1 bd bf 0d b4 3e f7 c9 b5 3e
       -0.16348523 -0.07866406 0.35166737 0.3550565
0000d0 1e 58 d7 3d 1f 30 82 3d e5 d4 03 40 09 6c 31 be
       0.10514854 0.063568346 2.059869 -0.17326368
0000e0 32 5f db 3b 3b 48 49 3e 5a bb 26 3e c8 b8 f5 3e
       0.006694698 0.1965646 0.16282406 0.4799254
0000f0 a7 8f 8f 3e 42 78 60 3d bf 32 81 3e b6 50 8a 3e
       0.28039286 0.054802187 0.2523403 0.27014703
000100 58 78 a3 3d 62 24 90 3e 6e ba 5d 3c 2d 44 99 be
       0.07981938 0.28152758 0.013533218 -0.29934826
000110 a6 c0 01 be 63 58 17 3e 05 78 89 bd ed 04 30 be
       -0.12671146 0.1477981 -0.06712345 -0.17189379
000120 a4 fc b0 3e b9 69 0b 3f c6 02 09 3e 43 d9 95 3e
       0.3456775 0.54458195 0.13379964 0.2926732
000130 94 a8 19 3e 21 2a 31 3e 1c 17 70 3d 69 27 3a 3e
       0.15005714 0.17301227 0.05861579 0.18179096
000140 be 2d f5 bc a1 35 c9 bb cf 67 1f 3e 12 5d 40 be
       -0.029929038 -0.0061404263 0.15566944 -0.18785504
000150 f4 73 48 bd 59 1b 57 3e 2f 5e 20 bf 98 f7 c2 3d
       -0.048938707 0.21006526 -0.6264371 0.09519881
000160 3c 17 8e 3e f3 59 78 be a9 6b ee 3d 24 86 9f 3e
       0.277521 -0.24253063 0.11641628 0.3115703
000170 7d 10 eb 3e 3c 1d b1 be fa c9 0f bf 81 ba f1 be
       0.45911017 -0.34592617 -0.56167567 -0.47212604
000180 e9 15 2e 3f 18 5e 95 be 27 ff be bd c9 15 c6 3d
       0.6800218 -0.2917335 -0.0932601 0.09672124
000190 a3 a3 84 3f 8e 5d d7 bd 10 9b d9 3d 69 d1 8b 3c
       1.0362438 -0.10515891 0.10625279 0.017067628
0001a0 26 f4 4d 3d c4 5b de 3e 46 b6 49 3d a1 04 d6 3f
       0.050281666 0.43429387 0.049246095 1.6720163
0001b0 08 45 ad 3e ef 24 b4 3e 94 d3 68 be 9c 2a 98 be
       0.3384173 0.35184428 -0.2273696 -0.29720008
0001c0 67 6d 66 be 25 76 cc be 7a 57 f6 3d 2b 62 43 3e
       -0.22502671 -0.39933887 0.120284036 0.19080417
0001d0 dd 75 84 bd e0 02 2e 3d 0e b2 f0 bd da 99 71 3e
       -0.06467793 0.04248321 -0.11752711 0.23593846
0001e0 8c 74 95 3f 1c 0b b9 3e 01 b9 37 bc 7a 52 78 3c
       1.1676192 0.36141288 -0.011213542 0.015156383
0001f0 61 31 a4 3e 4f 5f fd be 78 6a 33 3f be cc d0 3d
       0.32068923 -0.49486777 0.70084333 0.101953015
000200 9f cc ef 3d 0d b6 e1 3e 5c 22 d2 be 1d 1d 07 3e
       0.1170895 0.44084206 -0.4104184 0.131947
000210 60 ed e7 bd 06 2a cc 3e b0 aa 40 bd 50 82 00 bd
       -0.113245726 0.3987581 -0.04703778 -0.031374276
000220 be 12 bd be c5 21 34 3e 66 48 03 3b 4b c5 5f 3e
       -0.36928362 0.17591007 0.0020032167 0.21852605
000230 9f 50 aa be 88 f3 89 3e 04 82 ec 3d 7e a5 1f bf
       -0.33264634 0.26943612 0.11548236 -0.62361896
000240 85 41 1d 3f d5 a4 bd be 48 bd c1 3d 70 43 9f be
       0.614281 -0.3703982 0.09459931 -0.31106138
000250 5e fd 9e 3f 4a bc ad 3e 4b de 04 bd c4 e2 41 3e
       1.2421072 0.33932716 -0.032438558 0.1893416
000260 c1 c6 e9 be 13 5c 28 3e 39 c1 9b 3d 3c 0b 3c be
       -0.4565945 0.16441374 0.07605214 -0.1836366
000270 d1 ce bf 3f cb b3 3a 3f f3 b1 f3 3e 8b 7e 3c 3e
       1.498499 0.7293059 0.47596702 0.18407647
000280 96 2d 3d be 17 13 27 3f 26 0d 37 3f 00 46 7f b8
       -0.18474421 0.65263504 0.7150444 -6.086193e-05
000290 92 56 22 3f c8 8b c6 bd 42 1d 4f be f4 55 1d 3f
       0.63413346 -0.0969463 -0.20226005 0.6145928
0002a0 13 56 85 3f 46 01 56 3f c0 79 12 3e 1d d2 cf 3e
       1.0416893 0.83595693 0.14304256 0.4058999
0002b0 d7 93 62 be f4 bf 37 bf 12 1a af be 06 1d 47 3e
       -0.22126709 -0.7177727 -0.34199578 0.19444665
0002c0 f7 df 1e be 1d ec fa be 28 20 e2 bc d6 b8 3a 3e
       -0.15515123 -0.49008265 -0.027603224 0.18234572
0002d0 17 b2 cd bb 10 ed d3 be ea 3a 4e 3c 4c 3d 08 3f
       -0.0062773335 -0.41391802 0.012587288 0.5321853
0002e0 09 13 bd 3e 80 0c cf 3e 53 1c 4e 3f 81 d5 40 3f
       0.36928585 0.40439224 0.8051197 0.7532578
0002f0 4d 93 c0 be 7e 54 d6 be 12 33 6b be df 18 23 3e
       -0.37612382 -0.41861337 -0.229687 0.15927456
000300 3d 23 26 3f d3 50 22 be c8 43 18 3e 55 cb 92 3b
       0.6489752 -0.15851144 0.14869606 0.0044798055
000310 72 d8 75 3e 76 5f c0 3e 01 92 a9 3e 92 4f c0 3e
       0.24008349 0.3757283 0.33119205 0.37560707
000320 7e 3a a7 3f c9 ea bd 3e 9b c4 b1 be 5b 98 68 bf
       1.3064725 0.3709319 -0.3472031 -0.90857476
000330 ae 7a 3e 3f 89 dd cd bf 53 9c e6 3d 1d 03 ba 3e
       0.74405944 -1.6083232 0.11260285 0.363305
000340 66 c6 cf bf c0 2e b1 be cd 5e 08 3f 9e 08 77 bf
       -1.6232421 -0.3460598 0.53269655 -0.96497524
000350 5a 29 c4 3d 78 21 20 bf df 17 84 be 6e b2 50 bf
       0.095782 -0.6255107 -0.25799462 -0.8152226
000360 af 14 6e bf 5d bf 0f 40 33 e0 1b bf 2d 89 bf bf
       -0.9300031 2.246055 -0.60888976 -1.4963738
000370 3c 0f 95 be 21 e7 1a bf 00 87 12 bf 7f 1e bf 3f
       -0.29113185 -0.60508925 -0.57237244 1.4931182
000380 40 4a d4 3f f8 e4 34 c0 4e bc 2a 3f 95 ff c2 be
       1.6585159 -2.8264751 0.6669358 -0.3808562
000390 cb bb 82 3f 6a 87 c7 3e c0 20 51 3e 06 31 dc 3f
       1.021356 0.389705 0.2042265 1.7202461
0003a0 11 d3 76 bf 29 63 94 3f 24 5d 66 bf 98 07 59 3f
       -0.9641581 1.1592761 -0.8998587 0.8477721
0003b0 7a 65 8a bf 57 72 cc 3c be cb 34 3f fb 06 1e bf
       -1.0812218 0.024956865 0.70623386 -0.617294
0003c0 b6 99 32 3d 07 1c 24 3f 7a 1e 23 3e 0e 2c da be
       0.04360362 0.64105266 0.15929595 -0.42611736
0003d0 8e f4 19 3f fd cb 3e bf 5c 43 62 bf 21 2b 17 bf
       0.60138786 -0.7453001 -0.8838403 -0.59050184
0003e0 bf 52 ed be 13 1f 3a bf 0a c5 b5 3e 21 e5 3d 3f
       -0.46352193 -0.72703665 0.3550189 0.7417775
0003f0 74 70 d8 3e 3d fb 00 be 2c 5f 50 40 46 53 21 bf
       0.42273295 -0.1259584 3.2558088 -0.6301769

fc2.bias f4 [100]
000000 76 03 18 3e e4 5b 3c 3f 41 c4 64 be 03 57 f2 3d
       0.1484507 0.73577714 -0.2234049 0.118330024
000010 c7 1b 82 bc 35 02 90 bc 25 13 13 bb cb 0f 95 3e
       -0.015882386 -0.017579177 -0.002244183 0.29113612
000020 72 49 56 3e eb 0b 64 ba ba fd da bd da 16 51 3c
       0.20926455 -0.00086992857 -0.10692926 0.012761796
000030 37 11 b6 3e 6a dc 84 bb 29 83 4f 3e 75 5f 91 bc
       0.3556001 -0.0040545957 0.20264877 -0.017745713
000040 63 a6 99 bd fc 4e 8a bd ff 28 85 3d 8f f7 be bd
       -0.07502439 -0.06753346 0.0650196 -0.09324562
000050 30 84 2c 3f fb a6 e2 3e 16 50 84 3e 01 aa 05 bb
       0.673892 0.4426802 0.2584235 -0.002039552
000060 99 ca 94 3e a8 9a 03 be 68 7d d1 3c 2b 9e 24 3e
       0.2906082 -0.12851965 0.025572494 0.16075961
000070 66 42 17 3e 4c ba d6 3d bf dc a4 be 05 a5 f7 bc
       0.14771423 0.10484752 -0.32199666 -0.030230055
000080 6c 99 83 3e 50 b9 e0 bc b6 c3 5b 3d cb ef 91 3e
       0.2570299 -0.027432114 0.05365344 0.2850326
000090 75 1a 53 bd f2 22 a3 3e 64 7b 9d be 17 b8 6d 3e
       -0.051538903 0.318626 -0.30758202 0.23214756
0000a0 f1 86 8f 3e 10 f2 72 3d d7 90 2a 3e cf a5 d1 3d
       0.2803264 0.05931288 0.16656815 0.102367036
0000b0 69 e5 25 be 4e 41 52 bd 2f f5 69 bd 3a f0 4b 3d
       -0.16200794 -0.05133181 -0.05711859 0.049789645
0000c0 40 ee 2e 3e 04 dc a3 3c 81 37 d6 3d 61 4c 86 3c
       0.17083073 0.020002373 0.10459805 0.016393842
0000d0 27 3a 87 3e 42 65 4d bd 93 61 d4 3d 3e c5 02 3e
       0.26411554 -0.050145395 0.10370173 0.12770554
0000e0 b6 18 db bc 46 33 25 3d 7b 11 86 3e bc 53 8b bc
       -0.026745182 0.0403321 0.26185212 -0.017007701
0000f0 c8 a7 8c 3e c1 10 f1 3d 79 e8 89 bd b1 0d 5f bd
       0.27471757 0.11770774 -0.06733794 -0.054456417
000100 ea 9b 5b 3c af 64 f1 3e 06 3b e6 bd 6d e0 12 bd
       0.013403872 0.47147128 -0.112417266 -0.03585856
000110 96 f0 d5 3c 7e 7b 75 3d 51 b6 2a bd 77 a5 ed 3c
       0.026115697 0.059932224 -0.041677777 0.029009564
000120 09 e5 8a bc 65 6b 08 bd 30 9e 3e 3c 2e 05 54 3e
       -0.016954916 -0.033305544 0.0116343945 0.20705101
000130 d8 52 76 bc ff 93 1b bd 55 6c b6 3e e1 02 fa 3e
       -0.0150344 -0.037982937 0.35629526 0.4883032
000140 cb d4 24 3f 8a c8 87 3e c0 05 aa bd e8 b8 9a 3d
       0.64387196 0.26520187 -0.08301878 0.07554799
000150 25 39 d5 3d 6e 64 0a be 58 07 51 3e 66 76 3e bd
       0.1041129 -0.13514873 0.20412958 -0.046499632
000160 0d e7 87 3e 0a 84 d3 3e b3 ab a1 bd b0 c7 32 bd
       0.26543465 0.41311675 -0.07894077 -0.043647468
000170 5f 3b 31 be b9 f4 81 3e 2b d6 66 3b 8a c9 90 3d
       -0.17307805 0.2538202 0.003522287 0.070696905
000180 20 bc ce 3c 49 c0 b6 bd e2 c0 15 bd a5 2d 43 bd
       0.02523619 -0.08923394 -0.0365609 -0.047650952

fc3.weight f4 [4, 100]
000000 d0 86 95 3e a0 a2 db 3f ce 42 ba 3e 21 05 35 bf
       0.29204416 1.7159004 0.36379093 -0.7071095
000010 96 54 66 3b d3 ba da bc 36 f8 17 3d ef b2 ee be
       0.0035145632 -0.026700413 0.037101947 -0.4662089
000020 b5 f8 c5 be ec 42 39 3d 98 97 65 bc d6 d7 25 bd
       -0.3866631 0.045229837 -0.014013194 -0.04048904
000030 62 38 85 3f f5 66 2b bf 21 90 c6 be 0e 8e 13 bf
       1.0407832 -0.66953975 -0.38781837 -0.57638633
000040 2e 32 1f bf 86 4e 3f bf c7 58 07 40 7e 0d 19 3d
       -0.62185943 -0.7472919 2.1147935 0.037366383
000050 bb 67 f6 3f 04 1c a2 3f 86 12 c7 be c1 83 98 be
       1.9250406 1.26648 -0.3888132 -0.2978802
000060 4e ec c8 be 31 3f 0f bf c6 e3 e4 be b2 3e 1b bf
       -0.39242786 -0.559558 -0.44705027 -0.6064254
000070 1c d2 04 bf 51 3d 87 3f a6 2a 9c bf 96 f1 9d 3e
       -0.518831 1.0565587 -1.2200515 0.30848378
000080 80 10 8c be 8b b1 0a bf 2a 50 08 bf c9 00 d8 be
       -0.27356339 -0.5417716 -0.5324732 -0.421881
000090 25 68 1b bf 86 a8 df be 28 c6 9e 3f 9b 3c 0f bf
       -0.60705787 -0.4368326 1.2404222 -0.5595185
0000a0 44 0a dc be 70 59 64 3c db f6 2c bf 15 68 3c bf
       -0.42976582 0.013937339 -0.6756417 -0.73596317
0000b0 8b cc e6 be 9d 3a 4c 3d c2 f0 80 bf 08 b2 22 b9
       -0.4507793 0.049860585 -1.0073473 -0.00015515846
0000c0 bd 3d 1d bf a0 7a 9b 3f f7 6b 3b 3f b2 3e ae 3d
       -0.6142233 1.2146797 0.73211616 0.08508052
0000d0 f5 3d e1 be 45 44 cd be 19 84 f1 be 93 1a 81 bf
       -0.43992582 -0.40091148 -0.47171095 -1.0086235
0000e0 88 33 2a bf 1f 3b f4 3e 0e d9 11 bf 0b 92 d6 3e
       -0.6648488 0.47701356 -0.56971824 0.41908297
0000f0 39 f1 14 bf c9 84 9b be ad fc 46 bd 2b d4 63 3d
       -0.58180577 -0.30374745 -0.048580814 0.05562226
000100 e7 29 63 3d d7 0a f4 3c 0f 54 22 bf ae d8 17 bf
       0.055459883 0.029790325 -0.63409513 -0.59315
000110 f0 fa 2b 3a 5f b7 f2 be 32 51 4b bf 30 30 d1 3c
       0.0006560525 -0.47405526 -0.7942077 0.025535673
000120 23 0f 43 3c df 1d 35 bf b0 8f e2 3d 67 8c 23 bf
       0.011905464 -0.70748705 0.110625625 -0.6388611
000130 cc a9 96 bc d3 65 c2 bd 16 73 fa be 65 57 86 3f
       -0.018391512 -0.09492078 -0.4891593 1.0495421
000140 1e b0 c8 3f 59 29 04 bf 82 ab 3c bf 4b 2c f9 3e
       1.5678747 -0.5162559 -0.736992 0.48666605
000150 00 db a8 3f 26 53 9d be e6 d0 ec be a9 bd a9 bd
       1.3191833 -0.307275 -0.46253127 -0.08288128
000160 98 b0 a9 3f 08 96 a4 bf 0e 1b 0d 3d 40 50 22 bf
       1.3257017 -1.2858286 0.03444963 -0.634037
000170 74 fd 20 bd d1 bb 0d bf 8a 99 89 bd 93 97 14 bf
       -0.03930421 -0.5536471 -0.067187384 -0.58043784
000180 a8 af a6 bd 22 6d eb be 71 fc 66 3d a0 91 50 bf
       -0.081389725 -0.459817 0.05639309 -0.81472206
000190 f9 c8 e1 3e ee 17 a8 3f e4 35 6e 3f b3 2b 83 bf
       0.44098642 1.3132303 0.9305098 -1.0247711
0001a0 84 a2 ad 39 2b 0c b8 bd 9b 66 ca bd 64 78 0c bf
       0.00033118215 -0.08986696 -0.09882852 -0.548712
0001b0 10 1d 04 bf 87 e6 ad 3c 7d d3 fd 3d f1 75 f1 3b
       -0.51606846 0.021228088 0.12393854 0.007368796
0001c0 65 19 48 3f 0f 0b 1f bf 98 97 a0 be d2 57 cd be
       0.7816375 -0.6212625 -0.31365657 -0.40106064
0001d0 72 04 de be 96 d8 e8 be 2c ab 03 40 34 a8 09 bd
       -0.43362767 -0.45477742 2.0573225 -0.033607677
0001e0 1e 4d c1 3f 23 ca 95 3f 95 80 e4 be 3d e8 30 bf
       1.5101659 1.1702312 -0.4462935 -0.6910437
0001f0 7e 2c ed be fb c5 3c bf 53 ad 08 bf 87 dd 16 bf
       -0.46323007 -0.73739594 -0.5338947 -0.58931774
000200 20 c4 83 be 56 fc 89 3f 6c 8e 99 bf c7 65 08 bf
       -0.2573557 1.0780132 -1.1996589 -0.532803
000210 5e a7 18 3f a5 b6 0e bf 1e 5a 22 bf 72 75 ea be
       0.5963038 -0.55747443 -0.6341876 -0.4579273
000220 7d 3c 2a bf 66 2e 0d bf 30 65 c8 3e 91 8e 18 bf
       -0.6649855 -0.55148923 0.391397 -0.5959254
000230 49 8f c1 be 74 11 e9 bc d6 40 be bd 3f 74 13 bf
       -0.3780463 -0.028450705 -0.0928971 -0.5759925
000240 9d a7 4f bf 82 dd 17 bd 9b 70 7e bf 4c 7b 5c 3d
       -0.8111513 -0.03707648 -0.9939057 0.053828523
000250 d2 64 15 bf 4a 57 b7 3f 97 d0 75 3f 74 fc b6 bd
       -0.58356965 1.4323514 0.9602141 -0.0893487
000260 56 de c8 be 7b b7 16 bf 68 85 0d bf 16 f0 07 bf
       -0.3923213 -0.5887372 -0.55281687 -0.5310072
000270 1f 9c 2b bf 89 24 76 3f 74 23 9e bf 0f c0 48 3f
       -0.67035097 0.961495 -1.235457 0.7841806
000280 bf d6 0e bf ea bc e7 be 56 29 9e bd b9 7f ab bc
       -0.55796427 -0.45261317 -0.07722728 -0.020934926
000290 16 f3 46 bd 6c fa ce 3d 61 f2 2f bf 70 d0 29 bf
       -0.04857167 0.10106358 -0.68729216 -0.66333675
0002a0 e7 d2 b9 bc 21 05 00 bf 1c 9a 5d bf 81 68 95 3d
       -0.022683574 -0.50007826 -0.8656328 0.07295323
0002b0 c5 d2 b0 bd a5 8d 33 bf 29 2c 9e bd d0 86 19 bf
       -0.08633951 -0.7013801 -0.07723267 -0.5997133
0002c0 0e 21 87 bd 78 14 bd bc ff ea 49 bf 49 f9 8b 3f
       -0.065981016 -0.02308105 -0.788742 1.0935451
0002d0 92 7d f8 3f 17 00 1f bf 96 94 d0 3d 21 00 96 bd
       1.9413321 -0.6210951 0.101845905 -0.07324243
0002e0 bd 67 ae 3f 60 59 3c bf dd 3b cf be 1e 8e 6f 3d
       1.3625408 -0.73573875 -0.4047536 0.058485143
0002f0 40 10 96 3f 6e b3 82 bf 4e 77 b6 3d a9 48 15 bf
       1.1723709 -1.0211008 0.08909474 -0.58313996
000300 c0 e3 fb 3d 9d 66 35 bd 40 d5 20 bb 95 00 0d bf
       0.12299299 -0.044287313 -0.002454117 -0.55079013
000310 20 8c 8c bb 17 84 2a bf 8f f2 9b bc 4a 4f 0f bf
       -0.004289165 -0.66607803 -0.01903656 -0.5598036
000320 7f 69 1c 3f 41 83 df 3f 37 b3 40 3f 4c 39 2e be
       0.61098474 1.746193 0.7527346 -0.17014045
000330 ce ea a6 3d ef dd 0f bd b5 91 a2 3c d4 1b 55 be
       0.08150254 -0.03512376 0.01984487 -0.20811397
000340 48 64 09 bf 80 df ca bc ff b5 95 3d 2b c7 e9 39
       -0.5366864 -0.024764776 0.073101036 0.00044589615
000350 be d9 a5 3f a2 09 42 bf 91 7f 19 bf 82 06 d9 be
       1.2957075 -0.7579595 -0.59960276 -0.42387778
000360 b5 86 44 bf b6 13 54 bf a8 87 0a 40 a0 54 63 3b
       -0.76768047 -0.82842577 2.1645298 0.0034687892
000370 84 f5 8f 3f 45 e0 a1 3f d6 11 b2 be a0 b0 55 bf
       1.12468 1.2646567 -0.34779233 -0.83472633
000380 ee 1b ae be d7 e5 50 bf be d5 0a bf a1 b7 21 bf
       -0.34005684 -0.8160071 -0.54232395 -0.6317082
000390 68 a3 f4 be 97 42 9d 3f c1 cd c8 bf 17 79 3b bf
       -0.4778092 1.2285947 -1.5687791 -0.73231643
0003a0 bd 9f 63 3f f1 18 20 bf e1 c4 c3 be aa 6a 9a be
       0.88915616 -0.6253806 -0.38236144 -0.30159503
0003b0 b4 9e 3d bf a2 2b e8 be cc 1b c0 3f e2 18 10 bf
       -0.74070287 -0.4534579 1.5008483 -0.5628797
0003c0 b4 d7 5c be 72 33 05 bb 6e 85 8a 3e 2e 24 59 bf
       -0.21566659 -0.0020324853 0.27054924 -0.8482083
0003d0 85 93 50 bf 36 86 2e bc 30 0e 2c bf 0c 1e 28 3d
       -0.81475097 -0.010652116 -0.6720915 0.04104428
0003e0 65 8e 21 bf 64 8e 83 3f 49 f3 db 3e e3 91 6c 3d
       -0.631079 1.0277829 0.4295905 0.057756316
0003f0 7f 3a cb be 66 e8 85 bf 4c cb 07 bf be 4e 44 bf
       -0.39693066 -1.0461547 -0.5304458 -0.7668265

fc3.bias f4 [4]
000000 86 4a 70 be bf d5 09 be ea 82 36 3d 91 cb 80 be
       -0.23465928 -0.13460444 0.044558443 -0.2515531
