models/model_run_8.pth (torch, 75717 bytes, 6 tensors)

fc1.weight f4 [128, 8]
0	0xbe98d6f6	-0.29851502
1	0xbf14316e	-0.57887924
2	0xbf0696a9	-0.5257364
3	0xbdfd1c9b	-0.12358972
4	0x3f3b7174	0.7321999
5	0x3ef23529	0.47306183
6	0x3e0b0583	0.13576321
7	0x3d853b61	0.06505466
8	0xbea2d5f4	-0.31803858
9	0x3e643a47	0.22287856
10	0xbe9f049a	-0.31058198
11	0x3f4508b7	0.7696642
12	0x3f16a878	0.5885081
13	0x3dcfb43a	0.10141797
14	0xbe929bff	-0.2863464
15	0xbf01725b	-0.5056512
16	0x3ed73af0	0.42037153
17	0x3f6afef9	0.9179531
18	0x3ec8df89	0.39233044
19	0x3e503d23	0.20335822
20	0xbebd285b	-0.3694485
21	0xbf35791e	-0.70887935
22	0x3eb20491	0.3476911
23	0xbe049519	-0.12947501
24	0xbe43cb81	-0.191206
25	0x3f01e584	0.5074084
26	0x3f0e25e6	0.5552658
27	0x3e286d08	0.16447842
28	0xbf9af7dd	-1.2106892
29	0xbf6968b2	-0.9117538
30	0xbea4b35f	-0.321681
31	0xbe184834	-0.14871293
32	0x3dbf5284	0.093419105
33	0x3dd71cf2	0.10503568
34	0xbe55d984	-0.20883757
35	0x3ec41788	0.38299203
36	0x401d33f6	2.4562964
37	0x3cd05c3f	0.025434611
38	0xbc293f68	-0.010330059
39	0x3ca6eb6d	0.020375932
40	0x3e1250c7	0.14288627
41	0xbeffe84d	-0.4998192
42	0x3eba5315	0.36391512
43	0xbf5577e0	-0.8338604
44	0xbf1a34c4	-0.60236764
45	0xbf350a24	-0.707186
46	0xbdd6e554	-0.104929596
47	0xbeb14859	-0.3462551
48	0xbdb0e674	-0.086377054
49	0xbe4f046a	-0.20216528
50	0xbe930cc1	-0.28720668
51	0xbf56de7d	-0.8393324
52	0x3c1fbe8e	0.009750022
53	0x3f47bf1b	0.7802598
54	0x3e5dcfaf	0.21661256
55	0xbf0f4fcc	-0.55981135
56	0x3dd1706d	0.10226522
57	0xbeb4a304	-0.3528062
58	0xbf1d231e	-0.6138171
59	0xbed2c156	-0.4116313
60	0x3f1fa372	0.6235877
61	0x3f03abd5	0.5143407
62	0x3f16a3a2	0.58843434
63	0xbd66dbf9	-0.056362126
64	0xbd0b9a02	-0.03408242
65	0xbe94d886	-0.29071444
66	0x3ee39b8f	0.4445462
67	0x3f03358d	0.51253587
68	0xbf3b1564	-0.73079515
69	0x3f4f085c	0.8087213
70	0xbe43c8b5	-0.19119532
71	0xbf2883e5	-0.65826255
72	0xbdf83432	-0.121193305
73	0x3eb5879c	0.35455024
74	0xbea62cb9	-0.32455996
75	0x3dffee22	0.12496592
76	0x3f759f4e	0.95946205
77	0x3ebc62cb	0.36794123
78	0x3f4b6385	0.7944873
79	0xbebf8e7b	-0.3741339
80	0xbf8d7c33	-1.1053528
81	0xbf86909d	-1.0512882
82	0xbe446dfa	-0.19182578
83	0xbec20c13	-0.37899837
84	0xbda26c92	-0.079308644
85	0x3ef55ccd	0.47922364
86	0xbf337e28	-0.70114374
87	0xbe3a8926	-0.1821638
88	0x3eab3115	0.33435884
89	0x3f4377cf	0.7635469
90	0xba83d39c	-0.0010057571
91	0x3e8db5ee	0.27677864
92	0xbe226a74	-0.15860921
93	0xbe8a953e	-0.27066988
94	0x3f2b11d8	0.668241
95	0x3e9a2abc	0.3011073
96	0xbe4fef18	-0.20306051
97	0xbed43599	-0.41447142
98	0x3f068684	0.52549005
99	0x3ff48b21	1.9104959
100	0xbf396bb5	-0.7242997
101	0xbe02654e	-0.12733957
102	0x3f1c602d	0.6108425
103	0xbd3129c7	-0.043252733
104	0xbdcbe191	-0.09955133
105	0x3de059a4	0.109545976
106	0x3f003da3	0.5009405
107	0xbede48a3	-0.43414792
108	0x3eadc4de	0.3393926
109	0x3f55b9be	0.83486545
110	0x3df18e46	0.11794715
111	0xbf315efe	-0.6928557
112	0x3d948cf8	0.0725345
113	0x3eebb798	0.46038508
114	0xbea2cd7f	-0.31797406
115	0x3e3580c6	0.17724904
116	0xbea5378e	-0.32268947
117	0x3e131cba	0.14366427
118	0xbdff1296	-0.12454717
119	0xbe235a42	-0.159524
120	0xbd70ac6f	-0.058758195
121	0x3e7c9ff4	0.24670392
122	0xbe94df36	-0.29076546
123	0x3fbb7884	1.4646153
124	0x3ec380e4	0.38184273
125	0x3dd5d819	0.10441608
126	0xbd301c56	-0.042995773
127	0xbe552f29	-0.20818771
128	0x3ea15305	0.3150865
129	0xbe710556	-0.23537192
130	0x3e8a4586	0.27006167
131	0x3ecad1d5	0.39613214
132	0x3f3c5df1	0.73580843
133	0x3ddb1c45	0.10698751
134	0x3eb189b8	0.34675384
135	0x3eacda1a	0.33760148
136	0x3f3468b6	0.70472276
137	0xbe237be4	-0.1596523
138	0x3d3fbc9e	0.04681074
139	0x3f9b33a1	1.2125131
140	0x3f6b3aee	0.91886795
141	0xbf48c567	-0.7842621
142	0x3ecd156c	0.40055406
143	0xbe67b094	-0.22625953
144	0xbd8cfcde	-0.06884168
145	0xbee09890	-0.43866396
146	0x3ee55eea	0.44798976
147	0xbe0922f6	-0.13392243
148	0xbf03c42e	-0.5147122
149	0xbf4ee858	-0.8082328
150	0xbbb51cb4	-0.0055271033
151	0xbd3c77db	-0.04601274
152	0x3ea4252e	0.32059616
153	0x3f056faa	0.5212351
154	0xbdc907e1	-0.09815956
155	0xbe779691	-0.2417853
156	0xbeba6d07	-0.36411306
157	0x3ed2eb34	0.4119507
158	0xbeba50b7	-0.36389706
159	0xbf9856cd	-1.190149
160	0x3dc82775	0.09773151
161	0xbedfdacd	-0.4372162
162	0x3e15c46a	0.14625707
163	0xbee57b89	-0.44820812
164	0xbed529eb	-0.41633543
165	0xbf02d786	-0.5111011
166	0x3f172435	0.5903962
167	0x3e6c7c1b	0.23094217
168	0x3edf782a	0.43646365
169	0x3d6a0aa0	0.05713904
170	0x3e99b10b	0.30017886
171	0xbf2944c3	-0.6612055
172	0x3c980ca2	0.018560711
173	0xbdd7adac	-0.10531172
174	0x3cce598a	0.02518918
175	0x3e9fcb4a	0.31209785
176	0x3ee2c27f	0.44289014
177	0x3d8164eb	0.06318077
178	0xbe9caa71	-0.30598786
179	0x3ec8a49d	0.3918809
180	0x3d8d03ec	0.06885514
181	0xbd9b85ef	-0.07593905
182	0xbe49b010	-0.19696069
183	0x3e4529ac	0.19254178
184	0xbf1a42a8	-0.6025796
185	0xbd90296a	-0.07039149
186	0x3e93bcbc	0.2885493
187	0x3de57fc2	0.112060085
188	0xbedf0aab	-0.43562827
189	0x3e3ce1e8	0.18445551
190	0x3d8ae9c3	0.06782868
191	0x3f309b07	0.6898655
192	0xbe1f9702	-0.15584949
193	0x3d175d7e	0.036954395
194	0x3da7cf6e	0.08193861
195	0xbf834b00	-1.0257263
196	0x3dc2b5ae	0.09507309
197	0xbea391d3	-0.31947193
198	0x3ea5e3f8	0.3240049
199	0xbd5807f4	-0.05274196
200	0xbf0aa01f	-0.54150575
201	0x3d6afa4a	0.0573676
202	0xbf191de2	-0.5981122
203	0xbedf094b	-0.43561777
204	0x3f4fc3c8	0.81158113
205	0x3e7320dc	0.23743004
206	0x3e00d202	0.12580112
207	0x3e88419b	0.26612553
208	0xbef309dd	-0.47468463
209	0x3ee55c31	0.447969
210	0xbf30bcdd	-0.6903818
211	0x3f1193c2	0.56866086
212	0x3ed99e06	0.42503375
213	0x3eafd969	0.34345558
214	0xbe76233a	-0.24036875
215	0x3e94bf01	0.29051974
216	0xbc1b3c94	-0.009474892
217	0x3d85cc62	0.065331236
218	0xbf92b9af	-1.1462916
219	0x3ef2a77c	0.47393405
220	0xbee9acdc	-0.45639694
221	0xbe1f91db	-0.15582983
222	0x3f5d5549	0.8645826
223	0x3e8ccf49	0.27501896
224	0xbe38ac48	-0.1803447
225	0x3e72cdcc	0.23711318
226	0x3ea4272b	0.32061133
227	0x3f5502ff	0.83207697
228	0xbe4bbc35	-0.19896014
229	0xbf09d733	-0.5384399
230	0xbf3a3401	-0.727356
231	0xbfa0096d	-1.2502877
232	0xbdcae480	-0.09906864
233	0x3f11337b	0.5671918
234	0x3dc1d92d	0.09465251
235	0x3ef01f9d	0.4689912
236	0x3ca7987e	0.020458456
237	0xbdaca1b5	-0.08429281
238	0x3e984a46	0.29744166
239	0x3ef9c342	0.48781782
240	0x3e2071c3	0.15668397
241	0xbe1fd418	-0.15608251
242	0x3e66b517	0.22530018
243	0xbee6b2ab	-0.45058188
244	0x3da4e718	0.0805189
245	0xbe39115e	-0.18073031
246	0xbe583016	-0.21112093
247	0x3f04099a	0.5157715
248	0x3e334f79	0.17510785
249	0xbec7b421	-0.39004615
250	0x3c1d5009	0.009601601
251	0x3db1052a	0.08643563
252	0xbf673a06	-0.9032291
253	0xbe1038b7	-0.14084135
254	0x3f20bbb5	0.6278642
255	0x3f66053b	0.8985173

fc1.bias f4 [128]
0	0x3ef553b8	0.47915435
1	0x3f08add4	0.5339024
2	0x3e2a4c91	0.1663077
3	0x3eb01d74	0.3439747
4	0xbc2fca95	-0.010729452
5	0xbea30475	-0.31839338
6	0xbf2dc296	-0.6787504
7	0xbe39c3f9	-0.18141164
8	0x3f588b7d	0.8458784
9	0xbdeceb4d	-0.115683176
10	0xbe539197	-0.20661007
11	0x3f1921db	0.59817284
12	0xbea43393	-0.32070598
13	0x3e709628	0.2349478
14	0x3f692119	0.9106613
15	0x3ece6a51	0.40315488
16	0xbf05bcb4	-0.52241063
17	0x3eabd95b	0.33564267
18	0x3f051852	0.51990235
19	0x3f3a12cb	0.72684926
20	0xbe283b36	-0.16428837
21	0x3e866dd9	0.26255682
22	0x3f5cfff3	0.8632805
23	0x3edd9b81	0.43282703
24	0x3e4de356	0.20106253
25	0x3e44e316	0.19227251
26	0x3edf294d	0.43586197
27	0xbbc1caff	-0.0059140916
28	0x3f0665c4	0.5249903
29	0x3f4f14a2	0.8089086
30	0x3ed7b45b	0.42129788
31	0x3ec48904	0.38385785
32	0xbec64782	-0.3872643
33	0x3e549e2a	0.2076346
34	0xbd279636	-0.040914737
35	0x3f11b55e	0.5691737
36	0x3f41e968	0.75746775
37	0x3ea4f806	0.32220477
38	0x3edc3cb7	0.43015072
39	0xbe94ceee	-0.29064125
40	0x3f632bf2	0.8873893
41	0x3f473fe3	0.7783186
42	0x3d554517	0.052067842
43	0x3f7c4c6d	0.98554116
44	0x3e53a486	0.2066823
45	0xbe2150d1	-0.15753485
46	0x3eb801bf	0.35938832
47	0x3f57aba1	0.8424626
48	0x3eeaa4cb	0.45828852
49	0x3e6fefa5	0.23431261
50	0xbe0fec60	-0.14055014
51	0xbc4cfdd6	-0.012511691
52	0x3df6d631	0.120525725
53	0x3d88b6a5	0.06675462
54	0x3b758d23	0.0037468157
55	0x3f0dd465	0.55402213
56	0xbd43db07	-0.047816303
57	0xbe931e57	-0.28734085
58	0x3f52901c	0.82251143
59	0xbef8037c	-0.48440158
60	0xbe091053	-0.13385133
61	0xbdae9ecb	-0.08526381
62	0x3f068b5d	0.525564
63	0xbd573fdd	-0.05255114
64	0x3ee144cc	0.439978
65	0xbed84ad3	-0.42244586
66	0x3db610fa	0.08889957
67	0xbd91b532	-0.071146384
68	0x3f2d7101	0.67750555
69	0xbf101259	-0.56277996
70	0xbcfde566	-0.030993175
71	0x3f3e0d82	0.7423936
72	0x3e800081	0.25000384
73	0xbe67ab06	-0.22623834
74	0x3f38726e	0.72049606
75	0x3f685257	0.9075064
76	0x3ea9b158	0.33143115
77	0x3f8dfe86	1.1093299
78	0xbe20b6b7	-0.156947
79	0xbed86947	-0.4226782
80	0xbd9b5445	-0.075844325
81	0xbd76e4c3	-0.060276758
82	0x3e7a59e9	0.2444836
83	0x3f471a23	0.77774256
84	0xbe1b2030	-0.15148997
85	0xbe85fea2	-0.26170832
86	0x3dd3d613	0.10343566
87	0xbefee0d4	-0.49780905
88	0x3c8a947b	0.016916504
89	0x3f6d3c55	0.92670184
90	0x3e8f399f	0.2797365
91	0xbe7a4e37	-0.24443899
92	0xbebd4f39	-0.36974505
93	0x3dea9427	0.11454039
94	0x3e4c2b23	0.1993833
95	0xbedae509	-0.42752865
96	0x3ec43372	0.383205
97	0x3f6273f8	0.88458204
98	0xbee6f513	-0.45108852
99	0xbe9b8e31	-0.3038192
100	0xbc8f562a	-0.01749714
101	0x3dcdca4c	0.10048351
102	0xbe9708f3	-0.29499015
103	0xbe26f93f	-0.16306017
104	0x3ead602b	0.33862433
105	0x3ec56846	0.38556117
106	0x3c690605	0.014222627
107	0xbce353f9	-0.027750002
108	0x3ee10ccf	0.43955085
109	0x3f434898	0.76282644
110	0x3f575847	0.84119076
111	0xbea3e818	-0.3201301
112	0x3e459710	0.19295907
113	0xbdff526f	-0.12466895
114	0xbf778c84	-0.96698785
115	0xbea9f0de	-0.3319158
116	0x3e9f1e13	0.31077632
117	0x3d8988bc	0.06715533
118	0x3fa69a44	1.3015828
119	0xbedbd4aa	-0.42935687
120	0xbe72caeb	-0.2371022
121	0x3f42b6ed	0.7606037
122	0xbeda226b	-0.42604384
123	0x3e0971a0	0.13422251
124	0x3ec551b9	0.38538912
125	0xbed5eef6	-0.41783875
126	0x3e964731	0.2935119
127	0x3db0674e	0.08613454

fc2.weight f4 [128, 128]
0	0x3ec5d678	0.3864019
1	0x3f244b1f	0.64177126
2	0xbebfb752	-0.3744455
3	0xbf0574bf	-0.52131265
4	0xbe8fb71c	-0.2806939
5	0xbd1dbe2c	-0.03851144
6	0x3e2864a8	0.16444647
7	0x3e95bbf8	0.2924497
8	0x3ebed1ce	0.37269443
9	0x3f0e8a63	0.5567991
10	0x3f17024a	0.5898787
11	0xbbd3e961	-0.00646703
12	0x3fac79e6	1.34747
13	0x3da99f52	0.08282341
14	0x3c3bd200	0.011463642
15	0x3f517045	0.81811935
16	0x3f763d00	0.9618683
17	0xbd5d896b	-0.05408613
18	0x3e27ef45	0.16399868
19	0x3cfa7a8e	0.030576017
20	0x3da6f044	0.08151296
21	0x3e3ff4cb	0.18745725
22	0x3e053339	0.13007821
23	0x3e015f8d	0.12634106
24	0xbe19a3f1	-0.15003945
25	0x3e9dbdc0	0.3080883
26	0x3ec59ab6	0.38594598
27	0xbf011316	-0.5041975
28	0x3e813af3	0.25240287
29	0x3e4088f9	0.18802251
30	0x3d4786e6	0.048712634
31	0xbde0dd6c	-0.10979733
32	0x3e73545b	0.23762648
33	0x3ef536ed	0.47893468
34	0x3daa7cb2	0.08324565
35	0xbdec4325	-0.11536244
36	0xbe122f1b	-0.14275782
37	0xbd5fe6db	-0.05466352
38	0x3e5b838f	0.21436904
39	0x3e6e0af7	0.2324637
40	0x3e6e3d51	0.23265578
41	0x3c6a693a	0.0143073145
42	0x3da5e278	0.08099836
43	0x3e3505b0	0.17677951
44	0x3f2c5b25	0.67326576
45	0x3f0d5633	0.55209655
46	0xbe0db5ff	-0.13838957
47	0x3bcea5dc	0.006306393
48	0x3e1f3509	0.15547575
49	0xbe73a776	-0.2379435
50	0xbec53c21	-0.38522437
51	0xbf15c429	-0.5850244
52	0x3dab0c15	0.08351914
53	0x3d4e5c92	0.05038125
54	0xbebaf858	-0.36517596
55	0xbd6b5cfd	-0.057461727
56	0x3e75362a	0.23946443
57	0xbf0e4f3a	-0.5558964
58	0x3e1dec8d	0.15422268
59	0x3e1138e5	0.1418186
60	0xbe5893f7	-0.21150194
61	0x3e7713cf	0.2412865
62	0xbe8e6fcd	-0.27819672
63	0x3e92e7b7	0.2869241
64	0x3ece9541	0.40348247
65	0x3d278b39	0.040904257
66	0x3ea74792	0.3267179
67	0xbf3bc07e	-0.73340595
68	0x3e2ea5b0	0.17055392
69	0x3ef75527	0.48307154
70	0x3f054e24	0.5207236
71	0x3e2e2958	0.17007959
72	0xbf262184	-0.6489489
73	0x3ddead94	0.10872951
74	0xbe28936c	-0.16462487
75	0xbb934b74	-0.0044950787
76	0xbdb001b8	-0.08594078
77	0x3e57f70c	0.21090335
78	0x3f78755d	0.9705408
79	0x3d40e630	0.047094524
80	0xbeb883ab	-0.36037955
81	0xbef78ba5	-0.48348728
82	0x3d97e81b	0.074173175
83	0xbe0269db	-0.12735693
84	0xbf6761fe	-0.903839
85	0x3d5297a6	0.051414154
86	0xbf075f9f	-0.5288028
87	0x3eb3a5c5	0.3508741
88	0xbec32e0e	-0.38121074
89	0x3e20db8e	0.15708753
90	0x3e6cfebb	0.23144047
91	0x3ddccab7	0.10780852
92	0x3e48bd80	0.19603539
93	0xbe6267e3	-0.22109942
94	0x3e28d143	0.16486077
95	0xbc0eb5e4	-0.008710358
96	0x3de40218	0.11133212
97	0x3cc5a1ba	0.024124969
98	0x3e94e075	0.29077497
99	0x3efd6628	0.49492002
100	0xbef5b116	-0.47986668
101	0x3ea07f53	0.3134714
102	0x3d6e9d15	0.058255274
103	0x3efe6631	0.4968734
104	0xbf58623a	-0.8452488
105	0x3e3ad234	0.18244249
106	0x3e6ade55	0.22936375
107	0x3e004381	0.1252575
108	0xbdcb760d	-0.09934626
109	0x3e7d0332	0.2470825
110	0x3dd1159d	0.102092005
111	0x3e97da1d	0.29658595
112	0x3ed540fa	0.41651136
113	0x3e0637cc	0.13107222
114	0x3e6d304f	0.2316296
115	0x3df714dd	0.12064526
116	0xbe38ae74	-0.18035299
117	0x3edaf084	0.42761624
118	0x3ea1553a	0.31510335
119	0x3f01f71a	0.5076767
120	0xbf37c105	-0.717789
121	0x3e2da79d	0.1695847
122	0x3e4aeb9e	0.19816443
123	0xbf0c6929	-0.5484796
124	0xbe8e6c8d	-0.27817193
125	0x3e6e5543	0.23274712
126	0x3d0de444	0.03464152
127	0x3ee2da07	0.44306967
128	0x3e9e84eb	0.30960783
129	0xbe0e8811	-0.13919093
130	0xbf319784	-0.6937182
131	0xbf67253b	-0.90291184
132	0xbf9ab764	-1.2087216
133	0x3e013bf3	0.12620525
134	0x3f498b83	0.78728503
135	0x3dfc0924	0.12306431
136	0x3f799a79	0.9750133
137	0xbe915201	-0.28382877
138	0x3fa87e08	1.3163462
139	0xbedacc54	-0.42734015
140	0xc0681c30	-3.6267204
141	0x3ecd6a5e	0.40120214
142	0x3e87c52a	0.26517612
143	0xbee6118d	-0.44935265
144	0x3e6b03c3	0.22950654
145	0xbefb7027	-0.49109003
146	0x3ee04615	0.43803468
147	0x3f0ce1c7	0.5503201
148	0x3e859e41	0.260973
149	0x3cc757d9	0.024333881
150	0x3e3053c7	0.17219459
151	0xbdca69f7	-0.098834924
152	0x3e01824c	0.1264736
153	0x3d960e27	0.07326918
154	0xbe581f5d	-0.21105714
155	0xbff16edb	-1.8861955
156	0x3efb7647	0.49113676
157	0xbd1577c1	-0.03649116
158	0x3de355e3	0.11100366
159	0xbf09666a	-0.53671896
160	0x3f11bc04	0.56927514
161	0xbe45ba49	-0.19309343
162	0xbcf7b001	-0.030235292
163	0xbdce5729	-0.10075218
164	0xbdc7f9a3	-0.09764411
165	0xbfe474f0	-1.7848186
166	0x3eb8a8b2	0.36066204
167	0x3e9b0474	0.30276835
168	0x3e15830b	0.1460077
169	0xbce2e57c	-0.027697317
170	0x3efeb80c	0.49749792
171	0x3e3ab7af	0.18234132
172	0xbecb22e7	-0.39675066
173	0x3f4e1611	0.8050242
174	0xbe8b55eb	-0.27213988
175	0xbe9dae43	-0.30797014
176	0x3ef38a0c	0.4756626
177	0xbf3c94bc	-0.7366445
178	0xbdae5581	-0.08512402
179	0xbf86c002	-1.0527346
180	0x3f34b198	0.70583487
181	0x3d9e49cb	0.07728919
182	0xbe805834	-0.25067294
183	0x3e8765a5	0.26444736
184	0x3cd5638e	0.026048448
185	0xbfc7ff69	-1.562482
186	0x3d3c23fb	0.04593275
187	0x3d7e75b3	0.062123965
188	0xbf4cf9dd	-0.8006876
189	0x3eb193b0	0.3468299
190	0xbdac38b2	-0.08409251
191	0x3e86ff1b	0.26366505
192	0xbe32de90	-0.17467713
193	0xbd0ae09c	-0.03390561
194	0x3e05b87b	0.13058655
195	0xbdb10178	-0.08642858
196	0xbf60d173	-0.87819594
197	0x3efaa3e1	0.48953155
198	0x3ce63827	0.028102947
199	0x3ed67a24	0.4189006
200	0xbf126311	-0.57182413
201	0x3e918e77	0.28429005
202	0xbed6cce1	-0.41953185
203	0x3c816092	0.015793119
204	0xbe9947f0	-0.29937696
205	0x3e384b75	0.17997535
206	0x3f7a2aaf	0.9772138
207	0x3dcabea1	0.09899641
208	0xbd0c79a7	-0.034295704
209	0xbf43e1e2	-0.76516545
210	0x3f40feda	0.7538887
211	0xbe4051d3	-0.18781213
212	0xbf058d57	-0.5216879
213	0x3d0f6959	0.035012577
214	0xbfc054b4	-1.5025849
215	0x3e6e8e91	0.23296572
216	0xbf7712e4	-0.965132
217	0x3e1f99b5	0.15585978
218	0xbd576050	-0.052582085
219	0x3ec8c62e	0.392137
220	0x3efcc37a	0.49367887
221	0x3de49b71	0.111624606
222	0x3f46940a	0.7756964
223	0xbd51426c	-0.051088735
224	0x3e66e2f4	0.22547513
225	0xbee7f917	-0.45307228
226	0xbf032fd1	-0.5124484
227	0xbf1f2c6e	-0.6217717
228	0x3e631ccf	0.22178958
229	0x3f9e9cc4	1.2391591
230	0x3e6512d2	0.2237046
231	0xbdeef9c4	-0.11668733
232	0xbea1cc53	-0.316012
233	0x3f059a0a	0.5218817
234	0xbec3ab50	-0.3821664
235	0x3e366f79	0.17815961
236	0xbeaab114	-0.33338225
237	0x3e13a5eb	0.14418761
238	0x3d9f4082	0.07775976
239	0x3ec53618	0.38517833
240	0x3f82d446	1.0221031
241	0xbf0876a6	-0.53306043
242	0x3ee9594d	0.45575944
243	0x3edacf8c	0.4273647
244	0xbf419e85	-0.75632507
245	0xbe2974bb	-0.16548435
246	0x3f153549	0.5828443
247	0x3cf0e5bb	0.029406419
248	0xc057dc50	-3.3728218
249	0xbe306305	-0.17225273
250	0xbeaab074	-0.33337748
251	0x3f19bc22	0.6005269
252	0xbe2db12e	-0.1696212
253	0x3ea9998f	0.33124968
254	0x3e7250fc	0.23663706
255	0x3e152128	0.1456343

fc2.bias f4 [128]
0	0x3dc87de5	0.097896375
1	0x3e910ac0	0.28328514
2	0xbdb82a2c	-0.08992419
3	0xbd326b5d	-0.04355942
4	0x3dab2b90	0.08357918
5	0x3e495b89	0.19663824
6	0x3e13ad3e	0.14421555
7	0xbccb5c31	-0.024824234
8	0x3dd644a2	0.104623094
9	0xbcc27201	-0.023736002
10	0xbe2ba2ed	-0.1676137
11	0x3d321890	0.043480456
12	0x3d438270	0.047731817
13	0x3e08ce1a	0.13359872
14	0x3e575d17	0.21031605
15	0xbc59c1dd	-0.0132908495
16	0x3cbefdeb	0.023314437
17	0x3e906323	0.28200635
18	0xbc14f52e	-0.0090916585
19	0x3e013b04	0.12620169
20	0x3dfca581	0.12336255
21	0x3bc338c5	0.005957695
22	0x3e195509	0.14973845
23	0xbc81c909	-0.015842931
24	0x3d71c626	0.05902686
25	0x3deb6e05	0.11495594
26	0x3e6d7db4	0.23192483
27	0xbdc6bc30	-0.09703863
28	0xba719c27	-0.0009216689
29	0xbd22776c	-0.03966467
30	0xbd8447b8	-0.06458992
31	0xbd54f9f6	-0.051996194
32	0xbd3a48a7	-0.045479443
33	0x3c2d4f8e	0.010578049
34	0xbdb18b2c	-0.08669123
35	0x3d5d0610	0.05396086
36	0x3e9ae134	0.3024994
37	0xbc24c7fb	-0.010057445
38	0x3d40c729	0.047064934
39	0xbd0bdc79	-0.034145806
40	0xbd2466a3	-0.040136945
41	0xbd1c3455	-0.038135845
42	0x3c801d0c	0.01563885
43	0x3d965bb1	0.073417075
44	0x3ed0c124	0.40772355
45	0xbdd5ebcb	-0.104453646
46	0x3d0f74c4	0.035023466
47	0xbd0ff936	-0.035149775
48	0x3d9f504d	0.07778988
49	0x3cbb6e60	0.02287978
50	0x3d2fb551	0.042897526
51	0x3e95ded5	0.2927157
52	0xbd6106eb	-0.054938238
53	0x3d3dd5b7	0.046346392
54	0xbdccee15	-0.10006348
55	0xbbb2d42d	-0.005457422
56	0x3cec2241	0.028824927
57	0xbcf1c077	-0.02951072
58	0xbd260166	-0.040528677
59	0xbe133c66	-0.14378509
60	0xbb0c6e8c	-0.0021428196
61	0xbddb4471	-0.107064135
62	0x3f015ca1	0.50531965
63	0xbda20ed1	-0.07912982
64	0x3d8dd59b	0.06925508
65	0x3b018c6a	0.0019767531
66	0x3f2210ef	0.6330709
67	0x3e22ece9	0.15910687
68	0x3de2b261	0.11069179
69	0x3de8f7be	0.11375378
70	0x3e829f2b	0.2551206
71	0xbe1da833	-0.15396194
72	0x3d04c01e	0.03240978
73	0x3dcca25e	0.099919066
74	0x3e3f0bd9	0.18656863
75	0x3d6ce7c9	0.057838235
76	0xbd944c92	-0.07241167
77	0x3ccf0af4	0.025273778
78	0x3f583466	0.84454954
79	0x3e5a86b0	0.21340442
80	0x3f3f36cb	0.7469298
81	0x3c8ed6dc	0.017436437
82	0x3df3fb08	0.11913115
83	0xbd011580	-0.031514645
84	0xbdc4e3a0	-0.096137285
85	0xbdc9b0eb	-0.098481975
86	0x3e4923da	0.19642583
87	0xbd21569d	-0.03938924
88	0xbb603a9c	-0.0034214621
89	0x3dba1f02	0.090879455
90	0xbdd31513	-0.10306754
91	0x3e10436a	0.14088216
92	0x3c5314df	0.012883394
93	0xbd1c5b30	-0.0381729
94	0xbcebc7f1	-0.028781863
95	0x3d998a40	0.07497072
96	0x3cf2d4ae	0.02964243
97	0xbcbefeea	-0.023314912
98	0xbd726e6d	-0.05918734
99	0x3e3b60ae	0.18298599
100	0x3e3f483a	0.18679896
101	0x3dd8facc	0.10594711
102	0x3dceea8b	0.10103329
103	0xbddb62ba	-0.1071219
104	0x3ec3bb28	0.38228726
105	0x3e1bc8a9	0.15213265
106	0x3dc40199	0.09570617
107	0x3b90efe4	0.0044231284
108	0x3e0ec926	0.1394392
109	0x3e32d08c	0.17462367
110	0x3f24aee9	0.6432939
111	0xbc59d872	-0.0132962335
112	0xbc130d24	-0.008975301
113	0x3dbcc7de	0.09217809
114	0x3e224029	0.15844788
115	0xbd6591ee	-0.056047373
116	0x3d605a30	0.05477351
117	0x3e6c0549	0.23048891
118	0x3e120211	0.14258601
119	0xbe91c3f1	-0.28469804
120	0x3e208923	0.15677314
121	0x3d9d9793	0.07694926
122	0x3dd2bac0	0.10289526
123	0x3d98a1e2	0.07452752
124	0x3d572d7b	0.052533608
125	0x3bbf2b88	0.0058340468
126	0x3cca2f6c	0.024680816
127	0x3f489790	0.78356266

fc3.weight f4 [4, 128]
0	0xbede39bb	-0.4340342
1	0xbf002e6c	-0.50070834
2	0xbe57339a	-0.21015778
3	0xbee8f1c0	-0.4549694
4	0xbed9510f	-0.42444655
5	0xbecc46cc	-0.39897764
6	0x3eb4ff2f	0.3535094
7	0xbee82e26	-0.45347708
8	0xbf027284	-0.50955987
9	0x3ca335ad	0.019923056
10	0x3e2cbf6e	0.168699
11	0x3d6e97ab	0.05825011
12	0xbf26e5df	-0.65194505
13	0xbe90355d	-0.28165713
14	0xbf679626	-0.90463483
15	0xbec8fda1	-0.39256003
16	0x3d8ac2c3	0.06775429
17	0xbf28efd0	-0.65990925
18	0xbec159c0	-0.37763786
19	0xbf044c12	-0.51678574
20	0xbef0d168	-0.47034764
21	0xbefc956c	-0.4933275
22	0xbecf55d4	-0.4049517
23	0xbce14754	-0.027499832
24	0x3c8c0be1	0.017095508
25	0xbf0c1fd6	-0.5473608
26	0xbf0401bf	-0.51565164
27	0xbf07ec57	-0.53095
28	0xbebe2c9f	-0.37143418
29	0x3e2d234e	0.16907999
30	0xbf18ab81	-0.59636694
31	0xbec351d1	-0.38148358
32	0x3d86b406	0.065773055
33	0xbebb4e4a	-0.36583167
34	0x3d837d3d	0.06420372
35	0xbedfa95c	-0.43683898
36	0x3eed94a3	0.46402463
37	0x3c599cc2	0.013282003
38	0x3d791ee1	0.060820464
39	0xbed55831	-0.41668847
40	0xbf0f417b	-0.5595929
41	0xbf280ab7	-0.6564135
42	0xbed4dad4	-0.41573203
43	0xbf063f87	-0.52440685
44	0xbf3f157f	-0.74642175
45	0x3bc57d40	0.006026894
46	0xbeea3423	-0.45742902
47	0x3d7c1428	0.06154266
48	0xbef2d274	-0.47426188
49	0xbef7dc4d	-0.48410264
50	0xbf1118f9	-0.5667873
51	0xbf5ce4d0	-0.8628664
52	0x3d8a8184	0.067629844
53	0xbeee0d4f	-0.4649453
54	0x3d4c5eb5	0.049895007
55	0xbf06e731	-0.5269652
56	0x3ce68079	0.028137432
57	0x3c575077	0.013141743
58	0x3f76d785	0.96422607
59	0xbf13b02c	-0.5769069
60	0x3d4bba5b	0.04973827
61	0x3ca420c5	0.020035157
62	0x3f81c350	1.013773
63	0x3ca91140	0.020638108
64	0xbee330a8	-0.4437306
65	0x3c134646	0.008988922
66	0x3f9551cc	1.1665587
67	0xbece99b9	-0.40351656
68	0xbec5cc79	-0.38632563
69	0xbf024784	-0.50890374
70	0xbf7359d6	-0.95058954
71	0xbef2b332	-0.4740234
72	0xbee8fdb6	-0.45506066
73	0xbedd659a	-0.43241578
74	0xbeeb1e07	-0.45921347
75	0xbec45899	-0.38348845
76	0xbeed6794	-0.46368086
77	0xbeb6e84c	-0.35724103
78	0x3fb47573	1.4098343
79	0xbf080d1e	-0.53145015
80	0x3fecbbb1	1.8494779
81	0xbed4c655	-0.41557565
82	0xbee04fe5	-0.43810955
83	0x3eae4327	0.34035608
84	0x3c26ad7c	0.010173198
85	0xbd8dcd98	-0.069239795
86	0x3f9c9147	1.2231835
87	0x3d375716	0.044760786
88	0xbec7fb18	-0.39058757
89	0xbef13eb2	-0.47118145
90	0xbeee42c9	-0.46535328
91	0xbf1e7eba	-0.6191212
92	0xbf1aad30	-0.60420513
93	0x3d15637c	0.03647183
94	0xbedbafc8	-0.42907548
95	0xbecf0052	-0.40429932
96	0xbee65a6b	-0.44990858
97	0xbd8e7263	-0.06955411
98	0xbda9f075	-0.08297817
99	0xbea6e38a	-0.32595474
100	0xbe8bbc1b	-0.2729195
101	0xbee08edf	-0.43859002
102	0xbed2fc86	-0.41208285
103	0x3f80df17	1.0068082
104	0x3f0900eb	0.53517026
105	0xbf0de142	-0.5542184
106	0xbefcc592	-0.49369484
107	0x3d682f78	0.056685895
108	0xbf82f330	-1.0230465
109	0xbefe34db	-0.496497
110	0x3faf5c47	1.3700036
111	0x3d496301	0.049166683
112	0xbbb324b3	-0.0054670214
113	0xbf077d85	-0.529259
114	0xbeffb4a9	-0.4994252
115	0x3dcb1608	0.099163115
116	0x3c4a27d4	0.012338597
117	0xbedb8df6	-0.42881745
118	0xbedb4d10	-0.42832232
119	0xbf9c9afe	-1.22348
120	0xbec33a7b	-0.38130555
121	0xbd57167e	-0.052511685
122	0x3f8dfbc1	1.1092454
123	0xbef60d5a	-0.4805706
124	0xbe86026e	-0.2617373
125	0xbef57587	-0.4794123
126	0xbca2e06c	-0.019882403
127	0x3fe55365	1.7916075
128	0xbecc287a	-0.3987463
129	0xbeba7566	-0.36417693
130	0xbef9e9e4	-0.48811257
131	0xbeb21ba3	-0.3478671
132	0xbf03ac39	-0.51434666
133	0xbe6fb82e	-0.23410103
134	0x3ecd03b6	0.40041894
135	0xbedae002	-0.4274903
136	0xbecb097b	-0.3965567
137	0xbd97d16a	-0.074129894
138	0x3ece289f	0.40265366
139	0x3d591971	0.05300278
140	0xbed48ca4	-0.4151355
141	0xbf32d38c	-0.69854045
142	0xbf892a6c	-1.0716071
143	0xbf101c9a	-0.5629364
144	0x3d75507a	0.0598912
145	0xbf99f7a0	-1.2028694
146	0xbe8dde26	-0.27708548
147	0xbf0267b6	-0.509395
148	0xbf7e21e7	-0.9927048
149	0xbef15988	-0.4713862
150	0xbed11f48	-0.40844178
151	0x3d7fcf67	0.062453654
152	0xbdbd3ae7	-0.0923975
153	0xbf0a2fed	-0.5397938
154	0xbfbee3e1	-1.4913293
155	0xbee7f857	-0.45306656
156	0xbe8b4173	-0.2719837
157	0x3f46053f	0.77351755
158	0xbee93376	-0.45547074
159	0xbef3d1ad	-0.47620907
160	0xbc855d44	-0.016279824
161	0xbeb9f767	-0.36321566
162	0x3d80438b	0.06262883
163	0xbf18944c	-0.59601283
164	0x3f31ddc6	0.69479024
165	0x3c98113a	0.018562902
166	0x3bb03d69	0.0053784144
167	0xbefcb1b1	-0.49354318
168	0xbf0d41fa	-0.551788
169	0xbeeade8f	-0.45872924
170	0xbefd27c0	-0.4944439
171	0xbeff3f08	-0.49852777
172	0xbf8d72c9	-1.1050655
173	0x3cd3edb8	0.02587019
174	0xbecf4100	-0.4047928
175	0xbac782a9	-0.0015221435
176	0xbec63722	-0.38713938
177	0xbeba7bd3	-0.36422595
178	0xbf098ebd	-0.53733426
179	0xbf9094e2	-1.1295435
180	0x3d86fd57	0.065912895
181	0xbef8dee2	-0.48607546
182	0xbcafdfd8	-0.021469042
183	0xbef047e7	-0.46929857
184	0x3d29c7c9	0.041450296
185	0x3bd826d8	0.0065964274
186	0x3f5bf37c	0.859184
187	0xbf18c842	-0.5968057
188	0xbb8d9136	-0.004320289
189	0x3d0f5977	0.03499743
190	0x3f5309f7	0.8243708
191	0x3d268676	0.040655576
192	0xbf0649a2	-0.52456105
193	0x3d96f838	0.07371563
194	0x3fcefa69	1.6170169
195	0xbeed1b65	-0.46309963
196	0xbe96c5d7	-0.29447815
197	0xbee76593	-0.45194682
198	0xbf19400a	-0.5986334
199	0xbf39f857	-0.7264456
200	0xbf0176ff	-0.505722
201	0xbefff7d1	-0.49993756
202	0xbec863b6	-0.39138573
203	0xbec55237	-0.38539287
204	0xbf03cfc7	-0.5148892
205	0xbecdd403	-0.40200815
206	0x3fd82d96	1.6888912
207	0xbf152fa4	-0.5827582
208	0x3fcc8914	1.5979333
209	0xbeae9ff9	-0.34106424
210	0xbecb4fd3	-0.3970934
211	0x3e1bd389	0.15217413
212	0xbbdb92c4	-0.0067008454
213	0x3d051a5b	0.032495838
214	0x3f92182f	1.141363
215	0xbc79d9d8	-0.015249692
216	0xbf139ae2	-0.5765821
217	0xbec937ee	-0.39300483
218	0xbf2f03e0	-0.6836529
219	0xbebe8055	-0.37207285
220	0xbef4542a	-0.47720462
221	0x3d6b29a0	0.057412744
222	0xbf0aded6	-0.5424627
223	0xbebc5805	-0.36785904
224	0xbe5e40ee	-0.21704456
225	0x3d43f79e	0.047843568
226	0xbd38a1d3	-0.045076203
227	0xbe265719	-0.16244163
228	0xbf9400c8	-1.1562738
229	0xbec2a01d	-0.38012782
230	0xbf092d10	-0.53584385
231	0x3f16a69e	0.5884799
232	0x3f09cc95	0.5382779
233	0xbeb8ef1e	-0.36119932
234	0xbf032ed9	-0.5124336
235	0xbd962f1b	-0.073332034
236	0xbf0ea5e8	-0.557219
237	0xbedf1a0d	-0.43574563
238	0x3fb10ae2	1.3831446
239	0x3d479cae	0.048733406
240	0xbce77b6d	-0.028257096
241	0xbeb4f525	-0.3534328
242	0xbf0b6331	-0.5444823
243	0x3d76a342	0.06021429
244	0x3d03d57b	0.032186013
245	0xbecc6651	-0.3992181
246	0xbeb76152	-0.35816437
247	0x3f0f9138	0.5608096
248	0xbea670fb	-0.32508072
249	0x3ceb7b7c	0.028745405
250	0x3d573953	0.052544903
251	0xbf1418ef	-0.57850546
252	0xbedd8ca1	-0.43271354
253	0xbef20bbd	-0.4727458
254	0xbd011e57	-0.031523075
255	0x3fe571ab	1.7925314

fc3.bias f4 [4]
0	0x3d265171	0.040605012
1	0x3f01dc1d	0.5072649
2	0x3e11a16d	0.14221735
3	0x3de6994d	0.112597086
