models/model_run_3.pth (torch, 92165 bytes, 6 tensors)

fc1.weight f4 [200, 8]
00000000: 06ea 58bd da83 703e 134c 643e c933 573e
00000010: 14f0 ba3e 3033 5b3f c783 8bbd 5f6f 1f3e
00000020: 7220 de3c 929d 6d3e 1b2c 65be 652c 0d3f
00000030: c560 d13e 0c56 da3e e1fe 1f3f 8f63 3f3d
00000040: 42c5 66be 7752 6a3e a012 493f 7684 6dbe
00000050: e033 b4be ae35 b1be ee4f 67bf 3104 cb3e
00000060: 9f9e f03d afe9 bd3e d42b 88be 800b ed3e
00000070: 5d57 503e 6f20 61bf ecde b7be 4fc7 5ebf
00000080: 0d3f 66bd ec98 d63e 95f1 1d3e 41ae ad3e
00000090: bd07 ecbe a086 34bf 5c63 8bbc 0694 5e3f
000000a0: 9186 8c3c 7434 e43e c6f1 db3d 3a51 2abc
000000b0: 8abb e6be 0f36 28bf 3159 08be 452a 303f
000000c0: fc3b 8cbf 5151 c9be b1b4 45bf 46ee 543e
000000d0: babe 723e 7510 7f3f 2eb1 aa3e 1bba 27bf
000000e0: 6b96 9fbe ce30 373f 8b8a 10bf 851f 0d3f
000000f0: bcfd 2a3f b4d2 583f 7cef f0be d6ce 923d
00000100: 7ce5 0bbf a91e 6f3f e3ab c93c 969a 9cbe
00000110: 455f 9dbd ac40 89be ba81 8f3e d3ef 9e3d
00000120: 3119 e23e 6418 313f 72e7 5abf cec3 72be
00000130: ffcc 873e 6e91 5f3f 3213 c0bf 3f66 edbe
00000140: 6922 90be 8067 143e 27c8 4ebd 5d0a 64be
00000150: 3372 15bf a2eb 3ebf 56f2 cc3d 6ae2 4c3e
00000160: de59 fd3e c6d2 94be ff5f b9bd f14c 3cbf
00000170: d593 9ebe 8bb2 aabe 18e2 1c3e ef34 a43e
00000180: 51a5 09bc 800e 073f fd49 003e 1277 a03e
00000190: 00d8 0ebf 327f 46bf 1de0 7dbe b7f9 843f
000001a0: 71c2 6ebe e721 163e 9993 4bbe fccd 03be
000001b0: 6426 b23e 307a 8abf 33d6 803c ccc8 01be
000001c0: 5589 953e b3a8 f63e 4bd7 b63d 6b93 97be
000001d0: 75c3 85bc e21a 73bf 9d8b 7b3d 6d23 183f
000001e0: c9bc 373f 6d1e ecbe 243f 763f 9c32 71be
000001f0: ee94 b4be ffc0 eabd 88ef 1d3e 2dbc e83e
00000200: 6e27 dfbe 1e8a 55bf 1e7e cebe e40c 1cbf
00000210: cfc4 cc3e 32f0 9d3e d408 a03d a14f cc3e
00000220: 7164 c23e 0068 6a3e 5337 fcbd 7751 03bc
00000230: e2cf e8be eb2d 64bf c170 2dbe 5e76 173f
00000240: c111 29bf 52d8 4fbf df1e 20bd 4719 033e
00000250: 4362 b1be 99bc 81bd db3e d13e 7b8f 3e3f
00000260: 6418 e1bd 0385 483e 3b4e 523e ec85 f33e
00000270: 3165 cabe 322d dfbe 6e6a b93e 49c7 413f
00000280: cb3e 31be 4f5e 533f 417c 953e 761e 873f
00000290: 61c0 00be 0691 6dbf e17b 9fbe ccf4 05bb
000002a0: 9839 88bf 01f4 de3e ebf7 7e3e 0fc1 b63e
000002b0: facd 363f ab32 a83e b78e fcbe 0d6d c3be
000002c0: b272 a6bd 6a67 0bbe 7c20 283e 6f69 c7bd
000002d0: 92b1 17bf 40ae f7be e8eb 12bf d99d ee3e
000002e0: 1330 21be dc35 c73e d6e3 023f bb41 f73e
000002f0: d084 ec3d 7553 e63e 55f7 b93e edd1 8f3d
00000300: d8a6 b83e b6bc 863e ce04 12bf 1e63 5abf
00000310: 3bbf 14be 1fcd 68bf 8834 73bd 66a2 febe
00000320: fd2b 8a3f e3d4 5ebe db6a 193f ee70 1cbf
00000330: 3c30 d33d 6d4a a3be 955a 683e 3508 323f
00000340: f275 ffbd c2a6 053d 1c8c c53e 1198 a93e
00000350: 83ba 8abf ea25 cabe 3a89 e3bc 6299 e9bc
00000360: 91b5 963f cdf2 5a3f 828a e73e 8f03 48bd
00000370: 261e 9bbd 872a cabe 2971 fbbd 1b05 44be
00000380: d78b e73c 25a0 e8be cfd0 a33e f48c 37bf
00000390: bf87 b03e bea9 da3e b54e a63e 74f6 84bf
000003a0: d6a8 003f dd78 8c3f c44c 22bf fbfd 01bf
000003b0: 4032 fe3e bd3c 7fbf 6c11 80bf 1045 92bf
000003c0: 5cfb 80be e023 fbbe ee6d 623d 006e 2d3d
000003d0: 1c95 463f 1d22 593e 74b7 d43e 5019 27bf
000003e0: a50a 963e 4fd1 e2be e65e e1be 183b 11bf
000003f0: 56ac 5bbe 3865 35be 435a 9c3d 9d40 79bf
-0.052957557 0.23487797 0.22294645 0.21015848 0.3651129 0.8562498 -0.06812244 0.15569828
0.02711508 0.2320464 -0.22380106 0.55145866 0.40894142 0.42643774 0.6249829 0.046725806
-0.22536185 0.2288302 0.78544044 -0.23195061 -0.35195827 -0.34611267 -0.9035634 0.39651635
0.117490046 0.3709235 -0.26595938 0.46297836 0.20345826 -0.87940115 -0.35912263 -0.8702287
-0.056212474 0.41913545 0.15424187 0.33922008 -0.46099654 -0.7051792 -0.017015152 0.86944616
0.01715401 0.4457127 0.10739474 -0.0103953425 -0.45064956 -0.65707487 -0.13315274 0.688145
-1.0955806 -0.39319852 -0.7722884 0.20794019 0.23705569 0.99634486 0.33338302 -0.6551835
-0.31169447 0.71558845 -0.564614 0.5512622 0.6679342 0.8469651 -0.47057712 0.07168357
-0.5464704 0.9340616 0.024618095 -0.3058669 -0.07684187 -0.26807153 0.2802866 0.077605866
0.44159845 0.6917784 -0.8550941 -0.23707506 0.26523587 0.87331283 -1.5005858 -0.4636707
-0.28151253 0.14492607 -0.05048385 -0.22269578 -0.5837738 -0.745783 0.100071594 0.20008245
0.49482626 -0.29067057 -0.09051513 -0.73554903 -0.30972162 -0.33339342 0.15320623 0.32071635
-0.008401231 0.527565 0.12528224 0.31340843 -0.5579834 -0.77537835 -0.24792524 1.0388707
-0.23316361 0.1466137 -0.19880523 -0.12871546 0.34794915 -1.0818539 0.015727138 -0.12674254
0.2920634 0.48175582 0.089277826 -0.29604658 -0.016328553 -0.94962895 0.061412442 0.59429055
0.7177244 -0.46116963 0.96190095 -0.23554462 -0.35269874 -0.11462592 0.15423405 0.45456067
-0.4358477 -0.83413875 -0.40330595 -0.6095717 0.39993903 0.30847317 0.07814184 0.39904502
0.37967256 0.22891235 -0.1231524 -0.008015028 -0.45471102 -0.89132565 -0.16937543 0.5916499
-0.66042715 -0.81189454 -0.03909194 0.12802611 -0.3464528 -0.063348 0.40868267 0.74437684
-0.1099098 0.1958199 0.20537655 0.47563112 -0.39530328 -0.4358917 0.36214012 0.7569471
-0.1730911 0.8256578 0.2919636 1.0556171 -0.12573387 -0.92799413 -0.311492 -0.00204401
-1.0642576 0.43545535 0.2489926 0.35694167 0.71408045 0.32851157 -0.49327633 -0.38169137
-0.08127345 -0.13613668 0.16418642 -0.09736907 -0.59255326 -0.4837513 -0.57391214 0.46604803
-0.15740995 0.3890828 0.511289 0.48292336 0.115487695 0.44985548 0.36321512 0.07022462
0.36064792 0.2631585 -0.5703858 -0.8530749 -0.14526074 -0.9093799 -0.05937627 -0.49733275
1.0794674 -0.21760897 0.59928674 -0.6110982 0.10311934 -0.3189272 0.22690804 0.6954377
-0.12473668 0.032629736 0.38583457 0.3312383 -1.0838169 -0.3948205 -0.027775396 -0.028515521
1.177416 0.85526735 0.4522286 -0.04883152 -0.0757411 -0.3948557 -0.12277443 -0.19142573
0.028264923 -0.4543468 0.31995246 -0.7169945 0.34478566 0.42707628 0.32481924 -1.0387712
0.50257623 1.0974385 -0.63398385 -0.5077817 0.49647713 -0.99702054 -1.0005317 -1.1427326
-0.25191772 -0.49050808 0.05528062 0.042341232 0.7757127 0.2120442 0.41546214 -0.65273
0.29304996 -0.44300315 -0.44017714 -0.56730795 -0.2145246 -0.17714393 0.076344036 -0.9736422

fc1.bias f4 [200]
00000000: 577b c73d 4864 ea3e 6457 253f aef8 343f
00000010: fb50 633e 76cf c0be 7823 9bbd 8c6d cfbe
00000020: 9d47 0b3f a02f a5be 3b2e a63e 63c0 753e
00000030: 2b0f 853e b62c 233f e3b1 98be a4c2 e93e
00000040: b0d1 3cbe 1744 a3be 7692 a7be 9eae da3e
00000050: 142b 763f 1048 6bbe 643f dd3c 1f81 133f
00000060: d1eb 8bbe 629e 75be ceea 41bf 241a 93be
00000070: ee43 033f 5858 a83e 75f0 a33d 5d98 403f
00000080: eb28 99be da9a 8e3f 551c 7cbd 74f0 40be
00000090: 14a2 f23e ac19 2a3f 1925 fa3e 02a3 3abd
000000a0: 31e4 393f 69dd 153e fcb4 033e b99d 43bc
000000b0: 4c6b 513d 9419 0c3f 7c38 c53e 1334 09be
000000c0: 83aa 82bd 8aa3 4c3f 64ce 083f c4aa 5d3e
000000d0: 8d91 64bf 6e61 ac3e 1fbf 04bf 1c0b fb3e
000000e0: 58bc c8be 8dd2 d7be bf40 973e 74fa 6cbe
000000f0: 3443 40bc 0dd3 953e 9b5e 183f de43 26be
00000100: 4c49 3f3f 1806 fc3e 873d 26be cd80 333f
00000110: 62c6 ebbe 91b8 563c d0f3 9e3e 15c3 0bbe
00000120: 3333 c8be 800c bfbe 06c4 033e f1ba a43d
00000130: bc61 a73c e2e2 fc3d a168 043f 75bb de3c
00000140: f566 713d 3d8f 6cbe c917 16bd f33f a33f
00000150: 5d49 123f a049 9d3c 5d44 eebd afd2 c03e
00000160: d416 3fbf a571 7e3f daf7 f13e 052f 973f
00000170: 28b3 2c3f 5497 323f 487b 52be e02d 57be
00000180: 1c5b 143f d4b2 453f 7602 333d 7f6c 0abe
00000190: c9f1 3b3f 566f d03d b5e6 eebe 30c9 d8be
000001a0: 9088 91be 419a 963b 9e94 8a3f 716d a2ba
000001b0: 9a0f 8abe 1a0d 14bf ed7d e7bc 975e 113f
000001c0: 7db9 47be aa6b 1a3e 9f53 0abf 1386 bf3e
000001d0: af12 5f3f d291 da3e fa23 653f b2c3 a73e
000001e0: 7e82 ba3e 8e38 5d3e f552 36bd d190 22be
000001f0: c1e0 763f c72f 1ebe 87f7 b0be d502 063f
00000200: 8d77 393f 3919 bd3d 9177 ed3e 7c0a fcbb
00000210: 7354 53be 9479 adbd 05db 16be cc32 9e3d
00000220: dc5e 8d3e 93e8 e3be 5d31 4d3f 84fb 713f
00000230: 196c f93e 0709 12be 93fb 1dbf 3e7a c8be
00000240: 8ce3 7cbe 1055 89be 20de a73e 4d59 a03e
00000250: 3016 e83d 1fb8 d93e 744a 4a3f 1fad a63e
00000260: 8155 a63e 6cc0 0bbd 4c33 173e 3475 093f
00000270: cb57 273f 3084 ac3d af33 1dbf 83f8 933e
00000280: 6a4a 05be 167c c6be 28ad 69be 4942 973e
00000290: 50d1 bc3e 1c5a 4cbd 036f 8f3f 62d2 16be
000002a0: 04db 6c3e 04c8 dfbd 35de 5e3f ac8f a2bc
000002b0: 4642 843d 886d 873f 7008 843e dac4 33bd
000002c0: 82df b73d 19dc 87bd 320d 593e 71cc 323c
000002d0: a57d 1abd cf97 963c 0a68 4b3d b046 c83e
000002e0: d77f 443f 0c93 773f d39a 433f 8a12 b83d
000002f0: 5629 d9bd 9240 883e b72a 183d f26b 023f
00000300: 137f f5bd bb8a ed3e bb81 4f3e 0b4d a9be
00000310: f6a0 78be db58 373d 2613 44be 0d44 203e
0.09740322 0.45779634 0.6458647 0.70691955 0.2219886 -0.3765828 -0.075751245 -0.40513265
0.5440615 -0.32262897 0.32457146 0.23999171 0.25988135 0.637401 -0.29823217 0.45656312
-0.18439364 -0.31887886 -0.32728928 0.42711347 0.9615948 -0.22976708 0.027007766 0.576189
-0.2732835 -0.239862 -0.7574891 -0.2873088 0.5127553 0.328799 0.08004848 0.7523249
-0.2991403 1.1141007 -0.061550457 -0.18841726 0.4738928 0.6644542 0.48856428 -0.045565613
0.7261382 0.14635243 0.12862009 -0.0119394595 0.051127717 0.5472653 0.38519657 -0.13398771
-0.06380179 0.7993704 0.5343993 0.21647173 -0.8928459 0.33668083 -0.5185413 0.49031913
-0.39206195 -0.42152825 0.29541585 -0.23142415 -0.0117347725 0.2926258 0.59519356 -0.16236827
0.7472122 0.492234 -0.16234408 0.7011841 -0.46049792 0.0131055275 0.3104539 -0.13648637
-0.39101562 -0.37314224 0.12867746 0.08043469 0.020432346 0.12347962 0.5172215 0.027188996
0.058936078 -0.23101516 -0.036643777 1.2753891 0.57143193 0.019200146 -0.11634133 0.3766074
-0.7464421 0.9939216 0.47259408 1.1811224 0.6746087 0.6976216 -0.2055484 -0.21013594
0.5795152 0.77225995 0.04370352 -0.1351795 0.7341581 0.10177486 -0.4666039 -0.42340994
-0.284245 0.004596025 1.0826604 -0.0012392235 -0.26965028 -0.5783249 -0.028258288 0.5678496
-0.19504352 0.15080133 -0.54033846 0.37406978 0.87137884 0.42689377 0.8950802 0.3276649
0.36427683 0.21603605 -0.044512708 -0.15875556 0.964367 -0.15447913 -0.34563848 0.5234807
0.72448045 0.092333265 0.46380284 -0.0076916795 -0.20637684 -0.08470455 -0.14731987 0.077245325
0.27611434 -0.44513378 0.8015345 0.9452441 0.48715284 -0.14261256 -0.61711997 -0.39155763
-0.24696177 -0.2682271 0.32786655 0.3131813 0.11332357 0.42523286 0.79019856 0.32553956
0.3248711 -0.034119055 0.14765662 0.5369446 0.65368336 0.0842365 -0.6140699 0.28900537
-0.13016668 -0.38766545 -0.2281996 0.2954276 0.36878443 -0.049890622 1.1205753 -0.14728692
0.23130423 -0.10926822 0.8705781 -0.019843899 0.06457953 1.0580301 0.25787687 -0.043888904
0.089781776 -0.06633777 0.2119644 0.010913 -0.03771748 0.018382935 0.049659766 0.3911643
0.7675757 0.9670875 0.7640812 0.08987911 -0.10603587 0.26611763 0.03715011 0.5094596
-0.11987128 0.46394905 0.20264332 -0.33066592 -0.24280152 0.044762474 -0.1914793 0.1565096

fc2.weight f4 [100, 200]
00000000: 417f 89bd 0396 2bbc 5852 5b3d d453 dabc
00000010: f9a3 ccbc 97ab 11bd dd8c b3bc 3112 eebc
00000020: 0c09 febc 8770 e6bb 8186 3ebb 7472 55bd
00000030: 6e04 95bd a4e9 28bc 2dc9 283d d0f0 73bd
00000040: d143 8b3c 658a 663d 5cdc 2bbc 2970 533d
00000050: 8673 4ebb 5278 23bd 39b9 ed3c 87b3 0f3d
00000060: 8771 6dbc 03a4 1b3d 5206 99bd cba6 ebbc
00000070: 4f31 3fbb 02cd 8bbd 583d ba3c 4119 bf3c
00000080: c451 41bc d2b0 d63b 6e8b 103d 053f 01bc
00000090: 462b dabc e14d fbbb 75c5 0dbc 595f 90bd
000000a0: 8721 11bd 50c6 4fbd fe42 9f3c 4bdf 7637
000000b0: 0a89 a63b cc27 4dbd a48f 3a3d 8171 a4bd
000000c0: 41c2 583d 8a90 9fbd d4b2 25bd 0a62 f2bc
000000d0: 8ffb 0dbc 9394 cbbc 96d2 87bd b51e 6ebd
000000e0: 470d 1a3d 3f5f 8cbd 65ec 94bc 7316 eebc
000000f0: 1e60 aabd f3f7 443d 55e5 abbc 289f 32bd
00000100: d478 3abd 5072 92bd 1ff1 f83c 0999 a8bb
00000110: 166f 973c 30fc 363c e82f 213a 841b 893c
00000120: 7f5a 09bd 999f a2bd c22a 47ba 2025 47bd
00000130: 3ac8 2abd 0ba9 783a 3d03 2b3d 60fd 923c
00000140: b7cd f83c 0658 303d b1eb a63c aedc f2bc
00000150: 5cf8 4b3c 0982 6e3d c8e7 62bd 3fc9 e33b
00000160: a958 8d3c 6f68 a7bd 8847 8139 9a7f e9bc
00000170: 32c6 28bc 030b 273c ee2e 223d 1163 2ebd
00000180: 53b3 6bbd e570 8fbd 7b81 88bd 909d 0dbd
00000190: f67d cdbc 49a1 263c 11ee 14bc a255 e23b
000001a0: 28ab 433d d7bf 47bd 1336 a1bd bcd4 2fbd
000001b0: b319 60bd 3ad8 2abc 7b6d 593d 353a 0f3d
000001c0: 451c 90bd 4e09 20bd 1420 48bc e9c0 16bc
000001d0: cad6 123d ea33 83bd 2d68 cb3b 1656 1eb9
000001e0: d0ed 223d ccd8 a2bd 4b96 0f3d b40e e4bc
000001f0: 0364 a1bd 7902 723c 34bf d4bb 2d86 33bb
00000200: 180e 56bd 1867 ad3b 1cdf 36bc b850 2e3d
00000210: 241a 943c b19b 91bd c403 54bd a527 01bc
00000220: cad9 7ebc 908b 91bd b041 2ebd 8a5e 5ebd
00000230: 5602 4f3d 8ed2 033d a065 bbbc 3891 843b
00000240: b7ef cebc 3ff4 c33c 47a6 f83c 41dc 1bbd
00000250: 128a 743c c1a6 893c 1d24 ddbc 5167 15bd
00000260: 3bab 6c3d 5354 1e3d 487c 31bc dafd 383d
00000270: b9fc 8dbd a939 dcbc b137 66bd 74c8 e33c
00000280: f055 bc3b d261 293d 46b0 42bc e7dd 8e3c
00000290: 513d 623d 6645 38bd 296a dcbb 8700 8fbc
000002a0: e345 00bd 41d4 31bd 6279 73bc ff2b e6bc
000002b0: fa1b 453d 78bb 603d 65e7 6abc 85f9 18bb
000002c0: 3899 1ebd 69dc 33bd b667 f83c b19b 5d3d
000002d0: 7906 303d a0e6 1abd 11da e0ba 8dc0 09bc
000002e0: 8fac b73c 1967 84bc 40ce 363d ab09 e93c
000002f0: b7ff 37b9 b3a4 2a3d 3b48 54bd 5110 9abd
00000300: 3eba 9bbd fca6 2d3d 112b 9d3c 845c d53c
00000310: 06d7 3bbd 6b70 be3c 524e 753c 60b3 bb3c
00000320: fa76 9b3e cb6a 81be 24c8 403e c639 433e
00000330: 5f6d b63d 6267 283d d061 66bf e395 a4be
00000340: f0d7 7c3e e5c1 4cbf d948 633e dc65 8d3c
00000350: 6a7a 803d 204e 7c3e 099d d3bd 0910 0a3e
00000360: b219 9bbc 2598 203e b83a 823e 36e0 d139
00000370: de75 ecbc 0604 96be 14ea 123e 7cda 69be
00000380: b6d7 85bc 2ee6 33be 51b7 813e 70e7 b73e
00000390: 4b24 8a3e e370 593f fa49 4c3d 7c00 ed3e
000003a0: 3030 b43f 57ef 613e 67ff 323c bd5b 403d
000003b0: fd0d 463e 0697 123e 4770 ab3e 2e6a d53e
000003c0: 0de4 143e 11d2 f9be 5aae bcbd a94f 52be
000003d0: 3f48 1bbe 3289 c2bd 31da 843d ee53 4b3d
000003e0: d142 f8be 466f febd c089 c33e 4373 6b3e
000003f0: 41f5 9dbf 4c6e 7a3e 0408 acbe 433d 6fbc
-0.06713725 -0.010472777 0.053545326 -0.0266513 -0.024980532 -0.03556403 -0.021917755 -0.029061409
-0.031010173 -0.0070324573 -0.002907187 -0.052111104 -0.072762355 -0.0103096105 0.04120748 -0.05955583
0.01700011 0.056284327 -0.0104895495 0.051620636 -0.0031501963 -0.03990967 0.029018985 0.03508332
-0.014492399 0.03799821 -0.07471909 -0.028766057 -0.0029173677 -0.068262115 0.02273433 0.023327472
-0.01179928 0.0065518403 0.03528922 -0.00788856 -0.026631963 -0.007669196 -0.008653034 -0.07049436
-0.035432365 -0.050726235 0.019441124 1.4714732e-05 0.0050822543 -0.05008678 0.045547143 -0.08029462
0.05291963 -0.077912405 -0.040453747 -0.029587764 -0.008665933 -0.02485112 -0.06631963 -0.058134753
0.03761032 -0.06854104 -0.018179128 -0.029063439 -0.08319114 0.048088025 -0.020983377 -0.043608814
-0.045525387 -0.0715071 0.030388413 -0.0051451963 0.018485587 0.011168525 0.0006148801 0.016736753
-0.03353357 -0.07940597 -0.0007597619 -0.04861939 -0.041694857 0.00094856386 0.041751135 0.017943084
0.03037153 0.043052696 0.020376058 -0.029646244 0.01244935 0.05822948 -0.055396825 0.0069514806
0.01725419 -0.08174216 0.00024658092 -0.028503228 -0.01030116 0.0101954965 0.039595537 -0.042574946
-0.057544064 -0.07003955 -0.066653214 -0.03457409 -0.025084477 0.010170289 -0.009089963 0.006907181
0.04777065 -0.048766937 -0.07871642 -0.04292749 -0.05471201 -0.010427529 0.053082924 0.03496762
-0.07036642 -0.039071374 -0.012214679 -0.009201267 0.03584937 -0.06406386 0.006207487 -0.00015100124
0.039777577 -0.07951507 0.03505544 -0.027839042 -0.07880404 0.014771097 -0.0064925198 -0.0027393207
-0.052259535 0.0052918307 -0.011161592 0.04255745 0.018078871 -0.07109774 -0.051761404 -0.007882987
-0.015554855 -0.071066976 -0.042543113 -0.05428938 0.050539337 0.032183222 -0.022875607 0.0040456317
-0.02526079 0.023920177 0.030352725 -0.038051847 0.014925497 0.016803147 -0.02699476 -0.036475483
0.057780486 0.038654637 -0.010832854 0.045163967 -0.06932969 -0.026882963 -0.056205455 0.027805544
0.0057475492 0.041353054 -0.011882847 0.017439796 0.055234257 -0.04498806 -0.0067265225 -0.017456306
-0.03131665 -0.04341531 -0.014860483 -0.02809715 0.048122384 0.054866284 -0.014337395 -0.0023342085
-0.03872034 -0.04391137 0.03032289 0.054103557 0.042974923 -0.037817597 -0.0017154833 -0.008407724
0.02242115 -0.016162442 0.04463029 0.028446993 -0.00017547501 0.041660976 -0.051826697 -0.07522643
-0.07603882 0.042395577 0.019185575 0.026045091 -0.04585936 0.023246964 0.014972286 0.022912681
0.3036421 -0.2527679 0.18826348 0.19065008 0.0890758 0.04111422 -0.89993 -0.32145604
0.24691749 -0.7998336 0.22195758 0.017260484 0.06273349 0.24639177 -0.103326865 0.1348268
-0.01893315 0.15683039 0.25435424 0.00040030637 -0.028864797 -0.29299945 0.14347106 -0.22837251
-0.01633821 -0.17568275 0.25335172 0.3591876 0.26980814 0.84937876 0.049875237 0.46289432
1.4077206 0.22063957 0.0109251505 0.04696249 0.19341274 0.14315423 0.33484098 0.4168257
0.1454012 -0.4879308 -0.092129424 -0.205382 -0.15164278 -0.09498824 0.06486929 0.04964059
-0.48488477 -0.124235675 0.38191032 0.22993188 -1.234047 0.24456137 -0.33599865 -0.014602008

fc2.bias f4 [100]
00000000: bc57 e339 c436 d43e 3a70 873d 6cb5 ce3e
00000010: df8f 4f3d f125 b43e aa92 953e 63ab 26be
00000020: a5fd 6cba 8dcd 613e 34a0 bc3e e255 353e
00000030: 1d4a cc3e 3ea3 cd3e 9eba a2bd 00d7 2e3e
00000040: bb6e c6bb 2954 d63e cf7b c33d a44a 22bd
00000050: 3e13 a0bd 2cd5 e03e ca13 123e f94a 993e
00000060: c494 633e 4110 3b3e 6884 10bd a01e cd3e
00000070: 90cb e03a 33b7 093e 761e 703e 77d3 8a3e
00000080: 0b96 95bd c525 643e 21ba 243e 5d8f 1abc
00000090: 1da0 f7bc 7f44 bdbe a034 523e 9cbf 8b3e
000000a0: b8c0 a73e 0095 003e da6f d53e f3f4 813e
000000b0: a6e4 ee3c 5245 bc3e 3b1e 53bd b578 81bd
000000c0: 06f5 513e 45a3 cc3e 1728 1f3e b916 0e3d
000000d0: 1656 243c a7b0 03be faee ff3e 5415 cc3e
000000e0: 191c d93c 65cb adbd b79b 2e3d 6da9 80bc
000000f0: 1730 bc3e 0cb9 a23e 1706 233e ec83 5a3e
00000100: fede 693e 839c 283e 3a62 a53e f98a 163e
00000110: 971a 003f 4673 ef3d e3c8 163d eff5 ac3e
00000120: ee1a 313d 5808 263e 39ce b33e e68e 873e
00000130: e3ba c43e 1f26 de3e ce7b b93e 7cb2 c63e
00000140: 13f2 c73e 6a20 563e 423a 5d3d 39e6 803e
00000150: f394 6c3c 5bf5 533e f2cc 063e 4eb0 48be
00000160: 29e8 903e 2a73 013f 3be5 993d 1aa6 fc3e
00000170: 44f6 373e 834a 5f3d 63ce 16bd 6e5f d83e
00000180: dc40 a13e e538 45bc 2f29 933e 2169 ab3e
0.0004336218 0.41448033 0.066132024 0.4037279 0.050674316 0.35185197 0.29213458 -0.16276316
-0.00090404815 0.22051068 0.36840975 0.17708543 0.39900294 0.40163606 -0.07945751 0.17074203
-0.0060556806 0.41861084 0.09545099 -0.039621964 -0.0781617 0.43912637 0.14265361 0.29940012
0.22224718 0.18267919 -0.035282522 0.40062428 0.001715051 0.13448791 0.2344912 0.2711446
-0.07304009 0.22280033 0.16086628 -0.0094335945 -0.030227715 -0.3696632 0.20527887 0.27294624
0.3276422 0.12556839 0.41686898 0.25382194 0.029161762 0.36771637 -0.051542502 -0.06321851
0.20503625 0.39968315 0.15542637 0.03468964 0.01003029 -0.12860356 0.49987012 0.39860022
0.026502656 -0.0848606 0.04262897 -0.015705789 0.3675544 0.31781805 0.15920292 0.21339387
0.22838971 0.16465954 0.32301503 0.14701451 0.5004057 0.116919085 0.036812674 0.33781382
0.043238573 0.1621412 0.35118273 0.2647621 0.38423833 0.4338846 0.36227268 0.38808048
0.39051875 0.20910802 0.054010637 0.25175646 0.014439809 0.20699064 0.13164118 -0.19598505
0.28302124 0.5056635 0.07514425 0.49345475 0.17965037 0.05451442 -0.03681792 0.42260307
0.31494796 -0.0120374905 0.28742358 0.33478644

fc3.weight f4 [4, 100]
00000000: 46a6 b23d c6c1 0cbf 6751 03bf b1df 23bf
00000010: 344f 5ebd 74b0 05bf ac56 d0be 6740 29bf
00000020: ec6f 58bf 0a5e 4bbf 8eed 983f 33e5 2ebf
00000030: 0232 0fbf adbb 9c3f 3a81 26bf e1e9 79bf
00000040: aa63 62bf f645 0dbf 5e43 b6be 5056 e5bc
00000050: bf6d 43bf 42f9 1b3f 7206 2ebf a341 0fbf
00000060: 40fe dbbe 9b3b 16bf f30d 6ebd 9bc6 0cbf
00000070: 9be0 bd3c 6398 0abf 964c c6be 192f f7be
00000080: 2500 983d 80b9 43bf a17a 70bf 0131 fbbc
00000090: 9309 3e3f 3787 c5bf 2718 d1be c39e 27bf
000000a0: 740a f2be e78e b9be 0d31 d8be c18a 18bf
000000b0: c4b4 e53c dfae 55bf 3a6f 23bf ac5e c73c
000000c0: 832b 4bbf 6fb9 413f a95e 63bf 9503 5ebf
000000d0: 0ee8 2fbf a2b9 07bf 8d8d 7fbf 256d d7be
000000e0: b5a7 4f3c ce39 6dbe d5b1 2ebf 25d6 353f
000000f0: f269 22bf 5680 b0be 8184 3cbf 7396 23bf
00000100: 21dd 84bf b319 7bbf d668 f3be b0e2 d53f
00000110: 52f0 253f a692 63bf b4df 80bd bb9b 33bf
00000120: a954 edbe 15d5 c9be 4acb 0cbf 821c 5cbf
00000130: 8114 61bf 7c96 9cbe ffcf e63e 963c 303f
00000140: de58 1bbf ca29 72bf ab1d 4bbf 6ef3 febe
00000150: 869c a53d b35d e6be 73ea 483f aa01 bbbe
00000160: d771 17bf 6c0f bd3f df52 80bf 2db9 973f
00000170: 9cbc ffbe 9a75 6b3d a586 c93d f43d 1dbf
00000180: 3849 2ebf b850 1ebc 77be dcbe 04b8 d3be
00000190: 5861 6fbc 0cba 07bf 8b68 c5be 95bc 0fbf
000001a0: 2f9d a53d d0d2 1ebf e95f 043e 2afc 21bf
000001b0: 844d 35bf 6b81 90bf 6ab8 b93f bede 033e
000001c0: e408 6cbf 4b59 b63f 0719 1abf 26c1 81bf
000001d0: 30d6 40bf 4d1b eabe 112f 73be 7e94 71bd
000001e0: 6e36 f7be 2971 323f b418 a6bf cf0e 39bf
000001f0: ab0e d2be b716 4cbf 67ea 9d3d 060c 73bf
00000200: 0753 b73d bc0e d2be 2e27 abbe 812c d7be
00000210: e558 fc3b afaa 3cbf 1a15 81bf 73ed ef3c
00000220: 8957 043f df45 dbbf 802e edbe 170a 01bf
00000230: c95c 50be f356 72be 5f84 efbe 5340 6abf
00000240: 616e 643d 47a6 38bf 2a18 30be 66ae 7e3c
00000250: c07b f5be d8c8 413f c95d 81bf 790e 01bf
00000260: d24b e0be 057b 1fbf 4a0e 83bf df65 fabe
00000270: 5770 603c 23c4 0e3e 5a70 25bf 46ee 293f
00000280: 7a11 94bd bdc6 14bf 24d3 2ebf 30b9 42bf
00000290: 0970 91bf fe1f 95bf 4776 15bf f97e c33f
000002a0: fb98 083f 8158 4fbf 6b9b 7f3d e257 4fbf
000002b0: 9021 d4be 3174 c2be 8654 4dbe 18aa 10bf
000002c0: 3686 53bf db23 24bf e3b8 4e3f 8734 2c3e
000002d0: b586 75bf 78c5 c3bf c6ed 13bf f23d 16bf
000002e0: b053 56bb c930 1dbf 4be5 2c3f 3c4d 2d40
000002f0: 5368 06bf 1778 9b3f b447 80bf 1c24 b33f
00000300: 7c94 23bf 2e67 5e3d c69f 1a3d 7b34 a6be
00000310: 3cb1 5bbf 6363 2b3d 324c 1ebf 6e37 09bf
00000320: 7f0d c83c 507d 1dbf 64b2 34bf b043 0dbf
00000330: ef91 803b 650e d6be bdb2 4fbf 9566 58bf
00000340: 11ff 8cbf fd08 28bf 7ba8 b83f 48ad 65bf
00000350: 7f97 0ebe 4278 983f f704 52bf 75aa 5abf
00000360: 61bf 62bf 4ddf dfbe 78bf 15bf e92b c8bc
00000370: 6667 44bf e7ec 1b3d 2681 21bf d153 e2be
00000380: 5c34 12bf 6fa0 02bf 93bf 9d3d dcef ddbe
00000390: 05f4 053d 043e 98bf d545 9abe bbed 5ebf
000003a0: a0db c33c f87a f4be 90fb 1bbf d54c bb3c
000003b0: 4776 6e3f 5dc6 a6bf 08fd 03bf 55b7 f9be
000003c0: a32b 0bbf c1e5 07bf 7e4c fabe 5ed3 d0be
000003d0: 5147 a43d ccfe 4bbf 5428 99bf 2230 553d
000003e0: 9680 42bf 8005 153f 4029 99bc 2d92 9fbf
000003f0: c3f7 0ebf a615 69bf 3bdf 72bf f84d 0dbf
0.087231204 -0.54983175 -0.51296085 -0.640132 -0.054274753 -0.5222237 -0.40691125 -0.66113895
-0.8454578 -0.7944037 1.1947496 -0.6831848 -0.5593568 1.2244774 -0.65040934 -0.97622496
-0.88433325 -0.55184877 -0.35598272 -0.027995259 -0.76339334 0.6092721 -0.67978585 -0.5595953
-0.42967415 -0.586847 -0.05811877 -0.5499055 0.02317839 -0.54138774 -0.38730305 -0.4827812
0.074219026 -0.76454926 -0.93937117 -0.030663015 0.7423336 -1.5431889 -0.4083874 -0.65476626
-0.472736 -0.36241838 -0.42224923 -0.5958672 0.028040297 -0.8346996 -0.63841593 0.024337135
-0.7936327 0.75673574 -0.88816315 -0.86724216 -0.6871346 -0.5301763 -0.99825364 -0.42075458
0.012674262 -0.23166582 -0.682401 0.71029884 -0.6344291 -0.34472913 -0.73639685 -0.6390144
-1.0379983 -0.9808609 -0.4754092 1.6709805 0.64819825 -0.8889564 -0.06292668 -0.701595
-0.46353653 -0.3942038 -0.54997694 -0.85981 -0.8792191 -0.3058356 0.45080563 0.68842447
-0.60682476 -0.94595015 -0.79342145 -0.49795097 0.08086495 -0.44993362 0.7848274 -0.36524707
-0.5915808 1.4770331 -1.002529 1.1853386 -0.49948585 0.0574852 0.098401345 -0.6142266
-0.6808047 -0.0096628 -0.43114063 -0.4135133 -0.014610611 -0.5301826 -0.38556322 -0.5614713
0.08086621 -0.62040424 0.12927212 -0.63275397 -0.70821404 -1.1289495 1.4509404 0.12877938
-0.92201066 1.4246 -0.6019444 -1.0137069 -0.75326824 -0.45723954 -0.23748423 -0.058979504
-0.48283714 0.6970392 -1.2976289 -0.7228822 -0.41026816 -0.7972216 0.07710724 -0.9494022
0.08951383 -0.41026866 -0.3342833 -0.4202614 0.0077010267 -0.7369794 -1.0084565 0.02928803
0.5169607 -1.7130698 -0.4632454 -0.5040602 -0.20347895 -0.23665981 -0.4678068 -0.915044
0.055769328 -0.7212872 -0.17196718 0.0155445095 -0.47945976 0.7569709 -1.0106746 -0.5041271
-0.43807846 -0.6229709 -1.0238736 -0.48905846 0.013698659 0.13942008 -0.6462456 0.663792
-0.07229896 -0.5811575 -0.68290925 -0.76063824 -1.1362315 -1.1650388 -0.583836 1.5273124
0.5335843 -0.8099442 0.062404078 -0.80993474 -0.41431856 -0.37979272 -0.20051774 -0.5650954
-0.82626665 -0.6411721 0.80750865 0.16816913 -0.9590867 -1.5294638 -0.5778469 -0.5868827
-0.003270369 -0.61402565 0.67537373 2.707839 -0.52502936 1.2146024 -1.0021882 1.3995395
-0.63898444 0.05429762 0.037750028 -0.32461914 -0.85817313 0.04184283 -0.61835015 -0.53600204
0.024420498 -0.61519337 -0.705847 -0.5518141 0.0039236466 -0.41807857 -0.8113211 -0.8453153
-1.101534 -0.65638715 1.4426416 -0.8971753 -0.13924979 1.19117 -0.82038826 -0.85416347
-0.8857327 -0.43725052 -0.58495283 -0.024435 -0.76720273 0.038067725 -0.6308769 -0.44204572
-0.57111144 -0.5102605 0.077025555 -0.4334706 0.03270342 -1.1893926 -0.30131403 -0.870815
0.023908436 -0.47750068 -0.6093073 0.022863785 0.93149227 -1.3029286 -0.5155797 -0.48772684
-0.5436346 -0.5308495 -0.48886484 -0.4078626 0.08021415 -0.79685664 -1.1965432 0.052047856
-0.75977457 0.5821152 -0.018696427 -1.2466484 -0.55846804 -0.9104866 -0.9487187 -0.55197096

fc3.bias f4 [4]
00000000: 8b05 183c 9dca 46be f8ad 1c3e b859 f33c
0.009278665 -0.19413228 0.15300739 0.029705867
