models/model_run_1.pth (torch, 75717 bytes, 6 tensors)

fc1.weight f4 [128, 8]
0	0x3e58a8db	0.21158163
1	0x3e31e3ef	0.17372106
2	0x3e960931	0.29303887
3	0xbf679532	-0.9046203
4	0xbe6542a7	-0.22388707
5	0xbebfc2b6	-0.3745324
6	0xbf1afb75	-0.6053994
7	0x3d074536	0.03302499
8	0x3e1226fb	0.14272682
9	0xbe36ab5e	-0.17838809
10	0xbe1eb7e6	-0.15499839
11	0xbe9b4b5a	-0.30330926
12	0xbe4c014f	-0.19922374
13	0x3f145bb5	0.57952434
14	0x3e145251	0.14484526
15	0x3eabe626	0.33574027
16	0xbe5b401a	-0.21411172
17	0xbee81c7a	-0.45334226
18	0x3e520407	0.20509349
19	0xbe23d0db	-0.15997641
20	0xbf3c4168	-0.735373
21	0xbe2d4518	-0.16920888
22	0x3e45a380	0.19300652
23	0x3e90eba5	0.28304783
24	0x3d487d19	0.048947427
25	0xbe50b072	-0.20379809
26	0xbc6028e2	-0.013681622
27	0xbebd0a96	-0.3692214
28	0xbf54a3f8	-0.83062696
29	0x3e9a491c	0.30133903
30	0x3ea67993	0.3251463
31	0x3f175e86	0.59128606
32	0x3f13c165	0.5771697
33	0x3f087618	0.53305197
34	0xbc31df23	-0.010856423
35	0xbe1a2c06	-0.15055856
36	0x3f151199	0.58229977
37	0xbdc22270	-0.09479225
38	0x3da77454	0.08176485
39	0xbf44841f	-0.767641
40	0xbf6304a9	-0.88678986
41	0x3f3640d3	0.71192664
42	0xbf1a6d9e	-0.6032351
43	0x3e91d297	0.2848098
44	0x3ec7f2f1	0.39052537
45	0xbe7c4afe	-0.24637982
46	0xbc37183d	-0.011175212
47	0xbde43873	-0.11143579
48	0x3e7e162e	0.24813148
49	0x3e9b70ce	0.303595
50	0xbec0a4f4	-0.3762585
51	0xbde92c59	-0.11385412
52	0x3f0a70b1	0.54078203
53	0x3e9f1c0f	0.31076095
54	0x3e8a1abb	0.2697352
55	0xbc115663	-0.008870694
56	0x3ec41bca	0.3830245
57	0xbcbb56fa	-0.022868622
58	0xbf8c0f9b	-1.0942262
59	0xbcfaad37	-0.030600173
60	0x3fd53af6	1.6658618
61	0xbea6e598	-0.3259704
62	0xbe09bf59	-0.134519
63	0x3e3e195d	0.18564363
64	0xbe310438	-0.17286766
65	0x3ee3e822	0.4451304
66	0x3f55b4e0	0.8347912
67	0xbdc8b75d	-0.09800599
68	0xbf251179	-0.64479786
69	0xbbb4c408	-0.005516533
70	0xbff69997	-1.9265622
71	0x3ec5c875	0.386295
72	0x3e98f212	0.29872185
73	0x3f0720f0	0.52784634
74	0x3eb0e152	0.34546906
75	0x3f0ea016	0.5571302
76	0xbe9d33f5	-0.30703703
77	0xbbccdc39	-0.0062518385
78	0x3f87836a	1.0586979
79	0x3ce70800	0.028202057
80	0xbeede45f	-0.46463296
81	0x3eced8d4	0.40399802
82	0xbf28e2e6	-0.6597122
83	0x3f253474	0.6453316
84	0xbd780471	-0.06055111
85	0xbe3c7a22	-0.18405965
86	0x3b5669a8	0.0032716785
87	0x3dae18de	0.08500837
88	0x3e87076b	0.26372847
89	0x3e8bf500	0.27335358
90	0x3ef99366	0.4874527
91	0xbed3fa23	-0.41401777
92	0x3f59c239	0.85061985
93	0xbdd5089f	-0.10402035
94	0xbd579bc9	-0.052638803
95	0x3ea9b8c9	0.33148792
96	0xbf2e5efb	-0.6811368
97	0xbeb8e282	-0.36110312
98	0xbee4e5df	-0.44706628
99	0xbc9d0e8c	-0.019171976
100	0x3df54dc2	0.11977722
101	0x3f256b09	0.6461645
102	0xbe76a481	-0.24086191
103	0x3e79f371	0.24409272
104	0xbf1fa6bc	-0.6236379
105	0x3f4d82c0	0.80277634
106	0x3e8cb8e4	0.2748481
107	0xbe9d3347	-0.30703184
108	0x3ec53df1	0.3852382
109	0x3f6012f3	0.87528914
110	0xbe9c0839	-0.30475023
111	0x3e57250b	0.21010225
112	0xbe26391b	-0.16232722
113	0x3e0dccf0	0.13847709
114	0xbe9ac65b	-0.30229458
115	0xbf48c1fc	-0.78420997
116	0x3eef58d5	0.4674746
117	0x3daa013f	0.08301019
118	0xbe8e02f0	-0.27736616
119	0x3ee03132	0.43787533
120	0xbe68e450	-0.22743344
121	0x3f26a375	0.65093166
122	0xbd2cabdd	-0.04215609
123	0x3e8ea058	0.27856708
124	0xbefad969	-0.48993996
125	0x3e47cce3	0.19511752
126	0x3d92622c	0.07147631
127	0xbf289964	-0.65859056
128	0x3ea055dd	0.31315508
129	0x3e81bd0a	0.25339538
130	0xbe976d6b	-0.29575667
131	0xbf84a47c	-1.0362697
132	0xbd5f7266	-0.05455246
133	0xbcc79403	-0.02436257
134	0x3ece9cda	0.40354043
135	0xbee06a4b	-0.43831095
136	0xbe8f1237	-0.27943584
137	0xbf8ca6e9	-1.0988437
138	0xbf1c6c75	-0.6110299
139	0x3f1f08ff	0.621231
140	0x3e3a7a55	0.18210728
141	0xbe91018c	-0.28321493
142	0x3ea9a1fd	0.331314
143	0xbecdd092	-0.4019819
144	0x3b8700d5	0.004119972
145	0xbe3bbf7a	-0.18334761
146	0x3e12e820	0.14346361
147	0xbe77eeb7	-0.24212156
148	0xbf58a0ec	-0.8462055
149	0xbe1f1260	-0.15534353
150	0x3dc8af7a	0.097990945
151	0x3df0127b	0.11722275
152	0x3f27fa24	0.6561606
153	0xbf08b8ba	-0.5340687
154	0xbef2d805	-0.47430435
155	0xbf462fec	-0.7741687
156	0x3d944759	0.07240171
157	0x3f0702e2	0.52738774
158	0x3e20db7c	0.15708727
159	0x3d82335c	0.06357452
160	0xbe42fee8	-0.19042552
161	0x3eff3e21	0.49852088
162	0x3f81d64e	1.0143526
163	0xbf0c91e7	-0.5491013
164	0xbec88249	-0.391619
165	0xbe86dc23	-0.26339826
166	0xbf38d7f6	-0.7220453
167	0x3f3b5850	0.7318163
168	0xbf0d66a4	-0.5523474
169	0xbdf55597	-0.119792156
170	0xbf3f2c24	-0.7467673
171	0x3fc0cf97	1.5063351
172	0xbedeaf24	-0.43492997
173	0xbe02d017	-0.12774692
174	0x3d0c0165	0.034181017
175	0xbe464609	-0.19362654
176	0x3c807ab0	0.015683502
177	0xbe30076b	-0.1719033
178	0xbf99c9c4	-1.2014699
179	0x3fd7d22e	1.6861017
180	0x3dde29f4	0.10847846
181	0xbedc1b9f	-0.42989823
182	0x3e483b2e	0.19553825
183	0xbf265687	-0.6497578
184	0xbe2c8705	-0.16848381
185	0xbdf48ec5	-0.119412936
186	0xbe84d74a	-0.25945503
187	0xbf12ee0e	-0.5739449
188	0x3f09798b	0.53701085
189	0x3f318fde	0.6936015
190	0x3ef22cdf	0.4729986
191	0x3f00a0be	0.50245273
192	0xbee9d62a	-0.45671207
193	0xbe4aa595	-0.19789727
194	0xbe0f95ab	-0.14021938
195	0xbc8247e5	-0.015903423
196	0x3e8eeb57	0.27913925
197	0x3f1ea377	0.6196818
198	0x3eb19a9e	0.34688276
199	0x3e5b5cec	0.21422166
200	0x3d93ddef	0.07220065
201	0x3d4a3df0	0.049375474
202	0x3e99c6ac	0.30034387
203	0xbd37e1d0	-0.044893086
204	0xbf6ef6e7	-0.93345493
205	0xbe441b59	-0.19151057
206	0xbe949096	-0.2901656
207	0x3f6ce6ca	0.92539656
208	0xbe86eb1b	-0.26351246
209	0x3dcedbdc	0.101005286
210	0xbe858f3d	-0.26085845
211	0x3dd18897	0.102311306
212	0x3e937ac2	0.28804594
213	0x3f38dab8	0.7220874
214	0x3ec63e5d	0.38719454
215	0x3f0deb85	0.554375
216	0x3e0df25a	0.13861981
217	0x3e8d18ba	0.27557927
218	0x3f7601f1	0.9609671
219	0xbf198aec	-0.599776
220	0xbe3facad	-0.18718214
221	0x3e6dbacc	0.23215789
222	0xbee0dcfb	-0.43918595
223	0x3e6b2409	0.22962965
224	0x3e9d7b8b	0.30758318
225	0x3ea9cf15	0.33165804
226	0x3db645cf	0.08900034
227	0xbf437e64	-0.7636473
228	0x3f97d5a6	1.1862075
229	0xbe35fb0f	-0.17771553
230	0xbe8328fc	-0.25617206
231	0x3eee8ca7	0.46591684
232	0x3f092611	0.5357371
233	0x3f1c82ac	0.6113689
234	0xbe370a80	-0.17875099
235	0xbfa2c415	-1.271609
236	0x3e3c3387	0.18379031
237	0x3df7eb81	0.12105466
238	0x3e165a75	0.14682944
239	0x3c9b2592	0.018938813
240	0x3ee84386	0.45364016
241	0xbeb7ae93	-0.35875377
242	0xbed67f67	-0.41894075
243	0xbdb5395f	-0.08848833
244	0x3f308276	0.6894907
245	0x3f0ceee8	0.5505204
246	0x3e297de2	0.16551927
247	0xbe833cf1	-0.25632432
248	0x3df32a24	0.11873272
249	0xbeef0710	-0.46685076
250	0xbeeecf28	-0.46642423
251	0xbe41cee5	-0.1892658
252	0x3ef229b4	0.47297442
253	0x3f0ed95a	0.558004
254	0x3ec52a8e	0.3850903
255	0xbf3da10a	-0.7407385

fc1.bias f4 [128]
0	0x3ec07019	0.37585524
1	0x3ed04f0d	0.4068531
2	0x3eac43ea	0.33645564
3	0xbf08f31d	-0.5349596
4	0x3eae63df	0.3406057
5	0x3e09261f	0.13393448
6	0x3f48ef0b	0.7848975
7	0xbe30748f	-0.17231964
8	0x3e465786	0.19369325
9	0x3e11cbb2	0.1423786
10	0x3f057a33	0.52139586
11	0x3eba1bad	0.3634924
12	0xbe2d351a	-0.16914788
13	0x3ee120e6	0.43970412
14	0x3e031180	0.12799644
15	0x3f549942	0.8304635
16	0x3d8c35d5	0.06846205
17	0x3ed363f9	0.4128721
18	0x3f10ae8e	0.5651635
19	0xbdb84ede	-0.08999418
20	0xbcb0a782	-0.021564249
21	0xbf515592	-0.81771195
22	0x3eec0ace	0.46101993
23	0xbeca74d2	-0.39542252
24	0x3eea78cf	0.45795295
25	0xbeec47da	-0.46148568
26	0xbee959bd	-0.45576277
27	0xbf35138e	-0.70732963
28	0x3e6f5a34	0.23374254
29	0xbeea11d6	-0.45716733
30	0x3f38b8a4	0.7215674
31	0x3e5d3d72	0.21605471
32	0xbec780d2	-0.3896547
33	0xbee24dcf	-0.44199988
34	0xbe7d0345	-0.24708278
35	0x3e6e4f2c	0.23272389
36	0xbf3c7e30	-0.73630047
37	0xbec53734	-0.3851868
38	0xbdb1deac	-0.086850494
39	0xbee53f0a	-0.44774657
40	0x3e976545	0.2956945
41	0xbf3287d8	-0.6973853
42	0xbe1d420c	-0.15357226
43	0x3e38ca4e	0.18045923
44	0xbf18da81	-0.5970841
45	0x3f4a5c8e	0.7904748
46	0x3f497060	0.78687096
47	0x3eb1a9ff	0.3470001
48	0xbe60e9bc	-0.21964163
49	0xbe0bf7fa	-0.13668814
50	0xbdc937b7	-0.0982508
51	0xbf2a654d	-0.6656082
52	0x3eaf16a4	0.3419696
53	0x3e653ba8	0.22386038
54	0x3e863052	0.2620874
55	0xbdda04b3	-0.106454276
56	0xbe300011	-0.17187525
57	0xbcf50aa0	-0.029912293
58	0x3eb8988e	0.3605389
59	0x3e115c1f	0.14195298
60	0x3f10fbe3	0.5663435
61	0xbd0253d7	-0.031818237
62	0x3e78b365	0.24287184
63	0x3f1fc6cb	0.6241271
64	0x3f376147	0.7163281
65	0xbf1b4f26	-0.60667646
66	0x3ea483eb	0.32131895
67	0xbc0a710b	-0.008449803
68	0xbd2e44b6	-0.042545997
69	0x3cfcc098	0.030853555
70	0x3efbc2ca	0.4917205
71	0xbd382b63	-0.04496325
72	0x3f464180	0.77443695
73	0x3cf4a04d	0.029861594
74	0x3e4d2fc0	0.20037746
75	0x3e2c2c01	0.16813661
76	0x3eb132c3	0.3460904
77	0x3b9bdcae	0.0047565317
78	0x3d41480a	0.047187842
79	0x3f12768d	0.57212144
80	0xbd9d5ea4	-0.07684067
81	0xbd700819	-0.058601473
82	0x3f21830b	0.6309058
83	0xbf2e808e	-0.6816491
84	0x3eb5c33f	0.35500523
85	0x3f660de2	0.89864933
86	0x3ed5f6ff	0.41790006
87	0xbe67d5ee	-0.22640201
88	0xbeecf24a	-0.46278602
89	0x3eab6ece	0.33482975
90	0x3eae79a6	0.34077185
91	0x3e3941f0	0.1809156
92	0xbcc2a426	-0.023759913
93	0x3ed87599	0.4227722
94	0x3f0101a8	0.5039315
95	0x3ee052b0	0.43813086
96	0x3d873e61	0.06603695
97	0x3ea3cad6	0.3199069
98	0xbe249d58	-0.16075647
99	0xbcb73770	-0.022365302
100	0x3f072d96	0.52803934
101	0xbe1c6d9d	-0.15276189
102	0x3f6ca7dc	0.92443633
103	0xbe8be366	-0.2732193
104	0x3f2c41e9	0.6728807
105	0x3f77f2c9	0.96854836
106	0x3ea9225a	0.3303402
107	0xbc99a8b3	-0.0187572
108	0xbec19066	-0.3780548
109	0x3e788a29	0.24271454
110	0x3f5f6726	0.8726677
111	0xbf43667f	-0.7632827
112	0x3f1bdceb	0.6088397
113	0x3f69ec00	0.9137573
114	0xbe05a7bb	-0.13052265
115	0x3e172de6	0.14763603
116	0x3eb646c9	0.3560088
117	0x3ef9d152	0.4879251
118	0x3df06496	0.11737935
119	0xbce58b35	-0.02802048
120	0xbd81355d	-0.06309006
121	0xbf0c23d2	-0.5474216
122	0xbf05d5c4	-0.52279305
123	0xbddd446d	-0.10804067
124	0x3f8006e0	1.0002098
125	0x3f45e068	0.7729554
126	0x3ee1d42a	0.4410718
127	0xbdb13d87	-0.086543135

fc2.weight f4 [128, 128]
0	0x3e1c645c	0.15272659
1	0xbb834b9b	-0.0040068156
2	0x3e96d0a3	0.29456052
3	0x3f326308	0.6968236
4	0xbe24921d	-0.16071363
5	0x3ef2a997	0.47395012
6	0xbe338cc2	-0.17534164
7	0x3f2aea3a	0.6676365
8	0xbf960c83	-1.1722568
9	0x3efd662f	0.49492022
10	0x3e8f5b4c	0.2799934
11	0x3dd31c04	0.10308078
12	0x3e811388	0.25210214
13	0xbef1fc1d	-0.4726266
14	0x3e5fba56	0.21848425
15	0xbbecd916	-0.007228027
16	0x3ea581c1	0.32325557
17	0x3f0a32ce	0.5398377
18	0x3eb69b73	0.35665473
19	0x3ecaa90a	0.39582092
20	0xbf22cd87	-0.6359486
21	0x3fb50085	1.4140784
22	0x3dcacd0d	0.099023916
23	0x3eaf0cf3	0.34189567
24	0x3e04fde0	0.1298747
25	0x3e9312bc	0.2872523
26	0x3e0df720	0.13863802
27	0x3f4b6e37	0.7946505
28	0x3ea75918	0.3268516
29	0x3ef95a2f	0.48701617
30	0x3ec4bd2a	0.3842557
31	0x3f07f968	0.5311494
32	0xbe6692a9	-0.22516884
33	0x3e29b3f3	0.16572551
34	0xbf37adda	-0.7174965
35	0x3e9c0346	0.30471247
36	0x3fcb3a39	1.5877143
37	0x3f37951f	0.71711916
38	0xbe860a48	-0.2617972
39	0x3ebaf5d0	0.36515665
40	0x3f427937	0.7596621
41	0x3ec9c67b	0.3940924
42	0xbe210922	-0.1572614
43	0x3dc248c0	0.09486532
44	0x3e81ed0f	0.25376174
45	0xbe5b6374	-0.21424657
46	0xbce5e13a	-0.028061498
47	0xbda2cc03	-0.079490684
48	0xbedca835	-0.43097082
49	0xbe212a77	-0.15738855
50	0x3eb1a3a6	0.34695166
51	0x3f9094ca	1.1295407
52	0xbe7a81e0	-0.24463606
53	0xbe7bce4d	-0.24590416
54	0x3e643a69	0.22287907
55	0x3ed5fb46	0.4179327
56	0x3f0d1947	0.55116695
57	0x3e0e2cd1	0.13884284
58	0x3bfe4dcd	0.0077607394
59	0x3e168cf2	0.14702204
60	0xbf16ca31	-0.5890227
61	0x3ebafdd8	0.36521792
62	0x3eff3e6b	0.4985231
63	0xbe093f7b	-0.13403122
64	0x3f01a8aa	0.50647986
65	0x3e17cf29	0.14825119
66	0x3f1383ff	0.57623285
67	0x3e2b4882	0.16726878
68	0x3e8f5f8b	0.2800258
69	0x3f6dfb57	0.9296164
70	0xbe9bba2c	-0.30415475
71	0x3e9e7083	0.30945215
72	0x3d18b49d	0.03728162
73	0x3e396546	0.18105039
74	0x3edec329	0.4350827
75	0x3e57306d	0.21014567
76	0x3eb006b9	0.3438013
77	0xbea79e55	-0.32737985
78	0x3e2d8989	0.16946997
79	0xbd8d1881	-0.068894394
80	0xbf1fe186	-0.62453496
81	0x3f66bc08	0.9013066
82	0xbe321438	-0.17390525
83	0x3ec2c922	0.38044077
84	0x3e8d0766	0.27544707
85	0xbd2ead9b	-0.04264603
86	0xbed60c65	-0.4180633
87	0x3e418f5f	0.18902348
88	0x3ee92d14	0.45542204
89	0x3e0d0be8	0.13774073
90	0xbd4817d6	-0.048850857
91	0x3e93d9a7	0.28876993
92	0x3f25a50d	0.6470497
93	0xbf0f6842	-0.5601846
94	0xbeb93a6b	-0.36177382
95	0xbeca75d2	-0.39543015
96	0x3d4c3b8b	0.049861472
97	0xbe136de7	-0.14397393
98	0x3eb7fc0d	0.35934487
99	0xbef6dfe5	-0.48217693
100	0xbf3db771	-0.74108034
101	0x3e912a9c	0.2835282
102	0xbd776322	-0.060397275
103	0x3ed7ca33	0.42146453
104	0xbf444d7f	-0.7668075
105	0xbf855097	-1.0415219
106	0x3ecf1b25	0.40450397
107	0x3eb799d7	0.35859558
108	0x3ed6d189	0.41956738
109	0x3ea87121	0.3289881
110	0xbdd1f5a2	-0.10251929
111	0x3f8ab26e	1.0835702
112	0xbe89000e	-0.26757854
113	0x3df4cdd7	0.11953323
114	0xbf46fb09	-0.777268
115	0xbf03ebda	-0.51531756
116	0x3fa330eb	1.2749304
117	0xbd7c673e	-0.061621897
118	0xbfbc28ca	-1.4699948
119	0xbf3b8d04	-0.7326205
120	0x3eaa808b	0.33301196
121	0x3eb87ce2	0.36032778
122	0x3f4b4c46	0.7941326
123	0x3eb52114	0.353768
124	0xbe1db152	-0.15399674
125	0xbe193db8	-0.1496495
126	0xbe6f2c2a	-0.23356691
127	0x3f3a00f0	0.7265768
128	0x3e988a43	0.29792985
129	0x3e3900de	0.18066737
130	0x3e2257dd	0.1585383
131	0x3f4b37e0	0.79382133
132	0xbbd93532	-0.006628656
133	0x3f4a4cf7	0.7902369
134	0x3e3b6651	0.1830075
135	0x3d6cfb4f	0.057856854
136	0xbebb601e	-0.3659677
137	0x3f08d263	0.53446025
138	0x3f06ee99	0.5270782
139	0x3e02ef42	0.12786582
140	0x3e4ac442	0.19801429
141	0xbe594686	-0.21218309
142	0x3dc962f9	0.09833331
143	0x3ed9bbbe	0.42526048
144	0x3c9393e9	0.018014865
145	0x3eef6fa6	0.46764868
146	0x3dc8f249	0.09811837
147	0x3e43095b	0.19046538
148	0xbe318038	-0.17334068
149	0x3faa14cc	1.3287597
150	0x3e4fa672	0.20278338
151	0xbcd64607	-0.026156439
152	0x3d30de89	0.043180976
153	0x3f367cf1	0.71284395
154	0x3d46c787	0.048530128
155	0x3ef116d1	0.4708772
156	0x3ef63ecf	0.48094794
157	0x3e7d7d9b	0.24754946
158	0x3e9028d6	0.28156155
159	0x3e6dc2b2	0.23218802
160	0xbf8763bf	-1.0577315
161	0x3ee3ea2e	0.44514602
162	0xbf885206	-1.0650032
163	0x3e0cc708	0.137478
164	0x3f63802b	0.88867444
165	0x3e76ce60	0.24102163
166	0x3e85ce87	0.2613413
167	0x3db0fcca	0.08641966
168	0x3ea0e778	0.31426597
169	0xbd929343	-0.07156994
170	0xbeb8419e	-0.35987562
171	0x3eb20348	0.34768128
172	0x3e86d0fd	0.2633132
173	0xbdb1be57	-0.086788826
174	0x3e917fb4	0.28417742
175	0x3e2ea827	0.17056333
176	0xbf44de78	-0.7690196
177	0x3ef19d62	0.47190386
178	0x3d8b1371	0.067908175
179	0x3f764a19	0.96206814
180	0xbea82e8f	-0.3284802
181	0xbe288285	-0.16456039
182	0x3e0a5581	0.1350918
183	0x3e598085	0.21240433
184	0x3db33b9c	0.08751604
185	0x3e89cce9	0.26914147
186	0xbd6198ab	-0.055077236
187	0x3e16cdc7	0.14726935
188	0xbd53aa3c	-0.05167602
189	0x3f376bee	0.7164906
190	0x3de47b1d	0.111562945
191	0x3e1677b6	0.14694104
192	0x3efd3031	0.4945083
193	0x3cb7ec79	0.022451626
194	0x3e239db4	0.15978128
195	0x3da23d2c	0.07921824
196	0x3e372d7c	0.17888445
197	0x3f383468	0.71954966
198	0xbe9fa2a4	-0.31178772
199	0x3d8740d3	0.06604161
200	0x3d8b0245	0.06787542
201	0x3c415456	0.011799892
202	0xbdf295ba	-0.11844964
203	0x3eaa1f50	0.33227015
204	0x3e2f2831	0.17105176
205	0xbf3394be	-0.7014884
206	0x3d1e5e5d	0.03866421
207	0x3d8aba9a	0.06773873
208	0xbf1220f4	-0.5708153
209	0x3f34479a	0.70421755
210	0x3e2101b4	0.15723306
211	0x3eba8e45	0.36436668
212	0x3e656b52	0.2240422
213	0x3eddfad9	0.43355444
214	0xbf352833	-0.70764464
215	0x3e15e976	0.1463984
216	0xbd036c48	-0.032085687
217	0x3e46e873	0.1942461
218	0xbd585b25	-0.052821297
219	0x3d4befa1	0.049789075
220	0xbd334424	-0.043766156
221	0x3df18684	0.11793235
222	0x3de59aea	0.11211188
223	0xbe90b1a4	-0.2826053
224	0xbe9abaf3	-0.30220756
225	0x3e21ae39	0.15789117
226	0x3ee4396c	0.4457506
227	0xbea24f13	-0.31700954
228	0xbeda6070	-0.426517
229	0x3d942f79	0.07235617
230	0x3ea2f029	0.31823853
231	0x3d442df1	0.047895376
232	0xbf599062	-0.84985936
233	0xbe899b66	-0.26876372
234	0x3ed01375	0.40639845
235	0x3df20441	0.118172176
236	0x3de0644f	0.10956632
237	0x3ee27dc7	0.44236585
238	0x3eb2f5c1	0.3495312
239	0x3ebebbde	0.37252706
240	0x3da2462c	0.079235405
241	0x3eb28c42	0.34872633
242	0xbf93729f	-1.1519355
243	0xbf0c3014	-0.5476086
244	0x3f23a60a	0.6392523
245	0x3c0ba1a0	0.008522421
246	0xbf6be3ba	-0.9214436
247	0xbf152c1d	-0.58270437
248	0x3b2047ac	0.0024456782
249	0xbe79eb57	-0.24406181
250	0x3e1ecf3f	0.15508746
251	0x3dd8dd2a	0.10589059
252	0x3ec83b32	0.39107662
253	0xbc558302	-0.013031723
254	0x3ecb0378	0.39651084
255	0xbe1695ed	-0.1470563

fc2.bias f4 [128]
0	0xbe4d0c8c	-0.20024318
1	0x3e3f68a4	0.18692261
2	0x3dd0dff4	0.10198966
3	0x3e647c64	0.22313076
4	0x3e46b28b	0.19404046
5	0xbabd9392	-0.0014463535
6	0xbe1eb8bc	-0.15500158
7	0x3cc9562e	0.024577226
8	0x3d060f33	0.03272934
9	0xbcc60cfa	-0.02417611
10	0x3f297bb7	0.662044
11	0x3e02b8d5	0.1276582
12	0x3e49dade	0.19712397
13	0x3e012756	0.12612662
14	0xbe13c72f	-0.14431451
15	0x3e531c6b	0.2061631
16	0xbcef871d	-0.029239232
17	0x3dfbea5a	0.123005584
18	0x3da1a21f	0.0789225
19	0x3d599633	0.053121757
20	0x3ebd686b	0.36993727
21	0x3dc98b4f	0.09841024
22	0x3e436f59	0.19085445
23	0xbddd8889	-0.10817058
24	0xbd8a1778	-0.067427576
25	0x3e54a343	0.20765404
26	0x3e2aa7b7	0.1666554
27	0x3e2167cb	0.1576225
28	0x3f379a25	0.7171958
29	0x3de85bec	0.11345658
30	0x3e5dbe9a	0.2165474
31	0xbd8b49b3	-0.068011664
32	0xbde9f684	-0.11423972
33	0x3dd28fb3	0.10281315
34	0x3e7bc23e	0.24585816
35	0xbca400e1	-0.02001995
36	0x3e8fb0d9	0.28064612
37	0x3edfbb74	0.43697703
38	0x3da6c656	0.08143298
39	0xbda3a42b	-0.07990297
40	0x3e3761fe	0.17908475
41	0x3cc0ef42	0.023551587
42	0xbe93a4ac	-0.28836572
43	0xbd8772d2	-0.06613697
44	0x3dab5620	0.083660364
45	0x3d93aa25	0.07210187
46	0x3f155679	0.5833507
47	0x3e692eec	0.22771806
48	0xbd0250bc	-0.031815276
49	0x3ebcafcc	0.36852872
50	0x3e6f9a91	0.23398806
51	0x3e586cf6	0.21135315
52	0x3ccf2b5c	0.02528923
53	0xbe12aa17	-0.14322697
54	0xbe2bc061	-0.16772605
55	0x3de2297c	0.11043069
56	0x3d8d5c33	0.06902351
57	0x3e534b11	0.20634104
58	0xbe506ae7	-0.2035328
59	0x3f1af41b	0.60528725
60	0x3d8d015b	0.06885024
61	0x3db43334	0.08798829
62	0xbe454eb2	-0.19268301
63	0x3eb3c77d	0.35113135
64	0x3db47454	0.0881125
65	0xbe71d2fd	-0.23615642
66	0x3b3f5043	0.0029192127
67	0xbde7b961	-0.11314655
68	0x3d4876b6	0.048941337
69	0x3d9d91da	0.076938346
70	0xbdcf9961	-0.101366766
71	0x3e5c5dc2	0.21520141
72	0x3d0f156d	0.034932543
73	0x3d43b9ad	0.047784496
74	0x3e181691	0.14852358
75	0xbbda2b73	-0.0066580116
76	0x3ebf7d31	0.374002
77	0xbde7b4c6	-0.11313777
78	0xbe2ebed8	-0.17064989
79	0xbba73959	-0.005103272
80	0x3c1f8a41	0.009737552
81	0xbe51925c	-0.20465988
82	0x3dc9c7ff	0.09852599
83	0x3e42483f	0.18972872
84	0x3d8b4f25	0.06802205
85	0x3d7c3320	0.061572194
86	0x3e0e8aac	0.13920087
87	0x3e876083	0.2644082
88	0x3d848d4f	0.06472265
89	0xbe3589df	-0.17728375
90	0x3e465b14	0.19370681
91	0xbccedc9c	-0.02525168
92	0x3e426ced	0.18986864
93	0x3e9e5fa7	0.30932352
94	0x3e33276f	0.17495511
95	0xbe84e14b	-0.25953135
96	0x3e4fd5c4	0.20296389
97	0xbdb11266	-0.08646087
98	0xbadb95d3	-0.0016753025
99	0xbdc992f4	-0.09842482
100	0x3e30f9d0	0.17282796
101	0x3f365d7b	0.7123639
102	0xbe8feab7	-0.2810876
103	0x3bdb1eae	0.006687007
104	0xbcc221d4	-0.023697771
105	0x3e35e9b3	0.1776493
106	0x3dfbc7ad	0.122939445
107	0xbed57588	-0.41691232
108	0x3f289013	0.6584484
109	0x3ecd50a1	0.40100577
110	0x3db2bced	0.08727441
111	0x3a95cdee	0.001142917
112	0xbd710ad8	-0.058848232
113	0x3d823102	0.06357004
114	0xbdbe6574	-0.092966944
115	0x3f35e5ae	0.7105359
116	0x3de8773f	0.113508694
117	0x3e4735f2	0.19454172
118	0xbe6bc1d5	-0.2302316
119	0x3bb77dc5	0.0055997097
120	0xbd4586e7	-0.048224356
121	0x3eebb249	0.46034458
122	0x3f09de10	0.53854465
123	0xbacbe059	-0.0015554532
124	0xbd372c0e	-0.04471975
125	0x3d1b29ea	0.03788177
126	0xbea87775	-0.32903638
127	0xbdd89abd	-0.10576389

fc3.weight f4 [4, 128]
0	0xbf0da079	-0.55322987
1	0xbef8d798	-0.48601985
2	0xbeb9f9de	-0.36323446
3	0xbf3e12c0	-0.7424736
4	0xbef805f2	-0.48442036
5	0x3c86153c	0.016367547
6	0xbf47007f	-0.7773513
7	0xbe50d28a	-0.20392814
8	0xbf001086	-0.5002521
9	0xbf3b93b0	-0.7327223
10	0x3fbe04d7	1.4845227
11	0x3f43f82d	0.7655056
12	0xbeb8a555	-0.36063638
13	0xbecdbeef	-0.40184733
14	0xbeaa99b9	-0.33320406
15	0xbec087df	-0.3760366
16	0xbb687100	-0.0035467744
17	0xbe860e65	-0.26182857
18	0xbed4781a	-0.4149788
19	0x3dfbdf69	0.122984715
20	0x4006025c	2.093894
21	0x3f4a5645	0.79037887
22	0xbe02ea36	-0.12784657
23	0x3b260cd6	0.002533724
24	0xbf510d45	-0.8166087
25	0xbef25c5e	-0.47336096
26	0xbf06a5ec	-0.52596927
27	0xbe5f5fa3	-0.21813826
28	0x3fb90f04	1.4457707
29	0xbecbdb31	-0.39815667
30	0x3f489af5	0.78361446
31	0x3bdbe5af	0.00671073
32	0xbf904dd8	-1.1273756
33	0x3eaa4421	0.33255103
34	0xbf465d62	-0.7748624
35	0xbed51ef6	-0.41625184
36	0xbea512de	-0.32240957
37	0x3ff17695	1.8864313
38	0xbe77ed95	-0.24211724
39	0xbf11662c	-0.56796527
40	0xbeb1c2fd	-0.34719077
41	0xbcb5f3fe	-0.022211071
42	0xbfc16ace	-1.5110719
43	0x3c8b0023	0.016967839
44	0xbee6d427	-0.45083734
45	0xbf174e74	-0.59104085
46	0x3faeaa80	1.3645782
47	0xbf08446a	-0.5322939
48	0x3d95c49e	0.073128924
49	0x3ef5b692	0.47990853
50	0xbeda34f0	-0.42618513
51	0x3fa3cc19	1.2796661
52	0xbd2d14a4	-0.042256013
53	0xbf260ba7	-0.6486153
54	0xbf8c6f84	-1.0971532
55	0xbec8b68c	-0.39201772
56	0xbf2987eb	-0.6622302
57	0xbed4a2a1	-0.41530326
58	0xbf49c911	-0.7882243
59	0x3faf99f1	1.3718854
60	0xbea2053e	-0.31644624
61	0xbef846b0	-0.4849143
62	0xbf300051	-0.6875048
63	0x4017d6c1	2.3724825
64	0xbeeda047	-0.46411344
65	0xbf935b02	-1.1512148
66	0x3f217037	0.6306185
67	0xbe62b9ff	-0.22141264
68	0x3d93756c	0.07200131
69	0x3f608cf5	0.87715083
70	0x3d2219c8	0.03957537
71	0xbf1907d8	-0.59777594
72	0xbe277c62	-0.16356042
73	0xbeeb1aaf	-0.45918795
74	0xbf009979	-0.5023418
75	0x3ca29700	0.019847393
76	0x3fa71a68	1.3054934
77	0xbd474726	-0.048651837
78	0xbec1a4c7	-0.37821028
79	0xbcf65a20	-0.030072272
80	0x3c4dceb7	0.012561492
81	0xbf07b1e4	-0.53005815
82	0xbed1497d	-0.4087638
83	0xbece4426	-0.40286368
84	0x3c29ffc8	0.010375924
85	0x3cb8f35b	0.022576978
86	0xbf07a4ba	-0.5298573
87	0x3f501ca4	0.812937
88	0xbd23907c	-0.039932713
89	0xbeb8a03a	-0.36059743
90	0xbe8a4e9e	-0.27013105
91	0xbc7d8ad9	-0.015474998
92	0xbe5b911b	-0.21442072
93	0x3f3508d2	0.70716584
94	0xbeb87fa7	-0.3603489
95	0xbf996bc8	-1.1986017
96	0xbeb196a6	-0.34685248
97	0x3d1cbd5a	0.038266517
98	0x3c195362	0.009358259
99	0xbec3c083	-0.38232812
100	0xbf02b972	-0.5106422
101	0x3fa54c1a	1.2913849
102	0xbf8d889d	-1.1057316
103	0x3d4b3934	0.0496151
104	0x3d1df3b7	0.038562503
105	0xbe4e5fec	-0.20153779
106	0xbeb4bbd2	-0.35299546
107	0xbf293ddc	-0.66110015
108	0x3f7524be	0.9575919
109	0x3f686b90	0.9078913
110	0xbe95a9d0	-0.2923112
111	0x3f80e9d3	1.0071357
112	0xbf27e1f8	-0.65579176
113	0xbe666508	-0.22499478
114	0x3d55735c	0.05211197
115	0x3fa2b4ab	1.2711385
116	0xbed6ebb4	-0.41976702
117	0xbeb1cb30	-0.34725332
118	0xbf1f1f6a	-0.6215731
119	0xbf01628d	-0.50541
120	0x3f9362f8	1.1514578
121	0x3f987344	1.1910176
122	0x3f8b1780	1.0866547
123	0xbf343513	-0.70393485
124	0x3cef746c	0.029230319
125	0xbd9b342d	-0.07578311
126	0xbfeb4a36	-1.8382022
127	0xbbf8aeee	-0.0075892126
128	0xbf7c0299	-0.98441464
129	0xbf1c526f	-0.61063284
130	0xbf05c0d9	-0.5224739
131	0xbf037b24	-0.5135977
132	0xbf26912e	-0.65065277
133	0xbbd05e4a	-0.0063588964
134	0xbf91f01c	-1.14014
135	0xbeb3f002	-0.3514405
136	0xbf07235c	-0.5278833
137	0xbf3fac33	-0.7487213
138	0x3fa434cb	1.2828611
139	0x3efe4931	0.49665216
140	0xbf330594	-0.69930387
141	0xbdcf2c1c	-0.10115835
142	0xbf6f5365	-0.93486625
143	0xbea9d782	-0.33172232
144	0xbc85e126	-0.01634271
145	0xbeb3b503	-0.35099038
146	0xbebf188d	-0.37323418
147	0x3e9c4047	0.3051779
148	0x3ffd2216	1.9776027
149	0x3fcb3b9e	1.5877569
150	0xbf048199	-0.5176025
151	0xbd15de3e	-0.0365889
152	0xbf4f3415	-0.80938846
153	0xbec6735c	-0.38759887
154	0xbf1c6ccd	-0.61103517
155	0xbee00060	-0.43750286
156	0x3fb5bbb5	1.4197909
157	0xbe50e527	-0.20399915
158	0x3eebac31	0.4602981
159	0xbcd5516d	-0.026039803
160	0xbf6134bc	-0.8797109
161	0xbf05c02a	-0.52246344
162	0xbd80c10b	-0.0628682
163	0xbe71e3f0	-0.23622108
164	0xbf183335	-0.59453136
165	0x3fe4bbad	1.7869774
166	0xbe9f9eed	-0.31175938
167	0xbf707fc8	-0.9394498
168	0xbed344c4	-0.41263402
169	0xbd8ba836	-0.06819193
170	0xbf138594	-0.576257
171	0x3d3b797e	0.04577016
172	0xbf13d624	-0.5774863
173	0xbe3023f7	-0.1720122
174	0x3fb0a3e0	1.3800011
175	0xbe28a59b	-0.16469423
176	0x3d4bb8f7	0.049736943
177	0x3f27e5af	0.65584844
178	0xbecc430c	-0.39894903
179	0x3fa6652c	1.2999625
180	0x3d551ab7	0.05202743
181	0xbef92f4e	-0.48668903
182	0xbf320507	-0.6953892
183	0xbed923db	-0.42410168
184	0xbe99b4cf	-0.30020759
185	0xbf01caf1	-0.5070029
186	0xbf5f34cf	-0.87189955
187	0x3fa760a4	1.3076367
188	0xbec8f2ad	-0.39247647
189	0xbedf96ba	-0.43669683
190	0xbf516a72	-0.8180305
191	0x4015272b	2.3305156
192	0xbf043688	-0.5164571
193	0xbf10736e	-0.5642613
194	0x3f19b6aa	0.6004435
195	0x3edc3133	0.43006286
196	0x3cf72fbb	0.030174127
197	0x3fb0e08d	1.3818527
198	0x3c132c1e	0.008982686
199	0xbeb22283	-0.34791955
200	0xbe5ad2a2	-0.21369413
201	0xbe95ac66	-0.29233092
202	0xbf21a752	-0.63145936
203	0xbadb9db2	-0.0016755371
204	0x3fb2d42f	1.3971003
205	0xbd45faad	-0.048334766
206	0xbf94a5cc	-1.1613097
207	0x3d607236	0.05479642
208	0x3d5d26d9	0.053992126
209	0xbf1d6452	-0.614812
210	0xbe674f3f	-0.22588824
211	0xbeece82f	-0.46270892
212	0xbcbd8811	-0.02313617
213	0xbd2cc747	-0.042182233
214	0xbeafef44	-0.34362233
215	0x3f5c6c90	0.86103153
216	0x3d6608c2	0.056160696
217	0xbeaf6705	-0.34258285
218	0xbee40fcd	-0.44543305
219	0x3cc2a252	0.023759041
220	0xbeac19ff	-0.33613583
221	0x3f830b86	1.0237892
222	0xbe820d1f	-0.25400636
223	0xbf606376	-0.87651765
224	0xbed0d930	-0.407907
225	0x3da6ff59	0.081541725
226	0x3da9a088	0.08282572
227	0xbf57de6a	-0.8432375
228	0xbe867cc5	-0.26267067
229	0x3f89ecc2	1.0775378
230	0xbf36c262	-0.71390355
231	0x3d654484	0.055973545
232	0x3c7a3dd0	0.015273526
233	0xbf1cd505	-0.6126254
234	0xbeb32061	-0.3498564
235	0xbf8e85c4	-1.1134572
236	0x3faa3721	1.3298074
237	0x3f71f69d	0.94516927
238	0xbee7e1ca	-0.4528945
239	0x3f59e3e1	0.8511334
240	0xbf10bb99	-0.5653625
241	0xbe96a918	-0.29425883
242	0x3d713ea4	0.05889763
243	0x3f953f3f	1.1659926
244	0xbf14476f	-0.579215
245	0xbf07f5d7	-0.53109497
246	0xbf262bcb	-0.6491057
247	0xbdff3230	-0.124607444
248	0x3e3e1337	0.18562017
249	0x3f92e48d	1.1475998
250	0x3fa39b19	1.2781707
251	0xbf4203b2	-0.7578689
252	0x3ca63b68	0.020291999
253	0x3bacf720	0.005278483
254	0xbf67a064	-0.9047911
255	0x3cd69c74	0.02619765

fc3.bias f4 [4]
0	0x3d9fa7cc	0.077956766
1	0x3c4ca386	0.012490159
2	0xbd8dfb68	-0.069327176
3	0xbdca6b65	-0.09883765
