models/model_run_7.pth (torch, 75717 bytes, 6 tensors)

fc1.weight f4 [128, 8]
000000 fd 38 a1 3f db d1 08 bf 4a 5d 09 bf 3f ad 4f bd
       1.2595516 -0.53445214 -0.5365797 -0.05070233
000010 2d c8 24 3f 16 60 04 bf c9 b0 06 bf 45 82 8f bd
       0.64367944 -0.51709116 -0.526135 -0.07007269
000020 ec 11 5f bf 2a 7c bb be 0a 8f 12 bf a7 90 bc be
       -0.8713672 -0.36618167 -0.5724951 -0.3682911
000030 a3 54 81 be 51 80 36 bf f3 67 58 3e 04 d9 8c be
       -0.25259885 -0.71289545 0.21133403 -0.2750932
000040 b0 d4 87 be f9 6a 32 3d c1 78 79 be e4 fc b0 be
       -0.26529455 0.04355905 -0.2436247 -0.3456794
000050 e9 69 3e 3f 71 ab 4d 3e 5f 08 14 3f 8e 1b 48 3f
       0.74380356 0.20084931 0.57825273 0.78167045
000060 37 2f 6f bd 3d ed 57 3e 11 87 f0 bd b5 ef e6 3e
       -0.058394637 0.21086593 -0.11744512 0.45104757
000070 e0 54 1d 3f 8d 53 e9 3e 39 f2 10 3f 66 a3 de be
       0.61457634 0.45571557 0.566196 -0.43484038
000080 05 9f 72 3e f4 74 95 bd 5d d0 9a 3e 3c 65 d9 be
       0.23693474 -0.07297698 0.30237094 -0.42460048
000090 50 37 e1 3e bb c6 79 3f c5 a2 b2 3e 88 30 a5 ba
       0.43987513 0.97568864 0.34889808 -0.0012602964
0000a0 5c df 83 be 26 88 96 3e 4a e8 47 bf bb 38 07 bf
       -0.25756347 0.29400748 -0.7808882 -0.5282094
0000b0 38 62 46 3f 7e af a1 3d f4 22 e7 bd 72 13 ea 3e
       0.7749362 0.078948006 -0.11285964 0.4571796
0000c0 ec 5f 51 3c aa d3 14 3e d5 09 1a 3d c9 ef fe 3d
       0.012779217 0.14533868 0.037607033 0.12448079
0000d0 7a 91 40 bf ba 04 b5 be f6 db 54 bf f0 26 86 bf
       -0.7522198 -0.3535517 -0.83148134 -1.0480633
0000e0 00 27 06 3e ae 98 d3 be 9a c8 f6 be 52 70 c1 be
       0.13100815 -0.41327423 -0.48199922 -0.37781006
0000f0 6a d1 3d bf 95 e8 2f be 36 e5 e2 3e 50 68 db 3e
       -0.74147666 -0.17178567 0.443155 0.42853022
000100 22 74 6c 3e 80 f1 76 3e 83 9c 4f bf 89 59 28 bf
       0.23091176 0.24115562 -0.8109819 -0.6576162
000110 02 4d 16 3f be 9f 4e 3e a3 f4 b9 bd fb c2 c2 3e
       0.58711255 0.20178124 -0.09079864 0.38039383
000120 05 72 13 3f 12 dd 5b 3f 2f 73 b5 bc 90 be 93 be
       0.57595855 0.858842 -0.02214965 -0.28856325
000130 fc f3 2a 3e 35 7e f5 3e 9f 65 ed 3e d6 6b ad be
       0.16694635 0.4794785 0.46366593 -0.33871335
000140 ad 81 da 3e 3a 76 3c bf e0 8d f9 3d 7a 45 62 bf
       0.4267706 -0.736179 0.12185264 -0.8838726
000150 04 5b 06 bf 25 a6 d6 be a4 7a 67 3d 59 0a 83 3e
       -0.5248263 -0.41923633 0.056513444 0.25593832
000160 bf db 4d be 78 72 d4 3e 50 87 9d be ea e0 5a 3e
       -0.20103358 0.41493583 -0.30767298 0.2137486
000170 8d 19 04 bf bf b3 aa be 95 61 21 3e 8a c1 ee 3c
       -0.5160149 -0.3334026 0.15759881 0.029145021
000180 37 f6 8d 3e f2 47 5b be ad ee 83 3e 75 ec c0 be
       0.2772691 -0.21414164 0.25768033 -0.37680402
000190 fd ff e5 be bd a5 62 be 62 c5 05 3f 4e 81 10 3e
       -0.44921866 -0.22133537 0.5225431 0.14111826
0001a0 0e f2 d3 be dc f8 ab bd 2e 8f 44 bf 39 64 e0 be
       -0.4139561 -0.083970755 -0.76780975 -0.43826464
0001b0 96 93 89 3d ed 1f de 3e 22 aa 33 3d 94 2b 73 bf
       0.06717603 0.43383732 0.043863423 -0.9498837
0001c0 ab 6e 02 bb cc 5b a5 bb 2f 68 34 3e 30 6b 35 bf
       -0.001990239 -0.0050463434 0.17617868 -0.7086668
0001d0 2d 91 6a 3d 68 d0 11 be 26 d6 ff 3e 87 3d 12 bf
       0.057267357 -0.14239657 0.4996807 -0.57125133
0001e0 e9 7f 36 3f ff 1a 95 3e a4 90 a3 3f d9 88 d4 be
       0.71288925 0.2912216 1.2778516 -0.41510656
0001f0 4c b1 21 be 90 e1 a1 be 6b b4 bf bd 7b 15 bc 3e
       -0.1579029 -0.31617403 -0.09360584 0.36735138
000200 8f 0c 37 be 20 4e 4b 3d c5 c3 08 3e 4a 3a a0 bd
       -0.17875884 0.049635053 0.1335593 -0.07823618
000210 49 7d 0b bf 3b 6d cc 3d 35 aa 82 be 63 1b e3 be
       -0.54488045 0.099817716 -0.25520483 -0.44356832
000220 4f 0b 5d 3d 4a eb b8 bf 3f ae 1a bf 16 c3 88 bf
       0.053965863 -1.4446805 -0.6042213 -1.0684536
000230 f3 eb e5 bd aa 99 2c bf 4d c2 fc bd b2 15 01 3e
       -0.11226644 -0.6742197 -0.123417474 0.12605932
000240 2b 63 96 be 50 b6 aa 3e 4c 0f 17 bf 7f 27 5a 3d
       -0.29372534 0.33342218 -0.59007716 0.053260323
000250 93 48 0a 3f c9 5a 93 3e 68 69 17 3e c7 a1 81 3e
       0.5401699 0.287802 0.14786303 0.2531874
000260 63 52 5e 3e 12 cb 78 be 1d 3a 90 3d 3e e4 55 3f
       0.21711116 -0.24296215 0.07042334 0.83551395
000270 de 53 e7 bd 9c eb 90 bb 30 73 90 3e 7c 42 d2 3e
       -0.11295293 -0.004422618 0.2821288 0.4106635
000280 3b e1 33 be 00 0d d2 3e cd d2 02 bc 00 56 29 40
       -0.17566387 0.41025543 -0.007984829 2.645874
000290 1b f0 9b be c7 79 06 be 03 59 b5 bd 83 ba d8 3d
       -0.30456623 -0.13132392 -0.08854868 0.10582449
0002a0 f3 14 27 3c fe b8 58 bd d7 a8 f0 bd 9f 9e cd be
       0.010197866 -0.052910797 -0.11750954 -0.4016008
0002b0 28 8f 27 c0 14 2b 42 3e 0f 07 f3 3b 88 c1 91 3b
       -2.6181126 0.18961746 0.007416613 0.0044481196
0002c0 6a 14 20 3e f8 d8 0d 3e c1 cd 7f 3d 02 88 ee be
       0.15632787 0.13852298 0.06245208 -0.4658814
0002d0 61 a8 29 bf 18 4a 4b be 13 ea 05 3e b4 12 26 3f
       -0.6627255 -0.19852483 0.13077573 0.6487229
0002e0 f3 70 c3 be a4 27 96 3c a5 7f 0b 3f 48 14 51 bf
       -0.3817211 0.018329449 0.54491645 -0.8167157
0002f0 4d 65 09 bf e8 eb 11 3f 72 a4 80 be 91 77 c3 be
       -0.536702 0.5700059 -0.25125462 -0.3817716
000300 46 64 27 bd 77 eb d7 3e a3 46 61 be 15 35 8e 3e
       -0.040867113 0.42171833 -0.21999602 0.27774873
000310 11 04 28 3e 29 47 9d 3f 2c 94 c4 bf f8 fe 0b 3e
       0.16407801 1.2287341 -1.5357718 0.13671482
000320 fe 02 0e bf 79 ef c9 be 8b 1a f0 be 9d 80 79 3f
       -0.55473316 -0.39440516 -0.4689525 0.97461873
000330 66 6b 94 3f 23 9f f5 3d 94 e4 03 bf de d4 e0 3e
       1.1595275 0.119932435 -0.5152066 0.43912405
000340 56 15 16 be a5 73 36 3f 44 84 95 bd b1 f3 9d 3f
       -0.14656577 0.7127021 -0.07300618 1.2339994
000350 b5 42 90 3e 70 17 89 3c b0 a5 17 be 66 f1 46 bd
       0.28175893 0.016734809 -0.14809299 -0.04857006
000360 11 3f c2 bc b8 88 62 be 4d 56 7e 3e e6 4e e3 3e
       -0.023711713 -0.22122467 0.24837609 0.44396132
000370 8c e9 17 bf ab 16 e1 3e bd 2e e8 3d 35 8e b8 3e
       -0.5934074 0.43962607 0.113370396 0.36045995
000380 80 1c 85 3d be 18 dd 3e d1 96 10 be 0c 73 cc 3e
       0.064995766 0.4318294 -0.14120032 0.39931524
000390 fa 92 43 3e 16 6a 29 3f 20 e7 55 3f fe 6a d7 be
       0.19099036 0.661775 0.83555794 -0.42073816
0003a0 12 48 e8 3d 7c b4 ef 3e 2a a3 84 be ec cd 09 3d
       0.11341871 0.46817386 -0.25905734 0.033643648
0003b0 72 ec f5 3e 60 3f 13 3f a1 9f f0 3e 49 cc ec be
       0.48031956 0.5751858 0.46996787 -0.46249607
0003c0 a6 46 4b 3d 9a da 00 c0 fc 1e 92 3e 3e 64 48 3f
       0.049627922 -2.0133424 0.28539264 0.7827796
0003d0 24 3c f5 bd d7 25 6c 3f 6a 68 bd 3e e0 b5 84 be
       -0.119743615 0.9224524 0.36993724 -0.2592001
0003e0 2d 38 1a 3d 19 c6 a0 b9 77 bf 8d bd 52 d9 83 3e
       0.03765123 -0.00030665172 -0.06921285 0.2575174
0003f0 c3 a1 9d be 29 3a 4f bf 4b 3b 62 3d fe aa db bd
       -0.30787477 -0.8094812 0.055232327 -0.107259735

fc1.bias f4 [128]
000000 82 b3 14 bf b7 42 f9 be 6e ee e1 be 3f 22 8e 3e
       -0.5808641 -0.48683712 -0.4412722 0.27760503
000010 d7 04 16 bf 43 4e a2 3e 97 d0 e1 3e 1f 2e e9 3e
       -0.58601135 0.31700334 0.44104454 0.45543
000020 63 a4 f9 3e 85 3e fd 3e 63 77 82 be f6 67 39 3f
       0.4875823 0.4946176 -0.2548171 0.72424257
000030 a5 86 29 be 06 ad e7 be ab d7 89 3e ba 74 45 bf
       -0.16555269 -0.45249194 0.26922354 -0.77131236
000040 28 68 0f 3f ff da cb bc 57 21 88 3f 7b 91 61 3f
       0.56018305 -0.024884699 1.0635175 0.8811261
000050 ff 8a d6 3e 32 1c 41 bb 62 8b d5 be 2a 17 2b 3e
       0.4190292 -0.0029466269 -0.41707903 0.16708055
000060 5a f9 0b 3e b9 98 ea 3e b1 83 79 3e 42 64 1f be
       0.13669339 0.45819643 0.24366643 -0.15565589
000070 9e c6 e6 3d 1c 43 bb be 51 a6 ca be fb ea 84 3e
       0.11268352 -0.36574638 -0.39580014 0.25960526
000080 90 4e 93 bd 36 90 96 3e 78 17 54 be c8 2a 3c 3f
       -0.07192719 0.294069 -0.20712078 0.7350278
000090 a9 d6 c9 3e f1 21 b0 be 82 c9 76 3f ea 35 66 bd
       0.39421585 -0.34400895 0.96401227 -0.05620376
0000a0 15 b4 99 3f b3 da 00 3e 00 2a 9a 3e 54 4a 4d be
       1.2008082 0.12583427 0.30110168 -0.20047885
0000b0 9f b7 1d 3e a8 aa c9 be b7 5f 1a be d0 35 b4 3e
       0.15402077 -0.39388013 -0.15075575 0.35197306
0000c0 70 74 a1 be 98 05 ea 3e b9 18 08 be 60 5e a7 bd
       -0.31534147 0.45707393 -0.13290681 -0.081722975
0000d0 97 9c a5 3f c7 cc 86 3f 98 ee 81 be 91 72 64 3f
       1.2938412 1.0531243 -0.25377345 0.89237314
0000e0 1b be 4b 3f 86 7f a0 3e 5b c9 6b 3e 6b 0a 03 be
       0.7958695 0.31347293 0.2302603 -0.12796943
0000f0 3d 6c 42 3e f2 0f cc 3e 6a 76 34 3e 60 e5 ff be
       0.18986602 0.39855915 0.17623296 -0.49979687
000100 02 2f 26 bf 78 43 33 3d d5 31 fc be 7d ac 23 3f
       -0.6491548 0.043765515 -0.4925677 0.6393507
000110 e8 db 49 3f 05 02 6e be 3d 65 94 bc c1 3c c5 3e
       0.78851175 -0.23242958 -0.01811468 0.38522914
000120 46 10 e5 be ec 15 46 3e 81 dd cb be 03 d0 2f 3f
       -0.44738978 0.193443 -0.39817432 0.68676776
000130 cd e9 84 bd 20 68 9b 3d 7b 25 86 3f dd 6d 5a be
       -0.064899065 0.0758822 1.0480188 -0.21330972
000140 b8 24 1a bf af e5 4b 3e 91 4d b6 be bb ea 61 bd
       -0.6021228 0.19911836 -0.35606053 -0.055155497
000150 c3 dc 27 3e 9f d6 e7 3e 2f 82 6f 3f a8 23 0c 3e
       0.16392808 0.4528093 0.9355802 0.13685477
000160 75 93 ce bd 30 72 dc 3d b7 59 4e be b9 e5 87 be
       -0.10086719 0.10763967 -0.20151411 -0.26542452
000170 39 db 28 bd ec a8 b3 3e f3 66 0c 3f 87 a6 82 be
       -0.041224692 0.35089815 0.5484459 -0.25517675
000180 04 3a 55 3e d9 41 8b 3f 86 21 c4 bd 52 e0 1f 3e
       0.20822912 1.087947 -0.095767066 0.15612915
000190 4c d1 f6 be 6c e8 a0 3a 2b fa 52 3c c8 82 5c 3e
       -0.48206556 0.0012276298 0.0128770275 0.21534264
0001a0 cb 2d b9 3e 41 23 bb be df 83 e7 bd 7b 93 d6 be
       0.3616775 -0.36550334 -0.11304449 -0.41909394
0001b0 3d d2 19 be 0f 4e 71 bf 8b 8c 6f 3e cf 36 3d 3d
       -0.15021606 -0.9425973 0.23393457 0.046194848
0001c0 ea 98 0c bf db 5f 72 3f e6 fb 08 3e a7 7b 19 be
       -0.5492083 0.94677514 0.13377342 -0.14988576
0001d0 1b 28 42 be 2f 1e cc 3e b7 9b 50 be 1a 48 83 3e
       -0.18960612 0.39866778 -0.203719 0.25640947
0001e0 fc cd 19 3e d8 1b 2d 3f ee d6 f8 3d 22 7d 33 3e
       0.15019983 0.6762061 0.121503696 0.17528203
0001f0 16 b5 6f 3f 72 67 0c be ea bc 13 3f 99 48 67 3f
       0.9363569 -0.13711336 0.57710135 0.9034515

fc2.weight f4 [128, 128]
000000 c5 3e 44 3f 3a eb 15 3e 04 b5 e9 3c da a3 9a 3d
       0.7665828 0.14640513 0.028528698 0.075507835
000010 49 a7 32 3e 23 b1 12 3f d1 42 04 bb 0a ab 0c be
       0.17446627 0.5730154 -0.0020181427 -0.13737121
000020 db dc bb 3e 38 7d 30 be 7e 92 0d 3d 64 e5 02 be
       0.36691937 -0.17235267 0.034563534 -0.12782818
000030 c1 55 2f 3e c5 40 2c 3f 3a 21 08 3e 37 87 68 be
       0.17122556 0.6728633 0.13293925 -0.2270783
000040 4d e7 76 3c 6b e0 4a bf 7a bd 5b bd 9d 7e 24 be
       0.015069795 -0.79248685 -0.053647496 -0.16063924
000050 87 a4 d8 3f e5 22 38 bf 1d c3 d2 3d 27 94 67 bc
       1.692521 -0.71928245 0.10291121 -0.014134443
000060 ed b1 e9 bd 41 5a b3 3c 10 2b bc 3e 57 3f ea 3e
       -0.1141089 0.021893622 0.36751604 0.4575145
000070 c1 ae 46 3e 23 c7 4b 3e 81 ae 54 bf 79 33 8e 3e
       0.19402601 0.19900183 -0.8307877 0.27773646
000080 ba f7 8c 3e b8 ec aa 3e 69 61 66 3e 6f 32 8a bd
       0.2753275 0.33383727 0.22498097 -0.06747901
000090 18 3e 53 3d 52 05 84 3e bb 29 9c bd e1 40 40 3e
       0.05157289 0.2578531 -0.07625147 0.1877475
0000a0 f2 37 b7 bd a4 37 e9 be 50 ef 0e 3e 11 45 4d 3e
       -0.089462176 -0.45550263 0.13958478 0.20045878
0000b0 8b 99 4a be fd 8b 59 bd 6e 90 d6 3d 32 d2 85 3e
       -0.19785134 -0.05311202 0.104767665 0.2613693
0000c0 21 ef d9 bb 12 d6 44 3e 4a 06 6b bf 56 36 22 3d
       -0.006650821 0.19222286 -0.9180647 0.0396026
0000d0 5a 26 25 3e 48 3e 32 be 93 42 e7 3e 28 b5 10 3e
       0.16127911 -0.17406571 0.4516798 0.14131606
0000e0 38 57 6e bd 88 cc ef be 3e e9 1d 3f 5f 6b ec 3e
       -0.058188647 -0.46835732 0.61684024 0.46175668
0000f0 0c 96 b9 3e 1e 2b ca 3d be 0d 6b 3e be 97 4a 3e
       0.3624729 0.09871505 0.22954461 0.19784448
000100 87 fb e4 3e e7 be 1b be d0 b9 6f bf 30 b6 31 3e
       0.4472315 -0.15209542 -0.936429 0.17354655
000110 35 74 16 3d d1 c0 25 3e 00 ef 3c 3e b8 4d a3 3e
       0.036731917 0.16186835 0.18450546 0.31895232
000120 e2 09 d5 3e b2 c2 81 3e 50 50 6e 3f 27 c1 04 bf
       0.41609102 0.25343853 0.930913 -0.5185723
000130 3d ca 6d 3e d9 45 85 3d 99 b8 c2 bd 10 94 64 3e
       0.23221679 0.06507463 -0.095078655 0.22322106
000140 61 30 26 3d 42 13 99 3e c2 01 84 3d 9e 59 a7 3d
       0.04057348 0.29897505 0.06445648 0.0817139
000150 b3 cb 0e 3f cb af ce be 51 65 14 be a5 46 b1 bc
       0.5577957 -0.40368494 -0.14491774 -0.021640131
000160 fb 15 cf be 1b e6 3a bd d1 fb 89 3e 20 38 f5 3e
       -0.40446457 -0.045629602 0.26949933 0.47894382
000170 28 1a bc be 7b 6e 4d 3e cb bf 86 be 16 e4 56 3f
       -0.36738706 0.20061676 -0.263182 0.8394178
000180 b1 9b 18 bd b1 a6 b3 3d 2a 72 52 3e fa fd 46 3e
       -0.037257854 0.08772028 0.20551363 0.19432822
000190 ad 74 d1 3c ed c5 89 3e d5 69 af 3e 2b bd 0c 3e
       0.02556833 0.26908818 0.3426043 0.13744037
0001a0 bc a7 68 3e 1f fe b2 be 22 f3 07 3e 8a 01 da 3e
       0.22720236 -0.34959504 0.13276342 0.425793
0001b0 01 76 99 3e e3 e5 41 bf 31 8a 8a 3e 2a b0 0c be
       0.29972842 -0.75741404 0.27058557 -0.13739076
0001c0 9e b6 a8 3c e9 0f 11 be 76 2e 4b 3e 3b ee f4 3d
       0.020594891 -0.14166225 0.19841942 0.11959501
0001d0 61 d0 90 bf 45 04 76 3e 75 5b c3 be 64 6b ca 3d
       -1.1313592 0.24025066 -0.38155714 0.098837644
0001e0 74 f2 9c be 94 d3 15 bf ed c6 89 3e 06 34 77 3e
       -0.30653727 -0.5852597 0.2690958 0.24140939
0001f0 10 8b 68 be 7d 55 07 bf b0 a1 8d 3e 0c 62 5c be
       -0.22709298 -0.5286482 0.2766242 -0.21521777
000200 5f 68 6b 3f cc af 95 3e 8e 23 2e bc 7c 96 06 3d
       0.9195613 0.29235685 -0.010628594 0.032858357
000210 36 d5 13 3f 03 97 0e 3e 84 79 ea 3e 46 b6 ae be
       0.5774721 0.13924794 0.45795834 -0.3412344
000220 2f 72 0e 3c 96 ac 48 3d 22 5c d7 3d 7f be 71 bc
       0.008694216 0.048992716 0.1051562 -0.01475489
000230 9b f7 ae 3d 73 75 3d 3f 68 21 d0 3e 56 b3 eb be
       0.08543321 0.7400734 0.40650487 -0.4603526
000240 ed 60 2a 3e 19 2c 3b bf 28 7c d4 3d f2 8a a9 bd
       0.16638537 -0.7311416 0.103752434 -0.08278455
000250 48 c2 91 3f 68 da 87 bf 32 75 ef 3d 5d 7d 37 3e
       1.1387415 -1.0613527 0.11692275 0.17918916
000260 5a 25 a5 be a1 37 db be d9 d4 92 bd 07 f5 ab 3c
       -0.3225506 -0.4281588 -0.07169504 0.020990862
000270 6f c7 a9 3e 6b 0d 5e be 3e 17 f2 be 2b 0d 28 3f
       0.33159968 -0.21684806 -0.47283357 0.6564509
000280 e5 94 b0 3e a0 ba c5 3e 23 a1 28 3c 12 30 22 3d
       0.34488598 0.38618946 0.010292324 0.039596625
000290 b2 0e 3c 3e fc d3 c1 3c 60 5b c9 bc cc 31 9b bd
       0.18364981 0.023660652 -0.024579704 -0.075778574
0002a0 95 55 fe 3c 08 57 30 bf f9 72 e0 3e bf da 8c be
       0.031046668 -0.688828 0.43837717 -0.2751064
0002b0 61 82 72 3d 89 0f ac 3d 1c ce d6 37 e2 ce e3 3d
       0.05920637 0.084014006 2.5606765e-05 0.11123444
0002c0 20 dc 21 3e 6c b6 81 3e af 55 e8 be 7d 8a 5e be
       0.15806627 0.2533449 -0.4537787 -0.21732517
0002d0 3b 42 1d 3e 01 b5 8a 3c 39 45 e8 3e 68 3f 42 3c
       0.15357296 0.016932013 0.45365313 0.011855938
0002e0 d6 c5 44 3e ce 0f 99 bf 27 6f 9d 3e 9d 82 f4 3e
       0.19216093 -1.1957948 0.30748865 0.477559
0002f0 79 84 b2 3e 9d 11 ae 3d 78 85 b9 3e cf fc 0a 3f
       0.34866694 0.08499453 0.3623464 0.54292005
000300 59 99 bc 3e db 10 a2 bd a4 36 68 bf 8f 1f 40 3d
       0.36835745 -0.07913371 -0.90708375 0.046905097
000310 97 60 c8 3c 88 32 d6 be a9 8d 4d 3c c1 57 bb 3e
       0.02446012 -0.41835427 0.012545981 0.36590388
000320 84 9e 36 bd 41 87 d8 3d 34 4b 91 3b 57 61 f8 be
       -0.044584766 0.10572673 0.0044340137 -0.48511764
000330 4f b7 61 3e 76 21 5e 3d 2c af 29 3e 02 c6 59 3e
       0.22042583 0.05423113 0.16570729 0.2126694
000340 aa a2 05 be 21 08 c9 3e 4e 93 98 bd a0 9c 6e 3d
       -0.13050333 0.39264014 -0.07449971 0.058254838
000350 3f 85 af 3e be 23 c6 bc 64 0b 98 3c 7e f6 00 bf
       0.34281346 -0.024186965 0.018560119 -0.5037612
000360 de a3 22 be 55 eb e3 bd cc d3 a3 3e 43 dd 9e bd
       -0.15882823 -0.111288704 0.31997526 -0.07757046
000370 01 3a 27 bf ea 47 03 3e c4 0f 5e 3c 3a 80 16 3d
       -0.6532288 0.12820402 0.0135535635 0.03674338
000380 a0 11 6f 3e b8 2f 0b 3e cd 5f 58 3e 42 90 48 be
       0.23346567 0.13592422 0.21130295 -0.1958628
000390 6a bf ef 3d f7 4d 6b bd b7 c7 00 3f bd 7d 0a bf
       0.11706431 -0.0574474 0.5030474 -0.5409811
0003a0 5d 88 8b 3e b4 2c 23 bf 8f af 12 bd 93 df 9d 3e
       0.27252474 -0.63740087 -0.035811957 0.30834636
0003b0 f0 89 8e 3d 84 89 36 bf 9c 8a 4b bd ef 89 05 3e
       0.06959903 -0.7130358 -0.049692735 0.13040899
0003c0 1f 53 03 be 2c 2d 84 3e 71 a5 e3 bc 4a 86 c6 bd
       -0.12824677 0.25815713 -0.02778885 -0.09693582
0003d0 e8 69 7d bf db 6e 80 3f 7a 65 05 3f 59 14 91 be
       -0.98989725 1.003383 0.52107966 -0.28335837
0003e0 4e 36 99 bf ad d9 b6 3d 17 41 aa 3d 3a 9b 0b 3f
       -1.1969697 0.08928237 0.08313196 0.5453373
0003f0 39 55 8f bc 70 6f 1b be 3b a7 c3 3d 40 ef 2d 3d
       -0.017496692 -0.15179229 0.09553381 0.042464495

fc2.bias f4 [128]
000000 de 18 57 bd db cc bc 3d 73 1d 8f be fa a3 55 bd
       -0.05251395 0.092187606 -0.27952155 -0.052158333
000010 d5 61 a7 3d 10 c7 7e be a0 f2 56 3e 8a e1 45 3d
       0.08172957 -0.24880624 0.20990992 0.048310794
000020 0a bc 89 3d da cf b5 3c 24 22 63 3d 8f f2 f4 bd
       0.06725319 0.022193838 0.05545248 -0.11960327
000030 07 59 ea 3b 95 3a 5a 3d 2e 05 81 3d e7 9a 0a 3d
       0.007151726 0.053278524 0.06299816 0.033839133
000040 60 5c 52 3e e3 d1 cb 3c 3c 77 ec bd a0 c3 bd bd
       0.20543051 0.024880355 -0.1154618 -0.09265828
000050 07 88 0c 3d 79 bc 95 3d cf ba 63 3d b0 05 6f 3d
       0.034309413 0.07311339 0.055598076 0.058355033
000060 4e a5 60 3d 9b 5b 78 bd 72 54 07 bd 80 7c ab be
       0.054845147 -0.060634237 -0.033039518 -0.33493423
000070 3d e8 1e bd 6d 1d ca 3d a4 2b 0f 3e 0c 13 70 3d
       -0.0387957 0.09868894 0.13981491 0.058611915
000080 69 6b be 3d 6b 9c 38 3d 7e 4e 06 3f 35 0e c7 3d
       0.092978306 0.045071047 0.5246352 0.09719507
000090 cf 03 cc 3d 08 d9 23 3e b0 2d ef bb 6c b5 f6 bd
       0.09961664 0.1600076 -0.0072991475 -0.12046322
0000a0 98 f7 6e 3d a3 43 94 be a4 a4 18 3d e0 70 00 be
       0.058341593 -0.28957853 0.03726639 -0.12543058
0000b0 53 39 c2 3e 86 76 b6 3d 69 84 41 bc 01 5d f7 bd
       0.3793436 0.08909325 -0.011811354 -0.12078286
0000c0 32 55 81 bc 83 74 99 bd 9d 6c ca bd 8b 62 93 3d
       -0.015787695 -0.07492926 -0.098839976 0.0719653
0000d0 e3 32 eb bc e3 ca 35 be 60 87 43 3c 30 55 87 be
       -0.028710788 -0.17753176 0.011934131 -0.2643218
0000e0 ad 23 6b 3e 6d 2a 04 be 70 88 21 be 8d b8 df be
       0.22962828 -0.12906809 -0.15774703 -0.4369549
0000f0 7d d9 a8 be 04 63 ba bc a1 75 c5 3d 91 a0 0c bd
       -0.3297843 -0.022752292 0.096415766 -0.034332816
000100 13 9f ea 3c c8 6f f8 bd 59 75 17 3e de 7e 51 3c
       0.028640306 -0.121306956 0.14790858 0.012786595
000110 60 16 99 3d 73 4d de bb 3b 4e 93 bd d9 42 a2 bd
       0.07474971 -0.006784135 -0.07192656 -0.079229064
000120 61 d2 40 3d f6 cf 64 be fa 32 bf bd 44 e5 08 be
       0.047075633 -0.22344956 -0.09335895 -0.13368708
000130 de 8c 04 be bb eb 92 3c 65 aa 38 bc 7e 9f 21 bd
       -0.12944362 0.01793467 -0.011271094 -0.039458744
000140 95 68 2e be 5d fc d1 bd 0a f1 55 be 8a 18 5c 3c
       -0.17032082 -0.102532126 -0.2089273 0.013433585
000150 e7 11 e6 3d f7 c9 49 bd 84 af c5 3c 9e cf 1b bf
       0.11233883 -0.049264874 0.024131544 -0.60863674
000160 0e 0c 09 bf a0 8f 0a bd b2 71 19 be 08 ea 9e 3f
       -0.5353402 -0.033828378 -0.14984778 1.2415171
000170 43 10 1a 3e 06 9b b2 3f fa 93 13 be 31 5e ff 3c
       0.15045266 1.3953559 -0.14411917 0.031172844
000180 6f 91 41 be 31 71 38 3d 95 45 0a be ef 73 05 bd
       -0.18903135 0.045029823 -0.13503106 -0.032581266
000190 15 b3 96 bd 1d e7 68 be a5 7a 00 bd c3 c3 e0 3d
       -0.07358376 -0.22744413 -0.031366963 0.109748386
0001a0 d9 13 1c 3d 91 de db 3e 81 20 e3 bd 9e 41 90 bd
       0.038104866 0.42943242 -0.11090184 -0.070437655
0001b0 49 03 2e bd 06 95 25 3d 97 ff c3 bd 2e e3 94 be
       -0.0424836 0.040425323 -0.09570234 -0.29079574
0001c0 59 e1 50 3f 61 61 69 be 79 86 0e 3e c5 67 fc ba
       0.81593853 -0.22791053 0.13918485 -0.0019257
0001d0 91 63 42 be 97 fe 39 be c8 cb f5 3e 6f 17 06 be
       -0.18983294 -0.18163525 0.48007035 -0.13094877
0001e0 ea ae 97 3f a7 8a cb 3d a2 d3 70 bc 93 b2 4e 3d
       1.1850255 0.09938555 -0.014698895 0.05046327
0001f0 d8 9f 35 be a2 65 a8 3c 8f 1e 3a be db 1e 59 3c
       -0.17736757 0.020556275 -0.1817572 0.013251985

fc3.weight f4 [4, 128]
000000 5e 06 69 be 07 00 18 bf 72 9a 2e bf eb be 1b be
       -0.22756335 -0.5937504 -0.68204415 -0.15209548
000010 54 79 15 bf 9c 3b 2d bf 40 64 9a be 7e 0f 11 bf
       -0.5838826 -0.6766908 -0.3015461 -0.56664264
000020 2d 33 d7 be f3 c8 e7 be 14 e5 12 be bd 68 da be
       -0.42031232 -0.452705 -0.14345199 -0.42658034
000030 2a da 0f bd fe 0e aa be 34 79 4a 3d 5d 16 9d be
       -0.035120167 -0.33214563 0.049431995 -0.30681124
000040 8a 34 93 3e f1 e7 16 bf c5 38 1b bf e6 c1 de be
       0.28751022 -0.58947664 -0.606335 -0.43507308
000050 28 65 57 bf 55 e7 f2 be 83 14 10 bf da e0 78 bf
       -0.8413873 -0.47442117 -0.562813 -0.97218096
000060 a0 9b 07 bf f8 f2 9a 3f 03 12 0a bf 7c f8 35 bf
       -0.5297184 1.2105398 -0.53933734 -0.7108228
000070 d5 c1 18 bf cd 8d b3 be 74 ef 37 bf 96 17 17 bf
       -0.59670764 -0.35069123 -0.7184975 -0.59020364
000080 b5 b3 39 be 76 45 0f bf 2a 7c 8a 40 00 75 14 bf
       -0.18134959 -0.55965364 4.3276567 -0.5799103
000090 c2 9a 5d 3f 94 1f 2b bf ab a4 2a bd c1 f4 11 bf
       0.86564267 -0.6684506 -0.041660946 -0.5701409
0000a0 cb ae 9e 3d 77 57 05 3f f7 98 c7 be 53 68 03 bf
       0.07748183 0.52086586 -0.3898389 -0.5133106
0000b0 76 d6 0c bb 66 ef 0d bf 07 f0 e2 be f6 55 3e bf
       -0.0021490133 -0.5544342 -0.4432375 -0.74349916
0000c0 d1 fd e3 be bc c5 04 bd 98 81 32 bf 50 78 8b be
       -0.44529584 -0.032415137 -0.69728994 -0.2724023
0000d0 26 5e 10 3c 1e d7 1c bf 1c 3b 03 bf fd 67 38 bf
       0.008811509 -0.6126574 -0.5126207 -0.72033674
0000e0 b2 19 02 bf 76 03 39 bf 7d 95 41 bf 3f 7f 2e be
       -0.5082046 -0.72270906 -0.75618726 -0.17040728
0000f0 df 0d 03 bf d5 b6 54 be bb e4 12 bf 7d 68 6c 3b
       -0.5119304 -0.2077287 -0.57380265 0.0036073022
000100 c5 0c 8e be bf f7 03 bf 98 96 f3 be 07 d5 84 be
       -0.27744117 -0.51549906 -0.4757583 -0.25943777
000110 92 bb fb be 77 e5 c8 bb b0 44 18 bd f4 df 06 bd
       -0.49166542 -0.00613087 -0.03717488 -0.032928422
000120 d5 6a f9 be ed 1f 12 bf cb e1 b4 bc 6b 33 1b bf
       -0.4871432 -0.57079965 -0.022080323 -0.6062533
000130 37 dd 2d bf 57 73 b8 be 96 6f 0c bf 9f 02 63 be
       -0.6791567 -0.36025497 -0.54857767 -0.22168969
000140 ca d8 1c bf 7f 57 53 be 14 cd 6c bf 5e 11 e3 3a
       -0.61268294 -0.20638846 -0.92500424 0.0017323901
000150 99 8b c3 be 66 2f ec be e2 15 2a be 8e 04 42 bf
       -0.38192442 -0.46129912 -0.1660991 -0.757882
000160 f0 7a 48 3f 24 66 a5 be a5 df 54 bf f2 65 eb 3f
       0.7831259 -0.3230449 -0.83153754 1.8390486
000170 2d dc cb 3e 01 eb 0a 40 18 9b d9 be 15 88 9f be
       0.39816418 2.1705935 -0.4250114 -0.3115851
000180 73 5d f3 be 08 98 f7 3e 64 47 de be 4d 9a 81 bd
       -0.47532234 0.48358178 -0.43413842 -0.06328259
000190 ad d0 8e be 24 e9 27 bf bc 13 d5 bc ba 29 0a bf
       -0.27893582 -0.6559012 -0.026010387 -0.5396992
0001a0 a8 98 25 bf a2 04 48 40 74 77 20 bf fb 3e 73 3d
       -0.6468606 3.1252828 -0.6268227 0.059386235
0001b0 e9 a2 41 3c 54 47 1e 3d 69 14 2c bf c0 de 45 bf
       0.011818626 0.038642243 -0.67218643 -0.77293015
0001c0 79 cc aa 3f a0 95 46 bf 0e 23 25 be b2 bb 46 3d
       1.334365 -0.7757206 -0.16126654 0.048518844
0001d0 3d 84 0f bf 41 6e d5 be 0f db 26 be f8 73 51 bf
       -0.56061155 -0.4168568 -0.16294502 -0.8181758
0001e0 8e 85 ef 3f dc 82 01 bf 3f 92 2d 3d 01 84 c3 be
       1.8712633 -0.505903 0.0423758 -0.38186648
0001f0 bb 7f 2f bf 70 44 aa be 3a 2e 13 bf 7f b4 0a bc
       -0.68554276 -0.3325534 -0.5749241 -0.008465885
000200 a5 7c 15 bf 0d 21 ee bd 83 7a 75 bf ec f8 e3 be
       -0.5839332 -0.11627398 -0.95890063 -0.4452585
000210 85 79 06 bf 1e fe 38 bf d0 4c 37 bf b5 c4 c5 bd
       -0.52529174 -0.7226275 -0.7160158 -0.096566595
000220 bc da 32 bf 64 44 f3 be e9 dc e6 be 5c 40 82 bf
       -0.6986501 -0.47513115 -0.45090416 -1.0175891
000230 2e 99 9b bd da fe 1b bf 28 06 8b 3d 61 cd 17 bf
       -0.07597576 -0.6093575 0.067882836 -0.5929776
000240 f7 ae 03 3d 95 c0 2f bf cf 53 21 bf 58 f6 57 bf
       0.03214928 -0.6865323 -0.63018507 -0.84360266
000250 90 0c fd bf e3 1f 0b bf 6a 3e 5b be af 4d a2 3e
       -1.9769459 -0.5434553 -0.21410528 0.31699893
000260 b1 ce bc be c8 4b 6b 3f 52 44 d2 be 67 24 b8 be
       -0.36876443 0.9191251 -0.4106775 -0.35965273
000270 2f a9 05 bf 58 f3 07 bf ca 83 8b be ad 72 1d bf
       -0.5221128 -0.5310569 -0.27248985 -0.61503106
000280 cb 54 03 bf b1 1d 83 be ba 61 85 40 6a 2a 3e be
       -0.5130126 -0.2560859 4.1681795 -0.18570867
000290 67 6c 6a 3e fc 47 3b bf 6e b7 ae bd 32 87 23 bf
       0.22892915 -0.73156714 -0.0853108 -0.63878167
0002a0 2b d0 6a bb b0 39 7d 3e 36 e1 9d be 84 db 48 bf
       -0.0035829644 0.24729037 -0.30835885 -0.78459954
0002b0 59 28 a0 3e 56 7c 2e be e0 27 93 bf d8 fa a5 be
       0.31280783 -0.17039618 -1.1496544 -0.3241794
0002c0 ac 33 1d bf 60 5d 18 bd 9d d5 5a bf 1a 4f 01 bf
       -0.6140697 -0.037198424 -0.854822 -0.50511324
0002d0 18 9c 1b 3d 25 f9 e4 be 22 ef 80 bd c5 3a 3e bf
       0.03799066 -0.44721332 -0.06295611 -0.74308425
0002e0 ac 95 94 be 88 a2 df be 81 f6 1a bf 96 0d c2 be
       -0.2902044 -0.4367869 -0.60532385 -0.3790099
0002f0 f3 0b 1f bf b8 d6 f3 be 14 a3 bc be 27 0b 71 3d
       -0.6212761 -0.47624755 -0.3684317 0.058848526
000300 58 eb 10 bf 37 e2 18 bf dc 49 1c bf ee 8b 15 bf
       -0.56609106 -0.59720176 -0.610502 -0.5841664
000310 f2 29 2c bf c9 d9 9b bd 9d e1 fd 3c 92 cf 95 3d
       -0.67251503 -0.076098986 0.03099137 0.073149815
000320 f1 00 5c be 05 eb 1b bf 12 c1 88 3d c4 1c bf be
       -0.21484734 -0.60905486 0.0667745 -0.37326634
000330 83 d7 2f bf 4a 42 fe be 10 59 8b be 7a 37 ba be
       -0.6868822 -0.4965995 -0.27216387 -0.3637045
000340 8c 19 09 bf f3 9d f9 be 83 e0 24 bf b8 94 5f bd
       -0.53554606 -0.48753318 -0.6440508 -0.05458519
000350 27 32 03 bf 0d 48 f8 be 2f f5 ec be 0a 2d 2a bf
       -0.512484 -0.4849247 -0.4628081 -0.66474974
000360 8a 34 6d bf 26 a9 d4 be d4 5d ad be d6 9f e9 3f
       -0.92658293 -0.415353 -0.33860648 1.8251903
000370 b2 6c a0 3f bd 02 1c 40 d6 b9 24 bf 64 94 13 bf
       1.2533171 2.4376671 -0.64346063 -0.576483
000380 90 e6 5b bf 83 d3 9e 3f ed a8 18 bf d7 ac 9e 3d
       -0.85898685 1.2408298 -0.5963276 0.0774781
000390 58 87 d5 be 11 26 42 bf 5b c0 ae bd 5d 68 30 be
       -0.41704822 -0.75839335 -0.08532783 -0.17227311
0003a0 03 4c 08 bf 4f 05 41 40 de 70 49 bf d0 c3 3b bd
       -0.53240985 3.015949 -0.78687847 -0.04584104
0003b0 f2 54 38 3d 1a 6a 95 3b e8 f3 d4 be dd 01 5a bf
       0.045002885 0.0045597674 -0.41592336 -0.85159093
0003c0 fe 42 b2 3f f7 93 46 bf a9 83 12 bf a0 c6 c4 bb
       1.3926694 -0.77569526 -0.5723215 -0.0060051233
0003d0 d0 66 14 bf 90 84 90 bf 93 6d 40 bf 75 ad 43 bf
       -0.5796938 -1.1290455 -0.75167197 -0.7643655
0003e0 b0 8e bb 3f 35 a3 a1 be bd 95 19 bc 0a 7c 4d be
       1.465292 -0.3156983 -0.009374079 -0.20066848
0003f0 88 ea 53 bf bb 1a 06 bf 91 ff 35 bf ba 13 e6 3b
       -0.8277974 -0.5238454 -0.7109309 0.0070213946

fc3.bias f4 [4]
000000 41 5d a9 bd 42 e4 b2 3e d9 3e 5f 3e 6f 15 9d 3e
       -0.0826974 0.34939772 0.21801318 0.30680415
