models/model_run_4.pth (torch, 75717 bytes, 6 tensors)

fc1.weight f4 [128, 8]
0	0xbec827f1	-0.39092973
1	0xbf0b0710	-0.5430765
2	0xbf037a96	-0.51358926
3	0xbe2a57b5	-0.1663502
4	0x3e97a4c5	0.29617897
5	0xbd57edbb	-0.05271695
6	0x3e521f55	0.20519765
7	0xbd4ddcfa	-0.050259568
8	0x3ee00d79	0.4376028
9	0xbf15a731	-0.5845824
10	0xbea0363a	-0.31291372
11	0xbe99d8fb	-0.30048355
12	0x3f102c7b	0.5631787
13	0x3f30de6d	0.69089395
14	0x3ddab60d	0.10679255
15	0x3decb32a	0.1155761
16	0xbf5283fc	-0.8223264
17	0xbee9eae7	-0.4568703
18	0xbf0e2e0f	-0.5553903
19	0xbf98f09b	-1.1948427
20	0xbe5c2ee7	-0.21502267
21	0xbed69b2f	-0.4191527
22	0x3e6fc7a8	0.23416007
23	0xbd9c2efb	-0.07626148
24	0xbe3c58b1	-0.18393208
25	0x3eff3e23	0.49852094
26	0x3e241753	0.16024522
27	0xbd9e1442	-0.077187076
28	0x3ec3d478	0.38248038
29	0xbe1a03e8	-0.15040553
30	0xbeb82a01	-0.35969546
31	0x3eb8d8be	0.3610286
32	0xbef2b6c0	-0.47405052
33	0xbf60c3fa	-0.87799037
34	0x3dc5080a	0.09620674
35	0x3f8e6a43	1.1126179
36	0x3e09f05b	0.13470595
37	0xbe968b11	-0.29402974
38	0x3f1e3004	0.61792016
39	0x3e3bbc2c	0.183335
40	0x3d956436	0.07294504
41	0x3f3dfb41	0.7421151
42	0xbe7052cc	-0.23469085
43	0xbf64af77	-0.8933024
44	0x3f04d457	0.51886505
45	0xbee51cb3	-0.44748458
46	0xbd01c625	-0.031683106
47	0xbe785119	-0.24249686
48	0x3e94623a	0.2898119
49	0xbf38ff74	-0.7226479
50	0xbe1769f9	-0.14786519
51	0xbf2249bb	-0.63393754
52	0x3ef3a16f	0.47584102
53	0x3d8f4373	0.06995287
54	0x3e98dd17	0.29856178
55	0x3ed00c5b	0.40634426
56	0x3cd04303	0.025422579
57	0xbf0bd9b7	-0.5462908
58	0xbe5de279	-0.21668424
59	0xbf2bc691	-0.67099863
60	0xbf1c4574	-0.6104348
61	0xbede6bd3	-0.43441638
62	0x3e93a034	0.28833163
63	0x3dabf354	0.083960205
64	0xbe91a311	-0.28444722
65	0x3ea182d8	0.31545138
66	0xbeac212b	-0.33619055
67	0xbfb4dac7	-1.4129266
68	0x3ecc3f2f	0.39891955
69	0x3deef0c5	0.11667017
70	0x3e1725e8	0.14760554
71	0xbe9f94c3	-0.31168184
72	0xbd3e31e5	-0.046434302
73	0x3e6c6efc	0.23089212
74	0xbcb9da03	-0.022686964
75	0x3b981613	0.0046413033
76	0x3f2ebeaf	0.6825971
77	0x3ed14cea	0.40878993
78	0xbea2f61d	-0.31828395
79	0xbe422e07	-0.1896287
80	0xbe595e32	-0.21227339
81	0xbf4f484c	-0.8096969
82	0xbf0d4a41	-0.5519143
83	0xbecfa958	-0.40558887
84	0x3f33e248	0.7026715
85	0x3ec3cc3d	0.3824176
86	0x3ee5fc22	0.44918925
87	0x3e99c0fc	0.30030048
88	0x3de15ef6	0.110044405
89	0xbec3f44a	-0.38272315
90	0xbdbb19ce	-0.09135781
91	0xbf80ce74	-1.0063004
92	0xbe7c7b28	-0.24656355
93	0xbca6ceb5	-0.020362237
94	0xbe8e8464	-0.2783538
95	0x3e6b719f	0.22992562
96	0x3d82f486	0.063942954
97	0x3e98948e	0.29800838
98	0x3e819bf4	0.25314295
99	0xbe6abcb9	-0.22923554
100	0x3edd54e2	0.43228823
101	0xbe2d601e	-0.16931197
102	0xbe399604	-0.18123633
103	0x3d7f8ad1	0.062388245
104	0xbd70e2b7	-0.058809962
105	0xbe470535	-0.1943558
106	0x3e75fea4	0.24022919
107	0xbebcbc85	-0.3686258
108	0xbf16fe54	-0.58981824
109	0xbf2f901a	-0.68579257
110	0x3eab6481	0.33475116
111	0x3f222a46	0.63345754
112	0x3e709d11	0.23497416
113	0xbe9c8969	-0.30573586
114	0x3e489ac3	0.19590287
115	0xbe3e1db5	-0.1856602
116	0xbf5e1081	-0.8674393
117	0xbf22f2d9	-0.63651806
118	0xbf7f7cce	-0.9979981
119	0x3f346ce0	0.7047863
120	0xbf0de613	-0.5542919
121	0xbef27afe	-0.4735946
122	0x3eecfab7	0.4628503
123	0xbf46d6ab	-0.7767131
124	0x3d5d45b9	0.05402157
125	0xbe8cb32e	-0.27480453
126	0x3e06988f	0.13144134
127	0x3ee1f7c2	0.44134337
128	0x3e6e98cd	0.23300476
129	0xbeead223	-0.45863447
130	0xbd75f584	-0.060048595
131	0xbeb3a80b	-0.35089144
132	0xbf3ee794	-0.7457211
133	0xbf0c804f	-0.54883283
134	0x3da1a4ba	0.07892747
135	0x3e1399d4	0.1441415
136	0xbf31bf11	-0.6943217
137	0xbf03c9ff	-0.51480097
138	0x3e7d8a21	0.24759723
139	0x3f068a6e	0.52554977
140	0x3e12e36d	0.14344569
141	0xbf084b25	-0.5323966
142	0x3e9b3a57	0.30317947
143	0x3e1a11ef	0.15045904
144	0xbee7c5fa	-0.45268232
145	0x3f2f8c20	0.6857319
146	0xbdabbc19	-0.08385486
147	0xbedd8731	-0.43267205
148	0x3f42bed3	0.76072425
149	0xbf1faec5	-0.6237605
150	0xbdf999c8	-0.121875346
151	0x3e1d0791	0.15334918
152	0x3d9033e1	0.07041145
153	0x3e755b98	0.23960721
154	0xbedcc6bd	-0.43120375
155	0x3dfea2ee	0.1243342
156	0x3f01aab7	0.50651115
157	0x3f38c913	0.72181815
158	0x3ef9caa0	0.48787403
159	0xbf29198b	-0.660546
160	0x3e56bb6a	0.2096993
161	0x3ef95707	0.4869921
162	0x3e1c55e8	0.15267146
163	0x3f303dcb	0.6884429
164	0xbeb895a0	-0.36051655
165	0xbf0e3a2e	-0.55557525
166	0x3e57cad3	0.21073465
167	0xbe0b8833	-0.13626175
168	0x3f012ada	0.5045601
169	0xbe802ba8	-0.25033307
170	0x3e896a58	0.26838946
171	0x3f183ef2	0.59471047
172	0x3e5836db	0.21114676
173	0xbf84fd27	-1.0389756
174	0xbcc65ff3	-0.024215674
175	0x3e4b4814	0.19851714
176	0xbed29e4a	-0.4113639
177	0x3f10c6f7	0.56553596
178	0xbec2fae9	-0.38082054
179	0x3f45131f	0.769823
180	0x3f8ea9b5	1.114554
181	0x3e31735f	0.17329167
182	0x3e617367	0.22016679
183	0xbf0ca9f9	-0.5494686
184	0x3e805413	0.25064144
185	0xbfcecfe5	-1.6157194
186	0xbd9a749c	-0.07541773
187	0xbf8690be	-1.0512922
188	0xbf3b2448	-0.73102236
189	0xbea8d570	-0.3297534
190	0xbd87d95e	-0.066332564
191	0x3eb8a78b	0.36065325
192	0xbeb73fcd	-0.35790864
193	0xbdd1007e	-0.10205172
194	0x3e8a34e2	0.2699347
195	0xbf0d83f1	-0.5527945
196	0x3e70974c	0.23495215
197	0xbefdce5f	-0.4957151
198	0x3e63f62c	0.22261876
199	0x3d399f89	0.04531816
200	0x3d5796b4	0.052633956
201	0x3eba57be	0.36395067
202	0xbf01492b	-0.5050227
203	0xbf141030	-0.578372
204	0x3c08fba2	0.008360775
205	0xbf1fc60e	-0.6241158
206	0xbedc60f0	-0.43042707
207	0x3cbd1e84	0.02308584
208	0xbeb6fba6	-0.35738868
209	0x3f1598dd	0.58436376
210	0x3e194a0f	0.14969657
211	0x3f3b230d	0.7310036
212	0x3e947e75	0.2900273
213	0xbe139b9d	-0.1441483
214	0xbdd774b2	-0.10520305
215	0xbdc9ccf4	-0.09853545
216	0x3f0330f0	0.5124655
217	0xbedc9f9e	-0.43090528
218	0xbed3cde5	-0.41368023
219	0x3e1ddaa1	0.15415432
220	0x3f107430	0.5642729
221	0x3f5a3c63	0.8524839
222	0xbe259d2d	-0.16173239
223	0x3d79ecbc	0.061016783
224	0xbecd2fda	-0.4007557
225	0xc01c9e1f	-2.447151
226	0xbfa19ceb	-1.2626013
227	0x3ec100c0	0.37695885
228	0xbeb54c87	-0.35409948
229	0xbf1532b9	-0.5828052
230	0x3e9d3250	0.30702448
231	0x3d900af2	0.07033338
232	0xbf42f169	-0.7614961
233	0x3d647444	0.055774942
234	0xbed7ecc4	-0.42172825
235	0x3e6d9669	0.23201908
236	0xbf2440ad	-0.6416119
237	0x3f1eafef	0.61987203
238	0xbeaf09d8	-0.34187198
239	0x3e4060af	0.18786882
240	0x3ed3e625	0.41386524
241	0xbd14b681	-0.03630686
242	0xbc5942a8	-0.013260521
243	0x3e2119f6	0.1573256
244	0x3ff0f147	1.8823632
245	0x3f357c3f	0.7089271
246	0xbeb280f3	-0.34864005
247	0x3eeb075c	0.45904052
248	0x3e7384c8	0.23781121
249	0xbe08dc83	-0.13365369
250	0x3ea04c4e	0.31308216
251	0xbed0d670	-0.40788603
252	0xbf1e9ea6	-0.6196083
253	0xbf77ab90	-0.9674616
254	0xbf7221ae	-0.9458264
255	0xbb42a34f	-0.002969939

fc1.bias f4 [128]
0	0x3eb1323c	0.34608638
1	0x3ef7730b	0.48329958
2	0xbf38baf1	-0.7216025
3	0x3f4017d3	0.7503635
4	0x3f6a92fe	0.9163054
5	0x3eb0501c	0.3443612
6	0xbd473689	-0.048635993
7	0x3f4f0f0f	0.8088235
8	0xbea79dc9	-0.32737568
9	0x3ef1b684	0.4720956
10	0x3d3c414a	0.045960702
11	0x3e94878a	0.29009658
12	0x3d907c05	0.07054905
13	0xbea59f6e	-0.32348198
14	0xbd1d0d04	-0.03834249
15	0x3f22d7a6	0.63610303
16	0x3f2e36bd	0.68052274
17	0x3f02c2f3	0.5107872
18	0x3eb9bfd4	0.36279166
19	0x3eae3790	0.34026766
20	0x3f4e2e15	0.80539066
21	0x3dbaded3	0.091245316
22	0x3e9d772f	0.30754992
23	0x3dd57d54	0.10424295
24	0x3ebd786a	0.3700593
25	0x3ecc487a	0.39899045
26	0x3f2aaf10	0.66673374
27	0x3e94462e	0.28959793
28	0x3d39c947	0.04535797
29	0x3e349fcb	0.17639081
30	0x3ee4d59b	0.44694218
31	0xbec9221e	-0.39283842
32	0x3d305a54	0.043054894
33	0xbe88163f	-0.26579472
34	0x3f0a33cf	0.53985304
35	0x3ef434a6	0.47696418
36	0x3f4d8b23	0.8029043
37	0xbeb120ec	-0.3459543
38	0x3f45c9fd	0.77261335
39	0x3eb6075d	0.35552493
40	0xbf41c9b4	-0.756984
41	0x3ed855c5	0.42252937
42	0xbeca7239	-0.3954027
43	0x3f04347a	0.5164257
44	0xbe5bd6da	-0.21468678
45	0xbe98921d	-0.29798976
46	0x3f0abbcd	0.5419281
47	0x3ebf098f	0.3731198
48	0x3e82bf6f	0.25536677
49	0x3eb15da9	0.3464177
50	0x3e532303	0.20618825
51	0x3ee713cd	0.45132294
52	0x3e198b62	0.14994577
53	0x3eba4864	0.36383355
54	0x3de945b1	0.11390246
55	0xbf1e5caa	-0.61860144
56	0xbe6d0d44	-0.23149592
57	0x3e5c4ce2	0.21513703
58	0xbefb04e8	-0.4902718
59	0x3ec0839a	0.37600404
60	0x3e464a6c	0.19364327
61	0x3e42e4c2	0.19032577
62	0xbf35e729	-0.7105585
63	0x3ef350ae	0.4752249
64	0x3e7b579f	0.24545144
65	0x3f7ac30b	0.9795386
66	0xbbd74a91	-0.0065701683
67	0xbedd3586	-0.43204898
68	0x3d0bceee	0.03413289
69	0x3f012fd7	0.5046362
70	0x3ed81f5f	0.42211434
71	0x3eb2cacb	0.34920344
72	0xbb121654	-0.002229114
73	0x3f05d99e	0.5228518
74	0xbdd2783b	-0.102768384
75	0xbe835864	-0.25653374
76	0x3d8e8ddd	0.06960652
77	0x3ea54a94	0.3228346
78	0x3e8560a5	0.26050296
79	0x3edc2fbc	0.43005168
80	0x3e9cb3c4	0.306059
81	0x3d9474b7	0.07248824
82	0x3ed2ad37	0.41147777
83	0x3ec3f7b7	0.3827493
84	0x3ec9f8a2	0.39447504
85	0x3e37d2f4	0.17951566
86	0x3eec4777	0.46148273
87	0x3edf1c4d	0.4357628
88	0xbeb6b08b	-0.35681567
89	0xbf32938d	-0.69756395
90	0xbe6b3a5c	-0.22971481
91	0xbd8423b1	-0.0645212
92	0x3ed2deac	0.4118551
93	0x3e3eeab4	0.1864422
94	0x3e80e945	0.2517797
95	0x3e82ab80	0.2552147
96	0x3eaae2ef	0.33376262
97	0x3f01bf0c	0.5068214
98	0x3c01fe22	0.007934125
99	0xbde89a37	-0.11357539
100	0x3e302358	0.17200983
101	0x3e6da59a	0.23207703
102	0xbda973d5	-0.08274046
103	0xbec4a9b2	-0.38410717
104	0x3d42ea11	0.047586504
105	0xbe82b9ec	-0.25532472
106	0x3f102eea	0.56321585
107	0xbed98b29	-0.42488983
108	0x3ece6d70	0.4031787
109	0x3f203503	0.6258089
110	0x3eaf3321	0.34218696
111	0xbec92b74	-0.39290965
112	0x3df601a0	0.12012029
113	0x3eabdbdd	0.3356618
114	0x3eb3f5f5	0.35148588
115	0x3f49e437	0.78863853
116	0xbba15241	-0.0049231355
117	0x3d47dffd	0.048797596
118	0xbab5a2d8	-0.0013857735
119	0xbe60e3e9	-0.21961941
120	0x3e904f07	0.28185293
121	0x3ef956f5	0.48699155
122	0xbeb0a3e2	-0.34500033
123	0x3eb56261	0.3542662
124	0x3eee44b5	0.46536794
125	0x3f5f1ea4	0.8715613
126	0xbdd6dc45	-0.10491232
127	0x3f53f302	0.82792675

fc2.weight f4 [128, 128]
0	0x3dc04abd	0.09389255
1	0x3edd051a	0.43167955
2	0x3f270ddc	0.6525552
3	0xbde9c75e	-0.114149794
4	0xbf766333	-0.96245116
5	0xbecf4d36	-0.40488595
6	0x3ea643a9	0.32473496
7	0xbec34e2a	-0.38145572
8	0x3f232971	0.6373511
9	0xbdfb6512	-0.12275137
10	0x3ebb79fe	0.3661651
11	0x3dbc7dc4	0.092036754
12	0xbb9b6637	-0.0047424096
13	0x3e970e10	0.29502916
14	0x3e8cf2a8	0.27528882
15	0xbe73577e	-0.23763844
16	0x3e7a4a42	0.2444239
17	0x3dc4a457	0.09601658
18	0xbedeb78a	-0.43499404
19	0x3de96140	0.11395502
20	0xbf31fd00	-0.6952667
21	0x3f52b222	0.8230306
22	0x3f4df9c7	0.80459255
23	0x3e181886	0.14853105
24	0x3e438476	0.19093499
25	0xbe70cbf2	-0.23515299
26	0xbdd18c33	-0.10231819
27	0xbe9d5a69	-0.3073304
28	0x3f6cec86	0.92548406
29	0x3e0819aa	0.1329104
30	0xbe764303	-0.24049
31	0x3eebb55f	0.46036813
32	0x3e4f33f4	0.20234662
33	0x3eb5b112	0.35486656
34	0xbe225dc8	-0.15856087
35	0xbeb385c9	-0.35063007
36	0x3e1b94b9	0.15193452
37	0x3f182175	0.5942605
38	0xbdfa70d1	-0.12228549
39	0xbd9a1e50	-0.07525313
40	0x3e388390	0.18018937
41	0xbe593c68	-0.2121445
42	0x3eede7ac	0.46465814
43	0xbc0bcee8	-0.008533217
44	0x3e04c8ca	0.1296722
45	0x3e537b24	0.20652443
46	0xbe4771be	-0.19476983
47	0x3ed1e416	0.40994328
48	0x3e8c7cf2	0.27439076
49	0x3ef9be69	0.48778084
50	0x3edd4f2f	0.43224475
51	0xbef864ca	-0.48514396
52	0x3f484ce2	0.78242314
53	0xbc1b3a74	-0.0094743855
54	0xbec6ff1b	-0.38866505
55	0xbf3b4f1a	-0.73167574
56	0x3dfcef0f	0.12350284
57	0x3f922ecd	1.1420532
58	0x3d697bbb	0.057002764
59	0x3e4dcf45	0.20098598
60	0x3f260107	0.6484532
61	0xbe79ec6e	-0.24406597
62	0x3dda7969	0.106676884
63	0x3eb3daeb	0.3512796
64	0x3e6eeac2	0.2333174
65	0xbea1abcb	-0.3157638
66	0x3f259045	0.6467326
67	0xbe230b25	-0.1592222
68	0xbf79694c	-0.97426295
69	0xbebfadec	-0.3743738
70	0xbdd44689	-0.10365016
71	0xbf6b7eef	-0.9199056
72	0x3ead463a	0.3384264
73	0xbf18be8a	-0.5966574
74	0x3ed0d81e	0.40789884
75	0x3f11d0c8	0.569592
76	0x3f6bbfbb	0.9208943
77	0xbf1490d7	-0.5803351
78	0xbe2463be	-0.16053674
79	0xbf22c169	-0.6357637
80	0x3e2799a7	0.16367207
81	0x3e631822	0.22177175
82	0xbd8a1967	-0.06743126
83	0xbe5c453b	-0.21510784
84	0xbf1ab547	-0.6043286
85	0x3d1bf433	0.038074683
86	0x3e863504	0.26212323
87	0xbd82ac85	-0.06380562
88	0x3e1422bc	0.14466375
89	0x3e93f1b7	0.2889535
90	0xbf458ab8	-0.77164793
91	0x3e79b131	0.24384
92	0x3e8e1911	0.277535
93	0x3f0d786c	0.55261874
94	0x3ee339e9	0.4438012
95	0xbe11e684	-0.14248091
96	0x3d45b567	0.048268702
97	0xbf0032b4	-0.50077367
98	0xbe4bb541	-0.19893362
99	0x3f050f21	0.5197621
100	0xbf006ec7	-0.5016903
101	0x3bb6a34c	0.0055736657
102	0xbdd85056	-0.10562198
103	0x3e9216f3	0.28533134
104	0xbf92d1b1	-1.1470243
105	0x3fc08113	1.503939
106	0x3f69d693	0.9134304
107	0xbeea9c83	-0.45822534
108	0x3e9fe172	0.3122669
109	0xbf3ca7c8	-0.73693514
110	0x3b502f42	0.003176645
111	0xbf886fcf	-1.0659121
112	0xbe2fecdf	-0.17180203
113	0x3ed82d53	0.4222208
114	0x3ec9773f	0.3934879
115	0x3e19fb5e	0.15037295
116	0x3d2bffb3	0.0419919
117	0x3eab007f	0.33398816
118	0x3e9445b6	0.28959435
119	0x3e5e1506	0.21687707
120	0xbee8d45e	-0.45474523
121	0x3e191cfd	0.14952464
122	0x3f11b59f	0.56917757
123	0xbe850f9e	-0.25988477
124	0xbf2d188c	-0.6761558
125	0xbeca1434	-0.3946854
126	0x3d0da8ad	0.03458469
127	0x3d3e1bd0	0.046413243
128	0xbd890dcd	-0.066920854
129	0x3d7bbeae	0.061461143
130	0xbd30609a	-0.043060876
131	0xbd78f1dd	-0.060777534
132	0xbc7a6380	-0.015282512
133	0xbc89f2da	-0.016839433
134	0xbdcd5f77	-0.10027974
135	0x3cbfc02e	0.023407068
136	0x3c0b9c16	0.0085211005
137	0xbcef9fe4	-0.029251046
138	0x3be0eaf3	0.0068639456
139	0x3d5c362e	0.053762607
140	0xbd9a4a7c	-0.07533738
141	0xbdc03800	-0.09385681
142	0xbd469067	-0.048477557
143	0xbd13aded	-0.03605454
144	0x3cbe5cfc	0.023237698
145	0xbc5092c8	-0.012730308
146	0x3d2b94b2	0.041889854
147	0x3d3dceb1	0.046339694
148	0xbcfc3dbe	-0.03079116
149	0x3ba7ad09	0.005117063
150	0xbd894668	-0.06702882
151	0xbda181cf	-0.07886087
152	0xbd63fdd7	-0.055662002
153	0x3d8d5141	0.069002636
154	0xbdb5e71a	-0.0888197
155	0xbc1b20a9	-0.009468236
156	0xbbcb99c0	-0.006213397
157	0xbc9f4619	-0.019442605
158	0x3d771a20	0.06032765
159	0x3d86fd83	0.06591322
160	0x3aeef0f5	0.001822977
161	0xbd866623	-0.0656245
162	0xbdd670ba	-0.1047072
163	0x3d663e98	0.056212038
164	0xbd9ca90a	-0.07649429
165	0xbcd4ebec	-0.025991403
166	0xbd9d242a	-0.07672913
167	0x3cdd058f	0.02698019
168	0xbd131384	-0.035907283
169	0x3c79df94	0.015251059
170	0x3c4250e1	0.011860103
171	0xbd33f99c	-0.043939218
172	0x3d92803b	0.07153364
173	0xbd92caf1	-0.07167614
174	0x3ceb559c	0.028727345
175	0xbc2bff59	-0.010497891
176	0x3cdcc146	0.026947629
177	0xba97b480	-0.0011574179
178	0x3d58b97c	0.052911267
179	0xbd440f5e	-0.047866218
180	0x3bcdd050	0.0062809363
181	0x3c137767	0.009000636
182	0xbdca294e	-0.098711595
183	0x3d9e12e2	0.07718445
184	0x3cdaf6d0	0.026729017
185	0xbc86252f	-0.016375152
186	0x3d21eae9	0.03953067
187	0x3d23a882	0.039955623
188	0xbcf60174	-0.03002999
189	0xbd2e93ab	-0.042621296
190	0xbd86978b	-0.06571873
191	0xbd80a879	-0.062821336
192	0xbd3f3851	-0.046684567
193	0x3d201b4f	0.039088544
194	0x3d1ff0fa	0.039048173
195	0xbd82c04b	-0.06384333
196	0x3da812f7	0.08206742
197	0xbd57a5e0	-0.052648425
198	0xbdb1f503	-0.086893104
199	0x3da54115	0.08069054
200	0x3d4ae96c	0.049539015
201	0x3d3e554f	0.046468075
202	0xbda4bf69	-0.08044321
203	0x3c868860	0.01642245
204	0xbd8cb596	-0.06870572
205	0xbd8947b4	-0.067031294
206	0xbdbb6234	-0.0914959
207	0x3d069f0e	0.03286653
208	0x3bbae510	0.005703576
209	0x3c80b01c	0.015708975
210	0xbd442407	-0.04788592
211	0xbd9c807f	-0.07641696
212	0x3d7c66d6	0.06162151
213	0xbd470c11	-0.04859549
214	0xbd2e4800	-0.042549133
215	0xbd96cc53	-0.073631905
216	0xbdaa66fb	-0.08320423
217	0x3c983e12	0.018584285
218	0xbc6e02b0	-0.014527008
219	0xbdbdbfcb	-0.09265097
220	0xbd46da57	-0.04854807
221	0xbd5eb2ed	-0.054369856
222	0xbcd634c0	-0.0261482
223	0x3d551497	0.05202159
224	0x3c7c4408	0.015397079
225	0xbd8e003e	-0.0693364
226	0x3c9f726e	0.019463744
227	0x3d6b8e60	0.057508826
228	0x3d63dd8b	0.0556312
229	0xbd38daca	-0.04513053
230	0x3c2ec91f	0.010668068
231	0x3d4c5fb5	0.04989596
232	0x3cd09854	0.02546326
233	0xbcdd31aa	-0.02700122
234	0xbd8d2691	-0.068921216
235	0xbd746fd2	-0.059676953
236	0xbd05fa6a	-0.032709517
237	0x3d2791f3	0.040910672
238	0xbd3c1d97	-0.045926657
239	0xbcbbe434	-0.022935964
240	0xbd07412f	-0.03302115
241	0x3d077f6d	0.033080507
242	0x3d2e8703	0.042609226
243	0xbc4c749f	-0.0124789765
244	0xbcef9d9b	-0.029249957
245	0x3d6a4103	0.057190906
246	0x3d52b5ad	0.05144279
247	0xbb57461d	-0.0032848187
248	0x3b86cb45	0.004113587
249	0x3d8a0f00	0.06741142
250	0xbdc3407c	-0.09533784
251	0xbd319c7d	-0.04336213
252	0x3cd60054	0.026123203
253	0xbd298954	-0.041390732
254	0xbd6a14ad	-0.057148624
255	0xbdb32d88	-0.08748919

fc2.bias f4 [128]
0	0xbe1812dc	-0.14850944
1	0xbc3f5857	-0.011678777
2	0x3e8b974d	0.2726387
3	0x3ee875fd	0.45402518
4	0xbd2c539f	-0.042071935
5	0x3eafe119	0.34351423
6	0xbe01c150	-0.12671399
7	0x3e8c52f5	0.2740704
8	0x3cc4584d	0.023967886
9	0xbe4daa36	-0.20084462
10	0xbdbc2f05	-0.09188656
11	0x3d9d22fd	0.07672689
12	0x3e77df31	0.24206235
13	0xbd5c821e	-0.053835027
14	0xbd21e12b	-0.039521378
15	0x3c7937cf	0.01521106
16	0xbdf5a2a6	-0.11993913
17	0xbe01ebcb	-0.12687604
18	0x3d763400	0.060108185
19	0xbe1ef318	-0.1552242
20	0x3d12ff74	0.03588815
21	0xbdb495c8	-0.08817631
22	0x3d5e6e72	0.054304548
23	0x3ec888e7	0.39166948
24	0x3ebbcc9b	0.3667954
25	0xbba11e15	-0.004916916
26	0xbdd500cf	-0.10400545
27	0xbe29f3b7	-0.16596876
28	0x3e8379ce	0.25678867
29	0xbe12ff37	-0.14355169
30	0x3ed9c82d	0.42535535
31	0xbdb10a5a	-0.086445525
32	0xbe7c3d1c	-0.24632686
33	0x3edd13be	0.43179125
34	0xbd55c9d2	-0.052194424
35	0x3ea9b949	0.33149174
36	0xbcd2201b	-0.025650075
37	0xbdce0e7c	-0.100613564
38	0xbdc7122a	-0.097202614
39	0x3eb920dc	0.36157882
40	0x3ebed14a	0.3726905
41	0xbe256cc4	-0.16154772
42	0x3eb07d97	0.34470817
43	0x3e0d5941	0.13803579
44	0xbdc69cdb	-0.096978866
45	0x3e24a3e4	0.16078144
46	0x3c807a5d	0.015683347
47	0x3ebf1b40	0.37325478
48	0x3d6f4254	0.058412865
49	0x3e183e2f	0.14867471
50	0x3d51f0aa	0.051254906
51	0x3eafcb4f	0.343348
52	0xbe0f61af	-0.14002107
53	0xbcf160b3	-0.029465055
54	0xbda5eabc	-0.08101413
55	0xbe17b838	-0.14816368
56	0xbe374788	-0.17898381
57	0xbdea0d28	-0.114282906
58	0x3c7a4ac7	0.015276617
59	0x3e4b7bd2	0.19871452
60	0xbc2fbe7a	-0.0107265655
61	0xbc4add60	-0.0123818815
62	0xbe3ed684	-0.18636519
63	0x3ee40664	0.44536126
64	0x3ec42202	0.38307196
65	0xbda22ac2	-0.07918312
66	0xbdadd0a5	-0.084870614
67	0xbe73aac2	-0.23795608
68	0xbb2c0c55	-0.0026252468
69	0x3ebf55ef	0.3737025
70	0xbdd3dc09	-0.10344703
71	0xbe7e932c	-0.24860829
72	0x3ec5fea5	0.3867084
73	0xbe4e22d0	-0.20130467
74	0x3ec0e1eb	0.37672362
75	0xbcd97b41	-0.02654803
76	0xbd829308	-0.063757
77	0xbd0cdcbe	-0.034390204
78	0x3ec1c164	0.37842858
79	0x3ee13c0e	0.4399113
80	0xbd508c3f	-0.050915
81	0x3e957fcb	0.2919906
82	0xbde1512c	-0.110018104
83	0xbdb1926b	-0.08670505
84	0x3e7a6226	0.24451503
85	0xbd7a2ce9	-0.061077986
86	0xbd916d8c	-0.071009725
87	0xbd6058d8	-0.054772228
88	0xbdfbe98a	-0.123004034
89	0x3e95296b	0.29133162
90	0xbe53a913	-0.20669965
91	0x3dcec7ff	0.1009674
92	0x3e127dec	0.14305848
93	0xbe20620c	-0.15662402
94	0x3ed06a26	0.40705985
95	0x3ecf48c7	0.40485212
96	0xbdffff99	-0.12499923
97	0x3ec3d79b	0.3825043
98	0x3ebb92af	0.36635348
99	0x3c4008cc	0.011720847
100	0x3ea8252d	0.32840863
101	0x3e51e0c6	0.204959
102	0xbdf5f82e	-0.12010227
103	0x3ebae7be	0.3650493
104	0xbcd30d17	-0.025763078
105	0xbe14bd0b	-0.14525239
106	0x3dd92d4b	0.10604342
107	0xbdddff9c	-0.10839769
108	0xbda73feb	-0.08166488
109	0x3e3b14d6	0.18269667
110	0x3e9dfefb	0.30858597
111	0x3ed0ae77	0.40758106
112	0x3e7928d4	0.24331981
113	0x3e817f82	0.25292593
114	0xbe53d333	-0.20686035
115	0xbe21816c	-0.15772027
116	0xbd78aaf8	-0.060709924
117	0x3e1aa955	0.15103658
118	0xbe609e9e	-0.21935508
119	0xbdb61e22	-0.08892466
120	0xbddb49d7	-0.10707443
121	0xbe15d1f8	-0.14630878
122	0x3eaf0b54	0.3418833
123	0x3c92298b	0.017842075
124	0x3e7eedd7	0.24895416
125	0xbda96698	-0.08271521
126	0x3f284fee	0.65746963
127	0xbe6f1c6e	-0.23350689

fc3.weight f4 [4, 128]
0	0xbf86b22c	-1.0523124
1	0x3d9ce2f9	0.07660479
2	0xbec2d4ac	-0.3805288
3	0x3f82fdaa	1.0233662
4	0x3f54fc8c	0.83197856
5	0xbea1153d	-0.31461516
6	0xbf6b4f1a	-0.91917574
7	0x3f86b9b9	1.0525428
8	0xbeda1977	-0.42597553
9	0xbf33d800	-0.70251465
10	0xbed2dbfe	-0.41183466
11	0xbf35cb1f	-0.71013063
12	0xbec0dcbb	-0.37668404
13	0x3d3f16a0	0.046652436
14	0x3f892836	1.0715396
15	0x3e15f90f	0.1464579
16	0xbf50d8fb	-0.81581086
17	0xbf437072	-0.7634345
18	0x3f84d615	1.0377833
19	0xbf71d09c	-0.9445894
20	0x3d60fcf1	0.054928724
21	0xbf26ba72	-0.6512824
22	0xbedc5950	-0.4303689
23	0xbed76e63	-0.42076406
24	0x3fa41356	1.2818401
25	0xbd0702f7	-0.032961812
26	0xbcd7274c	-0.026263855
27	0xbf5f0c3c	-0.87128043
28	0x3f808c83	1.0042881
29	0xbf325646	-0.6966289
30	0x3f7f20d4	0.99659467
31	0xbd537897	-0.051628675
32	0xbf63d62a	-0.88998663
33	0xbeea196f	-0.4572253
34	0xbee00305	-0.43752304
35	0x3f379a70	0.7172003
36	0x3e55f2a2	0.20893338
37	0xbe95d482	-0.29263693
38	0x3dab7823	0.08372524
39	0x3fb8ef33	1.4447998
40	0xbe9b1aff	-0.30294034
41	0xbf8de9c7	-1.1086968
42	0xbe99d7a3	-0.3004733
43	0x3fe23721	1.7673074
44	0xbc8a20dd	-0.016861374
45	0x3dcdd09e	0.10049556
46	0xbecbae7b	-0.39781556
47	0x3f63ec73	0.8903267
48	0xbf247357	-0.64238495
49	0x3fc27716	1.5192592
50	0x3fc80736	1.5627201
51	0x3f590085	0.8476642
52	0xbf7f8885	-0.9981769
53	0x3fa7b6f3	1.3102707
54	0xbf3ed206	-0.7453922
55	0xbf32557d	-0.69661695
56	0xbf43e165	-0.765158
57	0xbf885e8d	-1.0653855
58	0xbf7d59a5	-0.9896491
59	0xbef68802	-0.4815064
60	0x3f461869	0.77380997
61	0x3c8cacd8	0.017172262
62	0xbf6014b9	-0.8753162
63	0x3f86a478	1.0518942
64	0x3e0bc803	0.13650517
65	0x3dabb26b	0.0838364
66	0xbf6589cb	-0.8966338
67	0x3f17e584	0.5933459
68	0x3d3bb315	0.045825083
69	0x3f6e5fb7	0.931148
70	0xbae8eded	-0.0017771103
71	0xbf50d31b	-0.8157212
72	0xbe801237	-0.25013897
73	0xbf185642	-0.5950662
74	0xbece80eb	-0.40332732
75	0x4015a752	2.3383374
76	0xbf2eaf28	-0.6823602
77	0x3d96f5d8	0.0737111
78	0xbe9ef642	-0.31047255
79	0x3f3f19f6	0.7464899
80	0xbf091926	-0.53554
81	0x3f2aa48f	0.66657346
82	0xbf7936d7	-0.97349304
83	0xbef2bf55	-0.474116
84	0xbeaec8e0	-0.3413763
85	0xbf745a98	-0.95450735
86	0xbf661f6f	-0.89891714
87	0xbd7b9204	-0.06141855
88	0xbf661931	-0.8988219
89	0x3fc553a8	1.5416155
90	0xbf7de911	-0.99183756
91	0x3fa23a5b	1.2674059
92	0x3f37d3e0	0.7180767
93	0xbe67eb67	-0.22648393
94	0xbeb0908e	-0.34485286
95	0x3f90461c	1.1271396
96	0xbf60cb6a	-0.87810385
97	0x3f7e1381	0.9924851
98	0xbee37fe0	-0.44433498
99	0xbeebec37	-0.46078655
100	0xbf03c36e	-0.5147008
101	0x3fb6756e	1.4254587
102	0xbf7a1c91	-0.9769984
103	0x3f1e62ed	0.618697
104	0x3fce2128	1.6103868
105	0xbf7fedde	-0.9997233
106	0x3f383b72	0.71965706
107	0xbf7864e3	-0.9702894
108	0xbf69a930	-0.91273785
109	0x3fbd979e	1.4811895
110	0xbed537b0	-0.4164405
111	0x3f51abf5	0.8190301
112	0x3fbc4112	1.4707358
113	0xbe4fceab	-0.20293681
114	0xbf50cada	-0.81559527
115	0xbee17bd1	-0.44039777
116	0x3ebed7bf	0.37273976
117	0xbf1bedcc	-0.60909724
118	0xbf598fff	-0.84985346
119	0xbf0b858a	-0.5450064
120	0xbf662e44	-0.89914346
121	0xbed16b33	-0.409021
122	0x400cde5f	2.2010725
123	0x3f3e8ca5	0.74433357
124	0xbf90ab55	-1.1302286
125	0x3d65930a	0.05604843
126	0xbf51c10d	-0.819352
127	0xbf81eddd	-1.0150715
128	0xbf4d82ad	-0.8027752
129	0xbd8d7b08	-0.06908232
130	0xbe5cd55f	-0.2156577
131	0x3fa273bf	1.2691573
132	0x3f5eecf5	0.8708032
133	0xbf1e1f7b	-0.61766785
134	0xbf13f445	-0.577946
135	0x3fb4d5aa	1.4127705
136	0x3db009f1	0.08595646
137	0xbf6439d8	-0.8915076
138	0xbf40f73f	-0.7537727
139	0xbf269627	-0.65072864
140	0xbed16f5d	-0.40905276
141	0x3b9d1933	0.0047942637
142	0x3f7a3c89	0.9774862
143	0x3f066626	0.52499616
144	0xbf6b43ad	-0.9190014
145	0xbf5c1c2d	-0.8598049
146	0x3f315017	0.6926283
147	0xbfc1cb86	-1.5140235
148	0x3d38a353	0.045077633
149	0xbf6f2a67	-0.93424076
150	0xbf5027ab	-0.8131053
151	0xbf1beba0	-0.6090641
152	0x3fb9d2d6	1.4517467
153	0x3c6c3d06	0.014418846
154	0x3ee08fc6	0.4385969
155	0xbf8663c3	-1.0499195
156	0x3ea7c554	0.32767737
157	0xbf950e99	-1.164508
158	0x3f71b2f7	0.94413704
159	0xbcb3c55c	-0.021944694
160	0xbf8ba1bf	-1.0908736
161	0xbee58bae	-0.4483313
162	0xbf901393	-1.1255974
163	0x3f81b20a	1.0132458
164	0x3e9abda9	0.30222824
165	0xbf32d2d1	-0.6985293
166	0x3d58ccfd	0.052929867
167	0x3f8c161a	1.0944245
168	0xbe605c1b	-0.21910135
169	0xbf17731f	-0.59160036
170	0xbed7ca70	-0.42146635
171	0x3fb9b074	1.4506974
172	0xbd80b861	-0.062851675
173	0xbf414a10	-0.75503635
174	0xbee727e0	-0.4514761
175	0x3fa10d30	1.258215
176	0xbf657373	-0.89629287
177	0x3fa5d6c1	1.2956163
178	0x400237a9	2.0346472
179	0x3fa4ac4e	1.2865083
180	0xbf9f73e4	-1.2457242
181	0x3fb2f9ba	1.398246
182	0xbe8c06a3	-0.27348813
183	0xbe90542f	-0.28189227
184	0xbf204ff0	-0.62621975
185	0xbf9cf12c	-1.22611
186	0xbf0f308f	-0.5593347
187	0xbe509e37	-0.20372854
188	0x3fe027af	1.751211
189	0x3d52f10c	0.05149941
190	0xbf62e11a	-0.8862473
191	0x3f76174c	0.961293
192	0xbe4f9d3f	-0.20274828
193	0x3cfc15e9	0.030772166
194	0xbf984302	-1.1895449
195	0x4015b191	2.3389628
196	0xbd959b9a	-0.07305069
197	0x3f81d138	1.0141973
198	0x3c848715	0.016177693
199	0xbf9d8777	-1.2306966
200	0xbecfc2e6	-0.40578383
201	0x3db6a6e5	0.08918551
202	0xbecdcea1	-0.40196708
203	0x4013ab0b	2.3073146
204	0xbf4acf60	-0.7922268
205	0xbd874f56	-0.06606929
206	0xbc67c4b6	-0.014146021
207	0x3f4d2171	0.8012915
208	0xbeed5ec4	-0.46361363
209	0x3f573ebe	0.8408011
210	0xbf5aa0a6	-0.8540138
211	0xbd9b47d9	-0.07582063
212	0xbeda32a9	-0.42616776
213	0xbf583205	-0.84451324
214	0xbf391394	-0.722955
215	0x3db21b26	0.086965844
216	0xbfa5fdec	-1.2968116
217	0x3fe9a4a6	1.8253372
218	0xbf2bef42	-0.67161953
219	0x3f6e78fa	0.93153346
220	0x3ee41a64	0.44551384
221	0xbf4f8773	-0.81066054
222	0xbee32064	-0.4436065
223	0x3f892f64	1.0717587
224	0xbf66c86b	-0.90149564
225	0x3f9503e9	1.1641818
226	0xbedea4f8	-0.43485236
227	0xbeb41386	-0.35171145
228	0xbeca26f8	-0.39482856
229	0x3fa09b69	1.2547427
230	0xbf8dd0e0	-1.1079369
231	0x3f5563a4	0.83355165
232	0x3fce83e8	1.6134005
233	0xbf80706e	-1.0034311
234	0x3ea1123c	0.31459224
235	0xbf62188c	-0.88318706
236	0xbf9e0ba7	-1.2347306
237	0x3f8eb03e	1.1147535
238	0xbecd944a	-0.40152198
239	0x3f6ee02c	0.9331081
240	0x3fa08012	1.2539084
241	0xbd929f95	-0.07159344
242	0xbf8e217d	-1.110397
243	0xbf55b15e	-0.83473766
244	0x3fae3ba1	1.3611947
245	0xbe438d1f	-0.19096802
246	0xbf38945e	-0.7210139
247	0xbf703a4d	-0.9383896
248	0xbf399569	-0.72493607
249	0x3f4b49f7	0.79409736
250	0x400aa2ae	2.1661792
251	0x3f4080bf	0.7519645
252	0xbf90425f	-1.1270255
253	0x3d97203e	0.073791966
254	0xbf89547c	-1.0728908
255	0xbfe42634	-1.7824159

fc3.bias f4 [4]
0	0xbe315c1c	-0.17320293
1	0xbe72fe3d	-0.23729797
2	0xbe04bce0	-0.12962675
3	0xbe5da8f5	-0.21646483
