models/model_run_3.pth (torch, 174149 bytes, 6 tensors)

fc1.weight f4 [200, 8]
0	0x3d7878a9	0.060661945
1	0x3f081cd3	0.5316898
2	0xbe4f0c47	-0.20219527
3	0x3ee87a6e	0.45405906
4	0x3f8d70f0	1.1050091
5	0xbe1ec3f6	-0.1550444
6	0xbf023520	-0.5086231
7	0x3d2c6714	0.04209049
8	0x3f131689	0.5745626
9	0xbda376b1	-0.07981623
10	0x3f0baf53	0.545644
11	0xbf111236	-0.5666841
12	0xbeae8260	-0.34083843
13	0xbcc94e2b	-0.024573406
14	0x3e0b5fd6	0.13610777
15	0x3e229be6	0.15879783
16	0x3e8ae169	0.271251
17	0xbe396963	-0.18106608
18	0xbf186ab2	-0.59537804
19	0xbe816765	-0.25274196
20	0xbed6afef	-0.41931102
21	0x3dfdb0cf	0.12387239
22	0xbf39ad82	-0.72530377
23	0x3de62c4b	0.11238917
24	0x3ded6619	0.11591739
25	0x3e643637	0.22286306
26	0xbe3afa9f	-0.18259667
27	0xbe1378a5	-0.14401491
28	0x3f865b3a	1.049659
29	0x3eb9c5e1	0.36283782
30	0xbf085584	-0.53255486
31	0xbd240dcd	-0.040052224
32	0xbdbb8bd6	-0.09157531
33	0xbeacba38	-0.33735824
34	0x3c92961b	0.017893841
35	0x3ec63b34	0.38717043
36	0x3eb2a1cb	0.34889063
37	0xbe47c80d	-0.19509907
38	0x3e2bf433	0.16792373
39	0x3c56c4ef	0.013108476
40	0xbed7b296	-0.42128438
41	0xbf74ae7b	-0.95578736
42	0x3f05aeb3	0.52219695
43	0xbf3ae1a0	-0.73000526
44	0x3e4ce655	0.2000974
45	0x3e089be4	0.13340718
46	0x3c87a5e8	0.016558602
47	0x3d211d0e	0.03933435
48	0x3e9e3ca6	0.30905646
49	0xbd25e675	-0.040502984
50	0x3ef7fad6	0.4843356
51	0x3e86e666	0.26347655
52	0xbf6a4c7e	-0.9152297
53	0x3e488805	0.19583137
54	0x3dea3990	0.114367604
55	0x3caddc4d	0.021223212
56	0x3c0edce3	0.008719656
57	0xc020f17e	-2.5147395
58	0x3e6b313f	0.22968005
59	0xbdccf1fc	-0.10007092
60	0xbee27b0d	-0.44234505
61	0xbf1b0523	-0.60554713
62	0x3ebb7a6f	0.36616847
63	0x3dce17fe	0.1006317
64	0x3e4c90f2	0.19977167
65	0x3d91dfa0	0.07122731
66	0xbe3b5055	-0.18292363
67	0xbe9acab7	-0.30232784
68	0x3f6b3691	0.91880137
69	0xbe95cf4e	-0.29259723
70	0x3dd141a5	0.10217599
71	0x3cc5c33f	0.024140952
72	0x3f1ad25b	0.60477227
73	0xbf472c10	-0.7780161
74	0x3ed90622	0.4238749
75	0xbe900cb2	-0.28134686
76	0x3e488047	0.19580184
77	0x3e81eef3	0.25377616
78	0xbcae5122	-0.021278922
79	0x3e50e80e	0.20401022
80	0xbef5febc	-0.4804591
81	0x3eb9909f	0.3624315
82	0xbdd86b13	-0.10567298
83	0xbea8beed	-0.32958165
84	0x3e2325ac	0.1593234
85	0x3f89935a	1.0748093
86	0x3eacd0b9	0.33752993
87	0xbe01c615	-0.12673219
88	0x3f1c9e2f	0.6117887
89	0xbe2c32d1	-0.1681626
90	0x3ed1fa2a	0.41011173
91	0x3d8ca91b	0.06868192
92	0xbce97723	-0.028499192
93	0xbd9694f7	-0.073526315
94	0x3dce3652	0.100689545
95	0x3e960119	0.29297712
96	0x3e53c8c1	0.2068205
97	0x3c8e442c	0.017366491
98	0x3e46e129	0.1942183
99	0xbe8cc5f3	-0.27494773
100	0xbf296468	-0.6616883
101	0xbec3a312	-0.3821035
102	0x3db6cd63	0.08925893
103	0x3da778d8	0.08177346
104	0x3e7f2121	0.24914981
105	0x3df55445	0.11978964
106	0x3dd8d158	0.10586804
107	0xbe4416c7	-0.19149314
108	0xbeca3529	-0.39493683
109	0xbf882fd9	-1.0639602
110	0x3e2a5828	0.16635191
111	0xbd15c7f5	-0.036567647
112	0x3ef33596	0.4750182
113	0xbf54c11d	-0.8310717
114	0x3f0eb6d8	0.5574775
115	0xbd787f72	-0.060668416
116	0xbedca433	-0.43094024
117	0xbb4093fc	-0.002938508
118	0xbd54ecda	-0.05198369
119	0x3c02ee95	0.007991453
120	0x3efe5c8a	0.49679977
121	0xbe66f156	-0.22553
122	0xbf47f93d	-0.7811468
123	0x3f9b5686	1.213578
124	0x3ef9fa6a	0.48823863
125	0x3d408b9f	0.047008153
126	0xbd65ea2b	-0.056131523
127	0x3f7e4030	0.9931669
128	0x3f55b64a	0.83481276
129	0x3e9a3504	0.30118573
130	0x3e19e40e	0.15028402
131	0x3e43ea4c	0.19132346
132	0x3e796a03	0.24356847
133	0x3e593b7f	0.21214102
134	0xbd99d1ca	-0.07510717
135	0x3ea96e36	0.33091897
136	0x3df0b6dd	0.117536284
137	0xbedae991	-0.42756322
138	0x3eda6c07	0.42660543
139	0xbbe6717c	-0.0070325714
140	0xbf0c1a27	-0.54727405
141	0xbec524e3	-0.38504705
142	0x3e62ac9e	0.2213616
143	0xbccabe88	-0.024749056
144	0xbe875118	-0.26429057
145	0xbea933d8	-0.33047366
146	0xbf12c775	-0.573356
147	0xbf54d820	-0.8314228
148	0x3f0e8469	0.5567079
149	0x3dd360d1	0.10321201
150	0x3ecbc16a	0.39796
151	0xbe1f66f2	-0.15566614
152	0xbde907d4	-0.11378446
153	0xbed53b65	-0.41646877
154	0xbeb686b7	-0.35649654
155	0xbf071037	-0.52759117
156	0x3f291fe8	0.6606431
157	0x3e3d7697	0.1850227
158	0x3e2bf3f1	0.16792275
159	0x3edb9191	0.42884496
160	0x3e8c7d3e	0.27439302
161	0x3e2e4cdb	0.17021506
162	0x3ebb1fd7	0.3654773
163	0x3df5a0ce	0.11993562
164	0x3e93706b	0.28796706
165	0x3f0a3c5d	0.5399836
166	0xbe48472a	-0.19558397
167	0xbdcdf554	-0.10056558
168	0x3ef381a7	0.47559854
169	0x3eb2ec9d	0.34946147
170	0x3f4932f1	0.78593355
171	0xbe1e7172	-0.15472963
172	0xbc1a3208	-0.009411342
173	0x3f13d9c5	0.57754165
174	0xbfa056d4	-1.2526498
175	0x3da7e94f	0.08198797
176	0xbd421f3f	-0.04739308
177	0xbf457d1b	-0.7714402
178	0x3eb131f2	0.34608418
179	0xbf84c9fc	-1.0374141
180	0xbd4b19bc	-0.04958509
181	0xbe18c338	-0.1491822
182	0x3d220e5e	0.039564483
183	0x3da0b544	0.07847074
184	0x3e288fc1	0.16461088
185	0x3ee2c666	0.4429199
186	0xbe8d6c15	-0.27621523
187	0x3f1eacc1	0.6198235
188	0x3e40c759	0.18826045
189	0x3ee9ab0f	0.4563832
190	0xbda43030	-0.080170035
191	0x3dcaf4d8	0.099099815
192	0x3e0eb126	0.13934764
193	0x3e225adb	0.15854971
194	0x3cfc6dcf	0.03081408
195	0x3fe3b40c	1.7789321
196	0xbeaa8c7b	-0.33310303
197	0x3c97ccf5	0.018530348
198	0xbbc61cca	-0.0060459124
199	0xbd46b615	-0.04851349
200	0x3e65b45b	0.22432081
201	0x3ed05dc9	0.40696552
202	0x3e24acdd	0.16081567
203	0x3ddfc397	0.10925978
204	0x3ef1986d	0.47186604
205	0xbe32cb20	-0.17460299
206	0x3f2d137b	0.6760785
207	0x3e81f287	0.25380346
208	0x3eb13a64	0.3461486
209	0xbea0b453	-0.31387576
210	0x3de0bbad	0.10973296
211	0xbefc8c2e	-0.493257
212	0xbf0e330d	-0.5554665
213	0xbf3f9ec3	-0.74851626
214	0x3e794be1	0.24345352
215	0xbc967a13	-0.018368756
216	0x3f142073	0.57862014
217	0x3e9a68cd	0.30158082
218	0xbd874d0f	-0.06606495
219	0x3d43b67b	0.04778145
220	0xbeafff75	-0.34374586
221	0x3f1de4e9	0.61677414
222	0x3f23c0a1	0.63965803
223	0xbef0e4e6	-0.47049636
224	0xbeeb4b55	-0.4595591
225	0x3f1bdf89	0.6088796
226	0x3f0fe787	0.5621266
227	0xbdfb2b52	-0.12264122
228	0x3f351361	0.70732695
229	0x3efbdd47	0.4919226
230	0x3f315fbe	0.69286716
231	0xbf368479	-0.7129589
232	0xbe095a7b	-0.13413422
233	0x3d256455	0.040378887
234	0xbe127fcc	-0.14306563
235	0xbee1b74d	-0.4408516
236	0x3f236f17	0.63841385
237	0x3e7eac99	0.24870528
238	0x3f033db0	0.51266
239	0xbe3e723a	-0.18598261
240	0x3e612733	0.2198761
241	0x3e2a1b21	0.16611911
242	0xbf158321	-0.5840321
243	0x3ddaf2c3	0.106908344
244	0x3edc384a	0.43011695
245	0x3ea95535	0.3307282
246	0xbf539beb	-0.82659787
247	0xbed982d0	-0.42482615
248	0xbef97e5e	-0.48729223
249	0xbe952902	-0.2913285
250	0xbedaea27	-0.4275677
251	0xbe096270	-0.13416457
252	0x3f3a32fd	0.7273405
253	0x3f17a20b	0.5923163
254	0x3ef6da8c	0.48213613
255	0x3e5d8a62	0.2163482

fc1.bias f4 [200]
0	0x3e3ce7a6	0.18447742
1	0xbe9de97b	-0.30842194
2	0x3f1e3135	0.61793834
3	0xbf588241	-0.8457375
4	0x3f31abec	0.69402957
5	0x3d9a9f85	0.07549957
6	0x3e874621	0.26420692
7	0x3e1b496d	0.15164728
8	0xbe746aaa	-0.23868814
9	0x3def8f6e	0.11697279
10	0x3ec4eac5	0.38460365
11	0x3c8ca670	0.017169207
12	0x3f01ad11	0.50654703
13	0xbe918c61	-0.28427413
14	0xbe4dbecb	-0.20092313
15	0x3eb99391	0.36245397
16	0xbf18cdb8	-0.596889
17	0x3f0eb651	0.5574694
18	0xbe82bb99	-0.2553375
19	0xbd8d8918	-0.06910914
20	0xbe89fbcc	-0.26949918
21	0xbf017c6e	-0.5058049
22	0xbe9f4edd	-0.31114855
23	0x3e90012f	0.28125903
24	0x3ea7e1d6	0.32789487
25	0x3d71be12	0.059019156
26	0xbe6ab970	-0.22922301
27	0xbd9c3602	-0.07627489
28	0xbe235061	-0.15948631
29	0xbee57430	-0.44815207
30	0xbdb2ba9d	-0.08727
31	0x3eee8118	0.46582866
32	0x3ea63c64	0.3246795
33	0x3e73e6d4	0.23818523
34	0x3f82a61d	1.0206944
35	0xbe868909	-0.26276425
36	0x3c1b3027	0.00947193
37	0x3f5dbf70	0.86620235
38	0xbd8a79c3	-0.067615055
39	0x3f1bc0a8	0.60840845
40	0xbe723ca7	-0.2365595
41	0xbdcda1d8	-0.10040635
42	0x3d845380	0.06461239
43	0xbebe21f2	-0.37135273
44	0xbdb065a5	-0.08613137
45	0x3f5bc240	0.85843277
46	0x3d3d1ebd	0.046171892
47	0x3c25c147	0.010116882
48	0x3f365573	0.71224135
49	0x3d5e1438	0.0542185
50	0xbded8038	-0.115967214
51	0xbd9b4b65	-0.0758274
52	0xbe0dd352	-0.13850144
53	0x3eb4979c	0.3527192
54	0xbdffb463	-0.12485578
55	0xbe9ea328	-0.30983853
56	0x3f38597c	0.7201154
57	0x3d491c7e	0.049099438
58	0x3d37e557	0.04489645
59	0x3f69562e	0.91147125
60	0x3e90d6c7	0.28288862
61	0xbd8bdde3	-0.06829431
62	0x3e8daf9d	0.27673045
63	0xbf1daa91	-0.6158839
64	0x3f234f41	0.63792807
65	0x3ed806fd	0.42192832
66	0x3f323147	0.6960644
67	0x3f346848	0.7047162
68	0x3f3bc7b6	0.7335161
69	0x3ca83cfe	0.020536896
70	0xbf1e8fd8	-0.6193824
71	0x3f570c69	0.8400331
72	0x3ed9c228	0.42530942
73	0xbe80bb63	-0.25142965
74	0xbf1e5fb6	-0.61864793
75	0x3f125e77	0.5717539
76	0x3e1b5ae4	0.15171391
77	0x3e464588	0.19362462
78	0x3ce7abf8	0.028280243
79	0x3e8cb188	0.27479196
80	0xbf99fe94	-1.2030816
81	0xbed883aa	-0.42287952
82	0xbe2fbcc6	-0.17161855
83	0x3eaab9bb	0.33344826
84	0x3e1bc3ac	0.15211362
85	0xbeef6c09	-0.46762112
86	0x3cf3789d	0.029720599
87	0x3f0fb4a2	0.56135
88	0xbd880bda	-0.066428855
89	0x3d70e746	0.05881431
90	0x3d5202e3	0.051272284
91	0x3f597a40	0.84952164
92	0xbe858bf8	-0.2608335
93	0x3f74d65d	0.9563959
94	0x3f03dfec	0.5151355
95	0x3eb40f7a	0.35168058
96	0x3f049654	0.5179188
97	0x3f61c25c	0.88187194
98	0xbeb339bb	-0.35004982
99	0x3e9a93b2	0.30190808
100	0x3e6d7dac	0.23192471
101	0x3eab2f9e	0.33434767
102	0x3f788a3f	0.97085947
103	0x3f15e3cc	0.58550715
104	0x3e4d41e9	0.20044674
105	0x3ece195c	0.40253723
106	0xbe48ec44	-0.19621378
107	0x3f4632b8	0.7742114
108	0x3edc1d36	0.42991036
109	0xbe473328	-0.19453108
110	0x3eaec151	0.34131864
111	0xbdd55abf	-0.10417699
112	0x3f046e43	0.51730746
113	0xbd968742	-0.07350017
114	0x3f6e709a	0.93140566
115	0x3e089ef8	0.13341892
116	0xbf1c3a21	-0.610262
117	0x3eaf07f6	0.3418576
118	0x3f228810	0.63488865
119	0x3eb3ae97	0.3509414
120	0x3efb9db0	0.49143744
121	0x3f6395c1	0.8890038
122	0x3dfa7884	0.12230018
123	0x3ec4605b	0.38354763
124	0x3e859f34	0.26098025
125	0x3f437070	0.7634344
126	0xbd38f3e9	-0.045154486
127	0x3ee8ba6a	0.45454723
128	0xbed6e998	-0.41975093
129	0x3f0689aa	0.5255381
130	0xbe284f58	-0.16436517
131	0xbf3ef5f0	-0.7459402
132	0x3f208b91	0.6271296
133	0x3f042147	0.5161328
134	0x3ebeb2cf	0.37245795
135	0x3eded018	0.43518138
136	0x3c87f77a	0.016597498
137	0xbe5d251a	-0.21596184
138	0xbe6eaf0c	-0.23308963
139	0x3f657343	0.89629
140	0x3f37cd51	0.7179766
141	0x3ccec15f	0.02523869
142	0x3e975719	0.29558638
143	0xbe8b18a5	-0.2716724
144	0xbf145944	-0.5794871
145	0xbd350f75	-0.044204194
146	0x3e3258ca	0.17416683
147	0x3f45267c	0.7701185
148	0x3e84dbe6	0.2594902
149	0xbec7850f	-0.38968703
150	0xbf123f9d	-0.57128316
151	0x3e9f6c5d	0.31137362
152	0x3ef8c56f	0.4858813
153	0x3f2fa915	0.68617374
154	0x3e6f36ce	0.2336075
155	0xbaceee7c	-0.0015787627
156	0xbe827d0a	-0.25486022
157	0xbf038546	-0.51375234
158	0x3e8d2a36	0.27571267
159	0x3eaeffed	0.3417963
160	0x3e0fa0b8	0.14026153
161	0x3efa0b52	0.48836762
162	0xbeab135f	-0.33413216
163	0xbebc8adf	-0.368247
164	0x3eae059e	0.3398866
165	0x3ee526fe	0.4475631
166	0xbd281a19	-0.041040514
167	0x3f3965a8	0.7242074
168	0xbe98452b	-0.2974027
169	0x3edfe05b	0.43725857
170	0x3f2a53d2	0.6653415
171	0x3f096abe	0.536785
172	0xbe993898	-0.2992599
173	0xbef006f8	-0.46880317
174	0xbd92a9fa	-0.07161327
175	0x3f167f53	0.5878803
176	0x3e86f5f8	0.26359534
177	0x3f461dcb	0.7738921
178	0xbe222b35	-0.15836795
179	0xbe2f93c6	-0.17146215
180	0xbf2b6812	-0.66955674
181	0xbf0ab56d	-0.54183084
182	0x3f7a3cc1	0.97748953
183	0xbeae8283	-0.34083948
184	0x3f08be38	0.5341525
185	0xbe386fd6	-0.18011412
186	0x3ed74fa2	0.42052943
187	0xbf0f02a7	-0.5586342
188	0x3f69b42f	0.91290563
189	0x3f72d461	0.94855314
190	0x3e990786	0.29888552
191	0x3f300de8	0.6877122
192	0xbeafeb8b	-0.34359393
193	0x3e883648	0.26603913
194	0x3f4ecc35	0.80780345
195	0x3dd09583	0.10184767
196	0xbe7738a4	-0.241427
197	0x3e7b4d32	0.24541166
198	0xbe7a56d3	-0.24447183
199	0xbebca143	-0.36841783

fc2.weight f4 [200, 200]
0	0xbd224304	-0.039614692
1	0xbd87070c	-0.06593141
2	0x3ba10d27	0.004914898
3	0xbcc7a330	-0.024369806
4	0x3cf40541	0.029787662
5	0x3c9cb2e7	0.019128276
6	0x3d4d2ada	0.050089695
7	0x3c7bc948	0.015367813
8	0x3d330945	0.043710012
9	0xbce72ab3	-0.028218603
10	0x3d1e1e99	0.0386034
11	0xbd17bb7d	-0.037044037
12	0x3d151261	0.03639448
13	0xbb30f858	-0.0027003493
14	0x3d06a0e1	0.03286827
15	0x3d611ade	0.054957263
16	0x3c2b97a0	0.010473162
17	0xbd007722	-0.031363614
18	0x3d8c8701	0.068616875
19	0x3d114500	0.035466194
20	0x3c31c1f0	0.010849461
21	0xbbed27b0	-0.007237397
22	0xbd88fc5c	-0.06688759
23	0x3d897821	0.06712366
24	0x3d66f896	0.056389414
25	0xbcd241da	-0.025666166
26	0xbd0835d4	-0.03325446
27	0xbcfc1c80	-0.030775309
28	0x3c081b60	0.008307308
29	0xbcd42bf8	-0.025899872
30	0xbd194b99	-0.03742561
31	0xbd5141d8	-0.051088184
32	0xbc3486e0	-0.011018485
33	0xbbedbb2d	-0.007254979
34	0x3a911471	0.0011068714
35	0xbd221922	-0.03957475
36	0x3c222200	0.009895802
37	0xbacf2f93	-0.0015807025
38	0x3d628c4a	0.05530957
39	0xbd0185f0	-0.031621873
40	0xbd8be54a	-0.06830843
41	0xbcbcc3b2	-0.023042534
42	0xbd0e45e1	-0.03473461
43	0xbd915f5b	-0.07098266
44	0x3d0cdd5b	0.03439079
45	0xbd25160d	-0.040304232
46	0x3d2f18a1	0.042748097
47	0xbc680a3c	-0.014162596
48	0x3c58166b	0.013188939
49	0x3d84be1f	0.06481575
50	0xbc5496c1	-0.012975396
51	0x3bd4e436	0.0064969314
52	0x3d361d24	0.044461384
53	0xbcbf8e56	-0.0233833
54	0x3b53880c	0.0032277135
55	0x3d00d582	0.031453617
56	0x3c9f340c	0.019433998
57	0xba8b6e80	-0.001063779
58	0xbd4d6d7a	-0.050153233
59	0xbbdfc09c	-0.0068283807
60	0xbd18a03b	-0.037262183
61	0xbd985eba	-0.07439943
62	0xba549480	-0.00081092864
63	0xbcee1dee	-0.029067006
64	0x3d1825ee	0.037145548
65	0xbd7db6eb	-0.061942022
66	0xbceb542b	-0.028726658
67	0x3d205547	0.039143827
68	0xbc9596a1	-0.018260302
69	0x3bde2310	0.006779082
70	0xbce5693c	-0.028004281
71	0xbc5971f4	-0.013271797
72	0xbd6c8d18	-0.057751745
73	0xbd406c84	-0.04697849
74	0xbd8dbc8d	-0.06920729
75	0xbd023bde	-0.031795375
76	0xbb333f00	-0.0027350783
77	0x3d031e32	0.03201122
78	0x3ce8de13	0.028426206
79	0xbbdfb51f	-0.0068270112
80	0x3cabbaac	0.020963036
81	0x3c57d1fd	0.013172624
82	0xbd25a3cb	-0.04043941
83	0x3d330978	0.043710202
84	0x3c9dd289	0.01926543
85	0x3d591e8c	0.053007647
86	0xbcd097d1	-0.025463017
87	0x3b36d980	0.0027900636
88	0x3c8e9b60	0.017408073
89	0xbd5b9458	-0.05360827
90	0x3d56046c	0.05225031
91	0x3d059330	0.032611072
92	0x3ca43a6e	0.020047393
93	0x3cc85946	0.024456631
94	0x3c987bc7	0.01861371
95	0xbd022410	-0.031772673
96	0xbcbac1b8	-0.02279745
97	0x3b4fcb98	0.0031707045
98	0xbcedc0a2	-0.029022519
99	0xbd816c9f	-0.06319546
100	0xbd9260a5	-0.0714734
101	0xbd4b9090	-0.049698412
102	0xbd7d831c	-0.061892614
103	0xbd36d0df	-0.04463279
104	0xbd475c4f	-0.048672017
105	0x3cb9757c	0.022639029
106	0x3d7db70e	0.061942153
107	0x3ba36fbc	0.004987685
108	0xbd8179de	-0.063220724
109	0x3d7c9035	0.061660964
110	0xbd5f06f6	-0.054449998
111	0xbc1e6458	-0.0096674785
112	0xbd819a54	-0.06328264
113	0xbd80983e	-0.06279038
114	0xbd56996a	-0.0523924
115	0x3c888ce1	0.016668739
116	0x3d7de82e	0.061989002
117	0xbcaedf9c	-0.02134686
118	0xbd397f84	-0.045287624
119	0xbd487c0d	-0.04894643
120	0xbcccd5a6	-0.02500422
121	0x3c79d173	0.0152476905
122	0xbd5ad17d	-0.05342244
123	0x3cb13998	0.021633908
124	0xbd89d714	-0.06730476
125	0x3d274431	0.040836517
126	0xbc9b74dd	-0.018976623
127	0xbd22428a	-0.039614238
128	0x3d4236c4	0.04741551
129	0xbd91f55b	-0.07126876
130	0x3caf2cc8	0.021383658
131	0xbd1f7764	-0.03893222
132	0xbd322d20	-0.043500066
133	0x3d1aae70	0.037764013
134	0x3cd93550	0.02651468
135	0x3d40e2ce	0.047091298
136	0x3d1ac419	0.03778467
137	0x3d7987be	0.06092047
138	0x3ce00ddf	0.027350364
139	0xbc181ebc	-0.009284671
140	0xbd0ffdaf	-0.03515404
141	0xbc265dcb	-0.010154198
142	0x3ce81ea8	0.02833493
143	0xbca8398f	-0.020535259
144	0xbcd7aeee	-0.02632853
145	0xbd897ef7	-0.0671367
146	0x3c6c7880	0.014433026
147	0xbcf2a18e	-0.02961805
148	0xbd44879a	-0.047980882
149	0xbd24c493	-0.04022653
150	0xb7c0826d	-2.2948918e-05
151	0xbc27c56c	-0.01023994
152	0x3bea37d1	0.007147767
153	0xbd6bdb29	-0.057582054
154	0xbd87ee6a	-0.06637271
155	0x3d425bd5	0.04745086
156	0x3c65adc0	0.014018476
157	0x3d5150bf	0.051102396
158	0xbd8fda11	-0.07024015
159	0x3d164756	0.036689125
160	0xbd3c8479	-0.046024773
161	0xbd48a11e	-0.04898178
162	0x3ca76a14	0.020436324
163	0x3b196f60	0.0023412332
164	0x3cdd4870	0.02701208
165	0xbd6c223a	-0.05764983
166	0x3d26406e	0.04058879
167	0xbd157d01	-0.036496166
168	0x3d82899d	0.06373904
169	0x3d233c88	0.03985265
170	0x3d42bde3	0.04754437
171	0x3ac63f5d	0.0015125085
172	0xbcc49f08	-0.024001613
173	0x3c484430	0.012223288
174	0x3b027480	0.0019905865
175	0xbb685820	-0.0035452917
176	0x3d079b03	0.033106815
177	0xbc87142a	-0.016489107
178	0x3d119300	0.03554058
179	0xbd3fd611	-0.04683501
180	0x3d46cbec	0.04853432
181	0x3d025aa6	0.03182473
182	0xbd4024db	-0.046910148
183	0xbcfef0cc	-0.03112068
184	0xbd0726de	-0.03299605
185	0x3d09e1b8	0.033662528
186	0x3d6d28f8	0.0579004
187	0x3ad1db40	0.0016010776
188	0xbd27aeb7	-0.040938105
189	0xbd5547e0	-0.0520705
190	0xbced0fe2	-0.028938238
191	0x3ccab3fb	0.024744025
192	0xbab5568b	-0.0013834996
193	0xbd897fe8	-0.06713849
194	0x3ce63870	0.028103083
195	0x3c949770	0.018138617
196	0x3b5b7b66	0.00334903
197	0x3d633111	0.055466715
198	0x3caa1695	0.020762721
199	0x3d4afa88	0.04955533
200	0xbec1fba0	-0.37887287
201	0x3eb21a59	0.34785727
202	0x3d487691	0.0489412
203	0x3f2c723e	0.6736182
204	0x3d9e6a3a	0.07735105
205	0xbea1fd02	-0.31638342
206	0x3e2adb98	0.16685331
207	0xbf090f00	-0.53538513
208	0xbdc34c01	-0.09535981
209	0x3da79103	0.08181956
210	0xbe38045a	-0.1797041
211	0x3dfbe51f	0.12299561
212	0x3e7171e9	0.2357861
213	0x3df98986	0.12184434
214	0x3e3516e6	0.17684516
215	0xbe74967c	-0.2388553
216	0x3f5386ff	0.8262786
217	0x3e345ecb	0.17614286
218	0x3d381db9	0.04495022
219	0x3d04ffed	0.032470632
220	0x3e435a66	0.19077453
221	0xbd6aad1c	-0.057293996
222	0x3dda8603	0.10670092
223	0x3e880444	0.26565754
224	0x3f17ee59	0.59348065
225	0x3df6b53f	0.12046289
226	0x3e132767	0.143705
227	0x3e82b283	0.2552682
228	0xbf0ca903	-0.5494539
229	0x3e9d11e3	0.3067771
230	0x3e3a703a	0.18206874
231	0x3dfd3461	0.12363506
232	0x3e494719	0.19656028
233	0x3e2bec50	0.16789365
234	0x3dd279c5	0.10277132
235	0x3e83ff89	0.25780895
236	0xbd3b6be4	-0.04575719
237	0x3cdecc97	0.027197165
238	0x3e6da795	0.23208459
239	0x3d41ec4f	0.047344502
240	0x3e0fcc38	0.14042747
241	0xbee49d94	-0.44651473
242	0xbdadda05	-0.084888496
243	0x3d15e9e8	0.036600024
244	0xbc045ad0	-0.008078292
245	0x3e2ead90	0.17058396
246	0x3e0394f3	0.12849788
247	0xbc418afe	-0.0118129235
248	0x3d40b18d	0.047044326
249	0x3e308e13	0.17241697
250	0x3e355dfe	0.17711636
251	0x3d83d05f	0.06436228
252	0xbf1d028b	-0.61332005
253	0xbf3c34fd	-0.73518354
254	0xbeca09d0	-0.3946061
255	0x3ea7b7ab	0.32757315

fc2.bias f4 [200]
0	0x3cb52c4d	0.02211585
1	0x3d767a80	0.06017542
2	0x3e8d521a	0.276017
3	0x3c910bf8	0.017705902
4	0xbd263010	-0.04057318
5	0x3d33be4a	0.043882646
6	0x3da1244c	0.07868251
7	0xbd516df5	-0.051130254
8	0x3dea1efa	0.114316896
9	0x3e4073bf	0.18794154
10	0x3e07633f	0.13221453
11	0xbdad9e98	-0.08477515
12	0x3d0cc57c	0.034368023
13	0x3d5f702d	0.05455034
14	0x3dc878a3	0.09788635
15	0xbd8776f7	-0.066144876
16	0x3e633007	0.2218629
17	0xbedab84e	-0.42718738
18	0x3e141fcf	0.14465259
19	0x3e4f43bb	0.20240681
20	0xbce33fc1	-0.027740361
21	0x3e2f7647	0.17134963
22	0x3dbf3df1	0.09337986
23	0x3e0ccee3	0.13750796
24	0x3ddbc43e	0.107307896
25	0x3ccb1278	0.02478908
26	0x3e132845	0.1437083
27	0x3e321f0b	0.17394654
28	0x3d71e976	0.059060536
29	0x3dfda579	0.12385077
30	0xbc17f5c4	-0.009274904
31	0xbde9ca9b	-0.11415597
32	0xbd6eab37	-0.058268752
33	0x3dc39d7a	0.09551521
34	0x3d8b2756	0.06794612
35	0x3e3ff3d9	0.18745364
36	0xbddf394c	-0.108996004
37	0x3e1f8ef3	0.15581875
38	0x3db8ad98	0.090174854
39	0x3d125f34	0.035735324
40	0x3ce63c96	0.028105062
41	0xbd6d50d0	-0.057938397
42	0x3ddfcc31	0.10927618
43	0x3d82bd74	0.063837916
44	0x3d54b3cd	0.051929284
45	0xbd80a72d	-0.06281886
46	0x3cef753d	0.029230708
47	0x3dba5f1b	0.09100171
48	0x3e291518	0.16511953
49	0x3e01e8d0	0.12686467
50	0x3c523a0a	0.01283122
51	0x3d928ce8	0.07155782
52	0x3cd30bd0	0.025762469
53	0xbdff7895	-0.12474171
54	0x3de047f7	0.10951226
55	0x3e143f9c	0.1447739
56	0x3de8e76c	0.11372265
57	0xbdaecd06	-0.08535199
58	0x3d0efe48	0.03491047
59	0x3e41a683	0.18911175
60	0x3e4db9a9	0.20090355
61	0x3d7bcaf9	0.061472867
62	0x3e22367a	0.15841094
63	0xbc8a4a18	-0.016881034
64	0x3d989a6c	0.07451329
65	0x3c2e0a93	0.010622638
66	0x3dbafb7f	0.0913
67	0x3e17c0a8	0.14819586
68	0xbd92ce5b	-0.071682654
69	0x3d239516	0.0399371
70	0x3e1da748	0.15395844
71	0xbda2168b	-0.07914456
72	0x3ab2b38a	0.0013633829
73	0x3d8c75fd	0.06858442
74	0x3e2a398c	0.16623515
75	0x3d4dc414	0.050235823
76	0x3e37ec05	0.17961128
77	0x3db697d5	0.089156784
78	0x3dce8ca9	0.100854225
79	0xbd727c61	-0.05920065
80	0x3d582329	0.052767906
81	0x3ebaf7d7	0.36517212
82	0xbd8aca5c	-0.06776878
83	0x3db6d615	0.08927552
84	0x3e06f3f3	0.13178997
85	0xbd2c0f75	-0.04200693
86	0xbc9789d3	-0.018498337
87	0x3f6f04e7	0.93366855
88	0x3e247dd2	0.16063622
89	0xbbeae33f	-0.007168203
90	0xbe132a88	-0.14371693
91	0xbd18927c	-0.037249073
92	0x3e18eada	0.14933339
93	0x3e1d2cba	0.15349093
94	0x3e1a5bdd	0.15074106
95	0x3d0cdd22	0.034390576
96	0x3e129057	0.14312874
97	0xbd5918f9	-0.05300233
98	0xbd19450e	-0.03741937
99	0xbcf5713c	-0.02996122
100	0xbde41dab	-0.11138471
101	0x3dda9167	0.106722645
102	0x3cf6fabd	0.030148858
103	0xbd633019	-0.05546579
104	0xbdc1dac0	-0.094655514
105	0x3f4019b2	0.7503921
106	0x3e6a51e5	0.22882803
107	0x3d851dfa	0.06499858
108	0x3e8083eb	0.25100645
109	0x3f2044bd	0.62604886
110	0x3e73e9bd	0.23819633
111	0x3b0d1cba	0.0021532015
112	0x3dcfdc38	0.10149425
113	0x3e4e0ff7	0.20123278
114	0xba9bd404	-0.0011888747
115	0x3e01d390	0.12678361
116	0x3dba03ea	0.09082778
117	0x3e2fe0ac	0.1717555
118	0x3d26b20c	0.040697142
119	0x3e21491e	0.15750548
120	0xbe2df40e	-0.1698763
121	0x3e31171b	0.1729397
122	0xbd1c8600	-0.03821373
123	0x3deadef6	0.11468308
124	0x3e46ccb2	0.19414023
125	0x3e23d868	0.16000521
126	0x3d966d3f	0.07345056
127	0x3e2b49e9	0.16727413
128	0xbe11a5d3	-0.14223413
129	0x3e3ea677	0.18618189
130	0x3e112416	0.14173922
131	0xbd036993	-0.032083105
132	0x3dc7db34	0.097586066
133	0x3dd89d84	0.10576919
134	0x3e6f2cff	0.23357008
135	0x3e79bf33	0.24389343
136	0xbd0baf6f	-0.034102853
137	0xbd19da52	-0.037561722
138	0x3e269099	0.16266097
139	0xbd864080	-0.06555271
140	0x3dcde362	0.100531355
141	0x3d5e1fc7	0.054229524
142	0xbd9b0550	-0.07569373
143	0x3c10db39	0.008841329
144	0xbd821f00	-0.06353569
145	0x3cce7d62	0.025206272
146	0x3e342f79	0.17596234
147	0x3da74dee	0.08169161
148	0xbd053a44	-0.03252627
149	0xbd8474cf	-0.06467592
150	0x3e40277a	0.18765059
151	0x3e1d4ab2	0.15360525
152	0x3e1cc84f	0.15310787
153	0x3d98c8ce	0.074601755
154	0x3d7b30e0	0.061325908
155	0xbc8469d7	-0.01616375
156	0x3d26cc10	0.040721953
157	0x3e4f84bf	0.20265482
158	0x3e8f8dfa	0.28038007
159	0xbd19c2aa	-0.03753916
160	0x3d0613bb	0.03273366
161	0x3f67771e	0.90416133
162	0xbdb11222	-0.08646037
163	0x3c191f45	0.009345834
164	0x3c74ccfd	0.014941451
165	0x3e196f92	0.14983967
166	0x3bf5eee9	0.007505287
167	0x3dfa2fb5	0.12216131
168	0xbc67ed39	-0.014155679
169	0x3db300dc	0.08740398
170	0xbcd435fd	-0.02590465
171	0x3f65498c	0.8956535
172	0xbbdff6d7	-0.0068348455
173	0x3e33456b	0.1750695
174	0x3d865804	0.065597564
175	0x3ecb0a9f	0.3965654
176	0x3e5b5da6	0.21422443
177	0x3dd79678	0.105267465
178	0xbdc5821f	-0.09643959
179	0x3eaf2d00	0.3421402
180	0x3e3fd73c	0.18734449
181	0xbcdab39c	-0.026696973
182	0x3dbe4fca	0.09292562
183	0x3d03971f	0.032126542
184	0x3f4d7b99	0.8026672
185	0x3e4978ed	0.19675036
186	0x3e8a5320	0.27016544
187	0xbd3d3b0b	-0.046198886
188	0x3e37a4f9	0.17934026
189	0xbe960712	-0.2930227
190	0x3d3264df	0.04355323
191	0x3e64d5a0	0.22347116
192	0x3dd5aaf0	0.10432994
193	0x3d25ba4c	0.04046087
194	0xbd878ffe	-0.06619261
195	0x3c8b95b4	0.017039157
196	0x3dee37cc	0.11631736
197	0x3d8d4bc9	0.068992205
198	0x3e1e40ee	0.15454456
199	0xbcf276ba	-0.029597629

fc3.weight f4 [4, 200]
0	0xbd1e858a	-0.03870157
1	0xbe5c1741	-0.21493246
2	0x40120f16	2.2821708
3	0x3d034a48	0.032053262
4	0x3d0c6c0d	0.034282733
5	0xbb30e9a0	-0.002699472
6	0xbec92961	-0.39289382
7	0x3c8b1485	0.016977558
8	0xbebf4f85	-0.37365356
9	0xbeea5417	-0.4576728
10	0xbec2516a	-0.3795274
11	0xbdc14f1c	-0.09438917
12	0xbea58ab9	-0.323324
13	0xbeaac7c1	-0.33355525
14	0xbeaec31e	-0.34133238
15	0x3c4d84a2	0.012543829
16	0xbef29fc9	-0.4738753
17	0xbeac02db	-0.3359593
18	0xbea39e54	-0.31956732
19	0x3d2b7190	0.04185635
20	0xbedd5d36	-0.43235177
21	0xbee4ec71	-0.4471164
22	0xbea9fab2	-0.33199078
23	0xbedc99f4	-0.43086207
24	0xbf44e655	-0.7691396
25	0xbcdb1da2	-0.026747528
26	0xbee4a2cf	-0.44655463
27	0xbebb0559	-0.36527517
28	0xbee5bb2c	-0.44869363
29	0xbea4a995	-0.3216063
30	0xbca27a99	-0.01983385
31	0xbf449384	-0.7678759
32	0x3ce10878	0.027469859
33	0xbf49c04d	-0.7880905
34	0xbeb83519	-0.3597801
35	0xbef17a8e	-0.47163814
36	0xbf43ffa9	-0.7656198
37	0xbed06942	-0.40705305
38	0xbea8395f	-0.3285627
39	0xbe911d2e	-0.28342575
40	0xbd97e544	-0.07416776
41	0xbc1fd122	-0.009754451
42	0xbec1bf77	-0.3784139
43	0xbee0aade	-0.4388036
44	0xbecb0f89	-0.3966029
45	0x3bcc6690	0.0062378123
46	0xbeae648b	-0.34061083
47	0xbee11710	-0.43962908
48	0xbedc1e66	-0.42991942
49	0xbe8c8923	-0.27448377
50	0xbd096e28	-0.03355232
51	0xbe9b1429	-0.30288818
52	0xbeb02e95	-0.3441054
53	0xbee0a895	-0.43878618
54	0xbeb1ba15	-0.34712282
55	0xbeeb3c4c	-0.4594444
56	0xbec13578	-0.37736106
57	0xbc6be29c	-0.01439729
58	0xbcb70f88	-0.022346273
59	0xbecc636f	-0.39919612
60	0xbf139066	-0.5764221
61	0xbeceac46	-0.4036581
62	0xbedfe89f	-0.43732163
63	0xbd0c3a8f	-0.034235533
64	0xbea2ecda	-0.31821328
65	0xbe63689c	-0.22207874
66	0xbedc53a3	-0.4303256
67	0xbede1b5e	-0.43380255
68	0xbcb13868	-0.021633342
69	0xbe6e9c74	-0.2330187
70	0x3e8825de	0.2659139
71	0x3d847c87	0.06469064
72	0xbc516030	-0.012779281
73	0xbedb9c48	-0.4289267
74	0x3f3ececa	0.74534285
75	0xbe8b867b	-0.27251038
76	0xbf107dcb	-0.56441945
77	0xbee03b1c	-0.43795097
78	0xbea52731	-0.32256463
79	0xbd4f6785	-0.050635833
80	0xbd83001e	-0.06396507
81	0x3f5ad3dd	0.8547953
82	0xbbb3fab3	-0.005492532
83	0xbea770ef	-0.3270335
84	0xbeb796ba	-0.35857183
85	0xbca1cda7	-0.019751383
86	0x3d4a77c1	0.049430612
87	0x3fb73eb9	1.4316016
88	0xbebed787	-0.3727381
89	0x3ce059c2	0.02738655
90	0x3f1409f3	0.5782768
91	0xbf72f36f	-0.949027
92	0xbe99ff80	-0.30077744
93	0xbee58da4	-0.44834626
94	0xbf06a64a	-0.52597487
95	0xbd46f270	-0.04857105
96	0xbe9fb12e	-0.31189865
97	0x3c34c0a8	0.011032261
98	0xbf1c94c4	-0.611645
99	0x3d84df9f	0.06487965
100	0x3ede8b30	0.43465567
101	0xbea6362f	-0.32463214
102	0xbe974a0e	-0.29548687
103	0xbebc4c76	-0.36777085
104	0xbcf4d461	-0.029886426
105	0x3f895740	1.0729752
106	0x3eb8aee8	0.36070943
107	0xbea5c832	-0.323793
108	0xbecb0434	-0.39651644
109	0x3f96fd08	1.1795969
110	0x3e4d594f	0.200536
111	0x3d6a36c8	0.05718115
112	0xbe741d8c	-0.23839396
113	0xbf0e358d	-0.5555046
114	0xbd472d81	-0.04862738
115	0xbeae5da4	-0.34055817
116	0xbee3cffa	-0.4449461
117	0xbe948003	-0.29003915
118	0x3d064f19	0.032790277
119	0xbecafc40	-0.39645576
120	0x3d8da4c7	0.069161944
121	0xbebc2584	-0.36747372
122	0x3c0c9b4b	0.008581947
123	0xbf0f8490	-0.5606165
124	0xbed7415e	-0.4204206
125	0xbeba9cdc	-0.364478
126	0xbebae4cb	-0.3650268
127	0xbef22752	-0.47295624
128	0xbf4d9fd4	-0.80322003
129	0x3f26d760	0.65172386
130	0x3f0ddccc	0.55415034
131	0x3c43e8b8	0.01195734
132	0xbe68168a	-0.22664848
133	0xbf65b2e6	-0.897261
134	0xbeb071c4	-0.34461796
135	0xbed4ea56	-0.41585034
136	0x3d713e97	0.05889758
137	0x3c2d6e82	0.010585429
138	0xbf55ba31	-0.8348723
139	0x3d35a300	0.044344902
140	0xbeb2fd44	-0.3495885
141	0xbf308e5f	-0.6896724
142	0x3d714c80	0.058910847
143	0xbe267b2a	-0.16257921
144	0xbd273ff6	-0.040832482
145	0xbe8f19cf	-0.27949378
146	0x3f84a854	1.036387
147	0xbf084b62	-0.53240025
148	0xbf2b88f0	-0.67005825
149	0xbd979008	-0.07400519
150	0x3f85f702	1.0466006
151	0xbea98c0a	-0.33114654
152	0xbeab153b	-0.33414635
153	0xbeb68bfa	-0.3565367
154	0xbea26b42	-0.31722456
155	0xbf2f1ada	-0.6840035
156	0xbee3ee74	-0.44517863
157	0xbe9fb690	-0.31193972
158	0xbe9852c0	-0.29750633
159	0x3d42093a	0.04737208
160	0xbd7dd3cf	-0.061969575
161	0x3fb17e0f	1.3866595
162	0xbf000663	-0.50009745
163	0x3d05e6cd	0.032690812
164	0xbe96108a	-0.29309493
165	0xbed92cc5	-0.4241697
166	0xbeaf8b0f	-0.3428578
167	0xbeeaa540	-0.458292
168	0x3c2a68f2	0.0104009975
169	0xbeaf7e43	-0.34276018
170	0x3c6ec4ec	0.014573317
171	0x3fb6fbc0	1.4295578
172	0xbd3fd069	-0.046829615
173	0xbeb6d921	-0.3571253
174	0xbe8afb37	-0.27144787
175	0x3f043432	0.51642144
176	0xbed8bd35	-0.42331854
177	0xbeb2db92	-0.34933144
178	0xbf250ae4	-0.6446974
179	0x3fcf9cad	1.6219689
180	0x3e66cabe	0.22538278
181	0xbf075208	-0.52859545
182	0xbe92d31a	-0.28676683
183	0x3d8bd945	0.0682855
184	0x3fa51498	1.289691
185	0xbedc8dc0	-0.43076897
186	0x3f3e10c3	0.74244326
187	0xbc3a6f6c	-0.011379104
188	0xbef315a1	-0.4747744
189	0xbf831b47	-1.0242699
190	0xbec00921	-0.37506965
191	0xbedd3a24	-0.4320842
192	0xbeb25ced	-0.34836522
193	0xbe9ecc5f	-0.31015298
194	0x3c446052	0.011985855
195	0x3d6ac41a	0.057315923
196	0xbf51afa1	-0.81908613
197	0xbe934a84	-0.28767788
198	0xbef849bb	-0.48493752
199	0xbc13a543	-0.009011569
200	0x3cf41d7b	0.029799214
201	0xbeb19483	-0.34683618
202	0x400fe9d1	2.248646
203	0x3ca29edc	0.01985114
204	0x3d6e8e52	0.058241196
205	0xbc7f52e2	-0.015583726
206	0x39c53433	0.0003761366
207	0xbb8c7d22	-0.004287378
208	0xbe8e2601	-0.2776337
209	0xbeeed33b	-0.4664553
210	0xbec07d83	-0.37595758
211	0x3cff3d02	0.03115702
212	0xbe9618a8	-0.29315686
213	0xbeb5c947	-0.35505125
214	0xbea56d51	-0.32309964
215	0xbad01b75	-0.0015877323
216	0xbf083ee5	-0.5322097
217	0x3f487199	0.78298336
218	0xbeb8ebc4	-0.36117375
219	0xbd895100	-0.06704903
220	0xbf0c85a8	-0.54891443
221	0xbf049321	-0.51787
222	0xbecb412b	-0.39698157
223	0xbee24518	-0.4419334
224	0xbf031839	-0.51208836
225	0xbc941b1e	-0.018079337
226	0xbec6bb55	-0.38814798
227	0xbee05809	-0.43817165
228	0xbee7b643	-0.45256242
229	0xbe9c6144	-0.30542958
230	0x3bc143e1	0.0058979844
231	0xbeb69774	-0.35662425
232	0x3c21f982	0.009886147
233	0xbf2136e3	-0.62974375
234	0xbed511f9	-0.41615275
235	0xbf048043	-0.5175821
236	0xbf2eeec6	-0.6833309
237	0xbed9e637	-0.42558452
238	0xbecd7542	-0.40128523
239	0xbe621e16	-0.2208179
240	0x3c39b850	0.011335447
241	0x3cb47465	0.022028157
242	0xbed6a227	-0.41920587
243	0xbec0d021	-0.3765879
244	0xbebaec2b	-0.36508307
245	0x3d30d7a2	0.043174393
246	0xbe8ae796	-0.2712981
247	0xbeb7e423	-0.35916242
248	0xbed8dc32	-0.42355496
249	0xbedeee17	-0.43541023
250	0x3d323ac5	0.04351308
251	0xbeb0f5ad	-0.34562436
252	0xbeac73b1	-0.33682016
253	0xbefc925e	-0.4933042
254	0xbea58b10	-0.3233266
255	0xbf0d43a8	-0.5518136

fc3.bias f4 [4]
0	0xbe2db88d	-0.16964932
1	0xbcc06c27	-0.023489071
2	0x3e16cd0c	0.14726657
3	0xb9ceabee	-0.0003941948
