models/model_run_13.pth (torch, 145937 bytes, 6 tensors)

fc1.weight f4 [256, 8]
0	0x3be9c7b1	0.007134401
1	0x3eebcd50	0.46055079
2	0xbf7008ed	-0.9376362
3	0x3ebbb1c0	0.3665905
4	0x3f59c9d5	0.85073596
5	0xbeb81a92	-0.35957772
6	0xbe4aaa6c	-0.19791573
7	0x3eee6fa9	0.46569565
8	0xbd3fe1d5	-0.04684623
9	0x3e96a356	0.2942149
10	0x3d9c644b	0.07636317
11	0x3f8413e5	1.0318571
12	0x3e8326ae	0.25615448
13	0x3f31543b	0.6926915
14	0xbf7cac97	-0.9870085
15	0xbe5817a6	-0.21102771
16	0x3e8ee304	0.27907574
17	0x3ebbdc7c	0.36691654
18	0x3ecea7e0	0.40362453
19	0x3e664c9f	0.22490166
20	0xbf1c2e31	-0.6100798
21	0xbdfeac03	-0.124351524
22	0xbe8d57f0	-0.27606153
23	0x3e209a61	0.15683891
24	0xbe81effd	-0.2537841
25	0x3e9cafa4	0.30602753
26	0xbe9cc1f1	-0.30616716
27	0x3f331dd0	0.69967365
28	0x3e07c526	0.132588
29	0x3eb967d2	0.3621202
30	0x3c3c0c8e	0.011477603
31	0x3eae1726	0.34002036
32	0x3e9c385b	0.30511746
33	0xbedaeba3	-0.42757902
34	0xbeb4a2bc	-0.35280406
35	0xbe6be9ed	-0.23038454
36	0xbdb99f7f	-0.090636246
37	0xbd3a9780	-0.045554638
38	0x3e494c91	0.19658114
39	0x3e9ac200	0.30226135
40	0x3e93d740	0.2887516
41	0xbecd85e0	-0.401412
42	0x3d77221e	0.06033527
43	0xbe62d0f2	-0.22150019
44	0xbf043a72	-0.5165168
45	0xbf001881	-0.5003739
46	0x3ec1a99e	0.3782472
47	0x3e38cda7	0.180472
48	0xbf7dd78c	-0.99157023
49	0x3b80a7b8	0.0039262436
50	0x3cbef945	0.02331222
51	0xbf321156	-0.695577
52	0xbddac1d9	-0.10681505
53	0xbebd167c	-0.36931217
54	0xbd19abe5	-0.037517447
55	0x3e821e93	0.2541395
56	0xbe469ea5	-0.19396456
57	0x3f4a27ad	0.7896679
58	0x3ebed3f1	0.37271073
59	0xbe859d43	-0.26096544
60	0xbea3a879	-0.31964472
61	0xbf6f436f	-0.9346227
62	0xbe89ef67	-0.26940462
63	0xbf5f5e72	-0.8725349
64	0x3dc40cd6	0.09572761
65	0xbf599a0e	-0.85000694
66	0xbea55057	-0.32287857
67	0xbe4f5fe1	-0.20251419
68	0x3f06f9fb	0.5272519
69	0x3d12395b	0.03569923
70	0x3e3e4271	0.18580033
71	0xbde6e618	-0.11274356
72	0xbdf45072	-0.11929406
73	0x3ea50c4a	0.32235938
74	0x3f0fef4c	0.56224513
75	0xbe879a02	-0.26484686
76	0xbe3f1c9e	-0.1866326
77	0x3f330732	0.69932854
78	0xbf0b0c8c	-0.5431602
79	0x3d38b970	0.045098722
80	0x3ecf33a8	0.40469098
81	0xbedab8b0	-0.4271903
82	0x3e0e70d1	0.13910224
83	0xbe436d6a	-0.19084707
84	0xbf28e5b9	-0.6597553
85	0xbebc349b	-0.36758885
86	0x3eac33c5	0.33633247
87	0xbeeab0e1	-0.45838073
88	0x3f81099e	1.008106
89	0x3d1eac6a	0.038738646
90	0xbdb5b467	-0.088723
91	0x3e91790c	0.28412664
92	0x3fbf3146	1.4936912
93	0x3eb0a2ec	0.344993
94	0xbe02ceb0	-0.12774158
95	0xbea17e59	-0.31541708
96	0xbee9fadc	-0.45699203
97	0x3f46cbff	0.77655023
98	0x3e6cde4a	0.23131672
99	0x3db8bcdd	0.09020398
100	0x3f2c9cfa	0.6742703
101	0xbeb50c88	-0.35361123
102	0xbee0af95	-0.43883958
103	0xbcf85f5a	-0.030318905
104	0xbf603221	-0.8757649
105	0x3e85e817	0.26153633
106	0xbe7178c0	-0.23581219
107	0x3f0b50c5	0.5442012
108	0xbeb4d181	-0.3531609
109	0xbeb603cd	-0.35549775
110	0x3d978bfe	0.07399748
111	0xbda345ab	-0.079722725
112	0x3e2c8a14	0.16849548
113	0xbeb81a7f	-0.35957715
114	0xbec66718	-0.3875053
115	0xbd6f3b12	-0.058405943
116	0x3f0f1771	0.55895144
117	0x3f234901	0.6378327
118	0x3eb05d6d	0.34446278
119	0x3eba6793	0.36407146
120	0xbebb8de6	-0.36631697
121	0xbea7c614	-0.3276831
122	0x3dd526ad	0.104077674
123	0xbee7865f	-0.45219705
124	0x3f226998	0.63442373
125	0x3ee471ef	0.44618174
126	0x3eb9883b	0.36236748
127	0xbf3ae40e	-0.73004234
128	0x3dd61331	0.10452879
129	0x3e29c33a	0.1657838
130	0xbf02fbff	-0.51165766
131	0xbf7c4ad2	-0.98551667
132	0x3f7f9e3c	0.9985082
133	0x3da6d467	0.08145981
134	0xbe6cdea5	-0.23131807
135	0xbc78d265	-0.015186881
136	0xbe6fef64	-0.23431164
137	0xbe98cb9a	-0.29842836
138	0x3dd37397	0.103247814
139	0xbf69ccc8	-0.91328096
140	0xbe8320ff	-0.25611112
141	0xbd6746e6	-0.0564641
142	0x3ea2b6eb	0.3178018
143	0x3cf7e28f	0.030259399
144	0xbe530fe8	-0.20611537
145	0xbe991da2	-0.2990542
146	0xbaf1496d	-0.0018408723
147	0xbf49ae44	-0.78781533
148	0xbe798801	-0.24368288
149	0xbe676386	-0.22596559
150	0x3da3b07e	0.079926476
151	0x3edbe233	0.42946014
152	0xbe9f60fd	-0.31128684
153	0xbdae5e98	-0.08514136
154	0xbeeee2c8	-0.46657395
155	0x3e9bbcac	0.30417383
156	0x3f06af65	0.5261138
157	0x3f27082c	0.65246844
158	0xbbcc5040	-0.0062351525
159	0xbeee160e	-0.465012
160	0xbe9a7ff6	-0.3017575
161	0xbbd18895	-0.0063944557
162	0xbf447a34	-0.7674897
163	0x3ea5142f	0.3224196
164	0x3f5acc39	0.8546787
165	0xbe581d4c	-0.21104926
166	0x3e53694d	0.20645638
167	0x3e4b09a9	0.19827904
168	0x3e1045ec	0.14089173
169	0x3ee18a92	0.44051033
170	0xbe5c143f	-0.21492098
171	0x3eb9e2e0	0.36305904
172	0x3ee9f9af	0.45698306
173	0x3e9e1786	0.30877322
174	0x3f2c8e55	0.6740468
175	0x3eac7bc5	0.3368818
176	0x3e7ba0d7	0.24573074
177	0xbe83ad09	-0.25717953
178	0xbde77ef1	-0.11303509
179	0xbf2a6594	-0.66561246
180	0xbe847ac0	-0.258749
181	0xbf650cd4	-0.894727
182	0xbf537eb2	-0.82615197
183	0xbddc2bc7	-0.10750537
184	0x3da1439b	0.07874223
185	0x3f05a5d1	0.5220614
186	0x3ef62deb	0.48081908
187	0xbf16d800	-0.5892334
188	0xbde2da3d	-0.11076782
189	0x3f86f571	1.0543653
190	0x3eac9d89	0.3371394
191	0xbe296118	-0.16540945
192	0xbf23872f	-0.6387815
193	0x3e3f2aea	0.18668714
194	0xbe89fdbd	-0.269514
195	0x3dbbac1c	0.09163687
196	0xbf848ec9	-1.0356075
197	0xbeffc009	-0.499512
198	0x3d44b2a8	0.048021942
199	0xbf2f9d27	-0.6859917
200	0x3e97459b	0.29545292
201	0xbe4574f2	-0.19282892
202	0xbdec6c03	-0.11544039
203	0xbe981c5a	-0.2970913
204	0x3e6fb845	0.23410137
205	0x3e513bee	0.20433018
206	0xbdfd69a1	-0.12373663
207	0xb89bb406	-7.424508e-05
208	0xbe35f16e	-0.1776788
209	0x3fbcb298	1.4742002
210	0x3e2eff5f	0.17089604
211	0x3d1e3b65	0.03863086
212	0x3e8b28f4	0.27179682
213	0xbe3c41cf	-0.18384479
214	0xbf37cfae	-0.7180127
215	0xbdd4d007	-0.103912406
216	0xbde0e9fc	-0.10982129
217	0x3ec64dcc	0.3873123
218	0xbdeeb718	-0.11656016
219	0x3df2ec1d	0.11861441
220	0xbe9eb636	-0.3099839
221	0xbf28378b	-0.6570975
222	0xbe573997	-0.21018063
223	0xbd7b7dc8	-0.06139925
224	0xbefcdac8	-0.49385667
225	0xbe069fcc	-0.13146895
226	0x3e1bcb4d	0.15214272
227	0xbec6598c	-0.38740194
228	0xbf803bbc	-1.001823
229	0x3ddf1975	0.108935274
230	0x3eabbf96	0.33544606
231	0xbe1487e8	-0.14504969
232	0xbe509bbc	-0.20371908
233	0xbd618a58	-0.055063576
234	0xbf45d88e	-0.7728356
235	0x3f9920e3	1.1963161
236	0x3f1dfe28	0.61715937
237	0xbe1891b6	-0.14899334
238	0x3f165415	0.5872205
239	0x3e31df13	0.17370252
240	0x3dd5baea	0.10436042
241	0xbe3424e0	-0.17592192
242	0xbec5d160	-0.38636303
243	0xbeb54253	-0.35402164
244	0xbefec264	-0.49757683
245	0x3e49e96d	0.19717951
246	0xbd05c8f7	-0.032662358
247	0xbf4bbe21	-0.7958699
248	0xbe90a5cf	-0.28251502
249	0xbed5ac31	-0.41732934
250	0xbe03770f	-0.12838386
251	0xbe6d5df1	-0.23180367
252	0xbcad7108	-0.021172062
253	0xbe3c1f29	-0.18371262
254	0xbe1e12b5	-0.15436824
255	0x3ef4b84c	0.47796857

fc1.bias f4 [256]
0	0x3e9870a8	0.2977345
1	0x3ee093de	0.43862814
2	0x3f0fe79e	0.56212795
3	0x3f172066	0.5903381
4	0x3ed5275d	0.41631594
5	0x3e4a3eb7	0.19750486
6	0xbdeb413f	-0.11487054
7	0xbe3288ab	-0.17434947
8	0x3e5cad8e	0.21550581
9	0x3ef8c317	0.48586342
10	0x3e6af22e	0.22943947
11	0x3e08ddd8	0.13365877
12	0x3e7f43c1	0.2492819
13	0xbed2c0c7	-0.41162702
14	0x3ea9eb79	0.33187464
15	0xbea7cdf1	-0.32774308
16	0xbe8977ed	-0.2684931
17	0xbe2fe55d	-0.17177339
18	0xbe619484	-0.2202931
19	0x3e5c9540	0.2154131
20	0x3e006cda	0.12541524
21	0x3f129139	0.5725284
22	0xbea5ab63	-0.3235732
23	0xbdab50b0	-0.08364999
24	0x3e088cdb	0.13334982
25	0x3ecb5201	0.39711002
26	0xbe04698f	-0.12930892
27	0x3f54aa2f	0.8307218
28	0x3ee12cc0	0.43979454
29	0x3e6beb5a	0.23038998
30	0x3cf2d74d	0.029643679
31	0x3eb135ba	0.34611303
32	0x3ed43f3c	0.41454494
33	0x3dd0bc81	0.10192204
34	0x3e3a46bf	0.1819105
35	0x3e2986dd	0.16555353
36	0xbf002ad3	-0.50065345
37	0x3e1d25e8	0.15346491
38	0x3ea214d1	0.31656507
39	0x3d89b028	0.06723052
40	0x3da9a17e	0.08282755
41	0x3db93928	0.09044105
42	0x3e6e8178	0.23291576
43	0x3e3e3bd3	0.18577509
44	0xbdd0fa37	-0.10203975
45	0xbdc01b60	-0.09380221
46	0xbc43185f	-0.011907666
47	0x3ee62714	0.4495169
48	0xbcd8b256	-0.026452225
49	0xbe2ce1e7	-0.1688305
50	0x3d9c04a6	0.07618074
51	0x3eaa955c	0.33317077
52	0x3f254858	0.6456351
53	0x3ea4a76a	0.32158977
54	0x3f03d1de	0.51492107
55	0xbed52217	-0.4162757
56	0xbe39744d	-0.18110771
57	0xbe03a1af	-0.12854646
58	0x3df25544	0.118326694
59	0x3f392697	0.7232451
60	0x3f2c693f	0.6734809
61	0x3f090e8e	0.53537834
62	0x3ed07dcd	0.40720978
63	0xbe687962	-0.22702554
64	0xbe9ad5d2	-0.30241257
65	0xbe087748	-0.13326752
66	0xbd84ecfe	-0.06490515
67	0x3f43bd26	0.7646049
68	0x3ee7e3b7	0.4529092
69	0xbe73289b	-0.23745959
70	0x3d8b8634	0.068127066
71	0x3ebe11dc	0.37123
72	0x3e7965c2	0.24355224
73	0x3f167fee	0.58788955
74	0xbe08c287	-0.13355456
75	0x3ea76f32	0.32702023
76	0x3f3ef6d5	0.74595386
77	0x3e087cee	0.13328907
78	0x3e5e224e	0.21692774
79	0x3f4e95ff	0.80697626
80	0x3f26714d	0.65016633
81	0x3ea51fd2	0.3225084
82	0x3dfdf8bd	0.12400959
83	0x3ee5b606	0.44865435
84	0xbd667872	-0.05626721
85	0xbd8f116d	-0.069857456
86	0xbbed830d	-0.0072482885
87	0xbe62c74e	-0.22146341
88	0x3e924755	0.28570047
89	0x3d36099f	0.04444277
90	0x3f0995c2	0.5374414
91	0xbd6b0ff3	-0.057388257
92	0x3eacd55b	0.33756527
93	0xbf00f994	-0.50380826
94	0xbd29723a	-0.0413687
95	0x3ee8871b	0.45415577
96	0x3ec7c280	0.3901558
97	0xbe73737c	-0.23774523
98	0x3da53050	0.080658555
99	0x3eb83563	0.3597823
100	0xbe3dd534	-0.18538362
101	0x3f2d179f	0.6761417
102	0xbd3a18c8	-0.04543379
103	0x3e818fd5	0.25305048
104	0xbeea7d4a	-0.45798713
105	0xbe239690	-0.15975404
106	0xbe6404ea	-0.222675
107	0x3ee63224	0.4496013
108	0xbe69c609	-0.2282945
109	0xbcb89b3e	-0.022534963
110	0xbe634b3c	-0.22196668
111	0xbe0c1541	-0.13679983
112	0x3e64e45b	0.22352736
113	0xbe283e3d	-0.16429992
114	0x3ec77df5	0.38963285
115	0xbc823f20	-0.015899241
116	0x3f204f36	0.62620866
117	0x3f11a44b	0.56891316
118	0x3da77e95	0.081784405
119	0x3e247d6e	0.16063473
120	0x3c7f3a39	0.015577846
121	0x3f0ae627	0.54257435
122	0x3f2db85c	0.67859435
123	0x3d75a7f7	0.059974637
124	0xbe6110c4	-0.21979052
125	0x3f3c7095	0.73609287
126	0xbe98395e	-0.29731268
127	0xbdbd78de	-0.09251569
128	0xbd8fb4da	-0.070169166
129	0x3d4d95a4	0.050191537
130	0x3e023d58	0.12718713
131	0x3ef23115	0.47303072
132	0x3de60341	0.112310894
133	0xbe509a8b	-0.20371453
134	0xbe571e70	-0.21007705
135	0x3e5cd88c	0.21566981
136	0xbaa7ac90	-0.0012792516
137	0xbe325fca	-0.17419353
138	0xbe2985d2	-0.16554955
139	0xbddda129	-0.108217545
140	0x3d5e974a	0.0543435
141	0x3e416772	0.18887118
142	0x3e97fdfd	0.29685965
143	0x3e8f2857	0.27960464
144	0x3dd5dd92	0.10442652
145	0x3dcb8ad2	0.09938587
146	0x3e588026	0.21142635
147	0xbe67761c	-0.22603649
148	0xbd098fe4	-0.03358449
149	0x3e770736	0.24123845
150	0x3e61f13d	0.22064681
151	0x3df15431	0.11783636
152	0xbe2fe67d	-0.17177768
153	0x3e97168d	0.29509392
154	0x3d529954	0.051415756
155	0xbd4fa562	-0.05069483
156	0x3d22d78f	0.039756354
157	0xbe6c21bb	-0.23059742
158	0x3e3534ee	0.17695972
159	0xbefacc16	-0.4898383
160	0xbd8aecea	-0.06783469
161	0x3e18a503	0.14906697
162	0xbe4d1c5f	-0.20030354
163	0x3e82bfdb	0.25537
164	0xbb42e1d4	-0.0029736655
165	0xbea3c5bd	-0.319868
166	0xbe02c97e	-0.12772176
167	0x3f0c0cdf	0.5470714
168	0x3f05bad4	0.522382
169	0x3f495cda	0.78657305
170	0x3e71ecb4	0.23625451
171	0xbed11343	-0.40835008
172	0xbd8fa5cd	-0.07014046
173	0xbea9a496	-0.33133382
174	0x3e2a9438	0.16658103
175	0x3ead7968	0.33881688
176	0xbe91dd46	-0.2848913
177	0x3f12ff71	0.5742102
178	0x3ebd7711	0.37004903
179	0x3d88f6f8	0.066877306
180	0x3e9d22b4	0.3069054
181	0x3e4f560c	0.20247668
182	0x3dc7a10c	0.09747514
183	0xbe8e5d95	-0.27805772
184	0xbe88484c	-0.26617658
185	0x3c0c2d32	0.008555697
186	0x3e126c96	0.14299235
187	0xbe31d7ea	-0.17367521
188	0x3ee2ef20	0.44323063
189	0x3ee34c74	0.44394267
190	0xbde11307	-0.10989957
191	0xbe0ece65	-0.13945921
192	0x3e92a8d4	0.2864443
193	0x3f2e241e	0.6802386
194	0xbc8fce86	-0.017554533
195	0xbef2632c	-0.47341287
196	0x3f13fc71	0.5780707
197	0x3e47696a	0.19473806
198	0x3e9ea40c	0.30984533
199	0x3eea2650	0.45732355
200	0x3c7ed831	0.015554474
201	0x3e59c9da	0.21268407
202	0x3f1b5e8c	0.6069114
203	0x3f1e9977	0.6195292
204	0x3e2459ec	0.16049927
205	0x3e7b372b	0.24532764
206	0xbcf91726	-0.030406546
207	0x3a8cc1ee	0.0010738948
208	0x3eaa3234	0.33241427
209	0xbdbe7838	-0.09300274
210	0x3db75d61	0.089533575
211	0xbdb16abf	-0.08662938
212	0xbe92cae1	-0.2867041
213	0x3ede67cf	0.43438575
214	0x3eda3789	0.42620495
215	0x3eb37181	0.35047534
216	0x3e7638f9	0.24045171
217	0x3f107e73	0.56442946
218	0xbef2f95d	-0.47455874
219	0xbe8d4eca	-0.27599174
220	0x3ec2e465	0.38064876
221	0x3f125cc5	0.57172805
222	0xbf13188c	-0.5745933
223	0xbe052960	-0.13004065
224	0x3e14a6f6	0.14516816
225	0x3e6eda37	0.2332543
226	0xbdcfc066	-0.10144119
227	0x3ee10f97	0.43957207
228	0x3f3088ea	0.68958914
229	0x3ec55c4e	0.38546985
230	0x3d9855d7	0.07438248
231	0xbdabfac6	-0.083974406
232	0xbe90deb0	-0.28294897
233	0x3d0d4d97	0.034497824
234	0x3f1b6f63	0.6071684
235	0xbe09f2a4	-0.13471466
236	0x3f1f3ad1	0.6219912
237	0x3db3c1b0	0.08777177
238	0x3dcd690b	0.10029801
239	0x3e315dfc	0.17321008
240	0xbe13734f	-0.14399455
241	0xbd9932f0	-0.07480419
242	0xbd4ca237	-0.049959388
243	0x3ed618d7	0.41815826
244	0xbdece865	-0.11567763
245	0x3e98ccac	0.29843652
246	0xbf162c2f	-0.5866117
247	0x3f587a9e	0.845621
248	0xbeaed6b9	-0.34148195
249	0x3f08f0b0	0.5349226
250	0xbcb28ed7	-0.021796627
251	0xbe9a0a38	-0.3008592
252	0xbe593a40	-0.21213627
253	0x3ea4186e	0.32049888
254	0xbe6b3b6d	-0.22971888
255	0x3f06a639	0.52597386

fc2.weight f4 [128, 256]
0	0xbe19e6a5	-0.1502939
1	0xbfcd9b68	-1.6063051
2	0x3f0e354c	0.55550075
3	0xbeaf5af9	-0.34249094
4	0x3e5c82c4	0.21534258
5	0x3e00dbbf	0.12583826
6	0x3eeb76dd	0.45989123
7	0x3ebe3aec	0.3715433
8	0xbe83edb7	-0.257673
9	0x3ecc5a0b	0.39912447
10	0x3e690227	0.22754727
11	0x3e9bf2ac	0.3045858
12	0xbecadb85	-0.39620605
13	0xbeb61860	-0.35565472
14	0xbe844842	-0.25836378
15	0x3f08666f	0.532813
16	0x3f40198e	0.75038993
17	0x3ea64527	0.32474634
18	0x3d81c9c1	0.0633731
19	0xbf596845	-0.8492473
20	0xbf3c0659	-0.73447186
21	0xbe1433f2	-0.1447294
22	0xbf908acd	-1.1292359
23	0x3e91ea16	0.28498906
24	0x3ed6c34b	0.41945872
25	0x3e5231b6	0.20526776
26	0xbf2d6922	-0.67738545
27	0xbe82803d	-0.25488463
28	0x3ec59d3b	0.3859652
29	0xbeff89e5	-0.49909893
30	0x3f2040ac	0.6259868
31	0x3e0d0114	0.13769943
32	0xbd403421	-0.046924714
33	0x3d829908	0.06376845
34	0x3dff951f	0.124796145
35	0xbf27c94a	-0.6554152
36	0x3f41424a	0.75491774
37	0x3ea18706	0.31548327
38	0x3e72846f	0.23683332
39	0x3d5e6b6c	0.054301664
40	0xbef8cb76	-0.48592728
41	0x3d7f0a7b	0.062265854
42	0x3e3300e4	0.17480808
43	0x3e15e90a	0.14639679
44	0x3f14b489	0.58087975
45	0xbe4c595b	-0.19955961
46	0x3ec81e5c	0.39085662
47	0xbdf18325	-0.11792592
48	0xbd9b7742	-0.07591106
49	0x3e2afdf9	0.16698445
50	0xbf1cf974	-0.61318135
51	0x3ca7654c	0.020434044
52	0x3e77c301	0.24195482
53	0x3edd8dc2	0.43272215
54	0x3e4e90b0	0.20172381
55	0x3e97d9d6	0.29658383
56	0xbe8395e4	-0.25700295
57	0xbd5624e3	-0.05228127
58	0x3dc320d5	0.095277466
59	0xbeab316d	-0.33436146
60	0xbbd01670	-0.006350331
61	0xbeeefcbf	-0.46677205
62	0xbfffeefb	-1.9994806
63	0xbf3298ac	-0.6976421
64	0xbe15c5f2	-0.14626291
65	0x3ea8cda0	0.3296938
66	0x3e8c158a	0.27360183
67	0xbce1dc96	-0.027571004
68	0x3e023b13	0.12717848
69	0x3d42b962	0.047540076
70	0x3da6114f	0.0810877
71	0x3e89105f	0.26770303
72	0x3cda1ddc	0.026625566
73	0x3e5485df	0.20754193
74	0xbeb23e74	-0.34813273
75	0x3e3aa991	0.18228747
76	0xbe7d182a	-0.24716249
77	0xbe68eb4b	-0.22746007
78	0x3e6d3ec8	0.2316848
79	0x3e07b351	0.13251998
80	0x3e5f9258	0.2183317
81	0xbf92a17d	-1.1455532
82	0x3e6123ae	0.21986267
83	0x3e98e9f0	0.2986598
84	0x3d32287c	0.04349564
85	0x3e9b2e5f	0.30308816
86	0x3e4144eb	0.18873946
87	0x3efe10fc	0.49622333
88	0x3d8e7d10	0.069574475
89	0x3f03ecd5	0.5153325
90	0xbdc5507e	-0.09634493
91	0x3eabfe6e	0.33592552
92	0x3de641bd	0.11243007
93	0xbf0c5a99	-0.5482574
94	0xbf94344d	-1.1578461
95	0x3ed6a5a7	0.41923258
96	0x3ea95cc6	0.33078593
97	0xbdd06e4a	-0.10177286
98	0x3f1a5203	0.6028139
99	0x3ebd2c9d	0.369481
100	0x3f3a9d7e	0.72896564
101	0xbe89173e	-0.26775545
102	0x3e561bce	0.20909044
103	0xba8506f0	-0.0010149162
104	0xbe9bb2a9	-0.30409744
105	0x3e40bf68	0.18823016
106	0x3e604e5a	0.21904889
107	0xbc9de457	-0.01927392
108	0xbdf2b60d	-0.1185113
109	0xbfe2bfd5	-1.7714792
110	0xbee01d43	-0.43772325
111	0x3da470e1	0.080293424
112	0xbf1578a8	-0.5838723
113	0x3ec0693f	0.37580296
114	0xbdd58d98	-0.104273975
115	0x3e86b7ee	0.26312202
116	0x3db3a12a	0.08770974
117	0xbd394a63	-0.045236956
118	0xbe8ec01a	-0.27880937
119	0xbe9d720f	-0.30751082
120	0xbe887113	-0.2664877
121	0xbe393596	-0.18086848
122	0xbd279302	-0.040911682
123	0x3f2fd487	0.68683666
124	0xbf49d822	-0.7884542
125	0x3ef7fa74	0.48433268
126	0xbfd21d22	-1.6415141
127	0xbf31f9b9	-0.6952167
128	0x3f0fa2aa	0.5610758
129	0x3db47f58	0.088133514
130	0xbda7d7bc	-0.08195445
131	0x3e29521e	0.16535231
132	0x3d922c64	0.07137373
133	0x3f444028	0.76660395
134	0xbf54d5d7	-0.83138794
135	0x3e09b710	0.13448739
136	0x3eaeb0a2	0.34119135
137	0xbf0266ac	-0.50937915
138	0xbf163954	-0.58681226
139	0x3f0f0e82	0.5588151
140	0x3d1edc5d	0.038784374
141	0xbdcf6abd	-0.101277806
142	0xbe581387	-0.21101199
143	0xbf324315	-0.6963361
144	0x3dbd53a0	0.09244466
145	0x3ccc57a4	0.024944134
146	0xbe65d979	-0.2244624
147	0xbe9697bf	-0.29412648
148	0xbe148f71	-0.14507844
149	0x3e9927a4	0.29913056
150	0x3efd82b9	0.49513796
151	0x3e6ec707	0.2331811
152	0xbf8e2c36	-1.1107242
153	0xbe367433	-0.17817764
154	0x3cdb15dd	0.026743824
155	0xbe46b125	-0.19403513
156	0x3c53082c	0.012880366
157	0xbf903f91	-1.1269399
158	0x3efc8710	0.49321795
159	0xbfc96d1c	-1.5736423
160	0xbf524e10	-0.82150364
161	0xbe3a15cc	-0.18172377
162	0x3d942123	0.07232883
163	0xbdccd8ca	-0.10002287
164	0x3edf36f2	0.43596607
165	0xbdc32326	-0.095281884
166	0x3c45f726	0.012082851
167	0x3e0cc5ea	0.13747373
168	0xbd0e153c	-0.03468822
169	0x3e1382f9	0.14405431
170	0x3e8117a0	0.25213337
171	0xbceeaab1	-0.029134126
172	0x3ea0a1a8	0.31373334
173	0xbda04144	-0.078249484
174	0xbf04584f	-0.5169725
175	0xbe567959	-0.20944728
176	0x3cbeaf41	0.023276927
177	0x3e90b4e0	0.28262997
178	0xbe38e6a3	-0.18056731
179	0xbfc12f70	-1.5092602
180	0x3d7a33c8	0.06108454
181	0xbe888852	-0.26666504
182	0x3fbc31c3	1.4702686
183	0xbea18256	-0.3154475
184	0x3df6fd74	0.12060061
185	0x3e3feb97	0.18742214
186	0xbebacfaa	-0.3648656
187	0x3e7acb5a	0.24491635
188	0x3debf054	0.11520448
189	0x3e5a88d9	0.21341266
190	0x3e8f41bb	0.27979836
191	0xbe4e20e7	-0.20129739
192	0x3b9a85ff	0.0047156806
193	0x3d3d804c	0.04626493
194	0xbd60e11d	-0.054902185
195	0xbd84ee37	-0.064907484
196	0x3e837573	0.25675544
197	0xbe352d79	-0.17693128
198	0x3dba5e81	0.091000564
199	0xbecb253e	-0.3967685
200	0x3e5c8858	0.21536386
201	0x3ecd2b74	0.40072215
202	0x3ebe1d94	0.3713194
203	0x3ef6a8ca	0.4817565
204	0x3e7ea296	0.24866709
205	0x3f0da885	0.55335265
206	0xbdce46bb	-0.100720845
207	0x3f18ea23	0.59732264
208	0xbefe29a6	-0.4964115
209	0x3f493852	0.7860156
210	0x3f405680	0.7513199
211	0xbe867958	-0.26264453
212	0xbe5186f9	-0.20461644
213	0x3e16ad65	0.14714582
214	0x3d6e2f57	0.058150616
215	0xbeccfc04	-0.40036023
216	0xbe581035	-0.21099932
217	0xbdd562a6	-0.10419206
218	0xbf55438f	-0.8330621
219	0xbca3442c	-0.019929968
220	0xbea75fda	-0.32690316
221	0x3d9bd1df	0.07608389
222	0xbf752472	-0.95758736
223	0xbd992261	-0.074772604
224	0x3ea67da8	0.32517743
225	0xbd2fde96	-0.042936884
226	0xbfe40619	-1.7814361
227	0x3eb3b60d	0.3509983
228	0xbd13d9a7	-0.03609624
229	0xbc3de85b	-0.011591042
230	0x3f1bb28f	0.60819334
231	0xbed8046a	-0.42190868
232	0xbf78fceb	-0.9726092
233	0x3f36dd46	0.71431386
234	0x3dba9bd3	0.09111752
235	0x3e96ebec	0.2947687
236	0xbea2132e	-0.31655258
237	0xbc8ca7fa	-0.017169941
238	0xbee5e4ca	-0.44901115
239	0x3e9f5a21	0.3112345
240	0xbd5bb229	-0.053636704
241	0x3f825d96	1.018481
242	0x3e147d7e	0.14500996
243	0xbea12d97	-0.31480095
244	0x3e3dacec	0.18522996
245	0x3c42d465	0.011891459
246	0xc00b57a7	-2.1772249
247	0x3eb75e31	0.3581405
248	0xbdd60a2d	-0.104511596
249	0xbd9247b6	-0.07142584
250	0xbdb6dd41	-0.089289196
251	0x3cad15ac	0.021128498
252	0x3b154fde	0.00227832
253	0x3e41f212	0.18939999
254	0xbe0a27ce	-0.13491747
255	0xbab91cd3	-0.001412297

fc2.bias f4 [128]
0	0x3e044c6c	0.12919778
1	0x3dba5193	0.0909759
2	0x3de46a54	0.11153093
3	0xbc7523d4	-0.014962155
4	0xbd4be918	-0.049782842
5	0x3eee193a	0.4650362
6	0xbcb89909	-0.02253391
7	0x3f24a3db	0.64312524
8	0xbd4a2134	-0.04934807
9	0xbe9da300	-0.30788422
10	0xbd8d5271	-0.0690049
11	0xbc1792a2	-0.009251269
12	0x3d50f610	0.051015913
13	0xba5366f5	-0.0008064353
14	0x3c0d3b6d	0.008620125
15	0x3ef29a90	0.47383547
16	0x3ee1957f	0.4405937
17	0x3d794de5	0.0608653
18	0xbd1ccbfa	-0.038280465
19	0x3e827413	0.25479183
20	0x3c8c2005	0.017105112
21	0x3ddaa1b8	0.10675377
22	0xbd507374	-0.050891355
23	0x3c10b044	0.0088310875
24	0xbd0c76a9	-0.03429285
25	0xbc36cb70	-0.011156902
26	0xbc256aaf	-0.010096236
27	0x3c814aba	0.015782703
28	0x3e89879b	0.2686127
29	0xbca4feec	-0.020141087
30	0x3e4d0106	0.20019922
31	0xbcf62f61	-0.030051889
32	0x3af00957	0.001831333
33	0xbd1a44a8	-0.037663132
34	0xbc2f2122	-0.010689052
35	0xbc473ca1	-0.012160451
36	0x3ec5a27a	0.38600522
37	0xbcc9530f	-0.024575738
38	0xbd387f2a	-0.045043148
39	0x3d1ab04c	0.037765786
40	0xbc33ac59	-0.010966384
41	0xba37cb30	-0.00070111733
42	0x3d0d3976	0.034478627
43	0xbcaa259a	-0.020769883
44	0xbda1b3ee	-0.07895647
45	0xbcbc1bab	-0.022962412
46	0x3e4ffc5b	0.2031111
47	0x3e65f775	0.22457679
48	0x3e04f239	0.12983026
49	0xbcec6f13	-0.028861558
50	0xbd8c8b95	-0.06862561
51	0x3b3af410	0.002852682
52	0x3c70eb8f	0.014704599
53	0x3e6f6059	0.23376597
54	0xbd075be3	-0.033046614
55	0xbca906fe	-0.020633217
56	0xbcf71362	-0.03016061
57	0xbd5ebad2	-0.054377384
58	0x3e53fe64	0.20702511
59	0x3d0949f2	0.033517785
60	0xbd8bf22a	-0.068332985
61	0xbd67b6f5	-0.056570966
62	0xbdb79ef9	-0.089658685
63	0x3d0c979f	0.034324285
64	0xbd775375	-0.060382325
65	0x3bc0c459	0.0058827815
66	0xbd2db94a	-0.042413034
67	0xbc8326f6	-0.016009789
68	0x3e9c7e38	0.30565047
69	0xbe0547ae	-0.13015625
70	0xbcce8b46	-0.025212895
71	0x3d5729f1	0.052530233
72	0x3d408e09	0.047010455
73	0x3c1ac941	0.009447397
74	0x3d7b9bb1	0.061427776
75	0xbdd1a6db	-0.10236903
76	0xbd0fa7c2	-0.035072096
77	0xbd7df76a	-0.06200353
78	0xbd534eb8	-0.051588744
79	0x3d1fceb0	0.039015472
80	0x3c6449a9	0.013933578
81	0xbc9dada5	-0.01924784
82	0x3ea02104	0.3127519
83	0x3e262656	0.16225561
84	0x3d5d27d5	0.053993065
85	0xbd1113f7	-0.03541943
86	0x3d05ae15	0.03263672
87	0x3d82a2cc	0.06378707
88	0xbda4732a	-0.08029778
89	0xbbc35b7a	-0.0059618326
90	0x3d7eef20	0.062239766
91	0x3cd98213	0.026551282
92	0xbde174de	-0.11008619
93	0xbcd21264	-0.025643535
94	0x3de3024c	0.110844225
95	0xbcb974f5	-0.022638777
96	0xbcc7449b	-0.024324706
97	0xbd8e4b0e	-0.06947909
98	0xbda11cfb	-0.07866856
99	0x3e298a6f	0.16556714
100	0x3eaef60b	0.3417209
101	0xbeaae1c4	-0.3337537
102	0xbb002d5d	-0.0019558289
103	0x3d243a42	0.04009462
104	0x3da1d008	0.07901007
105	0x3eb5b980	0.35493088
106	0x3cd7378f	0.02627161
107	0xbd15b388	-0.036548167
108	0xbd48c5cc	-0.04901676
109	0xbce64d34	-0.028112985
110	0xbd26de98	-0.040739626
111	0xbd9494ef	-0.07254969
112	0xbce73653	-0.028224146
113	0x3bb784a8	0.0056005307
114	0xbd4a5d64	-0.04940547
115	0x3d0d7a5f	0.03454053
116	0x3c7472b2	0.014919924
117	0x3c80adba	0.01570784
118	0x3c3cdcfa	0.011527294
119	0x39d97732	0.00041478273
120	0xbd8c14e3	-0.06839921
121	0x3e5a96ae	0.21346542
122	0x3f332b0e	0.6998757
123	0x3dc13400	0.09433746
124	0x3d73b348	0.059497148
125	0x3d97dc33	0.074150465
126	0x3d7b6569	0.06137601
127	0x3dc59900	0.09648323

fc3.weight f4 [4, 128]
0	0x3f02474f	0.5089006
1	0xbed891b5	-0.42298666
2	0xbf07fc3f	-0.5311927
3	0xbc4c3980	-0.012464881
4	0xbefe3e98	-0.4965713
5	0xbf3b1978	-0.7308574
6	0x3f0da01c	0.5532243
7	0x3f9dfd47	1.2342919
8	0xbc972900	-0.018452168
9	0xbf966fbd	-1.175285
10	0xbed3a174	-0.41334116
11	0xbd9f6e89	-0.07784755
12	0xbec5daf0	-0.386436
13	0xbef79297	-0.48354027
14	0xbf0e08cb	-0.55482167
15	0x3f3ac208	0.7295232
16	0xbd91d1b1	-0.071200736
17	0xbefb7993	-0.4911619
18	0xbd90e60d	-0.07075129
19	0x3f08baf1	0.5341025
20	0xbec02790	-0.37530184
21	0xbf1417de	-0.5784892
22	0xbf0750dc	-0.52857757
23	0xbed55874	-0.41669047
24	0xbd9b9d22	-0.0759833
25	0xbeabca01	-0.33552554
26	0xbebd196f	-0.36933467
27	0xbd7d1318	-0.061785787
28	0xbeae0f0b	-0.33995852
29	0xbd1d41b8	-0.038392752
30	0xbed81223	-0.42201337
31	0xbdb3b378	-0.08774465
32	0xbefc92d6	-0.49330777
33	0x3ca6f33f	0.02037966
34	0xbef889ba	-0.48542577
35	0x3d9a4552	0.07532753
36	0x3fe125f5	1.7589709
37	0xbeb23b98	-0.3481109
38	0xbc147521	-0.009061129
39	0xbeb9061a	-0.36137468
40	0xbeca8bc8	-0.3955977
41	0xbef31df9	-0.47483805
42	0xbd83c2d6	-0.064336464
43	0xbc0982d0	-0.008393005
44	0x3f0b9ca9	0.5453592
45	0xbecb1acb	-0.3966888
46	0xbf201c3a	-0.6254307
47	0xbeeff19e	-0.46864027
48	0x3f662857	0.89905304
49	0x3c3a0163	0.01135287
50	0xbf003b02	-0.5009004
51	0xbb47c675	-0.003048328
52	0x3d067d0c	0.032834098
53	0xbee85e91	-0.45384648
54	0xbf15800b	-0.58398503
55	0xbeb65e9a	-0.3561905
56	0xbeb834f7	-0.3597791
57	0x3cb50a21	0.022099556
58	0xbf0e7a13	-0.5565502
59	0xbc05ba62	-0.008162113
60	0xbd309e60	-0.04311979
61	0xbed8a663	-0.42314443
62	0xbee476f2	-0.44621998
63	0xbed29234	-0.4112717
64	0x3c8e5ae0	0.017377317
65	0xbca32440	-0.019914746
66	0xbecd8139	-0.40137652
67	0xbd0f448a	-0.034977473
68	0x3ef2351f	0.47306153
69	0xbeee88ac	-0.46588647
70	0x3bb579af	0.0055381875
71	0xbca033e3	-0.019555992
72	0x3d9acdad	0.07558761
73	0x3cc4c1b9	0.024018155
74	0x3e236279	0.15955533
75	0xbeb92245	-0.36158958
76	0xbda8f56f	-0.08249938
77	0x3dab3973	0.08360567
78	0xbef25091	-0.47327092
79	0xbedc9806	-0.43084735
80	0xbec93920	-0.39301395
81	0xbe1f607c	-0.1556415
82	0x3f1b56a0	0.60679054
83	0xbf0d4dbc	-0.5519674
84	0x3eb31c39	0.3498247
85	0x3db839a7	0.08995371
86	0xbee6dd8f	-0.4509091
87	0xbeb6682d	-0.35626355
88	0xbd9e23aa	-0.07721646
89	0xbed0b8b9	-0.40765932
90	0xbf051c3f	-0.51996225
91	0xbee7290f	-0.45148513
92	0xbec0c63f	-0.3765125
93	0xbf000760	-0.50011253
94	0xbf0fc9bc	-0.561672
95	0xbf12c3eb	-0.573302
96	0x3d39c91a	0.0453578
97	0xbcd5399c	-0.026028447
98	0xbebf76e1	-0.37395385
99	0xbec453ea	-0.3834527
100	0xbe5bb231	-0.21454693
101	0x3eef2e10	0.4671483
102	0xbd5528ea	-0.05204097
103	0x3f99723f	1.198799
104	0xbf0addd3	-0.54244727
105	0x3f5342cc	0.825238
106	0xbd90db0c	-0.0707303
107	0xbd5e1e9c	-0.05422841
108	0x3af0a300	0.0018359125
109	0xbee85141	-0.45374492
110	0xbd561dcb	-0.052274507
111	0x3cc0ecc3	0.023550397
112	0xbecfed05	-0.4061052
113	0x3d8600ab	0.06543096
114	0xbed13d61	-0.4086714
115	0xbf1c14bd	-0.60969144
116	0xbee3a3a1	-0.44460776
117	0xbd900c1c	-0.0703356
118	0xbeb5b91a	-0.35492784
119	0x3ea58ef5	0.3233563
120	0xbb99e62e	-0.004696629
121	0xbf068ec8	-0.52561617
122	0x3f97e3b0	1.186636
123	0x3f0f2ae2	0.5592481
124	0xbef31e53	-0.47484073
125	0xbd0799d9	-0.033105705
126	0xbf27f1fb	-0.6560361
127	0xbedcdf7a	-0.4313925
128	0x3f3ee01a	0.745607
129	0xbf155a3e	-0.58340824
130	0xbf15a653	-0.58456916
131	0xbdaf51c7	-0.0856052
132	0xbe15503c	-0.14581388
133	0xbf0833b7	-0.5320391
134	0x3f11d51e	0.56965816
135	0x3fa3e751	1.2804967
136	0x3d8e671d	0.06953261
137	0xbfc23ce9	-1.5174838
138	0xbf17b075	-0.5925363
139	0x3d944d4b	0.07241305
140	0xbf015f76	-0.50536287
141	0xbf01cf3a	-0.5070683
142	0xbf1227e5	-0.57092124
143	0x3f5f4e5d	0.8722895
144	0xbf3c05ad	-0.7344616
145	0xbf1b7725	-0.60728675
146	0x3cf8ebe4	0.030385919
147	0x3ed55ab4	0.41670763
148	0xbf07e136	-0.5307802
149	0xbf20b10e	-0.62770164
150	0xbf074b86	-0.52849615
151	0xbeda01fa	-0.42579633
152	0xbd3ca6c9	-0.046057496
153	0xbe9d5c88	-0.30734658
154	0xbee67912	-0.45014244
155	0x3d836f69	0.06417734
156	0xbf0654ad	-0.52472955
157	0x3d679b9d	0.05654489
158	0xbe461bfa	-0.1934661
159	0x3cd59e6c	0.026076518
160	0xbf0ec06f	-0.5576238
161	0x3db35e4a	0.087582186
162	0xbf078368	-0.52934885
163	0x3cb8a788	0.022540823
164	0x3fd2a78b	1.645738
165	0xbf0725f8	-0.5279231
166	0x3ce22a69	0.027608113
167	0xbf2139f4	-0.62979054
168	0xbed46328	-0.414819
169	0xbed26a00	-0.41096497
170	0xbd59b1ba	-0.05314801
171	0xbcfb13fd	-0.03064918
172	0x3e29674f	0.16543315
173	0xbf1991c5	-0.5998805
174	0xbee24318	-0.44191813
175	0xbf0ac9b5	-0.5421403
176	0x3f89d44f	1.0767916
177	0x3d1368a5	0.03598847
178	0xbe938079	-0.28808954
179	0x3cc9ca98	0.024632737
180	0x3d660430	0.056156337
181	0xbed3998d	-0.41328087
182	0xbe9ab2da	-0.30214578
183	0xbed527b1	-0.41631845
184	0xbea1241d	-0.31472865
185	0x3d3fae26	0.04679694
186	0xbefe4a05	-0.49665847
187	0x3cb1be3d	0.021697158
188	0xbcbe772c	-0.023250185
189	0xbea9ac34	-0.33139193
190	0xbebf3ca8	-0.37350965
191	0xbec6b2d6	-0.38808316
192	0xbd52fa4e	-0.05150824
193	0xbc63d7d3	-0.013906437
194	0xbed5d0b7	-0.417608
195	0x3d8e0cb9	0.069360204
196	0x3ef7675a	0.48321038
197	0xbe3f5bd6	-0.18687376
198	0xbd484748	-0.048896104
199	0x3c8e3a88	0.017361894
200	0xbd7193ed	-0.058978964
201	0xbbe00134	-0.006836081
202	0x3ebc8f22	0.36827952
203	0xbef58771	-0.47954896
204	0x3c31da8f	0.010855331
205	0xbcc0a98f	-0.023518352
206	0xbeb3492f	-0.35016772
207	0xbf05ad21	-0.522173
208	0xbf166609	-0.58749443
209	0xbe54852c	-0.20753926
210	0x3f0bc374	0.5459511
211	0xbefbdf31	-0.4919372
212	0x3e59be56	0.21264014
213	0xbd714e03	-0.05891229
214	0xbec7e51a	-0.39041978
215	0xbed439af	-0.4145026
216	0x3d8380ab	0.06421026
217	0xbebee5ff	-0.37284848
218	0xbef3ee70	-0.4764285
219	0xbefc7110	-0.4930501
220	0xbedbacce	-0.42905277
221	0xbef7cbd7	-0.48397705
222	0xbf0f06d6	-0.55869806
223	0xbeb0345a	-0.3441494
224	0xbd824888	-0.063614905
225	0x3d6bf670	0.057608068
226	0xbe41ae96	-0.18914255
227	0xbe85d7df	-0.2614126
228	0xbf082ba4	-0.5319159
229	0x3f5cad2f	0.8620176
230	0x3d0b8096	0.034058176
231	0x3f4cf56a	0.8006197
232	0xbeb15747	-0.346369
233	0x3f3b87c9	0.73254067
234	0xbaffb4db	-0.0019508855
235	0x3c1a6a9d	0.009424833
236	0xbc0f13d2	-0.008732753
237	0xbea0dfb0	-0.3142066
238	0x3c13a4d8	0.00901147
239	0x3d415244	0.047197595
240	0xbedf4105	-0.43604293
241	0x3d9ee2e9	0.077581234
242	0xbeb3249f	-0.34988877
243	0xbf033a10	-0.5126047
244	0xbf0f532a	-0.55986273
245	0x3cff1768	0.03113909
246	0xbf34b86c	-0.70593905
247	0x3d00fd3f	0.031491514
248	0x3d60cb76	0.054881535
249	0xbeb46abb	-0.3523768
250	0x3fb77b17	1.4334439
251	0x3f10c5e5	0.56551963
252	0xbef7c0db	-0.48389325
253	0xbf0b1d0c	-0.54341197
254	0xbeea1cbd	-0.4572505
255	0xbf0b7612	-0.54477036

fc3.bias f4 [4]
0	0x3d941a7b	0.07231613
1	0x3da00268	0.07812959
2	0x3d1ad7b3	0.037803363
3	0xbcee7993	-0.029110705
