models/model_run_12.pth (torch, 145937 bytes, 6 tensors)

fc1.weight f4 [256, 8]
00000000: ccc4 503e 6cc6 953e 1883 fbbe d56b 58bf
00000010: 6bd5 8e3e 1082 dd3d 4e8d eebd 1f22 00bd
00000020: 2c29 133e 702a fbbe 1a30 62be 1993 af3d
00000030: 8341 fc3d 1023 083f 0455 00bf 9e7a ae3d
00000040: 72e3 0b3f f44f d4be 8000 0e3f 599e a6be
00000050: f535 01bf 425d aabd ff54 903e d987 0b3e
00000060: 585d 17bf 2055 8dbe 86fe c7be ac4e 333f
00000070: cfd8 213f 4237 86be 80b4 663e 0727 9d3e
00000080: 6c9f bdbe 4410 383f d9c5 97be ef6e 2c3f
00000090: e5fd d73e af5a a53d 89c5 8c3e 2d48 62be
000000a0: ee22 873e 71b4 b93d 4dc4 103d 9ffb ffbe
000000b0: 142d 8bbd 72bb 2bbf f63c 37bf f968 f3be
000000c0: e009 a7bc 311e 93bf 1a67 57be 3fa0 49be
000000d0: 16a2 6a3e 54b3 6b3d 0be0 c63e 492c 74be
000000e0: 0139 b0bc 3b99 083f e7be 9ebe 1f4f f5be
000000f0: 59be fe3e 36bf b1be 6083 a43e 52b7 13bf
00000100: 55e1 93be 6a6b bc3e 5c55 633f 5115 953e
00000110: 6b9c f2bd d15f ea3e 395e cbbd 01eb b3bf
00000120: bfa9 8bbd 2fcc 0e3f d891 1abd 8b05 c6bc
00000130: b49f bb3e 2475 98be 3a3a 6ebe 7bbf 743e
00000140: 7493 b93d 0645 4fbf 1829 8e3f 4420 5ebe
00000150: 2982 163f bf8a 033f 22f9 26bd 68ee e63d
00000160: a803 21be 209a 803f 625e 29be 102c 8cbe
00000170: 43dc ca3e eb17 81be 5637 c3be d3e8 3ebe
00000180: c3c3 01be 53eb 823e 2139 4b3e fc63 79be
00000190: fc07 4ebe de3c 2c3f d1ac 42be 0b81 2cbf
000001a0: 7ddf da3e 4792 613d 2af1 ff3e 12d7 d7be
000001b0: 9253 96be b304 abbe a54b 543e 0489 8abe
000001c0: d7aa d33c a2a5 df3d 09ef bbbe c072 0abe
000001d0: 2ee5 a8bd 961e 92bd 1317 973e 3c0e 7f3e
000001e0: 4635 5cbf 8aa4 d1bd 75bc 4fbf 6e9d 2fbf
000001f0: 2bc3 dcbb 068a 6b3e ac79 a1be b21e 2ebf
00000200: a271 f4be 8336 f2be 8b9f 95be 3c1c 5dbe
00000210: 34ee 8c3d 78d2 e93d 6dd3 cf3e 9b41 e23e
00000220: da66 11be aeb8 4a3d b381 13be 3f1b 5dbe
00000230: 3d4d c9be 6c89 2abf d196 763e da58 24be
00000240: 1615 c4be 46b7 53be 8c3d da3e 8adb 17bf
00000250: 24f5 65bf bf62 c5be 500e 8e3d c03d 32bf
00000260: e98a a9be 74fb 2b3f 4874 2c3e 6894 1abe
00000270: 06f5 a7be 5f34 673a 127f 60be 43bf 723d
00000280: fa02 4b3f 2664 52be ee5c 803e f058 68be
00000290: b2fd 44be b616 2bbe be1f 003f 45aa babd
000002a0: 09f7 92bd 8b90 fdbe 3f5a 083f f5df babe
000002b0: ce63 08bf 70ea b6be 6d6e c33e 5f75 b83e
000002c0: 42c7 ccbb b181 3bbf 0d07 c73e 7c87 c9be
000002d0: fa2a cdbe d50f a1be 976b 683e 3c26 e43d
000002e0: 5aee 11be de41 be3f fe3e 533d 65e2 06bf
000002f0: 5a46 3c3e 425d 60be 6b77 85bf 0890 98be
00000300: b168 8fbe ac19 67bf a775 65be ea16 c9be
00000310: dbb9 ff3e 80f8 c63d ace1 ef3d 9329 183d
00000320: bc52 113f fb69 c4be 9c32 0f3f 7e85 f1bd
00000330: d72f 15bf 152f ad39 8339 bebe a5cf c53e
00000340: 2549 063f 9748 0abf f48f 383f 5e58 a0be
00000350: 6846 00bf 2b13 abbe 1286 043e e2fe 913e
00000360: 1683 44be 0afd 963e 547b cbbe 0e6e 45bf
00000370: c0f1 883e 7cf0 cd3d 01aa 87be 2f82 823e
00000380: b265 4abe d49d 58be 0b84 d73e 69e7 833d
00000390: 6515 a0be 7220 05bf 4360 963e 54a3 873e
000003a0: c221 13bf b1be b6be cb9d 44be 1a41 2bbd
000003b0: 2362 de3e 4b61 303e 0c60 ac3d bbf6 483e
000003c0: 44db c83e cb99 82be 9b61 123f c12b 333e
000003d0: a3ec f83d 74e1 e43d 79e1 e63e df8d 50bf
000003e0: 58ba 08bf 2574 85bf 0f37 4bbf 2174 13bf
000003f0: f717 823e 2101 97be 7e35 5d3e 0b9f 08be
0.20387572 0.29252946 -0.49123454 -0.8453954 0.278972 0.10815823 -0.116480455 -0.03128254
0.14371175 -0.49055815 -0.22088662 0.085729785 0.12317183 0.531785 -0.50129724 0.08519481
0.5464393 -0.4146725 0.5546951 -0.32542685 -0.50472957 -0.08318569 0.28189847 0.1362604
-0.59126806 -0.27604008 -0.39061373 0.7004192 0.6322145 -0.26214033 0.22529793 0.30693838
-0.37035692 0.7189982 -0.29643133 0.6735677 0.42185894 0.08073937 0.27494457 -0.22097845
0.26393837 0.090676196 0.035343457 -0.4999666 -0.06795707 -0.67082894 -0.71577394 -0.47541025
-0.020390451 -1.1493589 -0.21035424 -0.19690035 0.22913393 0.057544068 0.38842806 -0.23845018
-0.021511557 0.5335881 -0.31005022 -0.47911927 0.497546 -0.34716195 0.3213148 -0.577016
-0.28882852 0.368007 0.88802123 0.29117826 -0.118462406 0.45776227 -0.09930081 -1.4056093
-0.06819486 0.5578031 -0.037736744 -0.024172565 0.3664528 -0.2977687 -0.23264399 0.23901169
0.090613276 -0.80964696 1.1106291 -0.21691996 0.5879236 0.51383585 -0.040764935 0.11275941
-0.15724051 1.0047035 -0.1653991 -0.27377367 0.3962117 -0.2521356 -0.38128155 -0.18643503
-0.12672333 0.25570163 0.19846012 -0.24354547 -0.20120233 0.67280376 -0.19011237 -0.67384404
0.42748633 0.05507114 0.4998868 -0.42156273 -0.29360634 -0.33402023 0.20731981 -0.2705766
0.025838299 0.10920264 -0.36705807 -0.13520336 -0.082468376 -0.0713474 0.29509792 0.24907774
-0.8601879 -0.102364615 -0.8114694 -0.68599594 -0.006737133 0.2300187 -0.3153814 -0.6801559
-0.47742945 -0.47307214 -0.29223284 -0.21592802 0.06881371 0.11417097 0.40590993 0.44190678
-0.14199391 0.04949253 -0.14404945 -0.21592425 -0.3931674 -0.6661594 0.2408097 -0.16049519
-0.38297337 -0.20675382 0.42625082 -0.59319365 -0.8982718 -0.385519 0.06936324 -0.69625473
-0.33113793 0.6718056 0.16841233 -0.15095675 -0.32804126 0.00088197546 -0.21923473 0.059264433
0.79301417 -0.20546016 0.250709 -0.22690177 -0.19237402 -0.16707882 0.50048435 -0.091145076
-0.071760245 -0.4952434 0.53262705 -0.3649899 -0.5327729 -0.35725737 0.38170186 0.36027047
-0.0062493393 -0.7324477 0.38872567 -0.3936118 -0.4007185 -0.3145739 0.22697292 0.11140105
-0.1425108 1.4863851 0.051573746 -0.526892 0.18386212 -0.21910575 -1.0427068 -0.29797387
-0.2800956 -0.9027355 -0.22408162 -0.39275295 0.49946484 0.09715366 0.11712965 0.037149023
0.5676687 -0.38362107 0.559366 -0.1179304 -0.5827612 0.0003303221 -0.37153253 0.38634983
0.5245536 -0.54017013 0.72094655 -0.3131742 -0.5010743 -0.33413061 0.12941769 0.28514773
-0.1919063 0.29489928 -0.3974253 -0.77121055 0.2674694 0.100556344 -0.2649689 0.25489947
-0.19765356 -0.21153957 0.42092928 0.06440622 -0.31266323 -0.5200263 0.29370317 0.26491797
-0.57473385 -0.3569236 -0.19200818 -0.041810133 0.43434247 0.17224614 0.08416757 0.1962537
0.39229786 -0.2550796 0.57180184 0.1749716 0.1215451 0.11175814 0.45093897 -0.8146648
-0.5340934 -1.042607 -0.7938089 -0.57599074 0.2540891 -0.2949305 0.21602437 -0.1334192

fc1.bias f4 [256]
00000000: 20d8 6b3e 9a16 5c3d eb14 083d fbfc d5bc
00000010: 4ef6 323f e06e 2e3e 1178 0d3f 2c01 cabd
00000020: 6f02 0d3e b80f 143f 7ad8 7cbd ad2e 963e
00000030: 1123 3a3a 0faa 9b3e 8423 233f c1a7 a23d
00000040: 314a 88be 8631 f9bb d00e dcbe b25b 283f
00000050: 98a6 acbd ae65 dbbd 693b 95bd 2c00 0a3d
00000060: 384d b83c 155b 66be 0c2e 163d 0f93 c93d
00000070: 798e 9f3e dddf dd3e 222d 95be 8435 c6be
00000080: f1d1 0d3f 3cca c73e 9367 313f b39b 143f
00000090: 4b38 1fbe 15f5 a13e 9314 d53d d7ac a13d
000000a0: dbdb 85be 4253 473e 9a50 10be f937 2bbb
000000b0: 1c9e b83d 36f9 1e3f 5bd6 8e3c 5e73 f9bd
000000c0: 7b5a 873e 5eff 2e3d 48a2 cfbd 6036 d1be
000000d0: c471 033f d8c7 773e 4c25 39be 5856 5d3e
000000e0: 4c84 7c3e 470b 4bbe c4d9 8abe 2752 d23e
000000f0: f0cd 27be cedd dc3e 87ce 9cbe 9a74 a33e
00000100: ab59 a63e b468 8c3e f1c9 3abe 0353 413f
00000110: 200b 89bc 498f 693e b972 62be 6b76 823e
00000120: de3a 7c3e 42dc 7ebe 28a0 1f3d 0547 c43e
00000130: b8eb 973e 8bfb bd3e 41de 953e 4c7a 23be
00000140: 58d8 cdbe 409e 203e ac62 d0be d74a 983e
00000150: aa38 d43e 4d5f 0ebe 312c 443f ef5f 883e
00000160: 191f 9e3e be79 383f de1e 3a3e 0f6d 093f
00000170: 6c18 e23e 3292 4a3e bdbf 2e3d ff88 3c3e
00000180: c31c 5fbe 8e2b df3e f4d5 d33e 199e fb3e
00000190: 7a46 99bd a4a8 21be 5702 be3e 2920 043f
000001a0: 74a6 81be 526d 6e3e 922b 5e3e 5868 103f
000001b0: b177 9cbe 88cf 123e 7c52 d5be f52f 7e3e
000001c0: b4de 06be 829c 983e 113b a0be be1e 87be
000001d0: 3139 eebe c917 eb3e 30c6 ac3e 274c 2bbe
000001e0: 769e b3be d0ba a03d 1891 863e 457f 27bf
000001f0: e888 86be 8c3a 6d3e 9181 ac3e bcb3 e6bd
00000200: 3f23 3dbd bd56 aabd 58bc 41be a5c5 f83e
00000210: 910e a43e d606 c33b e178 783e 0c6f 8ebe
00000220: bff2 0dbe ebe1 8bbe cf81 c4be 780e 53bd
00000230: aca8 9d3e f018 39bd d9c3 72bd c274 953e
00000240: 8eb3 493e ef32 9a3e 417f 1ebf ebbd 9b3e
00000250: d5fd 983e 9e2a 1fbe acba 8a3e 0917 7e3d
00000260: cfec 2a3f c11d 0fbd 7d7e 833e c991 3cbe
00000270: 818c ab3d 47dd 64bd bbf3 0c3f 9186 91be
00000280: 2487 313d cb85 453e 2b6c 8dbe d3bd 0ebe
00000290: 3cd6 51be f848 363f d014 ea3d 4c65 9f3e
000002a0: ebb1 0d3f e03c e23e 4249 143f 36dd 003e
000002b0: d2ea 053f 97f6 313f 0bdd 92be 7ca6 9cbb
000002c0: c2cf 22bc 0725 f03e 326f 65be e756 bf3e
000002d0: dd21 42be 1652 19be 1043 d6be 649d 9c3e
000002e0: c7f5 15bd 359d 4ebc 3a5f a03e de6a 883d
000002f0: 2342 8abd a432 85be 5611 523e 0203 27bd
00000300: 629a 77be 1234 c83e a37b 903e 079f d23e
00000310: d332 74be 3da8 983e d0fe 083f 2243 2d3f
00000320: 448b ce3d 0f69 893e 1540 4d3e 0cfd dbbd
00000330: 2b64 93bc 4635 f9bc c534 d23e 91d3 053f
00000340: 0fb8 8dbe a090 88bd 469f 233f a429 5a3e
00000350: 3bcc afbe 798f bdbe bd41 f93e d010 133f
00000360: 2158 a93e ad4f e33b a902 2e3e dc76 a83e
00000370: 77bc d13d 02f0 a23e a853 71be c957 973d
00000380: b73a 02bd 4d50 3abd 15b8 40bd ed2e a0bd
00000390: 4b35 8b3e f4b2 043e 4c2b ba3e cc5c 513e
000003a0: 6f2c b0be efea 023f 42c8 9fbc 1661 dd3e
000003b0: b80e 833e 766b 8e3e cb54 fe3e 280f be3e
000003c0: 13a4 35be 1338 3d3e 6949 81be 9587 3dbe
000003d0: 873e 033e 6a07 4cbd 3c2e c43e c264 3d3e
000003e0: 4828 663e 9915 1e3f a2cd 27be ef9e b1bd
000003f0: 4eec 573e b886 ca3e 24f5 32be fa51 e53d
0.23031664 0.053732492 0.033223074 -0.026121607 0.6990708 0.17034483 0.5526133 -0.09863505
0.1377046 0.57836485 -0.061729886 0.29332486 0.0007100562 0.30403182 0.6372607 0.07942153
-0.26619104 -0.0076047806 -0.4298005 0.65764916 -0.08430213 -0.10712753 -0.07286722 0.03369157
0.022497758 -0.22495683 0.036665007 0.09842502 0.31163386 0.43334857 -0.29135996 -0.38712704
0.5539847 0.3902148 0.69298667 0.5805008 -0.15548818 0.31632295 0.10404315 0.07894295
-0.261443 0.19465354 -0.14093247 -0.0026125892 0.09014532 0.62099016 0.017436197 -0.12180208
0.2643622 0.042724006 -0.101383746 -0.40861797 0.5134547 0.24197328 -0.18080634 0.21614969
0.24659842 -0.1982852 -0.27119267 0.41078302 -0.16387153 0.43137974 -0.30626318 0.31924897
0.32490286 0.27423632 -0.18241097 0.7551729 -0.016728938 0.22808565 -0.22114076 0.2548097
0.24631831 -0.24888709 0.038971096 0.38335434 0.29672027 0.37105975 0.2927113 -0.15964621
-0.4020412 0.15685368 -0.4070028 0.29744598 0.4144948 -0.13903542 0.7662993 0.26635692
0.308831 0.72060764 0.18175837 0.53682035 0.44159257 0.19782332 0.042663325 0.18411635
-0.21788315 0.43587917 0.4137417 0.49144056 -0.074841455 -0.15786988 0.3711116 0.5161157
-0.25322306 0.2328389 0.21696308 0.56409216 -0.30560067 0.1433698 -0.41664493 0.24822982
-0.13170892 0.29806906 -0.31295064 -0.26390642 -0.4652801 0.45916584 0.33744955 -0.16728269
-0.35081834 0.07848132 0.26282573 -0.6542857 -0.26276326 0.23166865 0.336926 -0.1126475
-0.04617619 -0.08317325 -0.18919504 0.4858829 0.32042363 0.0059517426 0.24264862 -0.27819097
-0.13862132 -0.273208 -0.38380286 -0.05152747 0.3079275 -0.045189798 -0.059268806 0.29190642
0.19697401 0.30116984 -0.61912924 0.30418333 0.29881158 -0.15543601 0.27095544 0.062033687
0.6676759 -0.034940485 0.2568244 -0.18414988 0.08376408 -0.05587509 0.55059403 -0.2842298
0.04334177 0.19289319 -0.27621588 -0.139396 -0.2049188 0.7120509 0.11429751 0.3113197
0.55349606 0.4418707 0.5792428 0.12584385 0.5231143 0.6951689 -0.28684267 -0.0047805887
-0.009937229 0.4690325 -0.22405699 0.3737099 -0.1895823 -0.1497272 -0.4184804 0.3058883
-0.036611345 -0.012610723 0.31322652 0.06661008 -0.06750896 -0.26015198 0.20514426 -0.040774353
-0.24179986 0.39102226 0.28219327 0.41136953 -0.23847513 0.29815856 0.53513813 0.6768056
0.100851566 0.26837966 0.20043977 -0.10741624 -0.0179921 -0.03042091 0.41055885 0.5227595
-0.27679488 -0.0666821 0.63914907 0.21304947 -0.34335503 -0.37023523 0.48682967 0.5744753
0.3307505 0.0069369883 0.16993202 0.32903183 0.10241025 0.31823736 -0.23567069 0.073897906
-0.031794276 -0.045486737 -0.047050554 -0.078214504 0.27189097 0.1295889 0.36361158 0.20445555
-0.344089 0.5113973 -0.01950467 0.43238133 0.25597167 0.2781636 0.49674067 0.37120938
-0.1773837 0.18478422 -0.2525132 -0.18508752 0.12816821 -0.049811758 0.38316524 0.18495467
0.22476304 0.61751705 -0.16387036 -0.08672892 0.21086237 0.39555907 -0.17476326 0.111972764

fc2.weight f4 [128, 256]
00000000: a1d5 823e cfec fcbe d4c3 863d 4bc2 72bd
00000010: 1edb 34bf 2a09 a73d 3696 e0bc 223f 613d
00000020: f85c f6bd d4fc c0bc 130f 6b3d c9df f93d
00000030: fc74 8b3e 0fdc bd3c 88b3 7ebc 5bfc 9fbd
00000040: 8128 103e f828 0a3e 5d50 fcb9 5613 7bbd
00000050: db2c ee3d d0ba 423e f027 303d 7458 003f
00000060: 82ca 673e d67c bbbe 5944 e13d 61bb 803e
00000070: 87b3 343e acc6 1b3d e03f e13e ed37 bc3e
00000080: 1349 da3d 5055 e3bd 7684 4bbf 2963 d43c
00000090: 5507 973d 0712 e8bd d53f f53e f775 593e
000000a0: 9c7d 003d ec7d bfbe 46a2 023e 6d3a b53e
000000b0: 5d8d 76bd c6e0 c73c a7fa acbe 1946 a63d
000000c0: a977 903e f826 953d b67a 573e 2eb6 033f
000000d0: e9c4 a23d e481 eabe 231b 1f3e cf22 793e
000000e0: e5fa 60bf f2c8 60be 01a1 d6bd 044f b63d
000000f0: 20a6 8d3b a9e8 543d 231e a23d e917 1b3e
00000100: ceed a63e 4e16 3fbc 8149 afbc de9b 613c
00000110: 90cb 0b3f 6f5d 113e 2dd5 9d3e c613 ec3d
00000120: f924 443e 26d5 d63d bb05 c43d 1a83 113e
00000130: 1a61 043e b93d 563e 1e31 aa3e 68e6 663e
00000140: 7315 f03e b9f0 b33e d1aa 41bf 661a bdbe
00000150: 0b4a 0dbd ff90 203f 29f2 92bf f18a 0f3e
00000160: b6c1 b03d b2f8 c6bc c0f1 fc3e 670e 813d
00000170: ce0f 8f3e 1351 303e 602c 23bc 29d0 8dbe
00000180: dcb6 b53e 5c97 3abf cb2a 6c3d 94a1 0d3d
00000190: 75cc e6be 86ed a93e e4ae d43d 4781 2e3d
000001a0: 3e32 223e 4427 0fbf a314 a53e 2ad1 f9bd
000001b0: 5237 91be 1e9a 5d3d e5b9 723e 30b9 93be
000001c0: 8b45 1c3e 2a5e 5d3c 7f37 b3bc b701 903e
000001d0: 5228 773e 718d 853d 8c28 923d d025 353e
000001e0: dba2 943e 74d6 a3be 392f 3f3e 95ca 53be
000001f0: 0dee 8ebd 37f9 703e 0333 ba3d f5e4 d03d
00000200: 75cb 973d 11a4 0f3d b7d6 b03e 90ff 913d
00000210: d409 07bf 5b50 94be 0c95 343c 78a0 5b3e
00000220: a3db 3b3d 1168 9f3e fa6b 20bf 4689 2ebd
00000230: 24cf 893d 1cb1 723d dd4c ad3e a691 9dbe
00000240: bca8 343e b03c 8e39 5168 e53e 2016 883d
00000250: 7c85 303e ad40 eb3d ad8a a83d c822 ba3d
00000260: d1b1 dcbe e612 c13c ff93 ee3c f5d4 0cbe
00000270: bcf8 cdbe d58f 0dbe 044d 6cbd 72b8 b13d
00000280: dd38 01be 7f32 d93e 6e01 6e3e 20f5 daba
00000290: d6a4 853e 231c 48bf 7d16 6abd 28b8 963e
000002a0: 492a f3bd 880e 063e 2d2c b33c 39e0 f2bc
000002b0: d716 aebc f3d6 03be cb5b 00bf 742f 7b3e
000002c0: 2764 88bc f51d ac3d 0542 a33d d125 d33d
000002d0: b7eb 7dbe 1dec 303e 3549 b4be a62c c2ba
000002e0: 2107 e03e 27f9 003f 4ca0 8abd 0b9a c63e
000002f0: 96ca af3d e894 99bc 1359 94bc 8905 793e
00000300: 83c9 f13e fa1c fcbd 52d6 3b3e 45cf 1b3e
00000310: 15e8 933d 56a8 15be cba7 3f3d 6554 3fbd
00000320: 4e6a 7cbe aeb0 91bc 3aa6 d6bc d393 873d
00000330: f1b5 1a3e 45ab 4a3e 7174 24bf eac6 10be
00000340: 234c 5f3d add4 463d 83d3 6abd d6ec 23bd
00000350: a078 943e a417 87be c36b 2f3e 4dd0 c73c
00000360: 53ef 2dbf 79bc 2c3e a13e 9ebe 0d6e 893c
00000370: bbd5 8e3e a75b ba3d e3cb 8c3e 8fce f83d
00000380: 1d50 293e 8173 943e 3fe7 003e 4e1a ff3d
00000390: b683 853e 1325 463e f858 a33c 2e47 c43d
000003a0: 1ab8 d23d e83e 20be 6b3d 023e aa82 96be
000003b0: 7002 373e 727f 0e3e d517 cbbe 8b06 223e
000003c0: 6dd6 92bd 5120 b2bd 4cc0 94bd b6cc f13d
000003d0: ede5 9fbe b13f 453d 70a9 583e 365a d63d
000003e0: 2c5c 503e f974 d93c 2159 af3d 3c98 1c3e
000003f0: 452d fbbe 7c94 4abe 3b3f 083e 9b06 3b3e
0.2555361 -0.4939942 0.0658032 -0.059267323 -0.70646846 0.08156045 -0.027415376 0.05499185
-0.12029451 -0.023558058 0.057387423 0.12200887 0.2723769 0.023176221 -0.015545733 -0.07811805
0.14077951 0.13492191 -0.0004812506 -0.061297737 0.11629649 0.19016576 0.043006837 0.5013497
0.22635844 -0.3661868 0.109993644 0.2514296 0.17646609 0.038031265 0.43994045 0.36761418
0.10658469 -0.111002564 -0.79498994 0.02592619 0.07374445 -0.113315634 0.47900262 0.21236406
0.03136979 -0.37400758 0.12757215 0.35396138 -0.06019341 0.024399173 -0.33784983 0.08118839
0.28216293 0.07282823 0.21042904 0.5144986 0.07947714 -0.45802224 0.15537696 0.24329685
-0.87882835 -0.21951655 -0.10479928 0.0890179 0.004322782 0.051979695 0.079159044 0.1514584
0.32603306 -0.011663033 -0.021397354 0.013770072 0.54607487 0.14195798 0.30826703 0.11527209
0.19154729 0.104898736 0.095714055 0.14210168 0.12927666 0.20921983 0.33240598 0.2254883
0.46891364 0.35144594 -0.7565127 -0.36934203 -0.03449444 0.62721246 -1.1480151 0.14017846
0.086306974 -0.024288509 0.4940319 0.06301575 0.27941746 0.17218427 -0.00995931 -0.27697876
0.35491073 -0.72887206 0.057657998 0.03457792 -0.45077863 0.33189029 0.1038492 0.042603757
0.15839478 -0.5591929 0.32242307 -0.12198098 -0.2836252 0.054102056 0.23703726 -0.28852224
0.15260904 0.01351122 -0.021877049 0.28126308 0.24136475 0.065211184 0.0713664 0.17690206
0.290305 -0.31999552 0.18670358 -0.20682748 -0.06978998 0.23532568 0.09091761 0.1019992
0.07411853 0.035068575 0.34538814 0.07128823 -0.5274937 -0.28967556 0.011021864 0.21447933
0.04586376 0.31134084 -0.6266476 -0.042611383 0.06728962 0.059250936 0.33847705 -0.30775183
0.17642492 0.00027129566 0.4480615 0.06644845 0.1723842 0.11486945 0.08229575 0.09088665
-0.43104413 0.023568582 0.029123304 -0.13753112 -0.40228832 -0.13824399 -0.057690635 0.08677758
-0.12619348 0.42421338 0.23242733 -0.0016705133 0.26102322 -0.78167933 -0.057150353 0.29437375
-0.118733 0.1309148 0.02187165 -0.029647933 -0.021251125 -0.12874965 -0.50140065 0.2452982
-0.016649319 0.08404151 0.079715766 0.10309947 -0.2479695 0.1727757 -0.35212103 -0.0014814332
0.4375544 0.50380176 -0.067688555 0.387894 0.08583562 -0.018747762 -0.01810888 0.24318518
0.47224054 -0.12310214 0.18343475 0.15215786 0.072220005 -0.14614996 0.04679088 -0.046711344
-0.24649927 -0.017784443 -0.02620231 0.06619992 0.15108468 0.19791897 -0.64240175 -0.1413838
0.05451597 0.048542667 -0.05733062 -0.040020786 0.2899828 -0.26385224 0.17130952 0.024391318
-0.67943305 0.16868772 -0.30907157 0.01677611 0.27897438 0.090995125 0.27499303 0.12148773
0.16534467 0.28994372 0.12588213 0.12456189 0.2607705 0.1935008 0.019939885 0.09583889
0.10289021 -0.15648997 0.12718742 -0.29396564 0.17872024 0.13915804 -0.3966662 0.15822808
-0.07169805 -0.0869757 -0.0726324 0.11806624 -0.31230107 0.048156444 0.21158385 0.10466425
0.20347661 0.026545035 0.08561922 0.15292448 -0.49057975 -0.19783205 0.1330537 0.18264239

fc2.bias f4 [128]
00000000: 9d91 52bd 6abc 303e e37e 29be 4016 663e
00000010: 30a3 be3d eb34 f33e edeb 0dbe 9e86 e23e
00000020: 70b7 18bd b8eb b0bc 8f7d fbbd 5fdd 1a3e
00000030: 982f 54bd ab18 173b f391 993d 76b8 1ebe
00000040: 06c3 35be 2f20 693d 0b4b 9abc 1ac6 08be
00000050: 847c a6bd 74de 18be f228 403d 3771 1e3e
00000060: 5139 1bbe d76d b2bd 80c8 a13b 4cdb a53e
00000070: f24c 65be 5ca1 3abe bf23 c53d 099d 663c
00000080: 06ce 6fbc 2785 a2bd 3d1c 013f 8d5d fc3d
00000090: 0343 d2bd 8153 4fbd 2fd8 8b3e 8faf aebd
000000a0: 6ff0 073c 4ac9 94bd 2a96 ee3d b824 883d
000000b0: 839c 833c 7f52 aa3c aaca 993c 0fcd 9f3c
000000c0: 8bd6 803e 9a32 353e 3efa 333d 0c63 cbbd
000000d0: c74e 813e dc39 2fbe 71c9 053e ed8c c2bd
000000e0: 18c4 1f3d 3cb8 813d 452e bf3d 6b42 d83d
000000f0: f5f2 fc3d 6f9d 34be 25f8 a63d 6400 c53e
00000100: 9d85 673e 885a dc3d c857 103e c3f2 8c3c
00000110: a21e 82bc fa3f 00be e1a2 a93b 8fc0 84bd
00000120: f794 8cbc b408 193c f68d 5c3e 11a5 da3d
00000130: 6df6 80bd 8989 06be c833 fc3e 5264 38bc
00000140: 062f d4bc 8017 bfbd f152 79bd da28 853d
00000150: b0b1 c03d dc6d ed3d 1af7 4fbe 9ebc d93d
00000160: fb40 a43c 9136 8a3e 9bc1 cbbd 480a 3a3e
00000170: 3f20 853d c2de b0bc ae20 40be d5b9 c73d
00000180: 4fc8 64bd 4a01 423e 5966 0c3d 9df0 3abe
00000190: 2596 6a3d 3405 ce3e 0c01 c03e 9759 753c
000001a0: 472e 8a3e b586 373d c4ab 00be 9c3f 0abe
000001b0: 6fe9 a7bd b6b2 3a3e 35d9 abbd 6d30 6dbe
000001c0: 475f c2bd 0955 cdbd 959b 92bd d409 16bd
000001d0: c141 2ebe 03e0 103e 64aa 80bd dc3e 19be
000001e0: 0225 47be decb 6fbd ffa4 d93d b574 06be
000001f0: c5b4 08be 9369 83bd 13c6 49be 1729 113b
-0.0514084 0.17259374 -0.1655231 0.22469425 0.09308469 0.4750131 -0.1385953 0.4424333
-0.037284315 -0.021596774 -0.12279808 0.15123509 -0.0518032 0.0023055475 0.07498541 -0.15500054
-0.17750177 0.05691546 -0.018834611 -0.1335682 -0.08129218 -0.14928609 0.04691405 0.15472876
-0.15158583 -0.087123565 0.0049372315 0.32393873 -0.22392634 -0.18225616 0.09625959 0.014075526
-0.014636522 -0.07935553 0.50433713 0.12322531 -0.10266688 -0.050616745 0.27313372 -0.08529579
0.00829707 -0.07264955 0.11649735 0.066476285 0.016065842 0.02079129 0.018773396 0.01950696
0.25163683 0.17695084 0.04393982 -0.09931001 0.25255415 -0.17111915 0.13065125 -0.09499536
0.03900537 0.06333968 0.09334997 0.10559543 0.12351028 -0.17638181 0.081527986 0.3847686
0.22609563 0.10759455 0.14095986 0.017205602 -0.015883747 -0.12524405 0.0051768874 -0.0648204
-0.017160876 0.009340454 0.21538529 0.10676015 -0.06297002 -0.13138403 0.49258256 -0.011254387
-0.025901329 -0.09330654 -0.060870115 0.065019324 0.09408891 0.1159322 -0.20309106 0.10631679
0.020050516 0.26994756 -0.09949037 0.18167984 0.06500291 -0.021590594 -0.18762466 0.097522415
-0.05585509 0.18945804 0.034277294 -0.18255849 0.057272095 0.40238345 0.375008 0.014974973
0.26988432 0.0448062 -0.12565523 -0.13500828 -0.08198821 0.18232235 -0.08391038 -0.23163004
-0.09490829 -0.10025985 -0.07158581 -0.036630467 -0.1701727 0.14147954 -0.062824994 -0.14965385
-0.19447711 -0.058544032 0.10627174 -0.13130458 -0.13350208 -0.06416621 -0.19704466 0.0022149736

fc3.weight f4 [4, 128]
00000000: a2ba ffbe e21b 99be da51 afbe f072 393f
00000010: 7a57 433f 648f 7c3f 256e cebe c7cb 713f
00000020: 927d 853c 986c 88be 7373 8ebe 0ef6 a33f
00000030: 216c 703d ea15 9b3e c6ed 223f d38f c5be
00000040: ac68 dabe 8368 73be 5107 a23d 54cd c4be
00000050: 0e8e c03c 4376 3bbe 2b22 a23d b87b abbe
00000060: e6d9 a0be 3bd0 b8be 54e4 303d 1b9c 773f
00000070: faa1 91be 2492 cfbe ebb5 833f e038 823d
00000080: c568 8fbd 1bac dcbe 7447 3c3f 7205 b3be
00000090: ad38 f1be 9728 c2be 5e22 873f 3ebd adbe
000000a0: cbf7 93be 9194 77bd 6c03 89be 18f0 1a3f
000000b0: a0e1 253d 6bc2 473d 4b95 9c3d bc51 9abd
000000c0: ddcb 9e3f 44ef 343f 5bde 053d 296c e5be
000000d0: 1bba 1f3f 81ff d3be a289 353e 492c bfbe
000000e0: 1f9b adbe cea2 9ebe 4dd0 9fbe 7f72 a5be
000000f0: e03d abbe 55aa 77be c786 42bf ec08 683f
00000100: 4248 3c3f 3065 c03e ddfb 74bf f532 8a3d
00000110: 6804 a03d 1a13 ddbe 7686 a83b cc69 42bd
00000120: 4a9a ca3d 89cf 193c 8786 493f 8f62 753b
00000130: 0f4f 9bbe ec5d 42be 14b8 203f d962 f7bd
00000140: a7dc 52be 5036 e0be 030b ffbe f624 a5be
00000150: 22cb 603f 5575 9a3e f9f8 17be 7430 1dbe
00000160: 9e09 a7be a769 133f 9be1 1dbe f366 03bf
00000170: 3580 e5bd e299 f93c dea6 c6be ca8f 943f
00000180: e2f5 d4bc b5ce 9c3f 8163 b5be 5758 b7be
00000190: cbe8 97be cab8 423f 3e82 183f 1356 47bd
000001a0: 470b 8a3f 112f 723d 3982 e7be 328e c0be
000001b0: 1500 d4be ad62 783f f9ac 34bc 17de a5be
000001c0: bb9a ab3f 4567 73be 90a7 ccbe 3066 1abf
000001d0: 37be ddbe f1ec 93be 996a 9c3d 8168 babe
000001e0: 717a dcbe b0c9 bd3c f0bb 1e3f faaf a5be
000001f0: 7fab 02be 5184 f1bc 5136 8fbe d048 a4be
00000200: 7098 e03b 705c 3abe c865 a4be 8467 0c3f
00000210: c7d4 9f3f 8ac0 5f3f 6fee b7be 6541 303f
00000220: 4b27 92bb 5106 21bf 0091 bfbe a6a0 9d3f
00000230: e358 593d 1f48 9b3e b36e ee3e 1c7b efbe
00000240: e5cd 07bf 2f24 60be 9938 523d 71a2 43be
00000250: 6421 863d dca9 9dbe 37fc 663d 0002 a4be
00000260: 7627 14bf f873 ccbe 4ead c43c 06fb 793f
00000270: 8e1f e1be 1dc5 51be 91af 523f 8d98 72bd
00000280: 0024 0e3f 4c33 4fbe 3231 6a3f e644 89be
00000290: 9083 b7be f074 b1be 5180 813f 1271 a4bd
000002a0: 371f 0dbf 2c74 913d 2255 bbbe af5c 4a3f
000002b0: f4b7 5b3d 8504 21bd 1a84 62bc e547 4ebd
000002c0: d5df 5f3f 3f90 853f 72b9 26bd eb7b c6be
000002d0: 8308 0c3f e3fd adbe c19a 573e 59be bebe
000002e0: 0b26 9ebe d7d3 cebe 9bb6 91be 9a45 0bbe
000002f0: 0988 19be e28b 83be 1f27 5fbd 650d 4d3f
00000300: a480 763f d564 2ebe efb4 d8be a7e8 a6bc
00000310: 846b a93c 1b5a d9be df3f 5c3d 4b57 a63d
00000320: 7854 e6bd 9f95 133f 2d0f 573f eb63 b6be
00000330: a3dd aebe 61c0 6abe 4675 4a3f cdb3 cdbe
00000340: 27dd 90be 31c6 fdbe 448b cfbe 8db1 bebe
00000350: 5508 7f3f 63f3 61be 96d7 ccbe 103b cebe
00000360: 0da5 04bf 0dfd bd3e 4eb8 acbe 1b9a 5cbe
00000370: ecee 00be a15b 333c 88db e3be 4a2b b53f
00000380: 4dc9 533d 8188 a73f 85fb 54be ff7e 89be
00000390: e6a3 d2be 4e72 1e3f a2fa 493f 00ff ecbb
000003a0: bf42 263f ae1e 2e3d 5221 09bf 0158 c4be
000003b0: 739a a9be ce15 263f 5fcc 86bd bde5 d4be
000003c0: d3ed 9a3f 79c1 e4be 9a8b a4be b446 fbbe
000003d0: c75f e9be 0021 cfbe 07d2 a1bd b0d9 76be
000003e0: 9c8c 9fbe 4c32 8bbc 98e2 ad3e a6c4 15bf
000003f0: e164 cfbe 144a 4dbe eb44 febe 37f3 f83d
-0.49947077 -0.29904085 -0.34242135 0.72441006 0.76305354 0.98656297 -0.4031841 0.94451565
0.016295228 -0.2664535 -0.27822456 1.2809465 0.05869687 0.30290157 0.63644063 -0.38586292
-0.42657983 -0.23770337 0.07911552 -0.38437903 0.023505237 -0.18306832 0.07916673 -0.33492827
-0.31416243 -0.36096367 0.0431865 0.96722573 -0.2844389 -0.40541184 1.0289892 0.06358504
-0.07002405 -0.43100056 0.7354653 -0.34965092 -0.47113553 -0.37921593 1.0557363 -0.33933443
-0.2889999 -0.06044442 -0.26760423 0.60522604 0.040498376 0.048769396 0.07645663 -0.07535121
1.2405964 0.7067759 0.032682758 -0.44809082 0.6239335 -0.41405872 0.17728284 -0.37338474
-0.3390741 -0.30983585 -0.31213608 -0.32313916 -0.33445644 -0.2418607 -0.75986904 0.90638614
0.73547757 0.375772 -0.9569681 0.067480005 0.078133404 -0.43178636 0.005142982 -0.047464177
0.098927096 0.009387859 0.787209 0.0037442779 -0.30333754 -0.18981141 0.6278088 -0.120794006
-0.20591985 -0.43791437 -0.4981309 -0.3225476 0.87809956 0.30167642 -0.1484107 -0.15350515
-0.32624525 0.5758309 -0.15418093 -0.51328963 -0.11206094 0.030468885 -0.38799185 1.1606381
-0.025996152 1.2250582 -0.35427478 -0.35809585 -0.29669794 0.76063216 0.59573734 -0.04866607
1.0784692 0.059126917 -0.4521654 -0.37608486 -0.41406313 0.9702557 -0.011027568 -0.32396004
1.3406595 -0.23769863 -0.3997159 -0.60312176 -0.43309185 -0.2889171 0.076375194 -0.36407855
-0.43062165 0.023167461 0.6200552 -0.32360822 -0.12760733 -0.029482039 -0.27971128 -0.32086802
0.0068541095 -0.18199325 -0.32108903 0.5484545 1.248681 0.87403166 -0.35924098 0.68849784
-0.0044602505 -0.62900263 -0.37415314 1.2314651 0.053063285 0.30328462 0.46568832 -0.46773612
-0.53048545 -0.21888803 0.051323507 -0.19104935 0.065493375 -0.30793655 0.056392875 -0.32032776
-0.5787271 -0.39932227 0.02400842 0.97648656 -0.43969387 -0.20485349 0.82299143 -0.059227515
0.5552368 -0.20234412 0.91481316 -0.26810378 -0.35842562 -0.3465953 1.0117284 -0.08029379
-0.55125755 0.07102236 -0.3658839 0.79047674 0.05364223 -0.03931095 -0.013825441 -0.050361533
0.87450916 1.0434645 -0.0407042 -0.38766417 0.5470049 -0.33982763 0.21055128 -0.372546
-0.308884 -0.40395996 -0.2845963 -0.1360077 -0.149933 -0.2569266 -0.05448067 0.80098563
0.9629004 -0.17030652 -0.4232554 -0.02037461 0.02068115 -0.42451558 0.05377185 0.081221186
-0.1124658 0.5765018 0.8400753 -0.35623106 -0.3415347 -0.22924949 0.79085195 -0.4017624
-0.28293726 -0.4956527 -0.4053594 -0.37244835 0.9962209 -0.22065501 -0.4000823 -0.40279436
-0.5181435 0.37107125 -0.33734363 -0.21543162 -0.12591141 0.010947139 -0.44503427 1.4153836
0.051705647 1.3088533 -0.20799072 -0.26854703 -0.4114067 0.61893165 0.7889806 -0.007232547
0.64945596 0.042509727 -0.5356647 -0.38348392 -0.33125648 0.6487702 -0.065819494 -0.41581526
1.2103828 -0.44678858 -0.32137758 -0.4907738 -0.45580885 -0.40454865 -0.07901388 -0.24106479
-0.31161964 -0.016991757 0.3396194 -0.58503187 -0.40506652 -0.2004779 -0.49661955 0.121557645

fc3.bias f4 [4]
00000000: ea8c e53b 7b02 db3d 05b9 3c3e cb5e 66bd
0.0070053237 0.106938325 0.18429954 -0.056242745
