models/model_run_13.pth (torch, 75729 bytes, 6 tensors)

fc1.weight f4 [128, 8]
00000000: 2db8 f13e d328 2c3e 8336 41bf b15f 1d3f
00000010: 6e46 9cbf d591 b93e 7a80 943a 7a27 4a3f
00000020: 66e7 943d a4f0 9f3c 32f8 953e f75d 94be
00000030: 87d1 1fbf 784c b0be 45c4 7fbe b773 543f
00000040: fc57 cd3e e1d4 cabd 5d9a d13e 82dc 20bf
00000050: fec4 0dbf c395 0abe a7e9 3d3d 8849 fc3e
00000060: 52ab 733e 52a9 01bf a85b 983e 841f 8dbe
00000070: 18aa 7cbf 5438 6ebe abab 783e 5bab 9ebd
00000080: 9a68 d0be 5017 0b3f e411 06bf 7a44 b1bf
00000090: 52f7 963e e833 6f3e 1191 b23d 7683 cebd
000000a0: 1237 5bbe 5952 d83c 8cff 50be f1bf afbd
000000b0: 57c1 b5be fd22 40bf 2843 69bd e6df 963e
000000c0: 402a 5dbe c9f8 13bf db61 b8be 2231 173e
000000d0: 12be ad3e 535d cd3e 8279 8b3e d104 51bb
000000e0: 680a 2f3e 8120 04bf 6403 263f a04e f73f
000000f0: 4cc0 88be dafd d73d 5da4 623f 233a d1bc
00000100: 82e2 563d 6446 03bf 41d8 333f 2752 0040
00000110: 7f58 44be e74a 173e d5e5 743f 1056 e8ba
00000120: 2e23 253d fb2a 0f3f b797 fb3c e538 393f
00000130: 74a9 3a3f 33ae 663e 8367 ef3e e7f3 7ebe
00000140: 8d56 56be 8a5a a1bd f32c 18bf 19fd 07be
00000150: a76a af3e 8c5c 003f 2db7 1e3f 7a8e 0d3f
00000160: 9703 16bf 1447 443f fd63 dcbd 6bbd c5bd
00000170: 5819 91be f906 01bd 7234 673e e1d0 843e
00000180: f852 39bf b299 513f e271 d4bc a3a9 91be
00000190: c409 083f 4985 bbbd 2e17 8a3e b2b2 2e3f
000001a0: 71fc 8fbd 903b a3bf f840 18bf 1c46 39bf
000001b0: c57e a83e a150 ba3e dc9d 83be 330c 313e
000001c0: 77e0 4bbf 4436 7dbd 203c d7be 67a8 d8bc
000001d0: 2728 853e 0e44 cdbe 9b44 303d c913 1a3f
000001e0: 44cb 923e 908c 4ebf d2ba be3f fb93 9bbe
000001f0: 76c2 54bd 82ee f7be a60f 9e3b 487c d23e
00000200: 0bda 8d3e 9f22 dabd a90f 283f 399c d1be
00000210: c28e 25bf 4f90 aebe dee4 e43d 8937 343f
00000220: 45d3 e53d b1eb df3d f00f 8b3c 2aec 1bbf
00000230: d00b 2dbe 4771 0abf 8314 3dbf 0ebe 46bf
00000240: 833c 1ebe 83e0 06bf c407 02be 8a5b 9ebf
00000250: 0e15 193d 9045 1d3e 85a4 23bf cc84 9cbf
00000260: 1079 dbbe f61a 193e cff8 a9be ba8e 363e
00000270: b39c ffbe 4156 94be 4b31 33bf 8e1d 883e
00000280: 2963 22bd 801f a8be 9f8d b3bd 6795 cb3f
00000290: d8fb 4a3f 9cfe 453e 619d 20be 7f5c 0f3f
000002a0: 9111 073e cb61 b43e fbb0 91be 15db 163d
000002b0: 5ed3 f5bc b185 ce3a 58db 503e 556d 4d3e
000002c0: d120 d8be fb15 2d3f 893b a3be 66b5 03bf
000002d0: afc9 37be 6770 973f 5173 3c3f f457 c7be
000002e0: 7600 aebe 8c62 bc3e 1257 ea3d 5274 bdbd
000002f0: 0793 453f 60a5 233f f28e 25bf 93ae d5be
00000300: d49c f03e f39b 043f 2eb5 ac3d f2a4 6d3f
00000310: b2fe 3ebf 53d7 bebe 33bb bd3e 6be2 723e
00000320: 9ead 5f3f 4984 d4be 0d71 f7be 6e9d ebbd
00000330: 2c94 b73e 45da a23e da50 61bc ca2f 56bf
00000340: 440a 613d 857a efbe 1058 e8be b976 803e
00000350: 71a3 15be f9dd 383f 3b66 f0be 0e37 163f
00000360: 0905 3b3d e9b0 16be 392e 33be 8146 afbd
00000370: 86b1 fb3e d930 683f a24c ce3e 2168 2dbf
00000380: 851a d33d eb30 97be db49 b6be 01f4 53bf
00000390: 13ce a93e 1d30 713e 85e1 ac3c 5f2c 983e
000003a0: 4a07 f53e 5f8f b33e 5f5a 1cbe eec2 ddbe
000003b0: 0770 a5be 83f0 35bf e06f 293d 8a92 5b3e
000003c0: 14d0 873e df60 40be 5e2b 153f 7d2d 16bf
000003d0: 74bd 60be 6cf6 8abe bf11 0ebd 3e73 c63e
000003e0: f54f a63f 2c3c c43e 856f 563f bf51 eebe
000003f0: 7d2c cd3e 12b7 cd3c 4333 673e b85a 2a3d
0.47210827 0.16812448 -0.75473803 0.6147414 -1.2208993 0.36244074 0.0011329793 0.78966486
0.07270698 0.019523926 0.2929092 -0.2897794 -0.6242909 -0.3443334 -0.24977215 0.82989067
0.4010619 -0.09903885 0.40938082 -0.6283647 -0.5537871 -0.13533692 0.046365406 0.4927485
0.23795822 -0.5064899 0.29757428 -0.27563107 -0.9869704 -0.23263675 0.24284236 -0.07747527
-0.40704805 0.5433245 -0.5237105 -1.3849022 0.29485565 0.23359644 0.087190755 -0.10083668
-0.21407726 0.026406454 -0.20409983 -0.08581532 -0.3549907 -0.7505339 -0.05694881 0.29467696
-0.21598148 -0.5780149 -0.36012158 0.14764836 0.33934075 0.40110263 0.2724114 -0.003189374
0.17093813 -0.516121 0.64848924 1.932087 -0.2670921 0.10546465 0.8853205 -0.025540417
0.05246211 -0.5127928 0.7025185 2.0050142 -0.19174384 0.14774667 0.95663196 -0.0017725844
0.040316753 0.5592496 0.030711992 0.7235244 0.72914815 0.22527389 0.4675866 -0.24897729
-0.20931454 -0.07878597 -0.5944359 -0.13280143 0.34261057 0.50141215 0.61998254 0.55295527
-0.5859923 0.76670957 -0.10761259 -0.09655269 -0.28339648 -0.03150079 0.225786 0.25940612
-0.72392225 0.81875145 -0.02593321 -0.28449735 0.531399 -0.091562815 0.2697081 0.6824142
-0.07030571 -1.2752552 -0.59474134 -0.72372603 0.32909217 0.3638964 -0.25706375 0.1728981
-0.7963938 -0.06181933 -0.4203806 -0.026447488 0.26007196 -0.40090984 0.043034177 0.6018644
0.28670704 -0.8068323 1.4900763 -0.30386338 -0.051943265 -0.48424155 0.004823643 0.41110444
0.27705416 -0.10651135 0.65648896 -0.409395 -0.64670956 -0.34094474 0.111764655 0.7039724
0.11221937 0.109336264 0.016975373 -0.6090723 -0.16899037 -0.540791 -0.73859423 -0.7763375
-0.15452771 -0.5268633 -0.12698275 -1.2371686 0.037373595 0.15358567 -0.6392291 -1.2228026
-0.428658 0.14951691 -0.33197638 0.17827883 -0.4992424 -0.28972057 -0.6999709 0.26585048
-0.039645348 -0.32836533 -0.087672465 1.5904969 0.79290533 0.19335407 -0.15685035 0.5600051
0.13190295 0.3523086 -0.28455338 0.036830027 -0.030008014 0.0015756396 0.20396173 0.20061238
-0.42212537 0.67611665 -0.3188136 -0.5144867 -0.1794803 1.1831177 0.7361346 -0.3893429
-0.33984727 0.36793935 0.114423886 -0.09250702 0.7717747 0.6392422 -0.6467124 -0.41734752
0.4699465 0.5180046 0.08432995 0.9282981 -0.74607384 -0.37273654 0.37056884 0.23719184
0.87374294 -0.41507176 -0.48328438 -0.11504637 0.35855234 0.3180715 -0.013752187 -0.8366667
0.05494143 -0.46773162 -0.45379686 0.25090578 -0.14613129 0.72213703 -0.46952996 0.58677757
0.0456591 -0.14715923 -0.17498101 -0.085583694 0.49158877 0.90699536 0.4029284 -0.67737013
0.103077926 -0.2952951 -0.35603222 -0.82794195 0.33165035 0.2355351 0.02110363 0.29721352
0.47857124 0.3507032 -0.15268849 -0.43312782 -0.32312033 -0.71070117 0.041366458 0.21442619
0.2652594 -0.18786953 0.582693 -0.5866316 -0.2194727 -0.2714113 -0.034684893 0.38759798
1.2993151 0.38327157 0.83763915 -0.46546742 0.40073004 0.025111709 0.22578149 0.041590422

fc1.bias f4 [128]
00000000: e2fd 23be a7fe adbe 70dc c0be 331a f43e
00000010: 4cea a6be f467 e4be 3e73 c03e 750c 17bf
00000020: 9ff5 02bc 8bf9 efbc d90f 3cbe f226 d0bd
00000030: 00b9 b8be 0bfe 113e 0139 babd 52b5 483d
00000040: 673b e9be 4f8f 5d3e 8599 74be 48ee dc3e
00000050: bfbd b6be 177a 0c3f 2cc2 f33e 644d 9cbd
00000060: 128d 943e af0c 1a3f 67c6 133f fe54 823d
00000070: 59f5 eebe b7e6 63bf 3e4f 5fbe 775b 31be
00000080: ae30 65bd b86d 1f3f 4838 803d 1a62 003f
00000090: b2e4 133d 82fd 3fbe 9e9f 0d3f 0795 083f
000000a0: a97e 093f a430 a83e 3653 87be 31f0 0dbf
000000b0: 7085 913e 3047 c4bc 6009 a2be 41d1 183f
000000c0: 3c0f 273e 7799 233f fcf5 f23e 5624 733f
000000d0: ca75 71bd 64c3 b7be f33e 833f 0ddd 873e
000000e0: ed4e db3e 8647 333e fe61 e5be 121c 5e3d
000000f0: 5388 c6be 6df2 033f d9be d5be a3d5 223f
00000100: 9b0c 18be 6470 853d 08ff e53e ec3a 8c3d
00000110: b026 f83e 476f ff3e 25c0 ad3e a81d 3d3f
00000120: 1c7b cbbe e656 043f 4f39 893e 716d b73e
00000130: da11 203e f619 b63e 910a 51be 5960 b03e
00000140: 2273 dbbd b937 dcbe 1fe8 90be 973a 453f
00000150: dcd9 7e3f 915d ee3d 1d1a f2be 59c6 d9bd
00000160: 3637 133e 4c61 b2be 811d 25bf 9723 523f
00000170: 38dc 95be ebab 01bf 0e7d 61be 7d36 2e3f
00000180: fd3d 54be 32c7 2b3f aeb5 f3bd a1de e13e
00000190: 43a6 243f bb3b be3d e71d 04bd 71d4 b4be
000001a0: 28c4 803e 5af7 ef3d 327a 3c3f f1cb 82be
000001b0: 7a9c 83be 3d39 a23e 1322 483f ecd5 a53e
000001c0: 704a 02bf c97e 043f 198d be3e 2411 07be
000001d0: aa3a cebe e324 17be b51e d73e aa41 013f
000001e0: c3fa e4be 9192 80be 00ff 223f 5313 70be
000001f0: 05b7 113f 7575 f23e 7df4 0a3f 476d 10be
-0.16014817 -0.33983347 -0.3766818 0.47676238 -0.3260063 -0.4461056 0.37587923 -0.5900338
-0.007993131 -0.029293796 -0.1836542 -0.10163678 -0.36078644 0.14257066 -0.09092904 0.049001046
-0.45553133 0.21636699 -0.23886688 0.43150544 -0.3569164 0.54873794 0.4760908 -0.076319486
0.29013878 0.60175604 0.5772461 0.06363867 -0.4667156 -0.8902392 -0.21807572 -0.17320047
-0.055954628 0.6227679 0.06260735 0.5014969 0.036106773 -0.1874905 0.5532168 0.533524
0.53708893 0.3284961 -0.26430672 -0.5544463 0.28422117 -0.023959726 -0.31647778 0.59694296
0.16314405 0.63906044 0.47453296 0.9497732 -0.058950223 -0.3589126 1.0253586 0.26535836
0.42833653 0.17507753 -0.44801325 0.05422599 -0.38775882 0.5154179 -0.41747168 0.63607234
-0.14848559 0.065155774 0.44921136 0.06847176 0.48467016 0.49889585 0.33935657 0.73873377
-0.39742362 0.51695096 0.26801535 0.35825685 0.1563181 0.35566682 -0.20414187 0.34448507
-0.10715319 -0.43011263 -0.28302094 0.77042526 0.9955118 0.1163894 -0.47285548 -0.10633535
0.1437653 -0.34839857 -0.64498144 0.82085556 -0.29269576 -0.5065295 -0.22020361 0.6805189
-0.20726772 0.6710082 -0.11899887 0.44115165 0.64316195 0.092887364 -0.03225508 -0.3531833
0.25149655 0.117171004 0.73623955 -0.2554622 -0.2570532 0.31684294 0.78176993 0.32389772
-0.5089483 0.5175596 0.37217024 -0.13190132 -0.40279132 -0.14760165 0.42015615 0.5049082
-0.44722566 -0.2511182 0.6367035 -0.23444872 0.5691989 0.47355238 0.5427931 -0.14104186

fc2.weight f4 [128, 128]
00000000: 05b8 503c 2571 913d 8286 0c3d c52d d33b
00000010: 406b 20bc e1b3 d4bc d49a ca3b f9cb a33d
00000020: 5540 883c 806d 083d daa2 57bd a7cf ddbd
00000030: a2ef 753d 2a71 5ebd df90 8f3c 555b 353d
00000040: 69af b3bd a313 8c3d 2ecb 73bd 536b 7a3c
00000050: 0e79 533d db93 65bd 5c99 dcbd 4c6c 99bd
00000060: 2e21 67bd a057 2e3d a1ef b6bc d4ca 9c3c
00000070: 76f8 a5bd 5f5b a23d 7d9e 98bc f018 243c
00000080: f1f0 87bd 5ffa bfbd 07bb 31bd 7c4c 6b3d
00000090: dfe9 8b3d 3cd4 ee3c 135c b3bd ff84 013d
000000a0: d591 26bd fd1e 7e3d 92bb 8e3c 5701 af3c
000000b0: 0cec b4bc 6843 5bbc 0cbe 63bd 27af abbd
000000c0: 7c38 70bd 2c20 23bd fcf4 36bc 45f6 89bd
000000d0: b8ac 983d 4230 c1bd 652f 403c 0aab 70bd
000000e0: 44da de3a f4d6 a5bc 7103 98bd bb2c 073d
000000f0: 5655 acbd 3c42 b9bd 4276 55bd d872 6d3d
00000100: e718 b0bc 7082 b23b 8f80 7ebc 3c98 343d
00000110: be7a 60bd 8575 f43c 5f20 b33c b27f 18bd
00000120: 88e3 563c b839 d83c 8e07 903d 8fcc afbd
00000130: eec4 423c 7d88 10bd ba0a c1bd ee6e 513d
00000140: cc2e 3ebd e9c8 8a3d 0280 803d 3748 693d
00000150: 0d2c 303d 5885 89bd e820 24bd 272f 83bd
00000160: b2f3 90bd fcbb c63c a807 4dbd bfa6 b0bd
00000170: 5da8 6dbd 56ce 693d c0af 90bc d7ba 663b
00000180: 24d9 fabb 3047 63bc 2c61 55bc 4931 b4bd
00000190: b17b 9bbd ac4c f9bc 8445 c63c 90a3 45bc
000001a0: 0e41 d8bc e376 1a3d c213 5dbd 4e41 ddbc
000001b0: f1e7 afbd 3702 973d 17a4 c0bc 3d18 90bd
000001c0: f01d c63c 5494 a1bd af77 49bd 0e87 abbd
000001d0: 365c 683d 7732 9b3d 140d 41bd ef01 183d
000001e0: 7fb6 95bc d209 1dbc 702d b2bd d861 e3bc
000001f0: b0d4 ba3c cb54 a73c 05ec 983c 372b c0bd
00000200: 8096 0dc0 c33b 963e ee33 323e 9607 163d
00000210: b8f5 5bbf f8b0 2e3f 2bad e5bf fc9a 793f
00000220: 1600 a9be ad0d 11bf 1965 99bf 25d7 4cbf
00000230: d66b 1bbf 08c9 cbbe 8b20 463f ca3b 1f3f
00000240: d198 093e aadc b93d 1e6e 4ebf 84f9 eebe
00000250: ddff a1be a2c3 1cbf 9183 afbf 52e2 0e3d
00000260: 209a 423f 3ed6 31bf a71f 2dc0 51a5 92bc
00000270: dc5c d4bd e3e0 a53f 5abe e3bc 44bb 81bf
00000280: 61c4 953f bcc4 043e b74c 82bc cc42 853e
00000290: 83b2 7b3e 6c5d d2bd 9815 04c0 48a2 b83e
000002a0: 66b3 77bf adcf 6b3f 301e 94bf f8b1 9b3e
000002b0: c046 47bf 7bd9 8ebf 6984 653e 48ff 02c0
000002c0: 2057 dcbe b4fe 103e f431 84be 4c05 d7bd
000002d0: 551a eabf 702e 65bb fdb9 a3bd 6ec2 e53e
000002e0: feb0 e63e 0126 353f 451d d23e c6ad 01c0
000002f0: 46c1 12be e123 2ac0 05ea ebbd 933c 79bf
00000300: 71f1 783d dbfe 52bf ccfb 84bf e657 55bf
00000310: 5640 8ebf b48a 1d3f 9157 4dbf 7517 80bb
00000320: 9351 4fbe 2b3f e73e 357c eebf 6667 14be
00000330: 573b 37c0 9f7f 853e 0784 44bf 0035 02bf
00000340: 4e9f 4ebe e28e 10bf 811e 963e 2e0a 06bf
00000350: bf68 9c3e 9dcf d6bb d717 103f 7211 a73c
00000360: 2d80 acbd 2463 f43e c722 ff3e 4142 e4be
00000370: 8b99 05c0 3f57 0f3c 1564 fbbd a832 683d
00000380: a975 96bf 5da1 b4bf 8d76 a6bf 3b76 d2bf
00000390: f4fd 6bbe eb4b d2be 3ce4 34bf ff6a 953d
000003a0: 5e7f 0abf b851 803f e181 09be 144a 5d3f
000003b0: 7b2c fe3b ad7e d7bf 056d 78bd 62b2 8ebf
000003c0: 0270 d43d caf1 bfbe d445 b5bf ccc4 debc
000003d0: fafb 4abd fb33 dabd 2f28 46bf e23b 3e3e
000003e0: 2417 95be 156d 053f cc55 91bf 9a6a 673d
000003f0: 0981 44be 894c a3bf 2490 5b3e 29cc acbc
0.012739186 0.07101659 0.034307964 0.006444665 -0.009791195 -0.02596468 0.0061830077 0.07997889
0.016632238 0.033307552 -0.05264554 -0.10830622 0.060042985 -0.05430714 0.017525135 0.044276554
-0.08773691 0.06839683 -0.05951994 0.015284377 0.05162912 -0.05604921 -0.107714385 -0.07491359
-0.056428127 0.042564034 -0.02233106 0.019139685 -0.08104031 0.07927584 -0.01863026 0.010015711
-0.06637753 -0.09373926 -0.043391254 0.057445988 0.06831717 0.029153936 -0.08757796 0.031620976
-0.04066642 0.06204127 0.017423425 0.021362944 -0.022085212 -0.01338277 -0.055601165 -0.08383017
-0.058647618 -0.039825603 -0.011166807 -0.06736425 0.074548185 -0.094330326 0.01173005 -0.058756866
0.0017002304 -0.0202441 -0.074225314 0.033001643 -0.08414714 -0.09045836 -0.052114733 0.05797085
-0.02149625 0.0054476783 -0.01553358 0.044090495 -0.054804556 0.029841194 0.021866022 -0.037231155
0.013115771 0.02639471 0.07032691 -0.08583938 0.011887772 -0.035286415 -0.09425874 0.05113118
-0.046431348 0.06776602 0.062744156 0.056953635 0.04301076 -0.067148864 -0.040070444 -0.06405478
-0.07077731 0.02425956 -0.05005613 -0.08625554 -0.05802189 0.057081543 -0.01766193 0.003520658
-0.0076552797 -0.013871953 -0.013023656 -0.08798463 -0.07591952 -0.030432068 0.02420307 -0.012062922
-0.026398208 0.037711035 -0.05397392 -0.027008679 -0.08589161 0.07373469 -0.023515744 -0.07035873
0.024184197 -0.078896195 -0.049186405 -0.08375369 0.056728564 0.07577985 -0.047131613 0.03711122
-0.018275497 -0.009584861 -0.08700073 -0.027756616 0.022806495 0.020426175 0.01866723 -0.093832426
-2.2123108 0.2934247 0.17402622 0.03662833 -0.8592181 0.6823878 -1.7943472 0.9750211
-0.33007878 -0.5666149 -1.1983978 -0.80015785 -0.6071142 -0.39801812 0.77393407 0.62200606
0.13437201 0.090752915 -0.80636775 -0.4667474 -0.3164052 -0.6123601 -1.3712026 0.034883805
0.76016426 -0.6946753 -2.705057 -0.017901095 -0.10369274 1.2959255 -0.027800728 -1.0135274
1.1700555 0.12965673 -0.015905721 0.26027524 0.24579816 -0.10271725 -2.063818 0.3606131
-0.96758115 0.92113763 -1.1571712 0.30409217 -0.7784233 -1.116012 0.22413792 -2.0468311
-0.4303522 0.14159662 -0.2581936 -0.10499057 -1.8289286 -0.0034970306 -0.07994459 0.448749
0.4505691 0.70761114 0.41037956 -2.0262313 -0.1433154 -2.6584399 -0.11519245 -0.97358054
0.06077713 -0.8242013 -1.0389342 -0.8333725 -1.1113384 0.6153977 -0.8021174 -0.0039090463
-0.20245962 0.4516538 -1.8631655 -0.14492568 -2.8629968 0.2607393 -0.7676396 -0.5086212
-0.20177957 -0.5646802 0.29320148 -0.5235928 0.30548665 -0.006555511 0.56286377 0.02039406
-0.08422885 0.47731888 0.4983122 -0.44581798 -2.0874965 0.008748828 -0.122749485 0.056688935
-1.1754657 -1.4111744 -1.3004929 -1.6442331 -0.23046094 -0.41073546 -0.7066076 0.072957985
-0.54100597 1.0024939 -0.13428451 0.8644116 0.0077567673 -1.6835533 -0.060650844 -1.1148188
0.10372926 -0.37489158 -1.4161935 -0.02719345 -0.04955671 -0.10654446 -0.77405065 0.18577531
-0.29119217 0.5211957 -1.1354308 0.056498148 -0.19189848 -1.2757732 0.21441704 -0.021093445

fc2.bias f4 [128]
00000000: 77a2 9cbd 5b4b 1ebf 9952 183e 5880 773f
00000010: a3e0 82bd 0dad 2dbe 3bad ca3d d20e 0b3e
00000020: d3e0 0cbd 0f09 883d 34f9 3e3d a7bf 403d
00000030: 632c 2e3d 05bd 7cbe 2e8d 6cbe 638d 263e
00000040: 9514 77be 0b24 8bbd 682a 583e 8b95 86be
00000050: 2cb1 4bbd fadb f4bd 7f25 1d3e 7874 b93e
00000060: 97fc c7bc db0b b2bd 1e92 d3bc a2f4 383e
00000070: 445d 823e 6064 3fbe f734 9ebe c4ec 0cbe
00000080: 9262 c8bc b4f3 013d 605b 563d a468 8a3d
00000090: a55c 01bf 83ba 083e f5c6 403f f4c6 2ebd
000000a0: b2f3 25bd 8e8a 72be 3a28 03bd 9575 c5bd
000000b0: 849c c43d 5955 70be ad90 90be 7375 cf3d
000000c0: b132 953e a1b5 abbd 8660 373e 0f3a 50be
000000d0: ee15 f73e f9f5 6dbe e205 123e 21c3 0c3e
000000e0: 4c65 debd 4023 62be 4437 743d 45e0 963d
000000f0: 4905 34be 7fcf c4bc 1cc4 2ebd a921 2b3d
00000100: 0168 29bd c675 4f3e 5fbd 78be d2c7 ddbb
00000110: 2e7d 22be f630 9e3b f286 c2bd ba91 d93d
00000120: c885 f0bd 6929 a73d cc61 0fbd d358 1ebe
00000130: ceb5 62be 2fc5 a3bc e9cf 2e3d d9a9 59be
00000140: aa9f 833d 90cc 063e 9379 21bc 72c1 b8bc
00000150: e7d5 55bd 7ab2 a03e 3d68 47bb 8c2d 133e
00000160: 146a 15be 53b7 a43d 781f 443e 3322 37be
00000170: f371 75be a8e3 7f3d 6568 6a3f de9e 80be
00000180: da93 733d d2f4 d9bb d459 8ebc 968c 6f3d
00000190: c3f8 893b c564 56bd 592f f23c b898 87bd
000001a0: c3c8 1ebe 41b8 64bd 10d0 b23d 0e0e 973c
000001b0: 63fb 77be 33e0 5bbf 988d 823f d7b3 e6bd
000001c0: e14b 9239 483d 0fbe 73d6 48be a3a3 1a3e
000001d0: 4ffd 003e cd18 d53c 7081 3ebc b093 cdbc
000001e0: 0172 523f 2cdb 03be d9f0 e53c ca32 83be
000001f0: 1cbe febd 75dd 82be 669d 1f3d f6e7 213d
-0.07648175 -0.61833733 0.14875259 0.9668021 -0.06390502 -0.16960545 0.09896322 0.13579872
-0.034394097 0.06642353 0.046624377 0.047057774 0.0425228 -0.2468148 -0.23100731 0.16264872
-0.24128945 -0.06793984 0.21109927 -0.26285967 -0.04972951 -0.1195602 0.15346335 0.3622167
-0.024412436 -0.086936675 -0.02582651 0.1806207 0.2546178 -0.18690634 -0.30899784 -0.13762194
-0.024461064 0.031726554 0.052333236 0.0675824 -0.5053199 0.13352399 0.75303584 -0.042670205
-0.04051561 -0.23685667 -0.032020785 -0.096415676 0.096001655 -0.23470058 -0.2823538 0.101298235
0.29140237 -0.08384252 0.17907915 -0.20334648 0.4825892 -0.23238362 0.14260057 0.13746311
-0.108591646 -0.2208376 0.059623018 0.07366995 -0.17580141 -0.024024723 -0.042667493 0.041780148
-0.04135895 0.20259771 -0.2429099 -0.006768205 -0.15868065 0.004827614 -0.09498395 0.10623498
-0.11744267 0.08162195 -0.035005376 -0.15463571 -0.22139665 -0.019991485 0.042678747 -0.21256198
0.06426938 0.13163972 -0.009855646 -0.02255318 -0.052205946 0.31386167 -0.003042712 0.14372844
-0.14591247 0.08042779 0.1915263 -0.1788414 -0.2396925 0.06247297 0.91565543 -0.25121206
0.059467174 -0.0066514993 -0.017376818 0.058483683 0.004210563 -0.052342195 0.029563593 -0.06620926
-0.15506272 -0.05583978 0.08731091 0.018439319 -0.2421699 -0.85888976 1.0199461 -0.112647705
0.00027903824 -0.1398822 -0.19613056 0.15101485 0.1259663 0.026012802 -0.01162754 -0.025094837
0.82205206 -0.12876576 0.028068947 -0.25624686 -0.12438604 -0.25559583 0.038968466 0.039527856

fc3.weight f4 [4, 128]
00000000: b5fe 693d 44bc e73e af53 a6be 2db7 e13f
00000010: 1b85 2fbc c6b1 36bf 4bd4 abbe dca3 7b3e
00000020: 7697 56bf 4a7c 9dbe 227f 07bf f249 d4be
00000030: 08fa 89be 5bd2 37bf 4367 00bf 5f4f c3be
00000040: 4dda 23bf 3511 a0bc 2ac7 9b3f 57f2 2bbf
00000050: 4b33 853f b3e3 01bf 25b2 aa3f fc9b bb3f
00000060: 6276 303d 4d28 433d 7442 49be f4d1 96be
00000070: 7a39 863f 55b9 0abf 4372 0ebf 2914 15bf
00000080: 40a2 54bf c525 92be 60d6 64bc 4977 00be
00000090: 29d5 e83e 1376 403f fb70 d33f 81f5 9abe
000000a0: d360 8a3d 44f0 2abf 99a0 92be 0b1c abbd
000000b0: e539 aabe 944e 53bf ab49 43bf e381 95be
000000c0: 012c 893f a91b 503d 2fa2 0abf 6a58 09bf
000000d0: 39c7 833f 8c21 04bf 4488 9d3f 9b7c a4be
000000e0: 7814 a63c a943 dabe e917 6abc 422b 30bf
000000f0: 1c5d c83e 3cf5 cabe 46bc 28bf 85ca dfbc
00000100: 653b 08bf 09b2 21be 4a20 1fbf 7912 8f3d
00000110: f6d0 33bf d11c ccbe 5871 89bd e3d1 e63e
00000120: 7c05 57bf fd89 a6be 912d 18bf 68d4 57bf
00000130: 60c4 2fbf 34e1 13bf dafb e9be d63a 3abf
00000140: 9dda b0be ef9f a8be 723c 97bd 2410 57be
00000150: 2c54 8dbe debc 0e40 82f5 87be f39c 393e
00000160: 5a3d 5fbf e4a6 9dbe ce95 b2be 9172 1dbf
00000170: 8777 1dbf b3f5 ecbe 0bdb ed3f 8669 e83f
00000180: e6b2 90be 5f00 a6be df01 9c3d 0b69 98be
00000190: 9778 2fbd 8e52 863d 4374 a8bc fedb 6dbd
000001a0: 2270 1cbf 5c03 95bd bb6f fcbe e8f2 94be
000001b0: 245d 36bf 7dbb 663d 9205 d13f c56e 59bf
000001c0: 87f0 5fbd 2c21 3ebf 1f3d 25bf 9924 d6be
000001d0: 57f0 63be 3891 a73c 9312 943f bdd1 7abe
000001e0: f05d cd3f d5b8 30bf fe92 87be d9a9 27bf
000001f0: 1c79 4fbf f161 49bf 59bf 9ebe f3d5 f6be
00000200: e798 5b3d fac0 c1be 0748 d5be 9a52 db3f
00000210: c83e 3bbc c625 ddbe 7912 2bbe 68ca 033f
00000220: 6501 dbbe 217d d7be cb0b 03bf 2b8c a1be
00000230: 7db9 4ebe 7456 89bf dac4 5dbf 1ce5 77be
00000240: e7c1 2abf ae07 58bd 0611 683f 7538 f3be
00000250: 2f90 833f 9d0c 16bf fb56 cd3f 9ab6 8f3f
00000260: c08d bebc abee 4fbd c437 d4be b636 cebe
00000270: 4cc7 8b3f 68ff 2bbf 2e39 20bf 2d4a 5fbf
00000280: bc89 09bf c2dd 76be 4bbe 973d 9652 b1bd
00000290: 9d49 983f e80c 803f bf8c ef3f ac9d 53be
000002a0: a8cf b1bc f9ff 7dbf 4dd1 c4be 1de2 673d
000002b0: cf79 d2be 312f 19bf bb0c b3be b83e 27bf
000002c0: 21eb 843f fb28 eabc 73e1 44be 9308 3abf
000002d0: 0bbd b63f 07ae 6abf cff9 9c3f f2b5 c4be
000002e0: 9903 7c3d db1d 07bf 202f 80bd e2b5 1dbf
000002f0: 44bd 8c3e 80f6 89be f88a 11bf cd7b 663d
00000300: 3801 0bbf 377c 18bf 29b3 82bf 5db4 643d
00000310: 8ad3 5ebf 74fb 4dbe 8c0c 99bd fcac 0f3f
00000320: b718 fabe 6e3a 00bf 2f09 1cbf 6a53 3abf
00000330: 25fb f2be d763 3abf 39da 86be 3bd3 4ebf
00000340: ef3f 7dbe 389d dbbe daa4 d23c 1f31 89be
00000350: 5515 85be 1ab0 fc3f 7f68 d9be 9856 893e
00000360: 3bd8 40bf a1cc 2cbe e55e 57be 471a 6fbf
00000370: 6888 7cbf 809a 31bf 0755 e83f 0b26 f73f
00000380: e346 94be 4963 84be 5f99 9f3d 4475 b6be
00000390: 1d38 a43d a5bf 7abd 101f 013d cbba 30bd
000003a0: b72c 37bf 53ce 063d b9d0 ebbe efd9 b3be
000003b0: fd50 74bf 0f56 a73f 3432 ef3f 7ce3 59bf
000003c0: b020 4c3c 76c7 0abf 547f 4fbf 9ce2 8dbe
000003d0: 208d 8fbe 8890 123d 900f e43f 660e 61be
000003e0: 0be8 993f 5498 0abf a53f a7be 89bc 72bf
000003f0: 4b37 13bf 480c 00bf 5845 0abf 4238 31bf
0.057127673 0.45260823 -0.3248572 1.7634026 -0.010712887 -0.7136501 -0.33560404 0.24574226
-0.8382486 -0.30758888 -0.52928364 -0.41462666 -0.2694857 -0.7180535 -0.50157565 -0.38146493
-0.64004976 -0.019539455 1.2170155 -0.67166656 1.0406278 -0.50738066 1.3335615 1.4656978
0.04308165 0.047645856 -0.19654256 -0.29457057 1.048629 -0.54189044 -0.556431 -0.58233887
-0.83060074 -0.2854444 -0.013967127 -0.12545504 0.45475128 0.75180167 1.6518854 -0.3026543
0.06756749 -0.66772866 -0.2863815 -0.08354958 -0.33247295 -0.82541776 -0.76284283 -0.29200658
1.0716554 0.05080763 -0.5415372 -0.53650534 1.0295173 -0.5161369 1.230721 -0.32126316
0.020273432 -0.42629746 -0.014287927 -0.68816006 0.39133537 -0.39640224 -0.6591228 -0.027318249
-0.5321563 -0.15790571 -0.62158644 0.06985945 -0.70240724 -0.39865735 -0.06711072 0.45082006
-0.83992743 -0.32527152 -0.5944453 -0.8430848 -0.6865902 -0.5776551 -0.4569996 -0.72746027
-0.3454179 -0.3293452 -0.07384576 -0.21002251 -0.2760328 2.2302775 -0.26554495 0.18126278
-0.8720299 -0.3079139 -0.34879917 -0.6150294 -0.6151051 -0.46281204 1.8582472 1.8157203
-0.2826149 -0.32422158 0.076175444 -0.2976764 -0.042839613 0.06558715 -0.02056325 -0.05807113
-0.611086 -0.072760314 -0.49303994 -0.29091573 -0.7123587 0.056331147 1.6329825 -0.84934646
-0.054672744 -0.74269366 -0.6454639 -0.41824797 -0.22259651 0.020454988 1.1568168 -0.24494071
1.6044292 -0.6903203 -0.26479334 -0.6549354 -0.81044173 -0.7866507 -0.31005362 -0.48210105
0.053612616 -0.37842542 -0.41656515 1.7134583 -0.011428542 -0.4319288 -0.16706266 0.5148072
-0.427745 -0.42087653 -0.5118987 -0.31552252 -0.20187946 -1.0729508 -0.86628497 -0.24208492
-0.6670212 -0.0527417 0.90650976 -0.4750401 1.0278376 -0.58612996 1.6042169 1.12276
-0.023260951 -0.05076472 -0.41448796 -0.40276116 1.0920196 -0.67186594 -0.6258725 -0.8722256
-0.5372579 -0.24108031 0.074093424 -0.0865833 1.1897465 1.0003939 1.8714827 -0.20665616
-0.021705464 -0.9921871 -0.38440934 0.056612123 -0.41108558 -0.59837633 -0.3497065 -0.65330076
1.0384256 -0.028583994 -0.19226627 -0.72669333 1.4276441 -0.91671795 1.2263736 -0.38420063
0.06152687 -0.5277993 -0.062589884 -0.61605656 0.27488148 -0.26945877 -0.56852674 0.05627041
-0.54298735 -0.59564537 -1.0210925 0.05583607 -0.87041533 -0.20115453 -0.07473096 0.5612333
-0.4884698 -0.50089157 -0.60951513 -0.7278353 -0.47457233 -0.72808594 -0.26338366 -0.8079106
-0.2473142 -0.42893386 0.025713373 -0.2679529 -0.25992838 1.9741242 -0.42462537 0.26823878
-0.7532994 -0.16874935 -0.21032293 -0.9339947 -0.9864564 -0.69376373 1.8150948 1.9308485
-0.28960332 -0.25857 0.07792925 -0.35636342 0.08018515 -0.061217923 0.031523764 -0.04314689
-0.71552604 0.03291161 -0.4605768 -0.35127208 -0.9543608 1.3073138 1.8687196 -0.8511274
0.012458965 -0.54210603 -0.8105366 -0.27711952 -0.28037357 0.035782367 1.7817249 -0.21978149
1.2023939 -0.54138684 -0.32665744 -0.9481893 -0.57506245 -0.5001874 -0.5401206 -0.6922647

fc3.bias f4 [4]
00000000: 7413 25be f2a4 39bd c204 833e 1e00 153d
-0.16120702 -0.04532332 0.25589567 0.036377065
