models/model_run_15.pth (torch, 145937 bytes, 6 tensors)

fc1.weight f4 [256, 8]
00000000: f92c 743d 4952 7dbf 8f65 fcbe 88b5 47be
00000010: 953a f93e 7fc1 053f e16c 743e 140e 6a3e
00000020: ed34 393d 0ca4 463d dec1 bfbd ed18 70bd
00000030: 1a76 d3be 501b 28bf 8fd5 d63e 9c30 a1bd
00000040: ed49 8abe 3a9a 383f 0fa1 543e 99aa c4bd
00000050: 7ee2 43bf d623 9e3e 1fe3 38bf 5d1d 9fbd
00000060: fc80 163f a59f 81be 1724 03bf 8292 853e
00000070: e585 703e 8ae6 063f 8da4 fb3e 7e99 93be
00000080: 8feb ccbe ff26 c7bd 3590 30be b2b4 503e
00000090: e9f9 94be 9145 973d d6c0 b13d 7ef7 7e3d
000000a0: f5c6 34bf e80e 823e b504 79be 3d98 ca3e
000000b0: 99cf f9be 78c4 1cbf a46e 953d b70e 2abf
000000c0: 1146 4c3e 61f3 95be 09a1 873e 9d1b 65be
000000d0: 72df a2be 84c4 05bd 613a 4f3e e380 f33e
000000e0: 4943 0cbe 9781 38bf 6fab 45bf 2a20 8c3f
000000f0: efb0 3e3e 2bc3 663e 517d b2be 075b c93e
00000100: e683 7e3e 281a ea3e b89b d33e 1e06 473e
00000110: 0f03 da3d 9382 f13d 0064 1fbf f79b 97bf
00000120: e2ee 59be bbd0 29be 0144 ffbe 5591 33bf
00000130: 3ad3 1c3e bbdc 8b3e 209d 37bc 4d5d fb3e
00000140: a206 ae3e aa46 78bf fe37 c9be 83eb c0bd
00000150: 0fa3 aa3e 7dda f1be af7d 853e 5931 933e
00000160: 2737 b8bb 7cfe 053e 1449 2fbe edb2 093f
00000170: b764 803e 234c 3dbe 831f 2fbf b8c0 f43e
00000180: d9f1 1fbc 660e fbbe 19a4 a93d 774a e03d
00000190: 1b59 b23e f913 e5bd a845 23bf eea1 5fbe
000001a0: a246 0ebd e0f6 663f 41a1 823e 4f25 05bf
000001b0: 391b a5be 13a9 063f 0f94 87bd 9079 d13c
000001c0: 5f7f 9ebe f884 173f d9fb 233e e587 96be
000001d0: d930 85be 0183 9fbd b5fa acbe 3c1b 05bf
000001e0: 9dbb f43d c2b1 68be 0f55 7dbe 9c86 3e3e
000001f0: 3c0a 8d3e 682a e2bc deec 223d 835d c2bd
00000200: 3c7c 3e3f 8789 eabe 38b7 6a3e 5a99 b8be
00000210: 0323 81bf 5025 8cbd f390 3a3d ca01 413d
00000220: 0179 02bf 1e39 f43e 8f9c f73e 108a 90be
00000230: d28f 9bbe eca4 0ebf 799b debe fe50 bdbc
00000240: e7bf 3dbe 1635 313e ec57 cebd d5d8 123f
00000250: f822 343f 5647 5f3f 8d30 e9bd e717 57bf
00000260: 964a 503e 1f0b 9ebe c798 96be 2ec2 74be
00000270: 7bc5 973f e0c5 413e edaf c73e ce08 a8bd
00000280: c75f 75bd 3baf 86be 599c 8ebf 949b 56be
00000290: 17cd 9c3e 0185 9cbe a391 b5bf de01 c2be
000002a0: 6afa 3d3e 1875 7abd 2c87 8a3e 9e75 983e
000002b0: b6a1 2dbf a919 fdbe f01f a1be aae0 3c3e
000002c0: 7317 c53e 5e67 9dbc 305d ffbd db38 a93f
000002d0: cf0b 4b3e 3e8c 093e 830a f93b 1c13 c7bd
000002e0: 52d6 623d 148f 173f 65dd 043d 9640 2fbe
000002f0: 186a 35bf e94e 4abe 883b 42bd 5333 d6be
00000300: 000e 5dbf cc9f 783e 0859 6cbd a49d 60bc
00000310: 4e9f 34bf 9bf2 f0bd 89cb ab3e 8d9b 1c3e
00000320: bbb0 edbe a89a 68bf 46f1 b93e e0fe cabe
00000330: 55dd 81be 7de7 27bd 0194 bb3d c668 6f3e
00000340: b3d2 97bd e700 c8bf 2cdd e83e 50c9 5a3c
00000350: b9e5 c43e 60bf 253f 0368 8fbd 307d 123f
00000360: afde 30be b7f7 263e 6b00 debe d2c5 05bf
00000370: 2902 2f3f e915 223e c352 f93e 3804 b0bd
00000380: 3f7e 3fbf f8d2 ebbe 5cb2 553f 1b60 153f
00000390: 50c4 00bc ae03 2e3f 046b 0a3e 16a4 1f3d
000003a0: 2b8b d43e efc3 fabe 20db 9a3e 1e20 22bd
000003b0: 4fbd 353d e196 113e 1647 863e 2f4e 90be
000003c0: 9154 75be b2f3 7ebe 1b6f 123d 16b1 1e3e
000003d0: c148 4a3f 92f9 213e f149 ac3e 1f46 71bf
000003e0: bfe7 c3bd 1c48 62bd 4256 873d f523 3c3c
000003f0: 7185 d2bf 6ca4 573d 4ab4 613e 9751 53bf
0.0596132 -0.9895368 -0.49296233 -0.19502842 0.48677507 0.52248377 0.23869659 0.22856933
0.04521649 0.04849629 -0.09363149 -0.05861752 -0.41301042 -0.65666676 0.41959807 -0.078706
-0.27009526 0.7211033 0.20764564 -0.096028514 -0.76517475 0.30886716 -0.7222156 -0.077692725
0.58790565 -0.25317112 -0.51226944 0.2608834 0.23488577 0.52695525 0.4914898 -0.28828043
-0.40023467 -0.09724235 -0.1724251 0.2038143 -0.29096916 0.073863156 0.08679359 0.062247746
-0.70616084 0.25401998 -0.24318202 0.39569274 -0.48791197 -0.6123729 0.07296494 -0.66428703
0.19948603 -0.29287246 0.26490048 -0.22373815 -0.318111 -0.032658115 0.20237114 0.4755927
-0.13697542 -0.7207274 -0.7721471 1.0947316 0.18622182 0.22535388 -0.34861234 0.3932726
0.24855003 0.4572308 0.4132974 0.19435927 0.10645115 0.11792483 -0.6226196 -1.1844472
-0.21282533 -0.1658353 -0.4985657 -0.70143634 0.15314952 0.2731684 -0.011206895 0.4909462
0.33989435 -0.96982825 -0.3930053 -0.0941992 0.3332753 -0.47237006 0.2607245 0.28748587
-0.005621809 0.1308536 -0.17117721 0.53788644 0.2507684 -0.18486075 -0.6840746 0.47803283
-0.009762251 -0.49034423 0.08283252 0.10951703 0.34833607 -0.1118545 -0.6377816 -0.21839115
-0.03473533 0.9022045 0.25513652 -0.52010053 -0.32247332 0.52601737 -0.06620037 0.02557066
-0.3095655 0.5918727 0.16014041 -0.29400554 -0.2601383 -0.07788659 -0.33785024 -0.5199468
0.11949847 -0.22724059 -0.24739479 0.18606037 0.2754687 -0.027608112 0.039776675 -0.09490492
0.74408317 -0.4580805 0.22921455 -0.36054498 -1.008881 -0.06843054 0.04554839 0.047120847
-0.5096589 0.47699827 0.48361632 -0.28230333 -0.30383164 -0.557204 -0.4347799 -0.02310991
-0.18530236 0.17305407 -0.100753635 0.5736211 0.7036586 0.87218225 -0.113862135 -0.8402085
0.20340952 -0.3086786 -0.29413435 -0.23902199 1.1857141 0.1892314 0.39001408 -0.08204804
-0.059905794 -0.26305565 -1.1141464 -0.20957786 0.3062522 -0.30570224 -1.418507 -0.3789205
0.18552557 -0.061146826 0.27056253 0.29777235 -0.67824876 -0.4943364 -0.3146968 0.18445078
0.38494453 -0.019214328 -0.12468946 1.3220476 0.19828723 0.13432404 0.00760013 -0.09720442
0.055380173 0.59202695 0.0324377 -0.17114481 -0.7086501 -0.19756664 -0.047420055 -0.41836032
-0.8634949 0.24279708 -0.057702094 -0.013709459 -0.7055558 -0.11765023 0.33553723 0.15293713
-0.46423897 -0.90860987 0.3631689 -0.3964758 -0.25364175 -0.04099225 0.09159089 0.23379812
-0.074132346 -1.5625275 0.4548124 0.013353661 0.38456514 0.6474514 -0.070022605 0.5722227
-0.17272447 0.16305433 -0.43359694 -0.52254975 0.6836267 0.1582867 0.48695955 -0.08594555
-0.7480201 -0.46059394 0.8347528 0.5834977 -0.007859305 0.67974365 0.13517386 0.038974844
0.41512427 -0.4897761 0.30245304 -0.03958141 0.044369992 0.14217712 0.2622611 -0.2818465
-0.23958041 -0.2489765 0.03575049 0.1549724 0.79017264 0.1581786 0.33650163 -0.9424762
-0.095656864 -0.05524455 0.06608249 0.011483182 -1.6446973 0.05264704 0.22041431 -0.8254637

fc1.bias f4 [256]
00000000: 1ee0 d43e 90f8 69bd a44c 203d d593 843e
00000010: 1e0a 343f d7b3 0c3d 7c93 2f3f 9168 a5be
00000020: c3f6 9fbd 3029 64be c133 08be 7ef5 143e
00000030: 093d f23e 7bcc b73d 68b0 803e 5773 cd3e
00000040: 576b 41be d6c5 8dbd c310 823e b3b2 bf3d
00000050: a588 f0be 03af db3e 45aa 153f d97d 1c3e
00000060: 62ba e03c 4089 a53e 4e99 b83e 87bb dfbe
00000070: ba26 efbd b2bf 2c3f bd5b 2b3f 071a 1b3d
00000080: 8a2b 1a3f 949c 003e 4219 c43e 48ad 1b3f
00000090: 9191 d03d ff69 9abd b444 16bd b7a1 893e
000000a0: 3a51 683e 9516 e83e 81f2 133e 015b a13e
000000b0: 54f9 b93e 8bee 60be 6c0d 11be e847 843e
000000c0: acc3 f73d f311 e63d df67 ae3e eeea 703e
000000d0: 668f 313e 3878 313e 0d45 f63d 7de5 20be
000000e0: 229a e73e 7694 a13e 9b9f 4fbf 025a d43c
000000f0: 0599 b1be 909a 7cbc 060f 59be 76c3 193e
00000100: ce61 eb3e 8e49 dd3d 138b 48bf 5d1b d73e
00000110: 0cbf 88bd 9657 8abe 34e2 cdbd 8950 c0bd
00000120: 254d 103f 3f53 e73e ee03 133e 0aee b53e
00000130: cfba 4a3e b150 5c3e a6c6 5c3e 40b3 143f
00000140: 9d1e a9bb e13c c83e e905 903e 9d09 b5be
00000150: 7024 7e3e 0045 aebe 10a9 4cbe 38da dcbe
00000160: 9e19 b93e 2b0c b53e 129e f63e 5ba6 6f3e
00000170: c99c ab3e f592 a53b 774d 1dbe 7624 1d3f
00000180: 1631 dd3d c2b7 df3d 80c6 fcbd 9315 3bbe
00000190: 5280 84be 0559 2b3e e6a1 d33d c6c3 98bd
000001a0: 2794 b83e b8d9 f43e 77cf e03e 2a58 143f
000001b0: b4fa df3d 31b6 b8bd 49d7 e43e 8923 033f
000001c0: 9e77 50be 9b3a 9b3d 5efb cb3c e0a5 bdbe
000001d0: c852 85bc cb98 803e 6968 d23e 4e0d 14bf
000001e0: 88eb 373e 8f61 023f 9973 ac3e f69b 64be
000001f0: 8fe4 943e 39c2 dabe f999 88be 3138 5ebb
00000200: 9079 d43e 7869 0c3f fc08 a13e ec70 f13e
00000210: d458 653e 8e65 cd3e f8a4 273f 168f c0be
00000220: 66bc 3cbd df2e 32be e42b 753e f9cc 2f3f
00000230: 99fe 39be 2575 933e 37d8 1cbf c56a 6ebd
00000240: fb49 82be 0d00 d43d 7648 8abd f37b 5dbe
00000250: 8313 dc3e ef39 fa3e 4be5 173f 4ca7 ff3e
00000260: 2f3b 913e 69a1 28bf ba3c 483e 89ae 963e
00000270: 9ffb d5bd a051 053f ab53 a23e e950 9d3e
00000280: 7c73 133f 2104 dd3e 0260 50bc 3c06 a93e
00000290: ad62 2c3d 27c0 b93d cb16 ab3e b8f6 b23e
000002a0: 2109 6c3e 0f7a 493e 554e d83e 0338 a8be
000002b0: 5fc9 01bf e965 a63e 2ea3 c63e 606d 463d
000002c0: 0379 e33e 030e e73d b1d9 94be fb09 693d
000002d0: fca7 1a3e 5da3 fd3e 6fcc 213d a680 b2be
000002e0: f207 003f c14b 8e3e d36f 8b3e affb 373f
000002f0: 01de 13be f0ee 12bf db27 813e 7d65 913e
00000300: 84ca 783d b8c9 a8be 19b2 163d 0b5f a33e
00000310: 45bd 903e d771 1b3d 138a a73e 2a8b aabd
00000320: 38dc 14bf f4d0 7c3e 039e 2dbd a304 4b3e
00000330: 1e71 e5bc 8cf2 573e ad11 a83d 0b5d a4ba
00000340: a443 afbd c0c5 20bf b177 03be e05a e8bd
00000350: fcfb 0d3f 4358 0e3f 5ee1 dfbe ba4d 283d
00000360: 7c33 f23e 3759 093f 4ad3 1c3f 75b7 fdbe
00000370: f8fb 023f 3c8f f5be a7bb 5f3e 0ad7 253d
00000380: 94c9 b73e c130 263f e23f 7c3e bc34 f03e
00000390: 084f 1c3d a3d6 053e eff9 5bbc 96b9 5b3e
000003a0: 2a0d 9c3e db48 d83e 5df0 a9bd 2d90 293e
000003b0: 3d41 16bd 3351 88be 4bbe e83e 4cdd bb3e
000003c0: 3986 56bc 8eaf 683e 9259 e53e c017 003f
000003d0: 012a 1ebe c03e d13e 1c0b c83e 5252 463f
000003e0: 9ee2 793e 2b41 dfbe 4abb da3e 5ceb ff3e
000003f0: fa42 5b3e fb94 e3bc 4822 5cbe 0ebe 32be
0.41577238 -0.057121813 0.03913559 0.25894037 0.7032794 0.034351196 0.6858442 -0.3230634
-0.07810738 -0.22281337 -0.13300993 0.14546773 0.4731219 0.089745484 0.25134587 0.4012706
-0.18888603 -0.069225 0.25403413 0.09360256 -0.46979252 0.4290696 0.58462936 0.15282382
0.027432624 0.32331276 0.36054462 -0.4369776 -0.116773084 0.67480004 0.66936857 0.03786662
0.60222685 0.1255973 0.3830052 0.6081128 0.101840146 -0.075397484 -0.036686614 0.2688119
0.22687235 0.4532973 0.14447977 0.31514743 0.36323035 -0.21965997 -0.14165276 0.2583611
0.12097868 0.11233892 0.34063622 0.23527119 0.17339858 0.17331016 0.12024889 -0.15712543
0.45234782 0.3155858 -0.81102914 0.025921825 -0.34687057 -0.01541771 -0.21197137 0.15015969
0.45973057 0.10805045 -0.7833721 0.42013064 -0.06677064 -0.27019948 -0.100529104 -0.09390361
0.56367713 0.451807 0.14356968 0.35533172 0.19797824 0.21515156 0.21560153 0.58086014
-0.00516112 0.39108947 0.2812951 -0.35358897 0.24818587 -0.34037018 -0.19986367 -0.43135238
0.36152357 0.35360846 0.48167473 0.23403303 0.33518055 0.005052919 -0.15361582 0.6138376
0.10800378 0.10923721 -0.12342548 -0.18269949 -0.2587915 0.16733177 0.10333614 -0.07459216
0.3605053 0.47822356 0.43908283 0.5794703 0.1093649 -0.09019125 0.446955 0.512261
-0.2035813 0.075795375 0.024900135 -0.37040615 -0.016274825 0.25116572 0.41095284 -0.578328
0.17960942 0.5093011 0.33681944 -0.2232512 0.29080626 -0.42726305 -0.26679972 -0.0033908004
0.41498995 0.5484843 0.31452167 0.47156465 0.22397166 0.40116543 0.654861 -0.37609166
-0.04607811 -0.17400692 0.23942524 0.6867214 -0.18163528 0.28800312 -0.6126742 -0.058207292
-0.25447068 0.10351572 -0.06752102 -0.21629314 0.42983636 0.48872325 0.5933425 0.49932325
0.28365466 -0.6587129 0.19554415 0.29430035 -0.104483835 0.52077675 0.3170446 0.30725792
0.5759809 0.43167213 -0.012718203 0.3301257 0.042086292 0.09069853 0.33415827 0.34953856
0.23050357 0.19675468 0.42247263 -0.32855234 -0.5069789 0.32499626 0.3879637 0.048444152
0.44428262 0.112819694 -0.29072335 0.056894284 0.15103143 0.495387 0.039501604 -0.34863776
0.50012124 0.2779217 0.27233753 0.71868414 -0.14440157 -0.5739584 0.2522572 0.28397742
0.06074001 -0.329664 0.03679094 0.3190845 0.282694 0.037950363 0.3272253 -0.08327325
-0.5814853 0.24689084 -0.04238702 0.19825988 -0.02800804 0.21088618 0.082064964 -0.0012539936
-0.08557823 -0.6280174 -0.12838627 -0.11345458 0.5546262 0.55603427 -0.4372663 0.04108975
0.47304904 0.53651756 0.612599 -0.4955403 0.51165724 -0.47960842 0.21848927 0.04048828
0.3589598 0.6491814 0.24633744 0.46915233 0.038161308 0.13070159 -0.013426288 0.21457514
0.30478793 0.42243084 -0.08297799 0.16558905 -0.03668331 -0.2662445 0.45457682 0.36692274
-0.013093525 0.22723219 0.447949 0.5003624 -0.1544571 0.40868187 0.39070976 0.7746936
0.24402854 -0.43604407 0.42721015 0.49984252 0.21412268 -0.027781 -0.21497452 -0.17455313

fc2.weight f4 [128, 256]
00000000: a97b 9fbe 66fe 88be d447 2fbe 3b26 59be
00000010: 9a79 3b3e 4dbb 50bd df24 063e 6174 2abf
00000020: c23f 363e 7816 c4be e768 17bf 372f 433e
00000030: 5431 aa3e b798 933e 2672 a63d ef30 e33d
00000040: 5829 79bf 6632 163f b314 11bf 1808 813e
00000050: 200a 233f 8fba adbe 8606 fabe 078a 633e
00000060: 4845 c5be 7213 8f3e 45a5 d33e ce0f 7ebf
00000070: f089 993f b92a b3bd 038c db3b 718a 483f
00000080: 3434 313e b3d2 e83e 34ad 8d3e 3181 ca3b
00000090: ea9d 193f bb32 09bf 1e02 1f3f 33b7 c8be
000000a0: fe99 813e 8aa7 cbbd 7253 6f3f 42a6 8c3e
000000b0: 7544 06bc a599 98be e44d 06bf 1733 8dbd
000000c0: 99e8 33bf f90e ac3e 259f ae3e 6e9f 843e
000000d0: de0d b1be 1687 863e a658 74be 5682 ed3c
000000e0: 1cae 9b3e dc7e 993e f056 91bf bc1a 47be
000000f0: ba5f 3cbf 7ee4 38bf bac4 1fbf 9d69 b63d
00000100: 0b0b ce3e e9f1 c73e f446 fbbf 536f 1abf
00000110: bbc1 15be dc8d 58be 01c8 fbbe bd2b 46bf
00000120: 456b c93e 0168 0d3e 4eeb 2c3f 35da 5fbf
00000130: f207 0ebf 7c35 abbe 03b7 b3be f5ae ae3c
00000140: 881d ad3f 1b32 bb3e 18d0 5a3e e980 d33e
00000150: 1bff 313d 4cfa 4a3d 7d16 d3be f0ac 82be
00000160: ff2f a03e e141 a3be f127 213f bb8b 143e
00000170: d755 4ebe 692c 3c3f d255 0fbf f38b 423e
00000180: ab1e ca3e c3ac f8bd aa3b 433e 2392 dbbc
00000190: f013 943f 8063 613e 4832 aebe 489d 60be
000001a0: 4818 abbe 5ae3 23bf 6ec9 993e c1d9 193e
000001b0: 0f53 523f 9201 bebe cf30 82be c320 573e
000001c0: 27c0 963e b81c 013f 30f8 c63e 2d8f 2abf
000001d0: 7feb bebe d711 c6be a877 fb3c 799b 023e
000001e0: 87be a6be 4727 bb3d 7835 2f3e ba6f 40be
000001f0: 7a3d b63d e7cd debe 8f32 74be cd64 c1be
00000200: dc45 0c3e eec9 ffbd ded3 f9be 9759 c43d
00000210: 2070 d73e f556 9cbe ef5c 913e 2408 02bf
00000220: 5e65 e4be 40f5 49be 9124 5c3e 0c6a 4c3e
00000230: cb8a 013f 90f3 003e 87f2 8cbf f48e 183f
00000240: 76a4 03bf 1874 50be 0930 c1be cfba ba3e
00000250: 0434 1c3e e5aa 433e e6ea a83e e111 37bf
00000260: 25b8 7e3e 7845 a1bf bde0 b73e 7607 2b3e
00000270: 6671 603f 9835 f83e c9d1 fb3e b1cb 143e
00000280: 8d15 393e 0183 d9bd 1ebc fd3e e596 6cbe
00000290: c776 41be 619b a83e d37c 16be 44d3 aabc
000002a0: ab77 993e db0b 813e 53bf 043e 04dd 6cbe
000002b0: 750e debf f06d 0b3e 50d3 89be 398c 87be
000002c0: 2ff8 f03d 24b4 d83d 36d8 14bf e6e4 2d3e
000002d0: d94f d83e 6e91 d1be 1284 a1be 355c 65be
000002e0: 8aaf 773e a972 653e 65dd 713e 0adb b3be
000002f0: cc37 fe3e fe08 a9bf fcbd c2be 1b34 e23d
00000300: 7df8 7fbe bb72 44bf 267c 11be 6e4f 043e
00000310: 8503 30bd 3404 2cbe 16b5 993e 80ec 0abf
00000320: f849 32bf 07f5 883e 9ec2 c3be ba60 183f
00000330: 8d84 5cbf c27b f2be c930 a83e 2c2e 533f
00000340: 95ae 07bf 76c0 15bf 6055 25bf fc04 783f
00000350: 3580 8b3e 388e 12bf dbae a6bf 6c0f ddbe
00000360: bb65 b1be 15fa 123e dc49 3c3e 5745 0bbf
00000370: d56f 643e d871 10bf 2aae 2d3f 2ef6 933d
00000380: 23c3 92be d519 363f 0dda 963e 5db7 543f
00000390: ee7c 0dbf 73cd c23e 3284 dfbd 25bd 033f
000003a0: 384a 073f f945 373e f640 10bf d797 0cbf
000003b0: ad86 1f3f 4171 58bf 1b40 143e 4a34 0d3e
000003c0: 56d0 983e ec6d 063e 30ce dd3e ef6a a33e
000003d0: 8290 c5be 8a62 bd3e b875 da3e 982f 3d3f
000003e0: a1ed ec3d 5e05 113f 0b60 3f3e e7ae 153e
000003f0: f2cb d4be 1d3d e83f 1d6f 1abf f37b e8be
-0.31149033 -0.2675659 -0.17117244 -0.2120599 0.18308106 -0.050959874 0.13100003 -0.6658383
0.17797759 -0.38298392 -0.59144443 0.1906098 0.3324076 0.2882745 0.08127241 0.11093318
-0.9732871 0.5867065 -0.5667221 0.25201488 0.63687325 -0.33931395 -0.48833102 0.22220622
-0.3852942 0.27944523 0.41337028 -0.99242866 1.199522 -0.08748383 0.0067000403 0.78336245
0.1730507 0.4547325 0.27671206 0.0061799516 0.6000658 -0.53593034 0.62112606 -0.3920227
0.253128 -0.09944065 0.934867 0.27470595 -0.008195032 -0.2980472 -0.524626 -0.0689451
-0.7027679 0.33605173 0.34105793 0.25902885 -0.34580892 0.26274937 -0.23861942 0.028992813
0.30406272 0.299796 -1.1354656 -0.19443792 -0.7358357 -0.7222365 -0.62409556 0.08906863
0.402428 0.3905175 -1.9631028 -0.6032612 -0.14624684 -0.21147865 -0.49176028 -0.7741049
0.39339653 0.13809206 0.67546546 -0.8744233 -0.55480874 -0.33439243 -0.35100564 0.02132366
1.3524637 0.36561665 0.21368444 0.41309288 0.04345618 0.049555108 -0.41228095 -0.25522566
0.31286618 -0.318862 0.6295157 0.14506428 -0.20149933 0.73505265 -0.55990326 0.18998699
0.39476523 -0.12142327 0.19065729 -0.026803082 1.1568584 0.22010612 -0.34022737 -0.21934998
-0.33416963 -0.64018786 0.3003649 0.15024473 0.8215799 -0.37110573 -0.25427863 0.21008591
0.29443476 0.50434446 0.38861227 -0.6662472 -0.37289044 -0.38685486 0.030696705 0.1275462
-0.32567236 0.09138351 0.1711024 -0.1879262 0.088984445 -0.43516466 -0.23847412 -0.37772217
0.13698524 -0.12489687 -0.48794454 0.095874004 0.42077732 -0.30535093 0.28391215 -0.5079367
-0.44608587 -0.19722462 0.21498324 0.19962329 0.50602406 0.12592912 -1.1011513 0.5959313
-0.5142282 -0.20356786 -0.3773196 0.3647065 0.15254217 0.1910816 0.32991713 -0.71511656
0.24874933 -1.2599325 0.3591365 0.16702065 0.8767303 0.4847839 0.4918349 0.14530827
0.18074627 -0.1062069 0.49557585 -0.23104437 -0.18892966 0.32931045 -0.14696054 -0.020852692
0.29974112 0.25204358 0.1296361 -0.23131186 -1.7348162 0.13616157 -0.2691903 -0.2647417
0.11766087 0.10581234 -0.5814241 0.16981849 0.4224842 -0.40931267 -0.31546074 -0.22398455
0.24188057 0.2240702 0.23619612 -0.3512805 0.49651945 -1.3205869 -0.38035572 0.110450946
-0.24997135 -0.76737565 -0.14207515 0.12920925 -0.042972106 -0.16798478 0.3002097 -0.5426712
-0.6964412 0.2674944 -0.3823442 0.59522593 -0.86139756 -0.47360045 0.3284972 0.8249233
-0.53000766 -0.584968 -0.64583397 0.96882606 0.27246252 -0.5724826 -1.3022112 -0.43175828
-0.34647927 0.14353211 0.1838755 -0.5440268 0.22308286 -0.5642371 0.6784388 0.072246894
-0.28664503 0.71133167 0.29463235 0.8309229 -0.5526875 0.3804737 -0.10913886 0.51460487
0.52847624 0.17897786 -0.5634912 -0.5491919 0.62314874 -0.8454781 0.1447758 0.13789478
0.29846448 0.1312787 0.4332137 0.3191752 -0.38586813 0.36989242 0.42667937 0.7390075
0.115687616 0.56648815 0.18688981 0.14617501 -0.41561848 1.814365 -0.60325795 -0.45407066

fc2.bias f4 [128]
00000000: f3ee 683e 6cc6 c83b 3b2f 593e 0f73 83bd
00000010: b301 153e 366c 643e 0828 93bc 29f7 123e
00000020: 600c 2d3e 630a aebc 8239 503e c1e7 30bd
00000030: bc38 dd3d b096 7abe a6c1 233d 2eaa 6ebd
00000040: 21fb 8abd 5de6 8b3e ec8c 6d3e 2f58 973e
00000050: 0faf 5d3c 54d6 8f3d 9665 76bd 70c8 573e
00000060: 6179 9f3e 4c66 863d 5da1 efbc b05d 7fbc
00000070: 24aa 2b3e 7340 1b3e bacd 8b3e 76c4 813e
00000080: 149c df3d 1d06 26bc 240f 603e 2ff2 403e
00000090: d579 7cbc dc0e 76bb 0744 d93d e367 5f3e
000000a0: 2a0c 6c3e c3d9 e53c e647 003d cbfb 8b3e
000000b0: f933 b7bd 30fe a73c 96d8 95be 0c22 8dbc
000000c0: 153e 023c e161 6c3e a0ac 4c3e 582a 84bd
000000d0: 3de2 6f3e a19a fe3d c49e 6cbd 611c 443d
000000e0: 164b 46be 846c 813e f957 ba3d 628d 853e
000000f0: f3e7 5a3e 7eb9 96bb 0bfc b93d fb14 403e
00000100: b563 543d bec0 0f3c 4056 c03d 7ad9 833d
00000110: 03a1 883e dfe8 4d3e d17b 933e 9371 843e
00000120: 56ae 163e ac64 503e 994c 4d3e 0c90 223e
00000130: e0d0 273e 58c7 713e 16f9 9c3e 31e7 4f3d
00000140: dddf 24bd f99e 0c3d cdc3 563e 1539 b03e
00000150: 8398 603e ac93 87bd b1b4 b63c d2a9 9e3e
00000160: e545 0a3e d941 6b3e 003e 92be 137c 0cbd
00000170: 9f90 813e e855 873c 1015 703e 65b1 1f3e
00000180: 5e6d 48bd 9ad0 3d3d cd37 913e a4c3 2bbd
00000190: 2580 373e d793 c53c 15c5 683e 0e86 183e
000001a0: 2186 9d3e a84d b43e ccf7 943e 0d47 9b3e
000001b0: 5662 2fbd ecff c93d 48c8 ca3c 7ca3 283e
000001c0: 3169 a23e 45cd 5b3c ada8 633e 7765 673e
000001d0: 3e00 65be 44b1 5a3e 4773 003e 2a45 343e
000001e0: c858 a23e 8aa5 913e db16 543e a94c 053e
000001f0: 4200 693e 8089 e23c 75b8 f93d 436e 7f3e
0.22747402 0.0061271694 0.21209423 -0.0641843 0.1455143 0.22306904 -0.017963424 0.14352097
0.16899252 -0.021245187 0.20334437 -0.043189768 0.10801837 -0.24471545 0.0399796 -0.058267765
-0.0678618 0.2732419 0.23198289 0.29559466 0.013530507 0.07023302 -0.060155474 0.21072555
0.31147292 0.0656248 -0.029251749 -0.015586302 0.16764122 0.15161304 0.27305394 0.253452
0.109184414 -0.010133293 0.21880776 0.18842386 -0.015409906 -0.0037545478 0.10608678 0.21816973
0.23051515 0.028057938 0.031318568 0.2734054 -0.0894546 0.020506948 -0.29266804 -0.017228149
0.007949372 0.23084213 0.19987726 -0.06453389 0.23426147 0.12431837 -0.0577686 0.047878627
-0.1936458 0.25278103 0.09098811 0.2608443 0.21377544 -0.004599749 0.090812765 0.18758003
0.0518529 0.008773981 0.09391451 0.06437965 0.26685342 0.20108365 0.28805402 0.258679
0.14714941 0.20350903 0.20048751 0.15875262 0.16388273 0.236112 0.30658787 0.05075759
-0.040252555 0.034331296 0.2097313 0.3441855 0.21933179 -0.06619963 0.022302957 0.30988938
0.13503225 0.22974338 -0.28562927 -0.034298014 0.2530565 0.016520455 0.23445535 0.15595014
-0.048932426 0.046341516 0.28362885 -0.041934624 0.17919977 0.024118347 0.22731431 0.14894888
0.30766395 0.35215497 0.29095304 0.30327645 -0.04281839 0.09863266 0.024753705 0.16468614
0.3172088 0.013415639 0.22232313 0.225973 -0.22363374 0.21356684 0.12543975 0.17604509
0.3170836 0.2844661 0.20711844 0.13017525 0.22754005 0.027653456 0.121933855 0.24944405

fc3.weight f4 [4, 128]
00000000: 6f1b 1f3f 1dfa 333b f7a8 0b3f d101 413d
00000010: 6218 bf3e 3943 59be f75a 21bc 6401 39be
00000020: b4c5 ed3e d9d6 fa3c b136 85be 756f 95bd
00000030: bd22 b1be 14bd 4cbf e930 71be 9507 8cbd
00000040: c1be c93b 83ae 0a3f 6aa3 093f c979 183f
00000050: b069 75bc 2d88 8dbe c73a 553d 6312 0dbe
00000060: f7e9 003f a836 973f baa5 d13f 51df 45bd
00000070: e6c9 013f b40b a7be 9ee4 d33e 44ed 143f
00000080: 339e a3be 6c4d a2bd c3f1 b7be 4e23 753f
00000090: 45d0 b63d 3cf2 59bd 60fe c93e 3ada 253f
000000a0: 2f30 fb3e e7ce 413b 7d3c 8cbd 35ed 2b3f
000000b0: 6bd3 253e 153b 78be 990d 34bf 4ad5 473f
000000c0: d03b b03c 0fee 063f 8f24 91be e0fd bebb
000000d0: 127f 1a3f 52c6 1abe 6e0c 3bbd 0a05 2c3f
000000e0: f47b 823e e4e2 453f a5e0 afbe a24c 4f3f
000000f0: 0024 113f a2cb ebbc 9114 a1be 8ac4 a7be
00000100: bbcb 65be 74c1 94bc 0223 83be 0f18 86be
00000110: a8ba d73e 3bc3 44be 7f39 113f 6b1e 153f
00000120: cace 09be a4c7 0d3f 8072 79be 3464 b3be
00000130: bdf5 9e3f ab21 fe3e e05c 273f 88dd 893e
00000140: f05c 793d 3247 ba3c 001e a5be 1d6d 0d3f
00000150: 1725 fa3e 0848 483f 54aa 61be 1201 933e
00000160: f3dc b9be 51e6 003f e357 25bf beef f3bc
00000170: aa24 133f f339 55bf 758b 103f 38c8 9c3d
00000180: c5df 653f d8c1 173d 0778 10bf 808d f7ba
00000190: 933c 263e 0a20 18bf 0e26 253f eb22 a0be
000001a0: e681 143f 1baf e13e cd4c eb3e 57be d93e
000001b0: 370f 0a3d b734 b3be 6158 1bbd e874 58be
000001c0: 8c06 1e3f 90cc b4bb 9f5c 0b3f 7d2f 173f
000001d0: 20ed 3bbf e226 013f 478f 48be 86a4 a9be
000001e0: efd0 95be 468c 023f dfa7 71be ea9f 653f
000001f0: 4fd8 123f 41b9 4ebd b34c adbe 6853 163f
00000200: 8bf2 0a3f 39fa 1d3d 33f0 053f cc6d be3c
00000210: 9286 403f 3d8b 24be 9c10 533d aa04 a9be
00000220: 2ad3 6b3e ce02 7ebd f96e f2bd 5265 073d
00000230: de22 f9be 5377 56bf 6ca0 b6be 4dfc 923d
00000240: eba2 163d f6fd 1b3f 7546 253f 1f55 053f
00000250: 6bab 863d 4247 89be 27b1 69bd f23a 8bbe
00000260: 7cd4 043f 3975 ac3f da3d 943f 0a56 333d
00000270: cd51 203f da90 9ebe dc6f 173f 0937 063f
00000280: 93ea e7be bc0e 9fbc e87b 12bf b6ca 743f
00000290: 9292 843c 6e91 a23d 11ca a63e baa9 2f3f
000002a0: b5c5 fa3e 3b97 37bd 801c 903b 27c1 163f
000002b0: e016 243e bcd7 c5be 0f10 27bf 19f2 173f
000002c0: 7de3 a6bc c4c6 dc3e 9e80 adbe 40be b0bb
000002d0: edcc 3f3f ed08 093d 8014 87bd 9433 033f
000002e0: e611 bd3e 9052 293f e2fb 8cbe a4bd 563f
000002f0: 1ad9 b03e 5092 65bd f66b 8fbe 176e 94bd
00000300: d663 68be 17a4 833d 825a 95be 6c27 adbe
00000310: 848b c13e 5ede 97be 7bf4 093f c7c0 d33e
00000320: efb3 0c3e 11e2 233f 6d1b 65be 17aa cdbe
00000330: e4ae 9f3f 9286 073f 029f 4f3f 454f 0abe
00000340: 807f 773a 72c4 253b 97b9 a9be a6cd e23e
00000350: 0eaa 463f bb4a 4b3f 5aed 62be a24c 403f
00000360: 5f35 ecbe c028 153f dad6 42bf 9300 a73d
00000370: e1f5 033f 6879 e63e ef5e 1e3f 4b2c 953e
00000380: 1e62 463f b22f b03c c602 bcbe 5c96 e13c
00000390: b623 a43e 3037 1fbf ce75 283f be0e 35be
000003a0: 4aa6 173f ba16 fa3e 8114 f13e df03 f43e
000003b0: 2f4f 5abc a698 49be ecc7 9bbd 0d8c 3abe
000003c0: 73f5 d03e 22ca a23d 8360 193f 1677 463f
000003d0: 3b89 2abf 5ad2 133f 8a2f 97be 5200 07be
000003e0: e6ab fabe 6f8d 153f af04 c3be c9be 8f3f
000003f0: e138 0c3f 7037 853d 9e4d 92be 52ca f53e
0.62151235 0.0027462312 0.54554695 0.047120873 0.3732329 -0.2121705 -0.009848348 -0.18066937
0.46439898 0.030620025 -0.2601829 -0.07296649 -0.34596816 -0.7997601 -0.23553814 -0.06837384
0.006156773 0.54172534 0.53764975 0.5956083 -0.014978811 -0.27642956 0.052058008 -0.13776545
0.50357 1.1813555 1.6378701 -0.048308674 0.506987 -0.32626116 0.4138536 0.5817454
-0.31956634 -0.07924923 -0.35926637 0.95756996 0.08926443 -0.05320953 0.39451885 0.6478611
0.490602 0.0029572786 -0.06847475 0.67158824 0.16193931 -0.24241288 -0.7033325 0.7805983
0.021512896 0.52707 -0.28348204 -0.005828604 0.60350144 -0.15114716 -0.04566615 0.6719519
0.25485194 0.7729933 -0.34351078 0.8097631 0.56695557 -0.028783623 -0.31461003 -0.32767135
-0.22440998 -0.018158652 -0.25612646 -0.2619023 0.42134595 -0.192151 0.5672836 0.5824954
-0.1345779 0.5538275 -0.24360085 -0.35037386 1.2418743 0.49635062 0.6537609 0.26926827
0.060879648 0.022739027 -0.3224945 0.5524462 0.48856422 0.7823491 -0.22037631 0.28711754
-0.36301383 0.50351435 -0.6458723 -0.029777404 0.5747782 -0.8329155 0.56462795 0.07655376
0.8979457 0.0370501 -0.5643315 -0.0018886775 0.16234045 -0.5942389 0.6451119 -0.3127664
0.5801071 0.44078907 0.45957032 0.4252803 0.033705916 -0.35001156 -0.03792608 -0.21138346
0.6172874 -0.00551755 0.54438204 0.59056836 -0.734087 0.50449955 -0.19585906 -0.33133334
-0.29260966 0.5099529 -0.23599194 0.89697134 0.5736131 -0.05046964 -0.3384758 0.5872102
0.5427634 0.03856871 0.5231964 0.023245715 0.7520534 -0.1606874 0.05152951 -0.3301137
0.23029771 -0.062014394 -0.118375726 0.03305561 -0.48659414 -0.83775824 -0.35669267 0.07177029
0.036776464 0.6093439 0.64560634 0.5208301 0.06575664 -0.26812178 -0.05705371 -0.2719341
0.51886725 1.3473274 1.1581376 0.043783225 0.6262482 -0.30969888 0.5915506 0.52427727
-0.45296153 -0.019416206 -0.57220316 0.9562181 0.016183171 0.07937895 0.3257604 0.6861836
0.48978963 -0.04482196 0.0043979287 0.5888848 0.16024351 -0.38641155 -0.6525888 0.59353787
-0.020372147 0.43120396 -0.3388719 -0.0053937733 0.74922067 0.033455778 -0.06595707 0.51250577
0.36927718 0.66141605 -0.2753592 0.8388312 0.34540635 -0.056047738 -0.28012055 -0.072475605
-0.22694334 0.06427782 -0.29170614 -0.3381914 0.37801754 -0.2966184 0.5388867 0.41358015
0.13740514 0.64016825 -0.22373743 -0.4016883 1.2475247 0.52939713 0.81102 -0.13506801
0.0009441301 0.0025294092 -0.33149406 0.44297522 0.7760323 0.79410905 -0.22160855 0.7511693
-0.4613447 0.58265305 -0.7610909 0.081544064 0.51547056 0.450145 0.6186361 0.29135355
0.77493465 0.021507118 -0.36720866 0.027537517 0.32058495 -0.62193584 0.65804756 -0.17681405
0.5923811 0.48845464 0.47085956 0.47659203 -0.013324543 -0.19687137 -0.076064914 -0.18217488
0.40812263 0.0794871 0.5991289 0.7752546 -0.6661565 0.57742846 -0.29528457 -0.13183716
-0.48959273 0.58418936 -0.3808951 1.1230098 0.5477429 0.065047145 -0.28574842 0.4800592

fc3.bias f4 [4]
00000000: bfb5 8a3d 65ed 553e ef44 953d f879 30be
0.067729466 0.2089134 0.07288539 -0.17234027
