models/model_run_2.pth (torch, 174149 bytes, 6 tensors)

fc1.weight f4 [200, 8]
0	0xbf3de705	-0.7418063
1	0x3e9d4851	0.30719236
2	0xbf0f8001	-0.56054693
3	0xbeb89642	-0.36052138
4	0xbeee6d1b	-0.46567616
5	0x3eb01d46	0.34397334
6	0xbdb6fbf6	-0.089347765
7	0xbef4e471	-0.47830537
8	0x3c329a3c	0.01090103
9	0xbe8e641f	-0.2781076
10	0xbd7be8b6	-0.061501227
11	0x3f7f80ba	0.99805796
12	0x3f3db3a5	0.7410224
13	0xbec6807d	-0.38769904
14	0xbe037616	-0.12838015
15	0x3f320131	0.6953307
16	0xbda78413	-0.08179488
17	0x3f1269e2	0.57192814
18	0x3e5a4dd6	0.21318755
19	0x3cff2d77	0.031149609
20	0xbeb03d7a	-0.34421903
21	0xbf50a938	-0.8150821
22	0xbe8c696c	-0.2742418
23	0x3d78fafc	0.060786232
24	0xbe91278b	-0.2835048
25	0xbe6142cb	-0.21998136
26	0xbd422547	-0.04739883
27	0xbf78706f	-0.9704656
28	0x3eac91fd	0.3370513
29	0xbed31553	-0.41227207
30	0x3e0f46fe	0.13991925
31	0x3d2a4c70	0.041576803
32	0xbe20bc33	-0.15696792
33	0x3f0dd00d	0.55395585
34	0xbe0d9815	-0.13827546
35	0xbe924aa8	-0.28572583
36	0x3d46fa48	0.04857853
37	0x3f34f134	0.70680547
38	0x3e94d901	0.2907181
39	0xbe7947aa	-0.24343744
40	0xbdb7068e	-0.08936797
41	0x3e0110b5	0.1260403
42	0xbdbcee84	-0.09225181
43	0x3ed14177	0.40870258
44	0x3efcfd13	0.4941183
45	0x3f54c76d	0.831168
46	0x3f0143d0	0.504941
47	0xbeebd227	-0.4605877
48	0x3e3dba58	0.18528116
49	0x3d79706b	0.060898226
50	0xbe19777e	-0.14986989
51	0x3eaf98ca	0.34296256
52	0x3f6a3123	0.91481227
53	0xbf0186cb	-0.505963
54	0x3e727a52	0.23679474
55	0xbde36567	-0.11103325
56	0x3ea062d0	0.31325388
57	0x3e015356	0.12629446
58	0x3ed765aa	0.4206975
59	0x3e4dbdab	0.20091884
60	0xbf049969	-0.51796585
61	0xbf02dc1f	-0.5111713
62	0xbd37a6dc	-0.044836864
63	0x3e77f2d7	0.2421373
64	0xbe8c5bdd	-0.27413836
65	0xbedcc64c	-0.43120039
66	0xbecd08c7	-0.4004576
67	0xbdc8c0cc	-0.09802398
68	0x3edd7e3c	0.43260372
69	0x3e97d4ac	0.29654443
70	0xbd17b447	-0.03703716
71	0x3ec2fdd3	0.38084278
72	0x3d7ad9ba	0.061242796
73	0xbf0cfd2a	-0.550738
74	0x3e149c6c	0.14512795
75	0xbe5030c4	-0.20331103
76	0xbf0f139c	-0.55889297
77	0xbf8a2b80	-1.0794525
78	0xbf543e78	-0.8290782
79	0x3e3d5164	0.1848808
80	0xbd19bd45	-0.037534017
81	0xbd014d96	-0.031568132
82	0xbdff0876	-0.12452786
83	0x3e26b3d0	0.1627953
84	0x3f355f19	0.7084823
85	0x3ac2fe35	0.0014876785
86	0xbf0c5fc8	-0.5483365
87	0xbf2c08dc	-0.6720102
88	0x3ed2e1f5	0.41188017
89	0x3d130320	0.035891652
90	0x3ed61838	0.41815352
91	0xbe834ede	-0.25646108
92	0xbee7f755	-0.45305887
93	0xbdee6ca2	-0.11641814
94	0x3e846bc0	0.25863457
95	0xbe28d5a0	-0.16487741
96	0x3f94121e	1.1568029
97	0x3e406075	0.18786795
98	0x3ddf40ef	0.10901057
99	0xbe36ace3	-0.17839389
100	0xbebbdfb4	-0.3669411
101	0xbeb72f16	-0.3577811
102	0x3dd7488a	0.105118826
103	0x3c676213	0.014122504
104	0x3ec84983	0.39118585
105	0x3f00efe0	0.5036602
106	0xbf1c6e0b	-0.6110541
107	0x3ecd3f65	0.4008743
108	0xbf2340a4	-0.6377051
109	0x3f07c9cd	0.530423
110	0xbc8ae5c8	-0.016955271
111	0x3eb67e6e	0.35643333
112	0xbdd005c4	-0.1015735
113	0x3ee2c745	0.44292656
114	0x3ed25585	0.4108087
115	0x3eef833a	0.46779805
116	0xbdb741c4	-0.08948091
117	0xbef57d5b	-0.479472
118	0x3e1ce059	0.15319957
119	0xbe8d39b1	-0.27583078
120	0x3ea98f9b	0.33117375
121	0x3f0b7f19	0.5449081
122	0x3ee19ce9	0.44065025
123	0xbe9b512d	-0.3033537
124	0x3dbeaba1	0.09310079
125	0xbf519a8e	-0.81876457
126	0xbe69398a	-0.22775856
127	0xbe09fe88	-0.13476002
128	0x3cdf5b9c	0.027265362
129	0x3eca9761	0.39568618
130	0xbe298a8d	-0.16556759
131	0x3ea8b116	0.32947606
132	0xbf49ac8c	-0.7877891
133	0xbee85f38	-0.45385146
134	0xbfb19dd9	-1.3876296
135	0xbd8ecf75	-0.06973163
136	0x3e802c3c	0.25033748
137	0xbeac7851	-0.33685544
138	0x3e0dc93a	0.13846293
139	0xbf7cd8a0	-0.98768044
140	0xbe0181b0	-0.12647128
141	0xbc9a60d1	-0.018844994
142	0xba319c7a	-0.0006775331
143	0x3e12b643	0.1432734
144	0x3ea7ca6b	0.3277162
145	0x3e10dd02	0.14146808
146	0x3ccf2088	0.025284067
147	0xbe95ebdd	-0.29281512
148	0x3e007cf2	0.12547663
149	0x3f4bf9e5	0.79678184
150	0xbe871788	-0.2638514
151	0xbf197aa1	-0.5995274
152	0xbeb2cd43	-0.34922227
153	0xbe87d876	-0.26532334
154	0xbf0873cc	-0.5330169
155	0xbee2de62	-0.4431029
156	0x3f0240b0	0.50879955
157	0x3dcd1603	0.10013964
158	0x3e7721ab	0.24133937
159	0x3ed530de	0.41638845
160	0x3ea0d372	0.3141132
161	0xbed2a0de	-0.41138357
162	0x3e9f66a0	0.31132984
163	0xbf5c2e6a	-0.8600832
164	0xbe70fe5d	-0.23534532
165	0xbe802515	-0.2502829
166	0x3e160f4c	0.14654273
167	0x3e117333	0.14204101
168	0x3e4b56be	0.19857308
169	0x3ec777a8	0.38958478
170	0x3f0c6bea	0.54852164
171	0xbe6fcc0a	-0.23417678
172	0xbd9d1db2	-0.076716796
173	0x3f01fb3d	0.50773984
174	0xbc081c17	-0.008307478
175	0x3e7c924c	0.24665183
176	0xbec61b8f	-0.386929
177	0x3e829e01	0.25511172
178	0x3eff9637	0.49919292
179	0xbc5e4798	-0.013566874
180	0x3d28b60b	0.041189235
181	0x3f04ad0e	0.5182656
182	0xbeba238a	-0.3635524
183	0x3e51becd	0.20482941
184	0xbf708d52	-0.9396564
185	0xbe637aee	-0.22214863
186	0xbec8b3a2	-0.3919955
187	0x3e52030a	0.20508972
188	0x3ebdf90c	0.3710407
189	0x3e6f8b49	0.23392977
190	0x3ec8d735	0.3922669
191	0xbef98cce	-0.48740238
192	0xbf544596	-0.8291868
193	0xbf65aca9	-0.89716583
194	0xbf761b7b	-0.9613568
195	0x3ecd4bd8	0.40096927
196	0x3f0499be	0.5179709
197	0xbeac6f15	-0.336785
198	0xbe77bb44	-0.2419253
199	0x3e9561a0	0.29176044
200	0xbe8cdc6d	-0.27511922
201	0x3ee4cefd	0.4468917
202	0xbf353f45	-0.70799667
203	0xbeba27b6	-0.36358422
204	0xbc81c43b	-0.01584064
205	0x3e4e73cb	0.20161359
206	0xbec379bc	-0.38178813
207	0x3e9cae63	0.30601797
208	0x3e86cb1d	0.26326838
209	0xbe0eb3c7	-0.13935767
210	0xbe8aac40	-0.2708454
211	0xbce7cf08	-0.028296962
212	0x3e6b5536	0.22981724
213	0xbe2cf9aa	-0.16892114
214	0x3ce50fec	0.027961694
215	0xbe30b23c	-0.17255491
216	0x3cc64e01	0.024207117
217	0xbeb2748c	-0.34854543
218	0xbe87f8e6	-0.26557082
219	0x3f8fdd08	1.1239328
220	0xbefb4cef	-0.49082133
221	0x3e30d8d3	0.17270212
222	0x3f299e78	0.6625743
223	0xbdfa5a3a	-0.122242406
224	0xbe0be458	-0.13661325
225	0xbf220634	-0.63290715
226	0xbeadff64	-0.3398391
227	0xbf40062d	-0.75009423
228	0x3e962f25	0.29332843
229	0x3ec6194b	0.38691172
230	0x3e23faaf	0.16013597
231	0x3ed44ec3	0.4146634
232	0x3e82a34d	0.25515214
233	0xbf0ba7c5	-0.5455287
234	0xbe1efd83	-0.15526395
235	0xbf2591ac	-0.646754
236	0x3cdaf1ba	0.026726592
237	0x3dfec87b	0.12440582
238	0x3d7b140d	0.06129842
239	0x3ebc93ad	0.36831418
240	0xbf10e244	-0.56595254
241	0xbe9c8b27	-0.30574915
242	0x3f3ea935	0.7447694
243	0xbceb15e4	-0.028696962
244	0x3f2e7e24	0.68161225
245	0x3f270280	0.6523819
246	0x3ec219e4	0.37910378
247	0x3eff5aa6	0.49873847
248	0x3e53825e	0.206552
249	0x3f0b6759	0.5445457
250	0xbf0e66bf	-0.5562553
251	0x3e810223	0.25196943
252	0xbee2865b	-0.4424313
253	0x3eb3acd8	0.35092807
254	0xbe848460	-0.25882244
255	0xbeda90ad	-0.42688504

fc1.bias f4 [200]
0	0xbef96945	-0.48713127
1	0xbd3f06c3	-0.046637308
2	0xbe786a93	-0.24259405
3	0x3d5d68f8	0.054055184
4	0xbed0d304	-0.40785992
5	0x3ea80417	0.3281562
6	0x3edc4d46	0.43027705
7	0x3eeb4eff	0.45958707
8	0x3ebdaf39	0.37047747
9	0x3e3830fe	0.17987439
10	0x3eafc0c8	0.34326768
11	0x3e8f6ecf	0.28014228
12	0x3dee5d98	0.11638945
13	0xbdf19bf5	-0.117973246
14	0xbd93cf43	-0.072172664
15	0x3e67e3d5	0.22645505
16	0x3ecdd3ae	0.4020056
17	0x3ee6d829	0.45086792
18	0xbe407c25	-0.18797357
19	0xbe1e9183	-0.15485196
20	0x3f0dc020	0.55371284
21	0xbd18f552	-0.03734333
22	0x3ef6d148	0.48206544
23	0x3ebbd265	0.36683956
24	0x3d9ce189	0.07660205
25	0x3e92fb74	0.28707469
26	0x3ecf54d4	0.40494406
27	0x3f237119	0.6384445
28	0xbea60815	-0.3242804
29	0xbe51d06b	-0.20489661
30	0x3d778059	0.060425136
31	0x3ee61604	0.44938672
32	0x3f40478f	0.7510919
33	0x3f0dac4d	0.55341035
34	0x3f019075	0.5061105
35	0x3efa9474	0.48941386
36	0xbd588c19	-0.052867983
37	0xbf2aca80	-0.6671524
38	0x3e84d0be	0.25940508
39	0xbf2a3e76	-0.6650156
40	0x3f317d42	0.69331753
41	0x3ef2baab	0.4740804
42	0x3d7bf51e	0.06151306
43	0x3ed5157d	0.41617957
44	0x3e1e9f5c	0.15490478
45	0xbedbded3	-0.4294344
46	0xbdbaad1e	-0.09115051
47	0x3eb3a447	0.3508627
48	0xbc8aa73c	-0.016925447
49	0xbdcc7472	-0.09983148
50	0xbeb23e41	-0.3481312
51	0x3eb9a530	0.3625884
52	0x3e497195	0.19672234
53	0x3e78ca57	0.24295937
54	0x3f115af6	0.5677942
55	0xbd55d959	-0.052209232
56	0x3e6ff234	0.23432237
57	0xbec16c3d	-0.37777892
58	0xbe83c0c3	-0.25733003
59	0xbee08aa6	-0.4385578
60	0x3e5c6d8e	0.21526167
61	0xbe76421f	-0.2404866
62	0x3dfbb30b	0.12290009
63	0xbe8827de	-0.26592916
64	0x3f070773	0.5274574
65	0x3da429c0	0.08015776
66	0xbeb1bdde	-0.3471517
67	0x3f1bc7af	0.6085157
68	0xbf018d66	-0.5060638
69	0x3f06b714	0.52623105
70	0x3edf4305	0.4360582
71	0x3e90528b	0.28187975
72	0x3eb1d0a3	0.3472949
73	0x3e7a7ad2	0.24460915
74	0xbefda392	-0.49538857
75	0x3ce83da6	0.028349709
76	0x3ea2e820	0.31817722
77	0xbea0bf66	-0.31396025
78	0x3e53ed91	0.20696093
79	0x3f3f5d7f	0.7475204
80	0x3d57f4b0	0.052723587
81	0x3d92c908	0.0716725
82	0xbe02d3ce	-0.1277611
83	0xbe8660eb	-0.26245818
84	0xbe375874	-0.17904836
85	0xbf0ef764	-0.5584624
86	0x3f46127a	0.77371943
87	0x3eae5079	0.3404577
88	0x3dc7c806	0.09754948
89	0x3edbc214	0.42921507
90	0x3f37d79a	0.71813357
91	0x3f30b14b	0.6902053
92	0xbf09916c	-0.5373752
93	0x3ea84700	0.3286667
94	0xbeebd92b	-0.46064124
95	0x3e694739	0.22781076
96	0xbe9f4730	-0.31109
97	0xbe91dc2d	-0.28488293
98	0x3eb99924	0.3624965
99	0x3e992495	0.29910722
100	0x3ed2ab82	0.41146475
101	0x3de7189d	0.112839915
102	0xbe18932e	-0.14899895
103	0x3f2ef926	0.6834892
104	0x3c8e79f6	0.01739214
105	0x3e1ef2e4	0.15522343
106	0x3f06ea2e	0.5270108
107	0xbe8df53f	-0.2772617
108	0x3f0ea621	0.5572224
109	0x3ec41802	0.38299567
110	0x3edb853b	0.42875084
111	0x3e7ef1a9	0.24896874
112	0x3f3702eb	0.7148883
113	0xbe160f91	-0.14654376
114	0xbe8b5efb	-0.27220902
115	0x3eae80bb	0.3408259
116	0x3ed098df	0.4074163
117	0xbeda511e	-0.42640013
118	0xbe04dd1f	-0.12974976
119	0xbddacd33	-0.1068367
120	0xbea72894	-0.32648146
121	0xbee22dd6	-0.44175595
122	0x3e93c052	0.28857666
123	0xbedf7415	-0.4364325
124	0x3eb9ca7d	0.362873
125	0x3f47cf23	0.7805044
126	0x3f6c84f9	0.923904
127	0x3e710879	0.23538388
128	0xbc0cd4e7	-0.008595682
129	0xbe904d53	-0.28183994
130	0xbc217a46	-0.009855812
131	0x3ea62140	0.32447243
132	0x3f2ebbdd	0.68255407
133	0x3ebecb60	0.37264538
134	0xbd45921c	-0.048235044
135	0x3f03d508	0.51496935
136	0x3e639eeb	0.22228591
137	0x3d587ff0	0.052856386
138	0x3efd7dc1	0.49510005
139	0x3f2d9a17	0.6781325
140	0x3d982cdb	0.074304305
141	0x3f09cf4c	0.53831935
142	0xbeacf4e5	-0.3378059
143	0x3ebaed53	0.3650919
144	0xbe8cac90	-0.27475405
145	0x3f0d9cf6	0.5531763
146	0xbef5b060	-0.47986126
147	0xbdf07b1b	-0.117422305
148	0x3e87f42b	0.26553473
149	0xbe0caca1	-0.13737728
150	0x3e133837	0.14376913
151	0xbe6729fc	-0.2257461
152	0x3e5fbc8e	0.21849272
153	0xbecce200	-0.40016174
154	0x3f1724da	0.59040606
155	0x3e9cabbb	0.3059977
156	0x3f5f7760	0.87291527
157	0xbe7c329f	-0.24628685
158	0x3ef17958	0.4716289
159	0x3e9a97b0	0.30193853
160	0xbef8cf1d	-0.48595515
161	0xbe1f32be	-0.155467
162	0xbe1660fe	-0.14685437
163	0x3f258870	0.6466131
164	0xbeae591c	-0.3405236
165	0x3e6cf1c0	0.23139095
166	0xbe0bf279	-0.13666715
167	0xbeb0bdf4	-0.34519923
168	0x3ec6b2cf	0.38808295
169	0xbeeffce9	-0.46872643
170	0x3e5a0d30	0.21294093
171	0x3f3c1a14	0.7347729
172	0x3f0be564	0.546469
173	0xbc0f58d2	-0.008749204
174	0x3f29e3eb	0.663634
175	0x3f16fb24	0.5897696
176	0x3f50a106	0.814957
177	0x3e1e10d4	0.15436107
178	0x3ea861f5	0.32887235
179	0x3f0c894a	0.54896986
180	0x3ed1c056	0.40967053
181	0x3f00649c	0.5015352
182	0x3d9aa7fe	0.07551573
183	0xbecfdb22	-0.40596873
184	0x3e70279d	0.23452611
185	0x3eca7ad3	0.39546832
186	0x3e9b93f8	0.3038633
187	0x3ee68829	0.45025757
188	0x3e9e65fd	0.30937186
189	0x3ec8cc31	0.39218286
190	0x3befdd72	0.0073200995
191	0x3eb5a5a7	0.35477945
192	0x3eb7f57c	0.35929477
193	0xbe8dfdc2	-0.27732664
194	0x3e17894b	0.14798467
195	0xbbd35968	-0.006449867
196	0x3f0cd9b6	0.550197
197	0x3f4f0eb8	0.80881834
198	0x3e73c018	0.23803747
199	0x3e860cf3	0.26181754

fc2.weight f4 [200, 200]
0	0x3f19ae12	0.60031235
1	0xbf49aeab	-0.7878215
2	0x3de548e8	0.111955464
3	0xbea1ac5a	-0.31576806
4	0x3ebdcfe6	0.37072676
5	0x3d80699c	0.062701434
6	0x3e3cb437	0.18428122
7	0x3de95edc	0.11395046
8	0x3e27425e	0.16333911
9	0x3e2ab697	0.16671215
10	0xbe269b2b	-0.1627013
11	0x3de1ba55	0.11021868
12	0x3db44db1	0.08803881
13	0xbf129d97	-0.57271713
14	0xbe316b86	-0.17326173
15	0xbbb2087d	-0.005433141
16	0xbe88491a	-0.26618272
17	0xbe1b5251	-0.1516812
18	0xbd4d9a07	-0.05019572
19	0x3dbdf193	0.09274592
20	0xbe23c744	-0.15993983
21	0xbe138786	-0.14407167
22	0x3c9200c4	0.01782263
23	0xbeae9e98	-0.34105372
24	0x3dccc982	0.09999372
25	0x3e3f5041	0.18682958
26	0x3e1e63aa	0.15467706
27	0x3e93e1be	0.28883165
28	0x3d5166d1	0.051123444
29	0x3dfcf986	0.1235228
30	0xbeb0f4d8	-0.345618
31	0x3ec63d02	0.3871842
32	0x3d87ff8a	0.06640537
33	0xbe7ca264	-0.24671322
34	0x3e1b9f0a	0.15197387
35	0x3dda24cc	0.1065155
36	0xbdb01499	-0.08597679
37	0x3ea53625	0.32267871
38	0x3d58494a	0.05280427
39	0x3e5ae0f6	0.21374878
40	0x3e878c26	0.26474112
41	0xbe03b292	-0.12861088
42	0xbe4947ef	-0.19656347
43	0x3e0fc7da	0.14041081
44	0xbf4e07e7	-0.8048081
45	0x3d9b20d6	0.07574622
46	0x3e54423c	0.20728391
47	0x3e74c9e4	0.2390514
48	0xbed09c22	-0.4074412
49	0xbee7ef5d	-0.45299807
50	0xbd20102a	-0.039077915
51	0x3df4c834	0.11952248
52	0x3da23149	0.07919557
53	0x3dcefe56	0.101071045
54	0xbdbfdb6c	-0.09368023
55	0xbee2388d	-0.4418377
56	0x3da191e3	0.07889154
57	0xbd3b5478	-0.045734853
58	0x3ea2f216	0.31825322
59	0x3d7bc157	0.06146368
60	0xbe4b0e6e	-0.19829723
61	0x3f2dee63	0.67941874
62	0x3cab1ff8	0.020889267
63	0xbf02532f	-0.5090818
64	0x3e00beb7	0.12572752
65	0x3e89f620	0.2694559
66	0x3e23315d	0.159368
67	0x3e16aa20	0.14713335
68	0x3e3e4612	0.18581417
69	0x3de0f387	0.10983949
70	0xbd16beae	-0.03680294
71	0x3e528609	0.20558943
72	0xbb41888a	-0.0029530847
73	0x3d81dd3a	0.06341024
74	0x3c283973	0.010267603
75	0xbe54b039	-0.20770349
76	0x3e1d0844	0.15335184
77	0xbe1a97ab	-0.15096919
78	0x3ed70d53	0.42002353
79	0x3e8035ac	0.25040948
80	0x3ee5f675	0.44914594
81	0x3e543915	0.207249
82	0xbe921c4c	-0.28537214
83	0x3db868cd	0.09004364
84	0xbe5d6623	-0.21620993
85	0x3fdcc033	1.7246155
86	0x3e82ec8e	0.25571102
87	0xbee6ac92	-0.45053536
88	0xbcc74b1f	-0.024327813
89	0x3df8327c	0.12119004
90	0x3d5341bb	0.051576357
91	0x3df2af0d	0.118497945
92	0x3ec64ddd	0.3873128
93	0x3ca41f06	0.020034324
94	0x3e6c86b5	0.23098262
95	0x3ec4a060	0.38403606
96	0x3d84607d	0.06463716
97	0x3da802e5	0.08203677
98	0x3e3d552c	0.18489522
99	0xbdf8b3bb	-0.12143656
100	0x3dda8eda	0.10671778
101	0x3d4a19f0	0.049341142
102	0x3e4ac36d	0.19801112
103	0x3e58b09e	0.21161124
104	0xbed8b341	-0.4232426
105	0xbec8d95e	-0.39228338
106	0x3e029950	0.12753797
107	0x3e7a0788	0.24416935
108	0x3e403a1c	0.18772167
109	0xbe5265b3	-0.20546608
110	0x3e37f1d0	0.17963338
111	0xbf2e6f3c	-0.6813848
112	0x3e32753e	0.17427537
113	0x3dbb6ab8	0.09151214
114	0x3ea83a4a	0.3285697
115	0x3e7ec32f	0.24879144
116	0x3e75b536	0.23994908
117	0x3e8421f8	0.25807166
118	0xbee620a3	-0.44946775
119	0xbeabb706	-0.33538073
120	0x3e8c19b7	0.2736337
121	0xbfb123f2	-1.3839095
122	0x3dd459d6	0.10368697
123	0x3e5e2c05	0.2169648
124	0x3e519898	0.20468366
125	0x3e1be617	0.15224491
126	0x3e888e1d	0.26670924
127	0x3e62da06	0.22153482
128	0x3e76b3a7	0.2409197
129	0x3e07991d	0.13242002
130	0x3e0dc3e9	0.13844265
131	0x3b857ae1	0.004073486
132	0xbd3f3045	-0.046676893
133	0x3e03dca5	0.12877138
134	0x3e43f1c2	0.19135192
135	0x3ddf3805	0.10899357
136	0xbf71fbdf	-0.9452495
137	0xbe3c5d65	-0.18395002
138	0xbd2f41f5	-0.04278751
139	0x3e45c21a	0.19312325
140	0xbdc8c504	-0.09803203
141	0xbe097d89	-0.13426794
142	0xbf38165c	-0.7190912
143	0x3e2a54eb	0.16633956
144	0x3d11f684	0.035635486
145	0x3e18d1ac	0.14923733
146	0x3e81b00d	0.2532963
147	0xbd7fa1e0	-0.062410235
148	0x3e057cf5	0.13035949
149	0x3e018aff	0.12650679
150	0xbea45744	-0.32097828
151	0x3e6e43d5	0.23268063
152	0xbe292c24	-0.16520745
153	0x3c95d71b	0.018291047
154	0x3e2ed6f3	0.17074184
155	0xbebf3918	-0.37348247
156	0x3e7cbc59	0.24681224
157	0x3d953f3b	0.07287451
158	0xbe26dffe	-0.16296384
159	0x3e5b0f24	0.21392494
160	0xbeaa8096	-0.33301228
161	0xbe27df18	-0.16393697
162	0x3d7ebc43	0.06219126
163	0xbd47d310	-0.04878527
164	0xbee49e75	-0.44652143
165	0xbe04f7ba	-0.12985125
166	0xbdd0451d	-0.10169432
167	0xbb8963dd	-0.004192813
168	0x3dcb6a92	0.09932436
169	0xbef24914	-0.4732138
170	0x3e1a1026	0.15045223
171	0x3e43fd20	0.19139528
172	0x3e8932bd	0.26796523
173	0xbe7d93d9	-0.2476343
174	0x3e0d20f4	0.13782102
175	0x3e869ff1	0.262939
176	0x3de58f91	0.11209024
177	0x3eafbb1a	0.34322435
178	0x3d61e10e	0.05514627
179	0x3bb939d7	0.005652647
180	0xbd3ad271	-0.04561085
181	0x3e1c9a28	0.15293181
182	0x3dbe9a0e	0.09306727
183	0x3d198e95	0.037489492
184	0x3e3394ae	0.17537186
185	0x3dd4f354	0.10397974
186	0x3ce43e83	0.02786184
187	0xbe837ba5	-0.2568027
188	0xbadeea37	-0.0017007057
189	0xbe22d5f4	-0.15901929
190	0x3ebf6881	0.37384418
191	0x3d578aa5	0.052622456
192	0x3e3e6c8e	0.18596098
193	0x3cbdca41	0.023167731
194	0x3ef6ad22	0.48178965
195	0xbe54c442	-0.20777991
196	0x3db36d48	0.08761078
197	0x3e1e6d93	0.15471487
198	0xbe817176	-0.25281876
199	0x3db45ac5	0.088063754
200	0xbd901c2b	-0.070366226
201	0x3d4df416	0.050281607
202	0xbc8e7b24	-0.017392702
203	0x3c554ef2	0.01301931
204	0xbd4175b1	-0.04723138
205	0xbb0114c0	-0.0019696206
206	0x3d70c8b2	0.058785148
207	0xbd6b992a	-0.057519116
208	0xbb307900	-0.002692759
209	0x3cbfd358	0.023416206
210	0x3c149dc8	0.009070821
211	0x3c9952f0	0.018716305
212	0xbc9511f0	-0.01819703
213	0xbbb9de49	-0.0056722504
214	0x3d6a9cee	0.057278566
215	0xbd69d980	-0.05709219
216	0x3d06f443	0.03294779
217	0xbd61e853	-0.055153202
218	0xbc570c14	-0.013125438
219	0xbd326cc9	-0.043560777
220	0xbd410674	-0.047125295
221	0x3d141194	0.036149576
222	0xbd89c271	-0.0672654
223	0xbd328eee	-0.04359334
224	0x3bd1e598	0.0064055435
225	0x3bc065a4	0.0058714915
226	0xbd8a1e82	-0.067441
227	0x3d2bcd08	0.04194358
228	0x3c9f335f	0.019433675
229	0xbd6888bc	-0.056771025
230	0xbd6773ce	-0.056506924
231	0x397800c6	0.00023651411
232	0x3d477128	0.0486919
233	0xbc7a3656	-0.015271744
234	0x3d536449	0.05160931
235	0xbb829f22	-0.0039862553
236	0xbd5cdc1d	-0.053920854
237	0xbc3aeb50	-0.011408642
238	0x3c7ae8b0	0.015314266
239	0xbcae8a02	-0.021306042
240	0x3cd7c07f	0.026336906
241	0x3cf8c1cc	0.030365847
242	0xbd178387	-0.03699067
243	0xbcf10c80	-0.029424906
244	0x3cc76098	0.024338052
245	0x3d6643ea	0.05621711
246	0xbcc993fc	-0.024606697
247	0xbd5f76da	-0.054556705
248	0xbd25df89	-0.040496383
249	0x3d56742c	0.052356884
250	0x3c956e59	0.018241094
251	0xbce959b2	-0.028485153
252	0x3d07b0bb	0.033127528
253	0x3d6abe21	0.057310227
254	0x3c105d0a	0.008811245
255	0x3d48dd84	0.04903938

fc2.bias f4 [200]
0	0x3e12b30f	0.14326118
1	0xbce47511	-0.027887853
2	0x3def764a	0.11692484
3	0x3e2ffc42	0.17186072
4	0xbdea9e9c	-0.114560336
5	0x3ea80467	0.3281586
6	0x3e088062	0.13330224
7	0x3eb68954	0.35651648
8	0x3ec8a537	0.3918855
9	0x3ece7479	0.40323237
10	0xbd9d94f1	-0.07694424
11	0x3ead7aa8	0.33882642
12	0xbd804d62	-0.062647596
13	0x3e251e72	0.16124895
14	0xbc75452c	-0.014970105
15	0x3d690936	0.05689355
16	0x3e1ef99a	0.15524903
17	0x3df319cb	0.11870154
18	0x3e132882	0.14370921
19	0x3d21e9d6	0.039529644
20	0xbd398119	-0.045289133
21	0x3e24f930	0.16110682
22	0x3d965a2d	0.073414184
23	0x3e24969a	0.16073075
24	0x3ce8b983	0.028408771
25	0xbde1b1ff	-0.11020278
26	0x3dcf94ec	0.101358265
27	0x3e1175bb	0.14205067
28	0x3dd6d8bf	0.1049056
29	0xbd227f5d	-0.039672244
30	0x3e127229	0.14301361
31	0x3d964c64	0.07338789
32	0x3d9e9d9f	0.077449076
33	0x3e2d18bd	0.16903968
34	0x3e7f4eda	0.24932423
35	0x3de924c1	0.113839634
36	0x3ed882b6	0.42287225
37	0x3ecb1379	0.39663294
38	0xbce85bf5	-0.028364161
39	0x3e68a399	0.22718658
40	0x3ebf19e4	0.3732444
41	0xbdead56d	-0.11466489
42	0x3e2df423	0.16987662
43	0x3e22f59c	0.15914005
44	0xbafd6e06	-0.0019335158
45	0x3d4923ee	0.04910653
46	0xbcbd8833	-0.023136234
47	0x3df14b13	0.117818974
48	0xbe17d875	-0.14828666
49	0x3dac6172	0.08417024
50	0x3cfd0a57	0.03088872
51	0xbd99ca09	-0.07509238
52	0xbae1f86a	-0.0017240171
53	0x3e102916	0.14078173
54	0xbd7d9cd8	-0.061917156
55	0x3d3b81ca	0.045778073
56	0x3db44896	0.08802907
57	0x3e494577	0.19655405
58	0x3d28aa45	0.041178007
59	0x3e85e671	0.26152375
60	0x3d4f6da1	0.05064166
61	0xbd8190c0	-0.06326437
62	0x3e0e590f	0.1390116
63	0xbc8370bd	-0.016044969
64	0x3da4da30	0.080494285
65	0x3e57650b	0.21034639
66	0x3d8865e9	0.06660063
67	0x3d0a16aa	0.03371302
68	0x3dc592b0	0.09647119
69	0x3e195fd4	0.14977962
70	0x3e8f3516	0.2797019
71	0xbc63aaec	-0.013895731
72	0x3e3e5c65	0.18589933
73	0x3c8e76e7	0.017390681
74	0x3e1b5b47	0.15171538
75	0x3cdbfb58	0.026853248
76	0xbcaae397	-0.020860476
77	0x3e4abbb0	0.1979816
78	0x3d50cb1e	0.050974958
79	0x3c8d1218	0.017220542
80	0x3d954396	0.072882816
81	0x3df8588d	0.12126265
82	0x3defa564	0.11701468
83	0x3dc9a3ea	0.09845717
84	0x3d5d59f1	0.054040853
85	0x3e2cbb5f	0.16868351
86	0x3e190baa	0.14945856
87	0x3e899300	0.26869965
88	0xbd81c160	-0.063357115
89	0x3d69a987	0.05704644
90	0xbd0e15e8	-0.03468886
91	0x3e5fe982	0.2186642
92	0x3e1f2a59	0.15543498
93	0x3e3604fd	0.1777534
94	0x3cf3c421	0.029756607
95	0x3dc2fb09	0.095205374
96	0x3ddfa101	0.10919381
97	0x3cb02048	0.021499768
98	0x3dafb6cb	0.08579787
99	0x3d4e4674	0.050360158
100	0x3dd5467f	0.10413837
101	0x3db9cb22	0.09071948
102	0x3eb344a8	0.35013318
103	0xbd1502a2	-0.036379464
104	0x3d8d4956	0.06898753
105	0x3d8aa951	0.06770576
106	0x3e872ddb	0.26402172
107	0x3cef7814	0.029232062
108	0x3ec33f9d	0.3813447
109	0x3d784d4b	0.060620587
110	0x3ec88f94	0.3917204
111	0x3e2fb6f6	0.17159638
112	0xbe037973	-0.12839298
113	0x3e04b833	0.12960891
114	0x3dae66e6	0.0851572
115	0x3e8343bb	0.25637612
116	0x3d2f1b1b	0.04275046
117	0xbc8594f8	-0.016306385
118	0x3ceacfc6	0.028663527
119	0x3edd5e9b	0.4323624
120	0x3ba7ca74	0.00512057
121	0x3cb61702	0.022227768
122	0x3daa5cf7	0.08318513
123	0x3ea970f5	0.33093992
124	0x3ea3488c	0.31891286
125	0xbda8a00c	-0.082336515
126	0xbd70c449	-0.058780942
127	0x3daabb0d	0.08336458
128	0x3dae2034	0.08502236
129	0xbaa412ed	-0.0012517847
130	0xb973844a	-0.00023223567
131	0x3c63b4d2	0.013898091
132	0x3ea17e85	0.3154184
133	0xbd37f457	-0.044910755
134	0x3dde6343	0.108587764
135	0x3e391824	0.18075615
136	0x3de8dcc6	0.11370234
137	0x3da313d8	0.07962769
138	0x3e1d350a	0.15352264
139	0xbd8697bb	-0.06571909
140	0x3e446e66	0.19182739
141	0x3e12461f	0.14284562
142	0x3d9363b1	0.07196749
143	0x3e1deb0a	0.15421692
144	0x3e5a20db	0.21301596
145	0xbdf3d537	-0.11905902
146	0x3cde03f4	0.027101494
147	0x3e77e7ec	0.24209565
148	0x3df8737d	0.12131403
149	0x3e38f71f	0.18063019
150	0x3da93d97	0.082637005
151	0x3e1d24d3	0.15346079
152	0x3cd155b4	0.025553562
153	0x3d61bc14	0.055111006
154	0xbd82f6fa	-0.06394763
155	0x3d3616e8	0.04445544
156	0x3d9e18f3	0.077196024
157	0x3d94f90d	0.07274065
158	0x3e2b22db	0.16712515
159	0x3e9ff1ba	0.3123911
160	0x3da5b616	0.08091371
161	0xbd512ae8	-0.05106631
162	0xbd0a2d56	-0.033734642
163	0xbd9cbc7c	-0.07653138
164	0x3e85ea77	0.26155445
165	0x3d74d4b1	0.05977315
166	0xbdb5711f	-0.08859467
167	0xbdafa3f4	-0.085761935
168	0x3c4f562b	0.012654821
169	0x3e067621	0.13131
170	0x3e0ad3f4	0.13557416
171	0x3e97db49	0.2965949
172	0x3e1d3af0	0.15354514
173	0xbc810cf7	-0.015753252
174	0x3d989207	0.074497275
175	0x3b9222e7	0.004459727
176	0x3eb5fbff	0.3554382
177	0x3d485b3d	0.048915137
178	0x3e7bae24	0.24578148
179	0xbc88af89	-0.016685264
180	0x3ed32a37	0.41243145
181	0x3ea6b186	0.32557315
182	0xbac5d7c6	-0.0015094213
183	0x3d250944	0.04029204
184	0x3db47cfa	0.088129
185	0x3d8b00d8	0.0678727
186	0x3e46ca9a	0.19413224
187	0x3e13fec0	0.14452648
188	0x3e619f6c	0.22033471
189	0x3ef7ab0a	0.4837268
190	0x3db623b5	0.08893529
191	0x3d9da4ed	0.07697473
192	0xbc804e18	-0.015662238
193	0x3da1357e	0.07871531
194	0x3da49bad	0.08037505
195	0xbe951d0f	-0.29123732
196	0x3c600817	0.013673804
197	0x3e9788d8	0.2959659
198	0x3ebc79bf	0.36811635
199	0xbd98e783	-0.07466032

fc3.weight f4 [4, 200]
0	0xbe9f5866	-0.3112213
1	0x3bfbe4eb	0.0076872013
2	0xbe89f0d0	-0.26941538
3	0xbeb9c09a	-0.36279756
4	0xbe051817	-0.12997471
5	0x3f5777ae	0.8416699
6	0xbe97cbf8	-0.29647803
7	0x3f4b9f4d	0.7953995
8	0x3f1e0d0c	0.6173866
9	0x3f8237cc	1.0173278
10	0x3cdd01c1	0.026978375
11	0x3f71595d	0.9427698
12	0xbe89dde7	-0.2692711
13	0xbe7e73a6	-0.24848804
14	0xbd191952	-0.037377663
15	0xbe8666b6	-0.26250237
16	0xbeb4f0ca	-0.35339957
17	0xbeaa5dbc	-0.3327464
18	0xbe8ea2e7	-0.2785866
19	0xbe921a9a	-0.2853592
20	0xbe738404	-0.23780829
21	0xbe9bcbfc	-0.30429065
22	0xbe840195	-0.25782457
23	0xbe6604d5	-0.22462781
24	0x3cb0450c	0.0215173
25	0x3f1bf886	0.6092609
26	0xbe76a5f8	-0.2408675
27	0x3f86579b	1.0495485
28	0xbea4206a	-0.3205598
29	0x3d6adb8b	0.05733828
30	0xbe9aa9d3	-0.3020769
31	0xbe7f9083	-0.2495747
32	0xbe9659ef	-0.2936549
33	0xbe7b2051	-0.24524046
34	0x3f528f65	0.8225005
35	0xbeb0eef5	-0.3455731
36	0x3f243030	0.6413603
37	0x3f48be8d	0.7841576
38	0xbac41929	-0.0014961112
39	0x3f526c26	0.8219627
40	0x3f4243f7	0.75884956
41	0xbed39b12	-0.41329247
42	0xbe9950de	-0.2994451
43	0x3f323bf0	0.6962271
44	0x3cea8703	0.028628832
45	0xbc05185c	-0.0081234835
46	0xbeb80544	-0.35941517
47	0xbe99857a	-0.29984647
48	0x3f80c6c0	1.0060654
49	0xbe94cee9	-0.2906411
50	0x3d71b5f5	0.05901142
51	0xbeb5f863	-0.35541067
52	0xbbc7eefb	-0.0061014867
53	0x3e8fc0f4	0.280769
54	0x3bd60ed1	0.006532528
55	0x3c294af8	0.010332815
56	0xbe8862b3	-0.26637802
57	0xbeaca8b7	-0.3372247
58	0x39d8bf6e	0.00041341357
59	0x3fcfad04	1.6224675
60	0x3e5b374e	0.21407816
61	0x3eceffe7	0.40429613
62	0xbf4a1886	-0.7894367
63	0x3fcae4f1	1.5851117
64	0xbe9a709e	-0.30164045
65	0x3f47146f	0.77765554
66	0x3f5d51de	0.86453044
67	0x3f840e41	1.031685
68	0x3fa4c81a	1.2873566
69	0xbec05bd7	-0.37570068
70	0xbf2d6560	-0.6773281
71	0x3d1593a6	0.03651776
72	0xbe98db75	-0.29854932
73	0xbf004898	-0.5011077
74	0xbe8698da	-0.2628849
75	0xbe893ff1	-0.26806596
76	0xbe386a7b	-0.18009369
77	0xbe9cfd8b	-0.30662188
78	0x3b40534a	0.002934652
79	0x3e9a2bd9	0.30111578
80	0x3f3ac8a9	0.72962433
81	0xbe83a38a	-0.25710708
82	0xbed12e01	-0.4085541
83	0xbe9d67db	-0.30743298
84	0x3f7ead92	0.994836
85	0xbe9bd658	-0.3043697
86	0xbec82f65	-0.3909866
87	0x3f1a4df7	0.60275215
88	0x3d416da0	0.047223687
89	0xbe861458	-0.26187396
90	0xbf0025fe	-0.5005797
91	0x3f372f6e	0.71556747
92	0xbf25010f	-0.6445474
93	0x3f4cef58	0.8005271
94	0x3d4ddb9e	0.05025827
95	0xbeb38f25	-0.35070148
96	0x3fab76f5	1.3395678
97	0xbe79d11f	-0.2439618
98	0xbec0b886	-0.3764078
99	0xbaccea00	-0.0015633702
100	0x3fb53acf	1.4158572
101	0xbe9c4a3c	-0.30525386
102	0x3f1c2e8a	0.6100851
103	0xbc984461	-0.018587293
104	0xbe87f057	-0.26550552
105	0x3c337dc8	0.010955282
106	0x3f55aa7e	0.83463275
107	0x3d099ef5	0.03359886
108	0x3d8d0616	0.068859264
109	0xbea91105	-0.33020797
110	0x3f6b35b7	0.9187884
111	0xbdd44991	-0.10365594
112	0x3f5fb388	0.8738332
113	0xbcc19f19	-0.023635434
114	0xbeabd544	-0.33561146
115	0xbefc594b	-0.49286875
116	0x3b35ca42	0.0027738963
117	0xbf157a39	-0.5838962
118	0x3ec8d86f	0.39227626
119	0x3f77e560	0.96834373
120	0xbd410552	-0.047124214
121	0x3cfbbf45	0.030730853
122	0xbef6fb4d	-0.48238602
123	0x3f35b937	0.7098574
124	0x3f47a137	0.7798037
125	0xbcbe558d	-0.023234153
126	0x3d69a3d2	0.057040997
127	0x3e9f0c8d	0.31064263
128	0xbe51636d	-0.20448084
129	0x3a6e44a1	0.0009089206
130	0x3f9997db	1.1999468
131	0xbe80b246	-0.25136012
132	0x3f09bda7	0.5380501
133	0x3d310e25	0.04322638
134	0xbea82c6b	-0.32846388
135	0xbec1f369	-0.3788102
136	0xbe7f0517	-0.24904285
137	0xbe94a820	-0.2903452
138	0xbeaecaab	-0.34138998
139	0x3c06b42d	0.008221668
140	0xbec63931	-0.3871551
141	0xbe82eb8c	-0.25570333
142	0xbe9addbe	-0.302473
143	0xbe9ef2c9	-0.31044605
144	0x3f4de5e3	0.80428904
145	0x3f544224	0.8291342
146	0x3ee6a9f7	0.45051548
147	0x3f2e3f0c	0.6806495
148	0xbe810342	-0.25197798
149	0xbeaf3833	-0.34222564
150	0xbe92e348	-0.28689027
151	0xbe9513be	-0.29116625
152	0x3d51387e	0.051079266
153	0xbe568127	-0.20947705
154	0x3e9d7ed4	0.30760825
155	0x3d1f38ff	0.038872715
156	0xbe935584	-0.2877618
157	0xbe947f72	-0.29003483
158	0xbeb6b743	-0.35686693
159	0x3f4401eb	0.76565427
160	0xbe85c522	-0.26126963
161	0xbd3a6686	-0.04550793
162	0xbf2e55c7	-0.68099636
163	0x3be0b45a	0.006857437
164	0xbee32f50	-0.44372034
165	0xbe7a5a9d	-0.24448629
166	0x3d0b798b	0.03405146
167	0xbc0599d2	-0.008154349
168	0xbe671555	-0.22566731
169	0xbe8f3f60	-0.2797804
170	0xbea0e542	-0.3142491
171	0x3f3631bc	0.7116964
172	0xbeb0aa49	-0.34504917
173	0xbc4898d5	-0.012243469
174	0xbe4aadd0	-0.19792867
175	0x3e0c58ab	0.13705699
176	0x3f49426a	0.78616965
177	0xbe85571c	-0.26043022
178	0x3f543a71	0.82901675
179	0x3d43631b	0.047701936
180	0x3f4a1c10	0.7894907
181	0x3f1e3849	0.61804634
182	0xbd366a46	-0.044534944
183	0xbe5e57ed	-0.21713229
184	0xbea2c5ac	-0.31791437
185	0xbe9b2afa	-0.30306226
186	0xbe84c0f5	-0.25928465
187	0xbe7c1ab9	-0.24619569
188	0xbea87baf	-0.32906863
189	0x3f1c9d5b	0.61177605
190	0xbe5b8a81	-0.21439554
191	0xbe459f60	-0.19299078
192	0x3cd461e2	0.02592558
193	0x3f3e0325	0.7422355
194	0xbeb4f3c6	-0.35342234
195	0x3fab4b95	1.3382441
196	0xbd4029f2	-0.046915002
197	0x3f434aa4	0.7628577
198	0x3f68d78c	0.909539
199	0x3f902582	1.1261446
200	0xbe99c881	-0.30035785
201	0xbd83956e	-0.06424986
202	0xbe2ba303	-0.16761403
203	0xbe4d27fb	-0.20034783
204	0xbeb90f04	-0.3614427
205	0x3f0c85ee	0.5489186
206	0xbec5ad88	-0.38608956
207	0x3f2b4ca6	0.6691383
208	0x3f591e49	0.84811836
209	0x3f8c564a	1.0963833
210	0x3d326ae5	0.043558974
211	0x3f495247	0.7864117
212	0xbefe6f40	-0.49694252
213	0xbe95d8b0	-0.29266882
214	0x3d0cb450	0.034351647
215	0xbea60db2	-0.32432324
216	0xbe8cde4e	-0.27513355
217	0xbe8df80d	-0.2772831
218	0xbe8aaed2	-0.27086502
219	0xbe5255da	-0.20540562
220	0xbee38523	-0.44437513
221	0xbe372aa3	-0.17887358
222	0xbeaf88a0	-0.34283924
223	0x3ecf7fb5	0.4052712
224	0x3cc95d3d	0.024580592
225	0xbf87972a	-1.0593007
226	0xbe29f001	-0.1659546
227	0x3f3835bc	0.7195699
228	0xbe90751b	-0.28214344
229	0x3d34e37c	0.04416226
230	0xbeb016da	-0.34392434
231	0xbe52884b	-0.20559804
232	0xbe09d2b3	-0.13459282
233	0xbe639030	-0.22222972
234	0x3f0ebb24	0.55754304
235	0xbeb719aa	-0.35761768
236	0x3f483e56	0.7822012
237	0x3f1dd669	0.6165529
238	0x3bc5242c	0.006016275
239	0x3f3962ea	0.72416556
240	0x3f346b3a	0.70476115
241	0xbf08bb84	-0.53411126
242	0xbe683b63	-0.22678904
243	0x3f3e528e	0.7434472
244	0x3d792f8e	0.060836367
245	0x3c7197e7	0.014745689
246	0xbf3b7b5f	-0.73235124
247	0xbee5a19b	-0.44849858
248	0x3fa3536e	1.2759836
249	0xbe9f2ed5	-0.31090418
250	0xbcea1f09	-0.028579252
251	0xbf0b4b03	-0.54411334
252	0x3d4c7fac	0.049926445
253	0x3f479f4e	0.77977455
254	0x3d0cf47e	0.034412853
255	0xbd66c5e6	-0.056341074

fc3.bias f4 [4]
0	0xbda40e8b	-0.08010586
1	0x3d8a843f	0.06763505
2	0x3dbde63f	0.092724316
3	0x3d4801f0	0.048829973
