models/model_run_4.pth (torch, 174149 bytes, 6 tensors)

fc1.weight f4 [200, 8]
0	0x3e50df10	0.20397592
1	0x3e8efbef	0.27926585
2	0x3d3b379d	0.045707334
3	0xbe04d383	-0.1297131
4	0x3f549921	0.83046156
5	0x3f2b44da	0.66901934
6	0xbe86898a	-0.2627681
7	0xbefb12c5	-0.49037758
8	0xbf476c7d	-0.77899915
9	0x3eb697e8	0.3566277
10	0xbe4f0d7b	-0.20219986
11	0x3f229d1f	0.63521
12	0x3f40e60e	0.75351036
13	0x3ecf8f56	0.40539044
14	0xbe8a3c1b	-0.26998982
15	0xbdd9dcde	-0.1063783
16	0xbdd12321	-0.102117784
17	0x3ef888fe	0.48542017
18	0xbef11553	-0.47086582
19	0xbf7bd35c	-0.98369384
20	0x3e85809e	0.2607469
21	0xbf2ac514	-0.6670697
22	0x3d878ef1	0.06619061
23	0xbd6ccda9	-0.05781332
24	0xbda12681	-0.07868672
25	0xbf008086	-0.5019611
26	0x3f156d99	0.5837036
27	0x3e1ffa8f	0.15622924
28	0xbec5fd9a	-0.38670045
29	0x3c15b662	0.009137722
30	0xbe1455aa	-0.14485803
31	0x3f1228ea	0.5709368
32	0x3ebf2883	0.37335595
33	0xbf09639a	-0.53667605
34	0x3e761a9c	0.24033588
35	0x3eab1d5f	0.33420846
36	0xbe06011e	-0.13086364
37	0xbed9bbe3	-0.4252616
38	0x3ec8e68f	0.39238402
39	0xbe730373	-0.23731785
40	0x3da26ff6	0.07931511
41	0xbe13556d	-0.14388056
42	0xbc9d2094	-0.019180574
43	0xbefba5dd	-0.4914998
44	0xbefd3e88	-0.4946177
45	0xbed8febd	-0.4238185
46	0xbdf40d9a	-0.11916657
47	0xbf229803	-0.635132
48	0x3ea7955d	0.32731143
49	0x3d5064e0	0.050877452
50	0x3e0106f0	0.12600303
51	0x3f6693a9	0.9006906
52	0x3d558f67	0.052138712
53	0xbf4bd000	-0.7961426
54	0xbf21a68c	-0.63144755
55	0x3f1179b8	0.56826353
56	0xbf90414e	-1.126993
57	0x3f21b09e	0.6316012
58	0xbe55168e	-0.20809385
59	0x3f0d5391	0.5520564
60	0xbd6f8c34	-0.058483317
61	0xbbf44583	-0.0074545755
62	0x3e7e39c8	0.2482673
63	0xbe773f7b	-0.2414531
64	0xbee93ac8	-0.4555266
65	0xbf02a16d	-0.51027566
66	0xbdb8f0c8	-0.090303004
67	0x3e08c0a7	0.13354741
68	0x3f1d8375	0.6152871
69	0x3e427ab0	0.18992114
70	0x3e9202b0	0.28517675
71	0xbf45754a	-0.77132094
72	0xbe4c1b11	-0.199322
73	0xbead504f	-0.33850333
74	0x3f2809e4	0.6564009
75	0xbf1b9e97	-0.60788864
76	0xbd1c57b9	-0.038169596
77	0xbf3a0a2d	-0.72671777
78	0xbe638f95	-0.22222741
79	0xbe0aad7c	-0.13542742
80	0xbeeecbb7	-0.46639797
81	0x3e913957	0.2836406
82	0x3dd75f97	0.10516279
83	0x3ecdd111	0.40198568
84	0xbeaeab89	-0.34115246
85	0xbe1a1f4d	-0.15051003
86	0x3e5975ef	0.21236394
87	0x3f60897a	0.8770977
88	0xbe7dad44	-0.24773127
89	0x3f09797a	0.53700984
90	0x3dc2a584	0.09504226
91	0x3f1ade4b	0.6049544
92	0x3ea5dae1	0.32393554
93	0xbea59be1	-0.3234549
94	0xbf14eccc	-0.58173823
95	0x3ecf308f	0.40466735
96	0x3d8e1241	0.069370754
97	0xbfb553c0	-1.4166183
98	0xbe88d20c	-0.26722753
99	0x3f4119e9	0.7543016
100	0x3f33df71	0.7026282
101	0x3d9caf68	0.076506436
102	0xbe072658	-0.1319822
103	0x3e959528	0.2921536
104	0xbeae4fa1	-0.34045127
105	0xbd2564e8	-0.040379435
106	0xbf82980a	-1.0202649
107	0x3ef45f49	0.47728947
108	0x3e3f6474	0.18690664
109	0xbf27e2a3	-0.65580195
110	0xbe57daa1	-0.21079494
111	0x3e425f4a	0.18981662
112	0x3f2653dc	0.6497171
113	0xbe76aee5	-0.24090154
114	0x3eb2821f	0.348649
115	0xbf405e00	-0.7514343
116	0x3f03dbe1	0.51507384
117	0x3ea8810d	0.32910958
118	0x3dcd5598	0.10026091
119	0xbe2519ef	-0.16123174
120	0x3f224145	0.63380843
121	0xbcba5038	-0.02274333
122	0xbeab34db	-0.33438763
123	0xbee71663	-0.45134267
124	0x3f2e0b4b	0.6798598
125	0x3e9ff1c6	0.31239146
126	0x3ddf8d4b	0.10915621
127	0xbf457ba3	-0.7714178
128	0x3ebe660c	0.3718723
129	0xbec71593	-0.38883647
130	0x3e9499b1	0.29023507
131	0xbf1a1092	-0.60181534
132	0xbf3313f1	-0.69952303
133	0xbe4d6bc3	-0.20060639
134	0x3e53be8e	0.2067816
135	0xbe8c5a58	-0.27412677
136	0xbdd2b6e8	-0.10288793
137	0xbd4e14af	-0.050312694
138	0xbe8bbac3	-0.27290925
139	0xbd3ac225	-0.045595307
140	0xbe6e14de	-0.23250148
141	0xbdc25e57	-0.0949065
142	0x3e9b488a	0.3032878
143	0x3dcf9741	0.10136271
144	0x3cc43106	0.023949157
145	0xbefe6f44	-0.49694264
146	0x3f31ac31	0.6940337
147	0xbf38545b	-0.72003716
148	0xbf2699a3	-0.6507818
149	0xbe493810	-0.19650292
150	0xbd881d17	-0.066461734
151	0xbb36e62d	-0.0027908192
152	0xbd27b3d6	-0.04094299
153	0x3d1a6f28	0.037703663
154	0xbeccc920	-0.39997196
155	0x3eda25ca	0.42606956
156	0xbebf9a5d	-0.37422457
157	0xbf6b0b6a	-0.9181429
158	0x3e35b1de	0.17743632
159	0x3ea6b589	0.32560375
160	0x3cf2d40f	0.029642133
161	0x3ed927ff	0.42413327
162	0x3ed2d6c4	0.41179478
163	0xbd592726	-0.05301585
164	0x3ebf6aa3	0.37386045
165	0x3e506200	0.20349884
166	0xbea8c0ad	-0.329595
167	0xbf3fd8ae	-0.7494
168	0x3eb5847b	0.35452637
169	0xbe48aa62	-0.19596246
170	0x3ef72060	0.48266888
171	0xbeac40b3	-0.33643112
172	0x3bfd5729	0.0077313376
173	0x3e87a88c	0.2649578
174	0x3ed06957	0.40705368
175	0x3ea37833	0.31927642
176	0x3e1b376a	0.15157858
177	0xbed98a89	-0.42488506
178	0xbe3bf09e	-0.18353507
179	0x3c13185d	0.008977977
180	0x3ed845b3	0.42240676
181	0xbe415c97	-0.18882976
182	0x3d9748bc	0.0738692
183	0x3e6bc14f	0.2302296
184	0x3ec12420	0.37722874
185	0xbc91f792	-0.017818246
186	0xbddc1941	-0.10747004
187	0xbf825919	-1.018344
188	0xbd5dc85f	-0.054146167
189	0x3eb454c1	0.35220912
190	0x3f040e97	0.5158476
191	0x3ee82095	0.45337358
192	0xbd8ef071	-0.06979454
193	0x3e5f871b	0.21828882
194	0xbf00859c	-0.5020387
195	0x3e98e1c4	0.29859746
196	0x3f00c376	0.5029825
197	0x3e76155c	0.24031585
198	0x3ed13a34	0.40864718
199	0x3c96494e	0.018345501
200	0x3e756b7a	0.2396678
201	0x3d4ad38e	0.04951816
202	0xbf253c8c	-0.6454551
203	0xbf4411fa	-0.7658993
204	0x3e55e718	0.20888937
205	0x3dbb3e70	0.091427684
206	0x3e81dc8a	0.2536357
207	0xbcf39bc5	-0.029737363
208	0x3f079c92	0.5297328
209	0xbf0ffb0f	-0.5624246
210	0xbde6b6de	-0.11265348
211	0xbeed61b2	-0.46363598
212	0x3ef6d04f	0.48205802
213	0x3f1e9ced	0.619582
214	0xbe30eb29	-0.17277206
215	0x3eac69ba	0.33674413
216	0x3f49a22a	0.7876307
217	0xbfb07ace	-1.3787477
218	0x3f3ba01e	0.73291194
219	0xbcbdf7ac	-0.023189388
220	0xbddbf0b9	-0.107392736
221	0x3f2679b8	0.6502948
222	0xbdf0fb9e	-0.11766742
223	0xbf128502	-0.57234204
224	0xbe8c6c98	-0.274266
225	0xbe9aae7f	-0.30211255
226	0xbc4603b7	-0.012085847
227	0x3f018f37	0.50609154
228	0xbfa54b7c	-1.2913661
229	0xbec17994	-0.3778807
230	0x3ef43d43	0.4770299
231	0xbf09b96a	-0.53798544
232	0xbe7e0660	-0.2480712
233	0x3e90f72e	0.28313583
234	0xbe36fdec	-0.17870301
235	0x3db481bd	0.08813808
236	0x3eda132a	0.42592746
237	0x3f6a7a5c	0.91592956
238	0xbe8c9c65	-0.2746307
239	0xbdede147	-0.11615234
240	0x3df7b8ef	0.1209582
241	0xbe4b0f9b	-0.19830172
242	0x3f2c09a6	0.6720222
243	0xbf0cf9c5	-0.5506862
244	0xbebc4eac	-0.36778772
245	0xbf0d57c6	-0.55212057
246	0x3e942139	0.28931597
247	0xbd4ac692	-0.049505778
248	0xbedc0023	-0.42968854
249	0xbdc5c605	-0.0965691
250	0x3eceaaae	0.40364593
251	0xbe2b99e6	-0.16757926
252	0x3d5f992d	0.05458944
253	0x3f3aaf99	0.7292419
254	0xbece643a	-0.40310842
255	0xbe540465	-0.20704801

fc1.bias f4 [200]
0	0x3eb0a065	0.3449737
1	0xbe48709c	-0.19574207
2	0xbb45f3df	-0.0030205173
3	0x3e931599	0.28727415
4	0x3f425227	0.75906605
5	0x3f10725b	0.5642449
6	0xbeb966d0	-0.36211252
7	0x3d35dd7a	0.04440067
8	0x3e8f801f	0.28027436
9	0xbea35ad2	-0.31905228
10	0xbe0ac1db	-0.13550512
11	0x3d1c9575	0.03822847
12	0x3e872c95	0.264012
13	0xbd19fe8e	-0.037596278
14	0xbe13948e	-0.14412138
15	0xbecbad47	-0.39780638
16	0x3ea04f0d	0.3131031
17	0x3f1f8b3f	0.6232185
18	0xbea8d4ab	-0.32974753
19	0x3e9da39b	0.30788884
20	0x3ea15000	0.31506348
21	0xbd71c384	-0.05902435
22	0x3f4481d8	0.76760626
23	0xbd3a52f5	-0.04548927
24	0x3f330331	0.69926745
25	0xbe0ba0da	-0.13635579
26	0x3e8f0925	0.27936664
27	0x3e638f09	0.22222532
28	0x3f09fec0	0.5390434
29	0x3e81b40c	0.25332677
30	0xbed94761	-0.4243727
31	0x3d322603	0.043493282
32	0xbee17057	-0.4403102
33	0xbe5e9da3	-0.21739821
34	0x3e530ecb	0.20611112
35	0xbe02b4c4	-0.12764269
36	0x3ed61df7	0.41819736
37	0x3f4c2c92	0.7975551
38	0x3f28cb1f	0.6593494
39	0x3ec29b08	0.38008904
40	0x3ee0a1dd	0.43873492
41	0x3e8bb4fa	0.27286512
42	0xbd969cdc	-0.07354137
43	0x3dd17c3b	0.10228773
44	0xbed7159b	-0.4200867
45	0x3e03d096	0.12872538
46	0x3eb4bf11	0.35302022
47	0x3e804e10	0.25059557
48	0xbea78a7f	-0.32722852
49	0x3e771d2b	0.2413222
50	0x3f378749	0.71690804
51	0x3ed5b233	0.41737518
52	0x3f27194e	0.65272987
53	0x3cc1f24f	0.023675112
54	0xbe8305b0	-0.25590277
55	0x3d75bf32	0.05999679
56	0x3f08ce38	0.53439665
57	0xbef85b15	-0.4850699
58	0x3e8e450f	0.27787063
59	0x3d8619a1	0.06547857
60	0x3dc8ddf2	0.09807958
61	0x3e911a98	0.28340602
62	0x3ec1b4c5	0.3783323
63	0xbe95f198	-0.29285884
64	0xbdc219da	-0.09477587
65	0xbc6da9f6	-0.014505854
66	0x3f6b928b	0.9202048
67	0x3f305eae	0.6889447
68	0xbee91089	-0.45520428
69	0x3ed6b89d	0.41937724
70	0x3ef190f5	0.47180906
71	0x3e2b7dba	0.1674718
72	0x3f4f2bb4	0.8092606
73	0x3e9370c8	0.28796983
74	0x3bc26efb	0.00593364
75	0xbec15413	-0.37759456
76	0xbda5c7a7	-0.08094721
77	0xbec81206	-0.3907625
78	0x3eb1e12d	0.34742108
79	0x3f063d03	0.52436846
80	0x3d9d03b3	0.07666721
81	0x3f310f52	0.69164
82	0x3d8fc4cf	0.0701996
83	0x3e3048e6	0.17215309
84	0x3e8f2a95	0.27962175
85	0xbc1df89d	-0.009641794
86	0x3c4f1bb4	0.012640882
87	0xbe807d26	-0.2509548
88	0x3d4370c2	0.047714956
89	0x3e76690d	0.24063511
90	0x3f399cae	0.725047
91	0x3debf5c0	0.115214825
92	0x3ec2f341	0.38076213
93	0xbe8b3908	-0.2719195
94	0x3f311522	0.6917287
95	0xbf2ff628	-0.6873498
96	0x3f46e3cb	0.77691334
97	0x3f03824f	0.5137071
98	0xbd273cc4	-0.040829435
99	0x3f2af8a0	0.6678562
100	0x3f37c657	0.7178702
101	0xbda76d4d	-0.08175144
102	0x3f8cbb4b	1.0994657
103	0x3f22ae37	0.6354708
104	0x3e5fcec0	0.21856213
105	0x3f248fa7	0.64281696
106	0xbbc2b45b	-0.00594191
107	0x3e87541b	0.26431355
108	0x3e0e4373	0.13892917
109	0x3e915042	0.28381544
110	0xbbfbf82c	-0.0076894965
111	0xbf0fd2f1	-0.56181246
112	0xbe5747f1	-0.21023537
113	0xbdc4d67c	-0.09611222
114	0x3e7a2660	0.24428701
115	0x3e47b7f9	0.19503774
116	0x3f19d201	0.60086066
117	0x3ea73a6a	0.32661754
118	0x3e853ed0	0.26024485
119	0x3eb67567	0.35636446
120	0xbda72e99	-0.08163185
121	0x3f01e7af	0.50744146
122	0xbd8139cd	-0.06309853
123	0xbe3b0992	-0.1826537
124	0x3f0e125b	0.5549676
125	0xbecf2892	-0.4046064
126	0x3e8735e0	0.2640829
127	0xbe41f27c	-0.18940157
128	0xbb08d271	-0.0020877386
129	0x3ed1c3ba	0.4096964
130	0x3f02886b	0.5098941
131	0xbf1513ec	-0.58233523
132	0x3e1ca2c6	0.15296468
133	0x3e277ad3	0.16355447
134	0x3f1b6931	0.60707384
135	0x3ec85853	0.39129886
136	0xbe50d23f	-0.20392703
137	0x3f519067	0.81860965
138	0x3eeac8f9	0.45856455
139	0xbd42fdc9	-0.04760531
140	0x3e4d55c1	0.20052244
141	0x3e935ff9	0.2878416
142	0xbdd2fbf8	-0.103019655
143	0xbe9c55e4	-0.3053428
144	0x3f0392a4	0.5139563
145	0x3efa923c	0.48939693
146	0xbe78e19a	-0.2430481
147	0x3dd55915	0.10417382
148	0x3f022365	0.5083526
149	0x3eb21a38	0.34785628
150	0x3f1fc9fb	0.6241757
151	0x3d6a68ea	0.05722896
152	0x3e8eb587	0.2787287
153	0xbea4568c	-0.3209728
154	0x3f036562	0.5132657
155	0xbf119610	-0.568696
156	0xbf0bc393	-0.545953
157	0x3e5a4da6	0.21318683
158	0x3d74ae2c	0.059736416
159	0x3ed4fcd4	0.41599143
160	0x3f3bb2bc	0.733196
161	0x3e7d26a0	0.24721766
162	0x3f0a8dbb	0.54122514
163	0x3f5beff3	0.8591301
164	0xbe79bcb0	-0.24388385
165	0x3f40e9d0	0.7535677
166	0x3f4d7028	0.8024926
167	0x3e43ee5e	0.19133899
168	0x3ce5cab0	0.02805075
169	0xbf04b753	-0.5184223
170	0x3f207f0c	0.6269386
171	0xbe9d0680	-0.30669022
172	0x3f073cbd	0.52827054
173	0xbed5086c	-0.41607988
174	0x3f0da3f7	0.55328315
175	0xbeb592d2	-0.35463578
176	0x3ec4493c	0.38337123
177	0xbee22375	-0.44167677
178	0x3d8c5580	0.06852245
179	0xbd40bba4	-0.047053948
180	0x3cd5581f	0.026042996
181	0x3eedc7bf	0.46441457
182	0xbea2a71b	-0.31768116
183	0x3f3863b9	0.72027165
184	0x3f37d3f2	0.7180778
185	0xbed70e24	-0.42002976
186	0x3f13b448	0.5769696
187	0x3eee8394	0.4658476
188	0xbf0b1160	-0.5432339
189	0x3f0863a1	0.5327702
190	0xbe1675a5	-0.14693315
191	0xbb342838	-0.0027489793
192	0x3ec5775d	0.3856763
193	0xbea9bf9e	-0.33154005
194	0x3f17d908	0.5931554
195	0x3e5b4292	0.21412113
196	0xbf1d9902	-0.61561596
197	0x3ea99267	0.3311951
198	0x3f1a813f	0.60353464
199	0xbb92cabb	-0.0044797338

fc2.weight f4 [200, 200]
0	0x3ef9b656	0.48771924
1	0xbed10ce5	-0.4083015
2	0x3e4e7984	0.20163542
3	0xbed904f2	-0.42386585
4	0x3f84cacc	1.0374389
5	0xbe11f6ba	-0.14254275
6	0xbe7de6f5	-0.24795134
7	0xbe4b841c	-0.19874614
8	0xbe1aa4cc	-0.15101928
9	0xbf3e8cc6	-0.74433553
10	0xbe8d0568	-0.27543187
11	0x3e968fc1	0.2940655
12	0x3ef0ac6b	0.47006544
13	0x3f11f844	0.5701945
14	0xbe21e1c1	-0.15808775
15	0xbdd1e07f	-0.10247897
16	0xbe9fe1bd	-0.31226912
17	0x3e3b15ac	0.18269986
18	0xbebd5363	-0.36977682
19	0xbc11bf49	-0.008895704
20	0x3eb483ef	0.35256907
21	0xbe008e2d	-0.12554236
22	0xbdc36b32	-0.0954193
23	0x3e7166ee	0.23574421
24	0x3eaa51ec	0.33265626
25	0x3e1782b3	0.14795952
26	0x3b25e564	0.002531373
27	0x3f021049	0.508061
28	0x3fb7ad18	1.4349699
29	0x3e977c6d	0.29587117
30	0xbf23e008	-0.6401372
31	0xbe5810f9	-0.21100225
32	0xbd8e8922	-0.0695975
33	0xbf9e7c97	-1.2381772
34	0x3ef4c2dd	0.4780492
35	0x3f612941	0.87953573
36	0x3f2276e8	0.63462687
37	0xbda4ab78	-0.080405176
38	0x3e23005b	0.15918104
39	0x3e5a0f73	0.21294956
40	0xbf394ee6	-0.72386014
41	0xbd121b79	-0.03567073
42	0xbec28959	-0.37995413
43	0x3f715eb6	0.9428514
44	0xbf853f5a	-1.0409958
45	0xbfb6256f	-1.4230174
46	0xbf06069f	-0.52353853
47	0xbf0cc3ab	-0.54986066
48	0xbea75a28	-0.3268597
49	0x3e8c9fa8	0.27465558
50	0x3d3e86f0	0.046515405
51	0x3f3724ed	0.7154072
52	0x3dd6af91	0.104827054
53	0x3f9ade86	1.2099159
54	0xbfac0858	-1.3440046
55	0xbfcc003f	-1.5937575
56	0xbf7c5607	-0.9856877
57	0xbe557ef8	-0.20849216
58	0x3d13c96f	0.036080774
59	0x3ef71f94	0.4826628
60	0x3f4bc38d	0.7959526
61	0xbe941245	-0.2892019
62	0xbed0536f	-0.40688655
63	0xbf31d34e	-0.6946305
64	0xbee5cd68	-0.44883275
65	0xbe2ba104	-0.16760641
66	0x3dcc9f32	0.099913016
67	0x3e45c10d	0.19311924
68	0xbf05e1bb	-0.5229756
69	0xbf8eb4d9	-1.114894
70	0x3da28683	0.07935812
71	0xbe5f9cd8	-0.21837175
72	0xbdf7f630	-0.121075034
73	0x3e44d5ed	0.19222231
74	0x3f205cf3	0.6264183
75	0xbf972edc	-1.1811175
76	0x3efdacba	0.49545842
77	0xbf7855ef	-0.97006124
78	0xbea68db9	-0.3253
79	0x3dabc8c3	0.08387902
80	0x3ede7a71	0.4345279
81	0x3daf166a	0.08549197
82	0xbe8a22d0	-0.26979685
83	0xbf1bd9dc	-0.608793
84	0xbe9a9d85	-0.30198303
85	0xbe19797d	-0.1498775
86	0x3eba9788	0.36443734
87	0xbf8a2817	-1.0793484
88	0x3fc40998	1.5315428
89	0xbe6fc3e6	-0.23414573
90	0xbc118f92	-0.0088843275
91	0x3ee0e4b9	0.43924502
92	0x3b9c47b6	0.004769291
93	0xbe33e844	-0.17569071
94	0x3e8bcad9	0.27303198
95	0x3d22bd3d	0.039731253
96	0x3f60ffe5	0.87890464
97	0xbe069247	-0.13141738
98	0x3f5224f1	0.8208762
99	0x3ed2a6dc	0.4114293
100	0x3e9136d9	0.28362158
101	0xbf08f74f	-0.5350236
102	0x3e99b4ea	0.3002084
103	0xbdbace7c	-0.09121415
104	0x3e2e0c38	0.16996849
105	0x3f5e59ba	0.8685566
106	0xbeb3b3a8	-0.35098004
107	0xbdeb60a4	-0.11493042
108	0xbd2a3ed9	-0.041563842
109	0xbeb290ef	-0.348762
110	0x3f05fdbf	0.5234031
111	0xbdcd4ed0	-0.10024798
112	0x3f39ecc3	0.72626895
113	0x3f42c2f0	0.760787
114	0xbdd64abd	-0.10463474
115	0x3d66053e	0.056157343
116	0xbe2b9bd9	-0.1675867
117	0xba75e20a	-0.0009379691
118	0xbbe79a8b	-0.0070679835
119	0xbeb3e0f4	-0.35132563
120	0xbddd57ec	-0.108077854
121	0x3ce76bfa	0.02824973
122	0xbf649cb6	-0.8930162
123	0xbea0257e	-0.31278604
124	0x3e4df635	0.20113452
125	0xbce16a23	-0.02751643
126	0xbdd6a4db	-0.104806624
127	0x3e243792	0.16036823
128	0x3f4cec6c	0.8004825
129	0xbe0e8cb3	-0.1392086
130	0xbfb8115e	-1.43803
131	0xbeb7498e	-0.35798305
132	0xbf04727d	-0.51737195
133	0xbc8d58a0	-0.017254174
134	0x3e984faa	0.2974828
135	0xbe087503	-0.13325886
136	0xbf19ca57	-0.6007437
137	0x3d80830d	0.06274996
138	0x3e588430	0.21144176
139	0x3f0961db	0.5366494
140	0xbea86520	-0.32889652
141	0x3fb04d10	1.3773518
142	0xbd73357c	-0.05937718
143	0xbe673679	-0.22579373
144	0xbf38cb59	-0.72185284
145	0x3e9fc111	0.31201985
146	0xbed200ab	-0.41016135
147	0x3f0b5538	0.5442691
148	0x3eb230d9	0.34802893
149	0xbebc735f	-0.3680677
150	0xbe596020	-0.21228075
151	0xbf909ae9	-1.1297275
152	0x3d8a20fc	0.067445725
153	0xbe17305f	-0.14764546
154	0xbe5cbf52	-0.21557358
155	0xbf076643	-0.52890414
156	0xbf54c5dd	-0.83114415
157	0xbeb9a270	-0.36256742
158	0xbf540811	-0.8282481
159	0x3f4bcc87	0.7960896
160	0x3c47361e	0.012158899
161	0x3ed3c421	0.41360572
162	0x3db6d5f2	0.089275256
163	0x3e05998c	0.13046855
164	0x3f0af2ee	0.5427693
165	0x3ec5d683	0.38640222
166	0xbd3f1103	-0.046647083
167	0x3da9b0d2	0.08285679
168	0x3ee943e6	0.45559615
169	0xbe9e0b53	-0.30868015
170	0x3f69ecd3	0.9137699
171	0xbe5419fb	-0.20713036
172	0x3dce1765	0.10063056
173	0xbea77eac	-0.3271383
174	0x3e6ee565	0.23329695
175	0xbe8539fa	-0.26020795
176	0x3f5e391c	0.8680589
177	0xbf6fa9e8	-0.9361863
178	0x3e85b9b8	0.26118255
179	0x3ec1565f	0.37761208
180	0x3e452c6a	0.19255224
181	0xbebba30d	-0.36647835
182	0xbd5c4c49	-0.05378369
183	0x3e0e3709	0.13888182
184	0x3ee7e838	0.45294356
185	0x3e0c19e5	0.13681753
186	0x3e9aac5b	0.30209622
187	0xbf08118b	-0.5315177
188	0xbf1062d8	-0.56400824
189	0x3eabac5f	0.33529946
190	0x3e9f53b8	0.3111856
191	0xbf0570e0	-0.5212536
192	0xbded5f00	-0.115903854
193	0x3f985b2d	1.1902825
194	0xbd8f6990	-0.07002556
195	0x3ecd81f2	0.40138203
196	0xbf30f4d5	-0.69123584
197	0x3e5d8931	0.21634366
198	0x3f489838	0.7835727
199	0x3f2dcd58	0.67891455
200	0x3e18794c	0.14890021
201	0xbf53c5f2	-0.82723916
202	0xbe821bcd	-0.25411835
203	0xbed52db1	-0.41636422
204	0x3f57efe7	0.84350437
205	0xbebc42e9	-0.36769798
206	0x3e813d90	0.2524228
207	0xbf388eee	-0.72093093
208	0xbf39fe70	-0.72653866
209	0xbecc44af	-0.3989615
210	0xbdbad8ba	-0.091233686
211	0x3ea12819	0.31475905
212	0x3f9a6612	1.2062399
213	0x3efd0abd	0.49422255
214	0xbd915e4b	-0.07098063
215	0xbf54df93	-0.8315365
216	0xbede4398	-0.43410945
217	0x3d212b05	0.039347667
218	0xbfca168d	-1.5788132
219	0x3d45d783	0.04830123
220	0xbd9ec69d	-0.07752726
221	0x3d9a51d8	0.07535142
222	0x3ecdf251	0.40223935
223	0x3cb64f52	0.02225462
224	0x3eaac561	0.33353713
225	0x3d9d0dae	0.07668625
226	0x3c83b086	0.016075384
227	0x3f35df37	0.71043724
228	0x3ed37b2a	0.41304904
229	0x3e315cbd	0.17320533
230	0xbf3b3665	-0.73129874
231	0xbede50ea	-0.43421108
232	0xbe332843	-0.17495827
233	0xbf4ce0ef	-0.8003072
234	0x3ea472ae	0.32118744
235	0x3f5afffb	0.85546845
236	0x3f9ebe67	1.2401856
237	0x3e18e85c	0.14932388
238	0x3bb5f736	0.0055531515
239	0x3e56c8e6	0.20975074
240	0xbf0284d0	-0.50983906
241	0x3cc90f60	0.024543464
242	0xbe9d7991	-0.3075681
243	0x3f34f01f	0.70678896
244	0xbebc7853	-0.3681055
245	0xbf81bb34	-1.0135255
246	0xbe4a3023	-0.19744925
247	0xbeb2342b	-0.34805426
248	0xbd549dc2	-0.051908262
249	0x3d28d208	0.041215926
250	0xbd4e023f	-0.05029511
251	0x3f99e721	1.202366
252	0x3e0d135b	0.13776915
253	0x400d96d7	2.2123315
254	0xbfa130cf	-1.259302
255	0xbf0c8554	-0.5489094

fc2.bias f4 [200]
0	0x3e4dcc9f	0.20097588
1	0x3e420984	0.18948942
2	0x3e78e5a9	0.24306358
3	0xbd818b87	-0.06325441
4	0xbd240bf5	-0.040050466
5	0x3e88068c	0.26567495
6	0xbd0b2b41	-0.033976797
7	0x3ecb35d0	0.39689493
8	0x3c8e7131	0.017387958
9	0x3e987938	0.29779983
10	0xbcd8f847	-0.026485575
11	0x3ed5d57a	0.41764432
12	0x3cf4ab7b	0.029866925
13	0xbd767720	-0.0601722
14	0xbcc0cb0f	-0.023534326
15	0xbda7d3ca	-0.081946924
16	0xbcce05c0	-0.025149226
17	0xbda6add8	-0.08138627
18	0xbe366a55	-0.17814
19	0x3e83c8ae	0.25739044
20	0x3c36110b	0.011112462
21	0x3d256231	0.040376846
22	0x3d5edca4	0.054409638
23	0x3e2f6723	0.17129187
24	0x3de298e8	0.11064321
25	0xbd775ef1	-0.060393278
26	0xbe0c3d95	-0.13695367
27	0xbc0d11d4	-0.008610208
28	0x3e1397de	0.14413401
29	0x3de0000d	0.1093751
30	0x3edea3ac	0.43484247
31	0x3d7f5fb3	0.062347125
32	0xbdace95d	-0.08442948
33	0x3e2efdf2	0.1708906
34	0x3e728cd9	0.23686542
35	0x3edc5a3c	0.43037593
36	0x3eb919e5	0.36152568
37	0x3e9538a0	0.29144764
38	0xbc3a0226	-0.011353051
39	0x3e2e59da	0.17026463
40	0xbd86c668	-0.06580812
41	0xbc072100	-0.008247614
42	0x3dfaa6d9	0.12238855
43	0x3e1a884e	0.15091059
44	0xbc005bcf	-0.007834389
45	0x3e43a2d1	0.19105078
46	0x3c39b30d	0.011334193
47	0x3e6b4d0f	0.22978614
48	0xbbd66cab	-0.006543716
49	0x3ca57d94	0.020201482
50	0x3dd68290	0.104741216
51	0xbad8f493	-0.0016552381
52	0x3dbbc3a1	0.09168173
53	0x3ba4b0f0	0.0050259754
54	0x3ebbf0d6	0.3670718
55	0xbd8b5116	-0.06802575
56	0xbd806135	-0.06268541
57	0x3e050e0e	0.12993643
58	0x3d27b070	0.04093975
59	0x3e23b79e	0.15988013
60	0xbd90eaf9	-0.070760675
61	0x3d9725f2	0.07380284
62	0x3cf54600	0.029940605
63	0x3e5329f2	0.2062147
64	0x3e3a5d02	0.18199542
65	0x3e27014d	0.1630909
66	0x3dc36395	0.09540478
67	0x3e451411	0.19245936
68	0xbc35d874	-0.01109897
69	0x3f0aeb1a	0.54264987
70	0xbd07da88	-0.033167392
71	0x3c1bd218	0.0095105395
72	0x3e74ea0d	0.23917408
73	0xbd98c425	-0.074592866
74	0x3da9ea21	0.0829661
75	0xbd9bd5de	-0.07609151
76	0x3e2e4899	0.17019881
77	0x3e0555da	0.13021031
78	0x3c44a27e	0.012001632
79	0x3d0bab53	0.034098934
80	0x3e421407	0.18952952
81	0x3e55cd56	0.2087911
82	0xbd5a4196	-0.053285204
83	0x3d32387b	0.043510895
84	0xbc1e573a	-0.009664351
85	0xbd9ec888	-0.07753092
86	0x3dc75450	0.09732878
87	0x3dc8482d	0.097793914
88	0x3e0ed7da	0.13949528
89	0x3e0d2f0b	0.13787477
90	0xbdeb6727	-0.11494284
91	0xbc8c0024	-0.01708991
92	0x3e05c33f	0.13062762
93	0x3ea241f3	0.3169094
94	0x3e44432b	0.19166248
95	0x3e41deb5	0.18932612
96	0x3d0e0baf	0.03467911
97	0xbd8c0c2c	-0.06838259
98	0x3eb64db6	0.35606164
99	0xbd12d08b	-0.035843413
100	0x3e31bedd	0.17357965
101	0x3db4bd8a	0.08825214
102	0xbd7af202	-0.061265953
103	0x3c52ce51	0.0128665725
104	0x3e3e6393	0.18592672
105	0x3d15b53f	0.036549803
106	0x3e64d3a0	0.22346354
107	0x3e03f43c	0.12886137
108	0x3c203c36	0.00977998
109	0xbd73e2e7	-0.059542563
110	0xbc9cb42c	-0.019128881
111	0x3e57d6fe	0.21078107
112	0x3e05751a	0.13032952
113	0x3e11ad32	0.14226225
114	0xbcb8a4ff	-0.022539614
115	0xbd9fa0f1	-0.07794369
116	0x3ec643cf	0.3872361
117	0x3d09f5a7	0.033681538
118	0xbc9b5abc	-0.018964164
119	0x3e2a0e74	0.16607076
120	0x3d6b9afa	0.057520844
121	0x3ed54f93	0.41662273
122	0x3dc9e4c0	0.09858084
123	0xbd0a6322	-0.033785947
124	0xbdd5608e	-0.10418807
125	0x3ed949ac	0.4243902
126	0xbdb666c0	-0.08906317
127	0x3c0cda93	0.008597034
128	0x3e5ccce0	0.21562529
129	0xbc9eba91	-0.019376071
130	0x3e4d28eb	0.2003514
131	0x3edff5fc	0.4374236
132	0xbd902c1b	-0.070396625
133	0x3cee3890	0.029079705
134	0x3dc2500f	0.09487926
135	0x3d2cad39	0.042157385
136	0x3e6139b2	0.21994665
137	0xbd2751f3	-0.040849637
138	0xbd1276b2	-0.035757728
139	0x3e4416f1	0.19149376
140	0x3e1dad77	0.15398203
141	0xbbadfa29	-0.0053093624
142	0x3dd693cf	0.10477411
143	0x3ddd955f	0.10819506
144	0xbdfe6bb8	-0.124228895
145	0x3eae4539	0.34037188
146	0x3ea557a4	0.32293427
147	0xbc2bdcb0	-0.010489628
148	0x3da345ee	0.079723224
149	0x3e0f2b61	0.13981391
150	0x3a20719b	0.0006120444
151	0xbca845db	-0.020541122
152	0x3dd54161	0.10412861
153	0xbddf7d7d	-0.10912607
154	0x3e012791	0.1261275
155	0x3e0f469e	0.13991782
156	0xbdad7067	-0.08468705
157	0x3ea381a2	0.3193484
158	0x3e534d87	0.20635043
159	0x3c1a09c3	0.009401741
160	0x3e563479	0.20918454
161	0x3e23f97d	0.16013141
162	0x3edccba3	0.43124112
163	0xbd10c1a9	-0.03534094
164	0xbbc3ef0c	-0.0059794243
165	0x3e330fd2	0.17486504
166	0x3e5c9ca5	0.2154413
167	0x3df74cc5	0.120751895
168	0x3c790921	0.01519993
169	0x3d891c84	0.06694892
170	0x3e263164	0.16229779
171	0xbd0a419d	-0.03375398
172	0xbd802ec6	-0.06258921
173	0xbd1a5969	-0.037682924
174	0x3e306af8	0.17228305
175	0x3e8fad50	0.28061914
176	0x3d07a074	0.033112004
177	0x3e39cdb8	0.18144882
178	0x3e574136	0.2102097
179	0xbedd0c6b	-0.43173537
180	0xbd897551	-0.067118295
181	0x3e73388f	0.23752044
182	0xbd8fcbf5	-0.070213236
183	0x3e5edae9	0.21763195
184	0x3b9a074d	0.0047005774
185	0x3e0efb29	0.13962997
186	0x3d448527	0.047978546
187	0x3ec39866	0.38202208
188	0xbd437bea	-0.047725596
189	0xbd2191a7	-0.039445546
190	0xbddc7c4c	-0.10765895
191	0xbdffc21e	-0.12488197
192	0xbde5756c	-0.11204037
193	0x3d0976e5	0.033560652
194	0x3d3398f8	0.043847054
195	0x3db70df2	0.08938207
196	0x3ee785c4	0.45219243
197	0x3cf6e2a6	0.030137371
198	0x3e589e21	0.21154071
199	0x3ea0d58b	0.3141292

fc3.weight f4 [4, 200]
0	0x3effbd6f	0.49949214
1	0x3f8c677f	1.0969085
2	0x3f883d13	1.0643638
3	0xbf039a60	-0.5140743
4	0x3d8e72ff	0.069555275
5	0x3f5df1e2	0.8669721
6	0xbf071685	-0.5276874
7	0x3f6f8af7	0.9357142
8	0x3d475589	0.048665557
9	0x3f07b8df	0.53016466
10	0x3f8b3f17	1.0878628
11	0x3f7811c7	0.96902126
12	0x3ef88411	0.4853826
13	0xbd4e70c0	-0.050400496
14	0x3b858870	0.0040751025
15	0xbe8a0d91	-0.26963475
16	0xbd1543d9	-0.036441658
17	0xbab7eb69	-0.001403195
18	0xbecac22a	-0.3960126
19	0x3f24d55e	0.6438807
20	0xbed4d8b6	-0.41571587
21	0x3d0f6746	0.0350106
22	0xbefb9f00	-0.49144745
23	0xbecf4f3a	-0.40490133
24	0xbec5199d	-0.38496104
25	0x3d18f897	0.03734645
26	0x3e6c74dd	0.23091455
27	0x3d579002	0.05262757
28	0xbef08095	-0.469731
29	0x3f72ba50	0.9481554
30	0x3f7bf127	0.98414844
31	0x3db15dad	0.08660445
32	0x3c2b5c74	0.010459054
33	0xbee8afb2	-0.45446545
34	0xbece3894	-0.4027754
35	0x3f78a3e9	0.9712511
36	0x3f8a3396	1.0796993
37	0x3f37e413	0.7183239
38	0x3b3381b3	0.002739054
39	0xbec60ec9	-0.38683155
40	0xbc842196	-0.016129296
41	0xbcc0c8b6	-0.023533206
42	0xbedd5381	-0.4322777
43	0xbf187883	-0.59558886
44	0x3f228163	0.6347868
45	0x3f40d19c	0.7531984
46	0xbef513f0	-0.47866774
47	0x3ef78b43	0.48348436
48	0x3b8d3bf9	0.004310128
49	0xbd172d5f	-0.036908504
50	0xbecaf0a7	-0.39636728
51	0x3b920972	0.0044566924
52	0xbecf1742	-0.40447432
53	0xbef46c7e	-0.47739023
54	0x3f2a119a	0.6643311
55	0xbf043e7a	-0.5165783
56	0x3d0e6402	0.034763344
57	0xbe820161	-0.25391677
58	0xbf992e19	-1.1967193
59	0xbef6b7a7	-0.4818699
60	0xbede049e	-0.43362898
61	0xbedd2df1	-0.43199113
62	0x3f3d09af	0.738429
63	0xbecdb221	-0.40174964
64	0xbed15b80	-0.4089012
65	0xbed53900	-0.4164505
66	0xbeb4996f	-0.3527331
67	0xbefe7271	-0.49696687
68	0xbf1351e5	-0.57546836
69	0x3f7c6330	0.9858885
70	0x3c381948	0.011236496
71	0xbf7190b5	-0.9436143
72	0x3f60f84a	0.8787886
73	0x3d5776ae	0.052603416
74	0xbe99c19c	-0.30030525
75	0xbe877991	-0.26459935
76	0xbee6b637	-0.45060894
77	0x3f4effce	0.80859077
78	0xbc71dd99	-0.014762306
79	0x3f4f45f5	0.8096612
80	0xbece8a3e	-0.40339845
81	0xbf329a5d	-0.6976679
82	0x391962f7	0.00014628084
83	0x3d842c19	0.064537235
84	0xbf13e098	-0.5776458
85	0x3c8cf51c	0.017206721
86	0xbecf0a6f	-0.40437648
87	0xbdf4923d	-0.11941955
88	0xbed348e7	-0.41266558
89	0xbd77f73e	-0.060538523
90	0xbeffd5b6	-0.49967736
91	0xbee0cc81	-0.43906024
92	0x3e453dbc	0.19261831
93	0x3f40b92d	0.75282556
94	0xbeb2e3fb	-0.3493956
95	0xbee0bbb2	-0.438932
96	0xbecfa593	-0.4055601
97	0xbdb904a0	-0.09034085
98	0x3f8b34a5	1.0875441
99	0xbf49588a	-0.78650725
100	0xbedb14be	-0.42789263
101	0x3e2140aa	0.15747324
102	0xbced8a5c	-0.028996639
103	0x3d87cd12	0.06630911
104	0xbea8bd73	-0.32957038
105	0xbb6b11b4	-0.0035868706
106	0xbeee14d9	-0.4650028
107	0xbf4d543c	-0.80206656
108	0x3eac359a	0.33634645
109	0xbbf31b16	-0.0074190004
110	0x3d0c85b0	0.03430718
111	0xbece4715	-0.40288606
112	0xbeb45370	-0.35219908
113	0xbedb2bdf	-0.42806908
114	0x3f8d816a	1.1055119
115	0xbce82f68	-0.028342918
116	0x3f9c81b6	1.2227085
117	0x3c1453ea	0.00905321
118	0xbd2f2f5f	-0.042769786
119	0x3fc6d021	1.5532266
120	0x3bad5b17	0.0052904
121	0x3f7588b3	0.9591171
122	0x3f95803e	1.1679761
123	0x3d58ebe1	0.052959327
124	0xbeca3332	-0.39492184
125	0x3f8aa634	1.0831971
126	0x3cd12746	0.025531422
127	0x3d797d6e	0.060910635
128	0xbed97190	-0.42469454
129	0xbd452870	-0.048134267
130	0xbe05064a	-0.1299068
131	0x3f8eebf2	1.1165755
132	0x3d165d54	0.0367101
133	0xbef0f999	-0.47065428
134	0xbeddae29	-0.43296936
135	0x3c8ec102	0.017426018
136	0x3d899933	0.067186736
137	0x3cf681db	0.030091217
138	0xbef09d57	-0.4699504
139	0x3f9baeba	1.2162697
140	0x3d8d5eef	0.06902873
141	0xbef7c592	-0.48392922
142	0xbed717ca	-0.42010337
143	0xbeabf65c	-0.33586395
144	0xbf3a502d	-0.7277859
145	0x3f7e4817	0.9932875
146	0x3f71feb1	0.94529253
147	0xbf0f1a39	-0.5589939
148	0x3ee359a5	0.4440433
149	0x3f80df70	1.0068188
150	0xbc449b9f	-0.011999994
151	0xbe6e139b	-0.23249666
152	0xbe8fb8dc	-0.28070724
153	0x3f606465	0.8765319
154	0x3f064cda	0.52461016
155	0xbec42185	-0.38306823
156	0x3f533831	0.82507616
157	0x3f1e8b5a	0.61931384
158	0xbed2514a	-0.41077644
159	0xbb0a1634	-0.0021070363
160	0xbc18af8d	-0.009319198
161	0xbe8e9ca3	-0.2785388
162	0x3f3f8c84	0.74823785
163	0x3d097702	0.03356076
164	0x3f580237	0.8437838
165	0xbe7ea76a	-0.24868551
166	0xbee9bd18	-0.4565208
167	0xbebb56ee	-0.3658976
168	0x3e0bef8c	0.13665599
169	0x3e60d966	0.21957931
170	0xbe5129cb	-0.20426099
171	0xbd0ef3ba	-0.034900405
172	0xbb6bf4d8	-0.0036004093
173	0x3b32e765	0.0027298566
174	0xbf0d0234	-0.55081487
175	0x3f2fddde	0.6869792
176	0x3d07d7e7	0.033164885
177	0xbe58a52c	-0.21156758
178	0xbf0b4d7e	-0.5441512
179	0xbf1aa6a5	-0.6041053
180	0xbc76c76b	-0.015062193
181	0xbe972efd	-0.29528037
182	0x3c1c6c41	0.009547294
183	0x3f26bcf7	0.6513209
184	0x3f61de60	0.8822994
185	0x3e13e2ce	0.14441988
186	0xbf05a332	-0.5220214
187	0x3ec5c8f1	0.3862987
188	0xbed653c1	-0.41860774
189	0x3d21608c	0.039398715
190	0xbe98f938	-0.2987764
191	0xbf19337f	-0.598442
192	0xbea49ec9	-0.32152393
193	0x3b596d81	0.0033176842
194	0x3d00ec50	0.031475365
195	0xbedea02b	-0.43481573
196	0x3f8fca5d	1.1233631
197	0x3c3ea466	0.011635875
198	0xbef08899	-0.46979216
199	0x3f7dd268	0.9914918
200	0x3f27bdfb	0.6552426
201	0x3f9aa4e9	1.2081577
202	0x3f82e871	1.0227185
203	0xbeb6b7b9	-0.35687044
204	0xbd168b96	-0.036754213
205	0x3f72a5ba	0.9478413
206	0xbec7bec0	-0.39012718
207	0x3f8c31a8	1.0952654
208	0x3af7a757	0.0018894476
209	0x3f1ad692	0.6048366
210	0x3f36a88e	0.71350944
211	0x3f780227	0.96878284
212	0x3e6e244b	0.23256032
213	0xbd0dd135	-0.034623343
214	0xbd237835	-0.03990956
215	0xbf333150	-0.6999712
216	0xbd536a58	-0.05161509
217	0xbd1d9d25	-0.038479943
218	0x3e6d615a	0.23181668
219	0xbc4e9a85	-0.0126100825
220	0x3e2174ce	0.15767214
221	0x3bf6fc59	0.0075374064
222	0xbf0545b8	-0.5205951
223	0xbef14608	-0.47123742
224	0xbea8a265	-0.32936397
225	0x3d886697	0.066601925
226	0x3ec4e38f	0.38454863
227	0xbd599218	-0.05311784
228	0xbeba4c1f	-0.363862
229	0x3f6619be	0.8988303
230	0x3f67f0e8	0.9060197
231	0xbe321948	-0.17392457
232	0x3ccfd2bd	0.025369043
233	0xbead377d	-0.33831397
234	0xbeb0d5ce	-0.3453812
235	0x3f86caad	1.0530602
236	0x3f317911	0.6932536
237	0x3f041e35	0.5160859
238	0x3ce2fea2	0.027709309
239	0xbeccbde3	-0.39988622
240	0xbd4a89e9	-0.049447928
241	0x3ccb6fdc	0.024833612
242	0xbee8f102	-0.45496374
243	0xbe2d293b	-0.1691026
244	0x3d97f937	0.07420581
245	0x3f108e25	0.56466895
246	0xbee835c3	-0.45353517
247	0x3f4d2727	0.80137867
248	0x3d6827af	0.05667847
249	0xbd238c04	-0.03992845
250	0xbed88b3a	-0.4229372
251	0x39f39e90	0.0004646671
252	0xbed4def7	-0.4157636
253	0xbeadab81	-0.3391991
254	0x3f460c38	0.77362394
255	0xbe4a845c	-0.19777054

fc3.bias f4 [4]
0	0x3e27fe80	0.16405678
1	0x3d24dbd7	0.040248718
2	0x3d26db34	0.040736392
3	0x3e4e9f29	0.20177902
