models/model_run_11.pth (torch, 75729 bytes, 6 tensors)

fc1.weight f4 [128, 8]
000000 af 52 70 3d 1e dc b4 3d a3 9d a8 bd 81 e7 72 bf
       0.058672603 0.088310465 -0.08233192 -0.94884497
000010 4c aa 0b bf 0b ec 80 be 31 ba 57 3c 89 3d 11 3d
       -0.5455673 -0.25180086 0.01316695 0.035459075
000020 73 54 55 bf d7 d2 b4 bf 2e 19 18 bf cf 26 50 bf
       -0.83331984 -1.4126843 -0.5941342 -0.8130922
000030 3b cf df 3d f0 df 86 bd 3c a1 c0 3d 93 b7 25 bc
       0.10928198 -0.065856814 0.09405753 -0.010114568
000040 da 9f e4 3e 22 e4 ad be 1c 8b 22 3f fc 4f 84 3d
       0.44653207 -0.33963114 0.63493514 0.06460568
000050 51 e3 3e 3f 0b 27 27 3e e2 41 fa 3e d5 cd 7d 3e
       0.7456561 0.16323487 0.4887839 0.2478555
000060 09 36 59 3c 93 23 c2 be a8 f4 4b bb ee 8b f6 be
       0.013257512 -0.37917766 -0.0031121168 -0.48153633
000070 e1 7c 41 3f b2 05 23 3f ff b6 8a bd 53 70 e8 3e
       0.75581175 0.63680565 -0.06773185 0.45398197
000080 0c 91 4b 3e 0e 56 84 bf a9 bd 2d 3e 16 5a 77 3f
       0.1987955 -1.0338762 0.16966881 0.96621835
000090 59 93 36 bf b1 e7 94 be 83 2d 8e 3e 66 2a 66 3e
       -0.71318585 -0.29083017 0.27769098 0.22477111
0000a0 23 87 d6 3e 01 ca 15 3e a2 ae 0d 3f 9a ff 6c be
       0.41899976 0.1462784 0.55344594 -0.2314438
0000b0 f2 d9 58 bf c3 da ba 3d fd 3b 3d 3e 03 61 4c bd
       -0.8470756 0.09123757 0.18479915 -0.049897205
0000c0 3a a3 31 3f ec 38 d4 bf d7 0d bb be 26 d8 e2 3e
       0.6938969 -1.6579871 -0.36533996 0.44305533
0000d0 66 83 32 bf 96 e0 0e bf b0 26 3c bf 7d 38 24 3f
       -0.6973175 -0.5581144 -0.7349653 0.64148694
0000e0 18 42 ca 3c ba 00 0e 3f 9b 1a f4 3e 6c 11 72 be
       0.02468972 0.5546986 0.47676548 -0.23639458
0000f0 58 73 85 bf 89 5b 2b bf ed c8 09 bd 76 67 c5 bd
       -1.0425825 -0.66936547 -0.033638883 -0.09638874
000100 48 f9 a9 bb ac 27 a8 3e 53 00 71 3c 31 55 f9 be
       -0.0051871873 0.32842767 0.01470955 -0.48697808
000110 54 26 3a 3e 25 bd 09 3f b8 1b a1 be e9 27 ee 3e
       0.18178684 0.53804237 -0.3146646 0.46514824
000120 b3 22 e3 bd 82 02 1a 3f ba 4b 85 3e ea 7d 44 bf
       -0.11090603 0.60160077 0.26034337 -0.7675463
000130 ba 0b 20 3f 65 7c 77 3f 24 d2 2f 3f 86 cb 08 bf
       0.62517893 0.96674186 0.68680024 -0.5343555
000140 54 5e 08 bf 6b 82 fc 3e 26 2a a0 3d fd d8 de bd
       -0.53268933 0.4931825 0.07820539 -0.10881231
000150 90 a7 d0 be 62 c8 e9 3e 9a 54 94 3d fc d2 b5 3b
       -0.4075284 0.45660692 0.07242699 0.005548833
000160 41 04 2a bd 02 68 c7 3e 37 36 d5 3c d6 fd 92 3f
       -0.041507963 0.3894654 0.026026828 1.1483715
000170 94 42 04 3f 2a e7 ae 3e 23 d4 19 bc 6e 99 40 bd
       0.5166409 0.3416074 -0.009388956 -0.047021322
000180 dd d3 7e be 70 23 43 3d 94 cf 7d be 63 fc 0a be
       -0.24885507 0.047641218 -0.24786216 -0.1357284
000190 8b c8 10 bf 6b df da be ed 94 2d bf c3 3c a4 3d
       -0.56556004 -0.4274858 -0.6780537 0.08019402
0001a0 50 de 93 bd 01 02 82 3f bc 69 01 3e 06 06 59 3d
       -0.07220137 1.0156862 0.1263799 0.05298426
0001b0 8e 39 1b bf f2 65 71 bf 78 28 93 3e 68 29 41 3d
       -0.60634696 -0.9429618 0.28741813 0.04715863
0001c0 2a 5a eb 3e 37 66 54 3f 7d 0e 81 be 45 98 da bd
       0.45967227 0.8296847 -0.25206366 -0.10673574
0001d0 1a 6a 97 be b9 c4 3d 3e 8b 08 a7 bd 60 f4 8a 3e
       -0.29573137 0.18532075 -0.08155926 0.27139568
0001e0 87 7b 92 be 94 7a 33 3f e5 65 c6 3e 85 9e 14 3f
       -0.2860987 0.70108914 0.38749614 0.5805438
0001f0 38 bd b8 3d d9 c8 3f 3e 25 e2 89 be ce e5 06 3e
       0.090204656 0.18728961 -0.26930347 0.13173601
000200 12 c7 64 bd 04 07 b5 bc a0 f1 b2 bd 04 91 4f bd
       -0.05585391 -0.022098072 -0.087374926 -0.050675407
000210 6e 11 e4 3f 7a 58 87 be 24 30 33 3d c9 e0 0b bd
       1.7817819 -0.2643469 0.043747082 -0.03414992
000220 45 f6 78 3d 9a 45 46 be 16 de 30 3f 5b 63 8a be
       0.060781736 -0.19362488 0.69088876 -0.27028927
000230 71 16 3c bf 5a 93 b5 be 57 f7 04 3e e5 cf 04 be
       -0.7347174 -0.35463983 0.12984978 -0.1296993
000240 e6 a1 ab be f1 c8 1e bd ac 50 82 be e2 1a 38 bf
       -0.33521956 -0.03876585 -0.25452173 -0.7191602
000250 88 29 c2 be 12 fd 89 be 4b 25 3c 3e 33 cb e6 bc
       -0.3792231 -0.2695089 0.18373601 -0.028173065
000260 09 74 09 3e 10 ad 4a 3e a8 8d a6 be 2e 6a 9d 3e
       0.1342317 0.1979258 -0.3252995 0.3074507
000270 0e be 33 3f 8f c6 d4 3d 5e 00 f8 3d 65 b2 ab 3e
       0.70211875 0.103894345 0.12109445 0.33534542
000280 20 08 34 bf bc a7 92 3e a8 fb 00 bf a8 aa b7 3c
       -0.703249 0.28643596 -0.50383997 0.022420242
000290 e1 08 b0 3d 1b 8d fe be 6d bc c3 3c e2 3e cf 3e
       0.085954435 -0.4971703 0.02389356 0.40477663
0002a0 31 28 a7 bd 72 16 ac be d2 c0 8c 3c ea e2 e0 3e
       -0.08161963 -0.33610874 0.017181788 0.43923122
0002b0 39 8b cd bd eb 86 92 3c fb f7 af 3d 42 64 f9 bd
       -0.1003632 0.0178866 0.085922204 -0.12177326
0002c0 27 1b 4c bb 81 4e d6 3e d6 db a7 bd 80 ff 5c bf
       -0.0031144114 0.4185677 -0.08196227 -0.8632736
0002d0 65 18 81 3e 16 05 7e 3e b1 25 ea be 8a b4 08 be
       0.25213924 0.24806628 -0.4573188 -0.1335012
0002e0 18 17 65 3e a6 44 42 3f a4 3a 2c 3e ef 56 27 3f
       0.22372091 0.75886 0.16819245 0.65367025
0002f0 3b d4 a6 3e 44 56 c8 3e 65 7b ad bd 09 94 ed 3c
       0.32583794 0.39128315 -0.08470801 0.029001253
000300 ff a5 c8 3e be 46 61 3b 9c 85 1b be 72 18 34 be
       0.39189145 0.003437444 -0.15187687 -0.1758745
000310 4d b0 f5 3f f0 ef ec 3d 54 de 2c be de ac 8c 3e
       1.9194428 0.11569202 -0.16881686 0.27475637
000320 85 1c 8b be a8 6a f8 3e 25 fd 2e bf 1f b4 08 bf
       -0.27170196 0.48518872 -0.6835502 -0.5339984
000330 e5 d3 d4 be 1a 8e 42 3f 1c df a5 bb e5 f0 60 3e
       -0.41567913 0.7599808 -0.005061997 0.21966894
000340 d9 62 86 be 57 a4 a3 be b9 10 01 be 8d 6c d5 bd
       -0.2624729 -0.3196132 -0.12604035 -0.10421095
000350 ac ca 42 3f 8e f8 5d 3f b7 8f c5 3e 8f 4e 06 bf
       0.760905 0.8670739 0.38586208 -0.5246362
000360 20 9c e5 3a 77 db 5c 3e 88 ff 3b bd d3 37 f3 bd
       0.0017517842 0.21568094 -0.04589799 -0.11875882
000370 e6 20 84 3d 55 11 39 3f a7 d4 6c bf b4 23 1a 3f
       0.064515874 0.7229207 -0.9251198 0.6021073
000380 19 c3 64 3e 10 b5 a5 3e 19 43 12 3f 3e 53 c9 3e
       0.22340049 0.32364702 0.5713363 0.3932132
000390 cc 98 87 bf 99 ef 18 3f c2 b1 66 be da 39 97 3e
       -1.0593505 0.59740597 -0.22528747 0.29536325
0003a0 ac 14 61 3f 98 11 93 3e f9 0b e3 bd 84 c2 a4 bc
       0.8792217 0.2872436 -0.11086268 -0.020112284
0003b0 86 bf 30 3d 29 e1 e3 3e 6c 4f 82 be 2d 43 7d 3e
       0.0431514 0.4450772 -0.2545122 0.24732657
0003c0 dc a2 aa bd 16 c8 5e bc e7 63 8c be 6d 48 54 3e
       -0.08331844 -0.013597509 -0.2741997 0.20730753
0003d0 da e4 49 3f 5e a4 01 be 4b 5b 9e 3b 77 43 bb 3e
       0.78864825 -0.12660357 0.0048326603 0.3657491
0003e0 f8 40 80 bd 98 48 d9 3e d5 66 89 3e b2 6a 76 3f
       -0.06262392 0.42438197 0.26836267 0.96256554
0003f0 5a be bb be b4 39 f0 bd 4a bb 2d be df df 52 bf
       -0.36668664 -0.11729756 -0.16965976 -0.8237285

fc1.bias f4 [128]
000000 13 78 e2 be 78 9d 6a be fe ed a0 3e 7c 72 ee be
       -0.44232234 -0.22911632 0.31431574 -0.4657172
000010 52 0f 9f bd af 4a 75 be 3e 2e 3f 3e 3b 8c be be
       -0.07766594 -0.23954271 0.18669984 -0.37216362
000020 61 db b2 3b 40 0b 92 be 39 07 4f 3f 19 08 0e 3f
       0.005458281 -0.28524208 0.80870396 0.55481106
000030 70 68 bd 3e 67 9b c2 3e 33 2f 36 3f 09 10 b1 3f
       0.36993742 0.38009188 0.7116577 1.3833019
000040 59 b0 a4 bb 3a c3 1d 3f f3 47 ac be 74 12 b0 3e
       -0.005025905 0.6162602 -0.33648643 0.3438908
000050 ae af 38 be 59 3c 6e 3f 5c dd 54 bf 1f 86 80 3f
       -0.18035766 0.93060833 -0.8315027 1.004093
000060 5b 82 c0 3d ce 6e 7f be 65 06 ba 3d 2f a9 24 bf
       0.09399863 -0.24944612 0.09083251 -0.64320654
000070 8a cd 0a bf b5 29 c7 be 7a 83 13 3e d4 d5 cd 3e
       -0.5421988 -0.38899007 0.14405623 0.402022
000080 81 ff 27 be 93 37 d4 3e f6 ce 2b 3e a0 16 12 bd
       -0.16406061 0.4144865 0.16778168 -0.035666108
000090 75 dc 99 3e 5c 4b 2d 3f b2 14 1a bf 50 27 27 bd
       0.30051008 0.67693114 -0.6018783 -0.040808976
0000a0 72 a1 37 bf 8f 80 c1 bd 77 05 99 3f bf ca 26 bd
       -0.7173072 -0.09448349 1.1954793 -0.040720697
0000b0 1d 81 b8 3f 03 dc 5e be d2 82 f9 3e 54 a0 92 3e
       1.4414402 -0.21763615 0.4873262 0.28637946
0000c0 fb 3e cb 3f 70 f6 d9 3e 30 fc 67 3f 70 65 a2 be
       1.5878595 0.4257083 0.9061918 -0.31718016
0000d0 9a 3c 74 3e 75 1e d7 3e 40 5c 37 3d f3 b1 64 3f
       0.23851243 0.42015424 0.04476571 0.8933403
0000e0 2c 89 e5 3e 2f 82 95 be 76 7e 5d 3e 4a 14 a1 3e
       0.44831216 -0.29200885 0.21630272 0.31460792
0000f0 bf df 6c 3f 3e e1 35 3f ec 24 02 3f 20 b4 a6 be
       0.9252891 0.7104682 0.5083759 -0.325593
000100 e7 f3 bd 3e 27 a4 77 3f d1 26 c0 3e 0c 98 87 3e
       0.37100145 0.9673485 0.37529615 0.2648319
000110 b2 a4 4f 3e 62 9c 85 bc df 9f a3 be 8c f0 61 3f
       0.2027767 -0.01630992 -0.3195791 0.8825767
000120 57 f2 46 3e f6 65 62 3e e4 be 5d 3f 45 c5 24 bf
       0.19428383 0.22109208 0.866194 -0.6436351
000130 72 e1 40 be 4d 44 37 3a 12 92 91 3e a9 c0 49 3c
       -0.18836 0.00069910736 0.28431755 0.012314
000140 f3 d1 c6 3c d1 76 b1 bd 64 44 c5 3d 76 71 9a be
       0.024270033 -0.086652406 0.09632185 -0.3016469
000150 0e 2f ab 3e d6 83 81 be a5 84 8b be b1 b9 a7 3d
       0.33434337 -0.25295895 -0.27249637 0.08189715
000160 53 34 7e 3e bd d4 c3 3d df 52 cd be dc cf 0c 3f
       0.24824648 0.09562061 -0.40102288 0.5500467
000170 4a 01 92 3e 7d 48 f3 bb 0a 36 f5 be 10 f9 aa be
       0.28516608 -0.0074244128 -0.4789279 -0.33393145
000180 2a ab f6 3e 34 d7 e5 3e 71 7f f8 3e 1e ec e5 3d
       0.48177463 0.4489075 0.4853473 0.112266764
000190 17 6d c6 3c be f3 37 bf 17 a3 83 bd 3b 33 14 3f
       0.02422194 -0.71856296 -0.06427591 0.5789067
0001a0 3e 82 0e bf 60 7a e8 be 30 04 ca 3e fa 48 9f 3f
       -0.55667484 -0.45405865 0.3945632 1.2444146
0001b0 81 5f 73 3f fd c6 9d bd fc 52 a3 3e da d5 09 bf
       0.950676 -0.0770397 0.3189925 -0.53841937
0001c0 88 8a ea 3e d6 c5 0a 3f 6d a5 81 be ec 66 5f 3f
       0.45808816 0.54208124 -0.25321522 0.8726642
0001d0 a2 26 b1 3e 69 fd 17 3f 10 9c f7 3e a5 7a 90 be
       0.34599787 0.5937105 0.48361254 -0.2821857
0001e0 04 06 3e 3f 98 d6 99 3d 60 41 73 3f 14 a2 12 bf
       0.7422793 0.07511634 0.9502163 -0.5727856
0001f0 1c cc 33 3e 35 68 41 3e 19 54 ce 3d 3d 95 3e 3f
       0.1755833 0.18887408 0.10074634 0.7444647

fc2.weight f4 [128, 128]
000000 58 23 f4 3d 73 4e 09 3f 85 d5 34 3e b1 b7 90 3d
       0.11920804 0.5363533 0.17659576 0.07066286
000010 79 a0 06 3f a3 3b 8c 3e 5f 88 4a bf 29 84 17 bf
       0.5258861 0.2738925 -0.79114336 -0.59186035
000020 f4 9c 2e be 4d d5 cd be 27 41 0e be 4c 63 0e 3f
       -0.1705206 -0.40201798 -0.13892041 0.55620265
000030 d2 d8 29 3e 34 9a ce be 5b 71 60 3e 35 5d 60 3e
       0.16586617 -0.40352023 0.21918242 0.21910556
000040 f7 06 53 bf 7d b0 97 3e 40 99 53 bd 74 dd ae 3e
       -0.824325 0.29626837 -0.051659822 0.3415333
000050 59 d0 3c 3e 61 e8 fd bc a0 d6 85 bf 89 27 8f be
       0.18438853 -0.030994596 -1.0456123 -0.2795985
000060 a3 b2 f0 be e2 e9 cc be 24 38 a3 3e 7f 09 2b bf
       -0.4701129 -0.40022188 0.3187877 -0.66811365
000070 78 36 28 bf a3 0b 01 3f 58 a1 65 3e ff bf 85 3e
       -0.6570811 0.5040838 0.22424829 0.26123044
000080 e0 3f ef be a6 c4 e9 3e 24 a3 2e bf 45 7c 6d 3e
       -0.4672842 0.45657843 -0.6821768 0.23191936
000090 82 16 2c 3e 5a d3 65 be 98 5a 33 3e b1 79 f0 be
       0.16805461 -0.22443905 0.17515028 -0.46967843
0000a0 6c 14 56 3e 37 90 f5 3d 75 6b db 3d f2 55 c0 be
       0.20906228 0.119903974 0.10713855 -0.3756557
0000b0 1a ab e5 3d db f2 68 3e 78 2d fa bd b0 38 52 bd
       0.11214276 0.22748892 -0.12215704 -0.051323593
0000c0 d4 f0 29 3e 7c c8 47 3d 14 4f 4b 3e 78 49 fc be
       0.16595775 0.04877518 0.19854385 -0.49274802
0000d0 cb e7 3d 3e 8f 6d f1 3d 2e 2b 7a 3e 07 aa f6 bc
       0.18545453 0.11788475 0.24430534 -0.030110372
0000e0 10 15 2e 3e 76 e1 46 bf cc a7 d0 3e 81 0d c7 3e
       0.17000222 -0.77687776 0.4075302 0.3887749
0000f0 5a 73 98 be 6f a0 88 bd c7 55 2a be 5a 4b a7 3e
       -0.29775506 -0.06671225 -0.16634284 0.32674676
000100 ae 0e c8 3d 6f 35 69 be 68 85 34 3e d7 1d b2 3d
       0.09768425 -0.2277429 0.17629015 0.08697098
000110 44 49 3f 3e b4 9b bc 3e 7f ee b4 3e 8d 72 7a 3d
       0.18680292 0.36837542 0.35338208 0.0611444
000120 f5 6f 81 3e 77 db 43 bd ae b8 c5 bd dd b4 7e bf
       0.2528073 -0.04781672 -0.096543655 -0.99494725
000130 56 4a 5c 3e c6 3e 48 3e 9a 17 8f 3e b7 c0 7b 3e
       0.21512732 0.19555196 0.27947694 0.24585234
000140 49 68 9f be 57 96 64 bd 31 6b 0c bf ef ed 98 be
       -0.3113425 -0.055807438 -0.5485106 -0.2986903
000150 f8 48 bb be e6 5e 67 3d 44 87 07 bf 60 e6 cf 3d
       -0.36579108 0.056486987 -0.52940774 0.101513624
000160 a7 44 14 be c4 8c b8 bd 0c 9a 91 3e 1e 00 44 3e
       -0.14479314 -0.09011224 0.2843784 0.1914067
000170 b8 44 a1 be 69 7e 5c bf 61 d0 e2 3d c4 e1 61 3e
       -0.3149774 -0.86130387 0.11074901 0.22058779
000180 76 fc d3 bc a9 54 f6 3e 62 bd 9a 3e c4 02 e1 3d
       -0.025877219 0.48111466 0.30222613 0.109868556
000190 42 e4 89 be d5 da 46 3f 13 10 42 3f d2 5d 99 3e
       -0.2693196 0.7767766 0.7580578 0.29954392
0001a0 87 d2 8c 3e 85 af 67 bd 4f df 89 3e 21 a9 23 3e
       0.2750437 -0.056563873 0.26928183 0.15982486
0001b0 c0 21 12 bc 26 53 05 3e 90 c2 18 3f 0b 64 c2 bc
       -0.008919179 0.1302 0.5967188 -0.023729345
0001c0 37 e5 47 3e fa 18 8f be 9a 40 ba 3e 41 81 4e be
       0.19521032 -0.27948743 0.36377412 -0.20166494
0001d0 bd 44 8e 3e d2 e4 17 be 82 ce 5c 3e c8 2e ad 3e
       0.27786818 -0.14833382 0.21563151 0.33824754
0001e0 df 8f 8e 3e 4c ef 09 3e ef f8 cb 3b c6 38 cd 3e
       0.2784414 0.13470191 0.0062247436 0.40082377
0001f0 68 c6 00 3e 7c ed 4d 3d 46 69 9c 3e 8b e0 58 3d
       0.12575686 0.05027531 0.30549067 0.052948516
000200 73 b5 61 bf 8c 3f 39 bf 1f 09 6f bd 53 1a 5d bf
       -0.88167495 -0.7236259 -0.058358308 -0.8636829
000210 9d 89 8c bf 20 34 65 bf c5 19 9a 3f 74 45 39 3e
       -1.0979496 -0.8953266 1.2039114 0.180929
000220 62 d6 ce be ee 54 08 3f e7 93 df 3e 62 5f 0c bf
       -0.40397936 0.5325459 0.43667528 -0.5483304
000230 cd 0e 0c bf 92 a3 8f 3e 1a 04 d1 3e 64 ad 08 3f
       -0.54710084 0.28054482 0.40823442 0.53389573
000240 92 0f 7c 3f aa 0e c9 be c3 fe 0e bf 54 63 bb 3e
       0.9846126 -0.39269 -0.55857486 0.3659922
000250 13 5e 2f bf 33 ec ca 3e ce c0 63 bf f9 96 5c 3f
       -0.6850292 0.3963333 -0.8896607 0.86167866
000260 4e 11 cb 3e ed d2 d5 3e 10 fc 5e bf b5 5f 25 3f
       0.3966164 0.41762486 -0.87103367 0.6459916
000270 46 bb 86 3f 3c 93 21 bf 2c 14 60 bc a7 3d 3d bf
       1.0525901 -0.63115287 -0.013676684 -0.739222
000280 0e 8b 50 3e 0d 56 8a bf b8 dd 0d 3f 3e ce 31 bf
       0.20365545 -1.0807511 0.5541644 -0.69455326
000290 c9 0f b3 be 14 dd 84 3f 18 46 55 bf 1d 21 a8 3e
       -0.3497298 1.0379968 -0.8331008 0.32837763
0002a0 d3 ef 90 bf 2c 73 38 bf 56 c6 20 3f b4 cb 6b 3e
       -1.1323189 -0.7205074 0.62802637 0.23026925
0002b0 f3 db 0c 3f 30 a2 45 bf fc 3c d2 3e 4c 53 a8 be
       0.55023116 -0.77200603 0.41062152 -0.3287605
0002c0 ba 12 38 3f bf cc c3 3c ae 39 c1 3e 5d a0 89 3e
       0.71903574 0.023901341 0.3773932 0.2688016
0002d0 94 5e 9b 3c 1c de 38 bf 28 92 c4 bd 17 85 0d 3f
       0.018965997 -0.7221391 -0.095981896 0.55281204
0002e0 37 19 7b be d8 a1 c5 3e 84 c7 6c 3e cb 86 a0 3c
       -0.24521337 0.3860004 0.23122984 0.019595524
0002f0 b8 69 34 3f 2b 28 9e 3e 7f 7e 13 3f f7 ab 7f bf
       0.70473814 0.3089002 0.5761489 -0.9987177
000300 9a c4 ba be 50 29 90 3e 5b 19 26 bf 01 be 15 bf
       -0.3647812 0.2815652 -0.6488244 -0.5849305
000310 59 39 57 bf b3 0e b7 be c1 0c 95 bf 5b f1 da 3e
       -0.8407188 -0.35753402 -1.1644517 0.42762265
000320 69 20 a6 be bb 4b 1c be ad 92 13 40 06 16 46 3e
       -0.32446602 -0.15263264 2.3058274 0.19344339
000330 45 01 ef be e3 fe 50 bf 40 57 f0 be 28 e6 a9 be
       -0.46680656 -0.81638926 -0.46941566 -0.33183408
000340 df 0d fa 3e 9e 57 06 bf 70 13 13 3f 9f 03 a3 be
       0.48838708 -0.52477443 0.57451534 -0.318387
000350 2e d8 5d 3f d8 34 66 bf 5c 9c 9c 3e 78 2a 13 bf
       0.8665799 -0.89924383 0.30588043 -0.5748668
000360 7a 7b a7 be 29 59 40 3e 50 10 c5 bf db a6 df be
       -0.32711393 0.18784012 -1.5395603 -0.43681988
000370 7d 32 60 3f 98 ca 82 3f f9 0a 44 bf 02 2a 89 bf
       0.8757704 1.0218077 -0.7657924 -1.0715945
000380 74 e3 4c 3e 00 b6 a6 bf cc 6b 08 bf 8f b8 40 bf
       0.20008641 -1.3024292 -0.53289485 -0.75281614
000390 6f e9 b8 3e 1d 22 1c c0 ec 61 78 bc f1 1b d0 3e
       0.36115596 -2.439582 -0.015160065 0.40646318
0003a0 3d 19 a4 bf 57 80 58 bf 49 45 e1 3c 6a 1d d3 3e
       -1.2820202 -0.8457083 0.027498858 0.4123338
0003b0 f4 53 cd 3e c2 89 f7 be ed 09 62 bf e3 70 13 bf
       0.40103114 -0.48347288 -0.88296396 -0.57594126
0003c0 c4 39 a1 be 69 9b 76 3e 3e e4 60 bf 2f 6c 89 3e
       -0.31489384 0.24082722 -0.8784827 0.2684035
0003d0 f1 41 ea be 8a ce 1d 3e 54 08 8d be be 85 80 bf
       -0.45753434 0.1541082 -0.27545416 -1.0040815
0003e0 85 e1 c5 3e a4 65 03 bf 65 6b 02 3f 06 f7 63 bf
       0.3864862 -0.51326966 0.5094512 -0.890488
0003f0 08 fc 0c be b9 4b 59 be ed c1 12 bf 96 b2 11 3f
       -0.13768017 -0.21220292 -0.5732716 0.56913126

fc2.bias f4 [128]
000000 b5 6b 3f 3e b1 b6 26 3f 10 97 ad 3d 38 6f dd 3d
       0.1869343 0.65122515 0.084760785 0.10812229
000010 58 be d8 3e cc 12 1d 3e 35 5e ca 3c a4 a6 f3 3d
       0.4233272 0.15339202 0.024703125 0.118970186
000020 db 49 81 3e 29 60 b3 bc b4 66 97 3d d0 d7 02 3e
       0.2525166 -0.021896439 0.07392636 0.12777638
000030 02 06 91 3d b9 00 0d 3f 45 0a 04 3e cb e2 11 3e
       0.07081224 0.5507923 0.12894543 0.14246671
000040 c1 ca bf bd 9c 79 15 3d 7c 22 7d bc d0 b3 94 3f
       -0.09364844 0.03649293 -0.015450116 1.1617374
000050 05 3a 88 3c c4 d0 e9 3d 50 e7 0a bd 27 ec 55 bd
       0.016629228 0.11416772 -0.033912003 -0.052227166
000060 89 83 7e 3d 58 59 c6 3e 4a d4 c4 3d 99 8b 89 3d
       0.06213716 0.3874004 0.096108034 0.06716079
000070 9a fe fc 3d 9f 59 c5 3d 95 e0 08 3e 08 e3 11 3e
       0.12353249 0.096362345 0.13366921 0.14246762
000080 ea 77 0a 3e 38 a8 d2 3c a8 e0 46 bb 02 dc 31 3d
       0.13522306 0.025714979 -0.0030346308 0.043422706
000090 24 da 4d 3f 88 f3 b6 3e d4 e6 86 bd 5c 19 93 bc
       0.8041098 0.35732675 -0.06586996 -0.017956428
0000a0 4a cb 96 3d ed 81 aa bd d9 20 d3 bc 66 aa d2 bd
       0.07362993 -0.083255626 -0.025772499 -0.10286407
0000b0 5d 51 94 bd 2f 87 3e 3e d6 05 66 3c 16 56 35 3d
       -0.07242081 0.18606256 0.014039477 0.04427155
0000c0 4b c4 fa 3d e0 dd 0c 3e fe f5 f8 3d 72 2c e1 39
       0.12244471 0.13756514 0.12156294 0.0004294846
0000d0 13 43 20 3e af 8a 80 3e 5f c4 6b 3e f9 7c 31 3c
       0.15650587 0.25105807 0.23024128 0.010833018
0000e0 c8 82 70 3d cf 3b 2c bd 27 e3 9f 3d d7 0e 3d 3e
       0.058718473 -0.042049225 0.07806998 0.18462692
0000f0 02 ef 08 3e f6 c9 09 3e 4a 28 f0 3d c2 15 93 3b
       0.13372424 0.13455948 0.117264345 0.0044886777
000100 b5 a9 11 3e fe 9e 1f 3d 1c b1 72 3f 16 85 e0 bc
       0.14224894 0.038969986 0.948015 -0.02740721
000110 b5 62 db 3e 7b 35 01 3e c3 b0 5e 3c 27 60 81 3f
       0.42848745 0.12618057 0.013591948 1.0107468
000120 9b d8 d7 bd 00 4f 32 3d 01 11 b7 bd a9 8e dd 3e
       -0.10539361 0.04353237 -0.0893879 0.43272904
000130 c0 0e d9 bc ff e6 46 3e 85 3e 8c 3f 38 bd d3 bc
       -0.026496291 0.19424056 1.095658 -0.025847062
000140 4a 6a 15 3b b2 3d 9a 3d 06 9f 23 bd 08 4c c8 3d
       0.002279895 0.07531299 -0.03994658 0.09780127
000150 2d ff de bc dc 8a d0 bd c1 b9 7c 3d 0b db f1 3d
       -0.027221287 -0.10182735 0.061700586 0.11809357
000160 42 65 5f 3f 3f dd b1 bd b1 54 0c 3e 17 6c ff bc
       0.8726388 -0.086847775 0.13704182 -0.031179471
000170 74 46 66 3d df be 2e 3d 0b 33 34 3f 8e 16 3e 3e
       0.056219533 0.042662498 0.70390385 0.18563291
000180 0d db 23 3c 4f 25 3d 3e e6 fa 4f 3d eb 83 d6 3d
       0.010000956 0.18471263 0.050776385 0.1047438
000190 6b 4b 17 3f 59 49 d1 3d 34 ed 6d 3e 43 78 82 3d
       0.59099454 0.10219068 0.23235017 0.06370594
0001a0 f7 81 4e 3f b3 d4 bd 3d 65 d3 23 3e 19 f1 4e 3c
       0.8066706 0.09269085 0.1599861 0.012630724
0001b0 62 a9 d2 3e 9e 23 77 bd b4 6e c3 3d 72 1d 1c 3e
       0.41144854 -0.0603367 0.09542599 0.15245607
0001c0 f4 21 15 3e c7 b2 0b 3d 47 4f 2c 3e 4a 33 21 bd
       0.14563733 0.034106042 0.16827117 -0.039355554
0001d0 e1 54 7b 3d 69 bc a3 3c 32 f1 f7 bb 47 ef 8c 3e
       0.061360244 0.019987302 -0.0075665945 0.27526304
0001e0 98 76 6c 3e 3b a0 56 3e d3 31 13 3a f7 ad 80 3e
       0.23092115 0.2095956 0.00056150294 0.25132725
0001f0 66 07 0f 3e c1 39 73 3f d7 57 b8 bd ba 26 0f 3e
       0.13967666 0.9501 -0.09001129 0.13979617

fc3.weight f4 [4, 128]
000000 f7 2c c2 be 88 c2 0b 3f 59 c9 86 be 49 18 01 bf
       -0.3792493 0.54593706 -0.2632549 -0.5042768
000010 4e 3f 13 40 af 00 16 bf b7 58 ac bc 77 9d ca be
       2.3007388 -0.58594793 -0.021038396 -0.3957326
000020 99 77 b4 bf 80 35 6f 3b f2 3a bd be 33 25 94 be
       -1.4098998 0.0036500394 -0.36959034 -0.2893463
000030 ed 7c d1 be 38 ed f2 be e5 11 8f be d1 fc b3 be
       -0.40915623 -0.4744661 -0.2794334 -0.3515382
000040 e7 9b 09 bf 3f ae a5 be d4 87 3c bd 3f 98 fc be
       -0.53753513 -0.32359502 -0.046027973 -0.49334905
000050 7e 95 b0 be e2 9b 86 be 6d 6d 06 3d d6 d8 79 3d
       -0.34489053 -0.26290804 0.0328192 0.060997806
000060 33 c5 cf be b9 9d cd 3f b4 20 a9 be 9e 17 a9 bc
       -0.4058014 1.6063758 -0.33032763 -0.020641144
000070 63 cc fd be 0c 00 5a be cc 45 e6 be 50 43 e1 be
       -0.49569997 -0.2128908 -0.44975126 -0.43996668
000080 5b 50 c6 be 01 c7 97 be 19 d6 82 3d 70 6d 92 3d
       -0.3873318 -0.29644015 0.06388492 0.0714978
000090 75 91 14 bf a1 16 53 be e0 83 c2 bb 59 f7 f4 be
       -0.5803445 -0.20614101 -0.005936131 -0.4784496
0000a0 ee 9d ce be 66 b4 8a 3c b4 98 af be ab ab 11 3d
       -0.40354866 0.016931724 -0.3429619 0.035564106
0000b0 e8 73 43 3c 63 a4 8b 3f 46 8e 7c 3d 8b ac f5 be
       0.01192949 1.0909542 0.06165912 -0.47983202
0000c0 e9 41 ce be 9c 12 8d be 51 cc f2 be 84 7d f0 be
       -0.4028466 -0.2755326 -0.47421506 -0.4697076
0000d0 51 1f 9e be 83 3a b3 be 63 73 9e be 42 80 a6 be
       -0.30883268 -0.35005578 -0.30947408 -0.32519728
0000e0 30 65 c2 be f4 98 59 bd 27 8e b8 be 1a 34 40 bf
       -0.37967825 -0.053124383 -0.36045954 -0.750795
0000f0 75 48 de be cd a3 9f be 5c a8 e0 be f8 57 98 bd
       -0.43414655 -0.31179658 -0.43878448 -0.07438654
000100 6c 0a d3 be 87 c6 15 bf 7c 73 e3 3f 1a 65 93 bd
       -0.4121889 -0.58506054 1.7769618 -0.07197018
000110 90 48 2e 3f f7 e8 a2 be 1a df 6d 3d ee 32 e3 3f
       0.6807947 -0.31818363 0.058074094 1.7749918
000120 42 a3 2f 3d 1a 3d e2 be 9e b8 8e 3d 1a 5a c1 3f
       0.042880304 -0.44187242 0.06968807 1.5105622
000130 40 5d 91 bd b4 35 0f bf e6 79 e9 3f 57 a0 ee be
       -0.07097864 -0.5594132 1.8240325 -0.46606705
000140 ba 51 c4 be 21 55 ba be 67 af 13 bf 26 90 98 be
       -0.38343602 -0.36393073 -0.5768952 -0.29797477
000150 14 7f 81 bb 5f a0 a6 39 9c b8 9a be fc 5d f5 be
       -0.0039519165 0.00031781473 -0.3021897 -0.47923267
000160 1e b2 c7 3f 3b 87 f1 3c a4 7a b9 be 64 4a 5c be
       1.5601232 0.029483428 -0.3622638 -0.21512753
000170 ed b6 ea be b7 9d c0 be 7a 4d 8b 3f 4e 75 e4 be
       -0.45842686 -0.37620327 1.0883019 -0.44620746
000180 05 07 92 3d 5d e1 ba be df 76 75 be 9a 8d c9 be
       0.07130245 -0.36500064 -0.23971127 -0.39365846
000190 49 98 76 3f 79 85 75 be c3 bd f6 be 07 4f ba be
       0.9632612 -0.23976697 -0.48191652 -0.36388418
0001a0 40 a8 10 bf b6 53 9c be b6 28 07 bf 0f 95 e8 be
       -0.5650673 -0.30532616 -0.52796495 -0.45426223
0001b0 b6 37 1b 40 8f 80 9c bb 89 5b f3 be 5a 33 81 be
       2.4252753 -0.0047760676 -0.47530773 -0.2523449
0001c0 c3 d8 c4 be 14 b7 e2 be e8 df 3f bf fb fe ef be
       -0.38446626 -0.44280303 -0.7495103 -0.46874222
0001d0 d2 1e eb be 3c 69 dc be 42 8c d8 be e8 a5 e2 be
       -0.45921952 -0.43049037 -0.42294508 -0.442672
0001e0 5c 8e 35 bf 4a 1d 9d 3e 03 2a 73 3e 89 20 9a bf
       -0.7092035 0.30686408 0.23746495 -1.2041179
0001f0 99 41 c9 be e1 a6 c7 3f 71 c8 0d bd dd 43 fa be
       -0.3930786 1.5597802 -0.034614984 -0.488799
000200 ba 38 0d bf 74 68 65 3f 98 6c ab be 02 57 ea be
       -0.5516468 0.8961251 -0.33481288 -0.45769507
000210 cb 7a f5 3f 7f c1 c3 be 69 d5 a6 3c f1 d1 8d be
       1.9178098 -0.38233563 0.020365434 -0.27699235
000220 fe ff 29 bf ae a0 8e 3d 65 bb de be 4d fc a2 be
       -0.6640624 0.06964241 -0.43502346 -0.31833115
000230 45 ea 0f bf 85 54 14 3e 45 e5 d4 be 70 90 79 be
       -0.5621684 0.14485367 -0.4158117 -0.24371505
000240 25 e0 f1 be ca c6 58 bf 99 4d 00 bb cd 78 22 be
       -0.4724132 -0.8467833 -0.0019577502 -0.15866394
000250 c5 00 bd be 84 da d8 be 05 47 10 3d da 20 82 bd
       -0.3691465 -0.42354214 0.03522398 -0.06353922
000260 38 17 ef be 8c 42 ce 3f 06 b2 ea be 2e 44 d5 bd
       -0.46697402 1.6114058 -0.45838946 -0.10413395
000270 29 c0 a6 be 8d 01 bb be d7 e5 da be 2e 87 6c be
       -0.32568482 -0.3652462 -0.4275348 -0.23098442
000280 24 a8 fa be 92 0f 03 bf f2 7c bf 3d 84 3c 33 3d
       -0.48956406 -0.51195633 0.09350003 0.043758884
000290 4e 5d fa be 6b 65 74 3e fa e3 8c bd a6 0a cf be
       -0.4889931 0.23866813 -0.068794206 -0.40437812
0002a0 3d 31 05 bf 1a f6 13 bd b0 cc eb be 22 a5 10 3d
       -0.52028257 -0.036123373 -0.46054602 0.035313733
0002b0 bf 4c 94 bd 1b 1d ba 3f cb b0 36 3d d1 62 d2 be
       -0.07241201 1.4540132 0.044602197 -0.41091016
0002c0 3f d1 18 bf 39 30 2b bf 13 d2 09 bf 63 19 8f be
       -0.59694284 -0.66870457 -0.5383617 -0.27949056
0002d0 16 2a a7 be bb d1 12 be 1a 18 48 be d6 fd 91 be
       -0.32649297 -0.14337818 -0.19540444 -0.28513974
0002e0 51 a1 0e bf 00 00 50 3a 9a f9 a8 bf 0d 12 8c be
       -0.557149 0.00079345703 -1.3201172 -0.27357522
0002f0 2f a1 9b be 36 ba 90 be 6a 74 01 bf 02 72 80 3d
       -0.3039641 -0.28267068 -0.5056826 0.06271745
000300 61 be b3 be 09 42 b3 be 87 9d eb 3f a1 84 50 bd
       -0.35106185 -0.35011318 1.8407449 -0.050907735
000310 52 10 19 3f a1 c2 de be 8f 73 2c 3a bc ad bb 3f
       0.5979053 -0.43507865 0.0006578499 1.4662395
000320 2a 2a 41 bc ac c5 e7 be c8 41 2b 3d ac 1d a6 3f
       -0.011789838 -0.45268 0.04181078 1.2977805
000330 a2 49 0c bd fc 06 e4 be 50 d8 d3 3f 70 01 d5 be
       -0.03424991 -0.4453658 1.6550388 -0.4160266
000340 2e d7 0d bf c3 cc 01 bf 4c db a1 be f2 4d 02 bf
       -0.55406463 -0.50703067 -0.31612623 -0.50900185
000350 6d 87 b7 3c 06 f2 a5 bc 8d 42 07 bf 50 9a e4 be
       0.022403443 -0.020257007 -0.52835923 -0.4464898
000360 6b f5 ab 3f 51 86 af bc 4f 83 88 be 3d 50 b2 3f
       1.3434271 -0.021426352 -0.2666268 1.3930737
000370 b7 b9 dc be 00 89 a1 be 37 58 73 3f ac b5 88 be
       -0.4311044 -0.31549835 0.9505648 -0.26701105
000380 65 5f 91 bb e1 e5 2a be 3f 86 9d be 9f df e5 be
       -0.0044364207 -0.16689254 -0.30766484 -0.44897172
000390 b9 3d a8 3f 6a 83 a4 be 83 28 69 bf a1 68 af be
       1.3143836 -0.3213151 -0.9107744 -0.34259513
0003a0 90 16 96 3e 11 db ac bf 20 e0 02 bf b6 28 0d bf
       0.2931409 -1.3504354 -0.5112324 -0.55140245
0003b0 ee e2 14 40 aa 01 a6 bd 2e 59 f7 be ed e3 de be
       2.3263507 -0.08105786 -0.48310226 -0.4353327
0003c0 63 a3 e4 be a5 53 fe be c1 1d a8 bf f8 b1 1d bf
       -0.44655904 -0.4967319 -1.313408 -0.61599684
0003d0 d3 93 45 be 73 d4 bb be 45 bc 97 be 0f 55 84 bf
       -0.19294672 -0.36685523 -0.29635826 -1.0338458
0003e0 37 c8 ac bf 4f ba 5e 3f 1b 24 a2 3d 7a a9 5e bf
       -1.3498601 0.87003034 0.07917043 -0.8697735
0003f0 86 46 bc be 9e 11 b9 3f c0 ed 28 3d e2 f3 b9 be
       -0.36772555 1.4458501 0.04124236 -0.3631888

fc3.bias f4 [4]
000000 c9 4e 8e bd 1c 8f db 3d fd 46 b6 bd b9 71 98 bd
       -0.06948621 0.10720655 -0.08900259 -0.07443566
