models/model_run_13.pth (torch, 145937 bytes, 6 tensors)

fc1.weight f4 [256, 8]
0	0x3de121d4	0.1099278
1	0xbf8d9a81	-1.1062776
2	0x3eab737a	0.3348654
3	0xbf02c4c0	-0.51081467
4	0xbe7e4e27	-0.248345
5	0x3d7eab30	0.062174976
6	0x3ed26052	0.41089112
7	0xbd38feb6	-0.045164786
8	0xbd88ff4d	-0.0668932
9	0xbe17faf0	-0.14841819
10	0xbe9df6ff	-0.30852506
11	0x3da07cf0	0.0783633
12	0x3d497723	0.049185883
13	0x3dae21ab	0.085025154
14	0x3e83d6b1	0.25749734
15	0x3dc68b7a	0.09694572
16	0xbba49a44	-0.0050232727
17	0xbf2fae04	-0.686249
18	0xbe425c84	-0.18980604
19	0xbd910be7	-0.07082348
20	0x3f3655a6	0.7122444
21	0x3edf3cd2	0.4360109
22	0x3e27e899	0.16397323
23	0x3e2dcf2a	0.16973558
24	0xbdc3e70c	-0.09565553
25	0x3eb15f89	0.346432
26	0xbe86173e	-0.26189607
27	0xbcab3428	-0.020898893
28	0xbdd8dc37	-0.10588878
29	0x3e623d01	0.22093584
30	0xbf1eae03	-0.6198427
31	0xbee5f5bb	-0.4491404
32	0xbd7299c6	-0.05922868
33	0xbe9f1894	-0.3107344
34	0xbf1b2e80	-0.6061783
35	0x3e03d639	0.12874688
36	0xbe87953a	-0.26481038
37	0xbe3355a4	-0.17513138
38	0xbeaa0bee	-0.33212227
39	0xbe0e09be	-0.13870904
40	0xbc2d46d2	-0.010575967
41	0xbf0f68c8	-0.5601926
42	0xbe4ddc36	-0.20103535
43	0xbe27b38a	-0.16377082
44	0x3f594dfb	0.84884614
45	0x3ef5d0a0	0.4801073
46	0x3e28f357	0.16499077
47	0x3e29841a	0.16554299
48	0x3f350e16	0.7072462
49	0x3de85aa8	0.11345416
50	0x3e98affe	0.2982177
51	0x3efd54cc	0.49478757
52	0xbe4d5dc6	-0.20055303
53	0xbe527d12	-0.20555523
54	0x394f2d49	0.00019757928
55	0x3d084088	0.033264667
56	0xbeceea8b	-0.40413317
57	0xbdd5bab7	-0.10436004
58	0xbcbe70e8	-0.023247197
59	0xbe3f5d94	-0.18688041
60	0x3f0f5b96	0.55999124
61	0x3f339667	0.7015137
62	0x3edc00dc	0.42969406
63	0x3eba7c09	0.36422756
64	0xbeb73716	-0.35784215
65	0xbebd61d2	-0.36988693
66	0xbdf35df1	-0.11883152
67	0xbf20e178	-0.6284404
68	0x3e42d20e	0.19025442
69	0x3e711429	0.23542847
70	0x3ce8cac3	0.028416997
71	0x3e8bd393	0.27309856
72	0x3c765745	0.015035455
73	0xbf139e97	-0.57663864
74	0x3f007224	0.50174165
75	0xbeb97b4a	-0.36226875
76	0xbe9d8afc	-0.307701
77	0xbe959ed7	-0.29222748
78	0xbeed9cd8	-0.46408725
79	0xbdd1727f	-0.102269165
80	0xbe12b66c	-0.14327401
81	0xbf311f90	-0.69188786
82	0x3f810b2e	1.0081537
83	0x3e323b7c	0.17405504
84	0x3ee33884	0.44379056
85	0x3dde7fc6	0.108642146
86	0xbf055a44	-0.5209086
87	0xbdb8b770	-0.09019363
88	0xbf39f718	-0.7264266
89	0x3eac50b8	0.33655334
90	0x3ec6d021	0.38830665
91	0xbde3d713	-0.111250065
92	0xbf269a77	-0.65079445
93	0x3f081ae9	0.5316606
94	0xbbe0a644	-0.006855758
95	0x3dbb67a2	0.09150626
96	0xbeb731bd	-0.35780135
97	0x3e5c40d9	0.21509112
98	0xbd4cd7f9	-0.050010655
99	0xbe49b186	-0.19696626
100	0xbe4d8208	-0.20069134
101	0x3f3e4fb8	0.7434039
102	0x3e88fc8f	0.26755187
103	0xbe9a6b3c	-0.30159938
104	0x3caaa07e	0.020828482
105	0xbcb0dccb	-0.021589657
106	0xbf4b5dbd	-0.7943991
107	0xbebf0c0d	-0.37313882
108	0x3faa8a02	1.3323367
109	0x3f2f2bbb	0.684261
110	0x3e372a07	0.17887126
111	0xbe60065b	-0.21877424
112	0x3dde51b0	0.108554244
113	0x3edd0881	0.4317055
114	0xbebd6da0	-0.369977
115	0x3f348322	0.7051259
116	0x3d1c2e15	0.038129885
117	0xbeaecc53	-0.34140262
118	0xbf29d65f	-0.6634273
119	0x3ee4ba2a	0.44673282
120	0xbda88e44	-0.0823026
121	0x3d947a80	0.072499275
122	0xbf5bec45	-0.85907394
123	0xbedc8345	-0.430689
124	0x3e8678b9	0.2626398
125	0xbe6aa623	-0.22914939
126	0xbe181a28	-0.14853728
127	0x3df9b5dd	0.12192891
128	0xbdcf26da	-0.10114832
129	0xbee848bb	-0.4536799
130	0x3e64e404	0.22352606
131	0xbf06f31d	-0.5271471
132	0x3ea81bf9	0.3283384
133	0x3d45ee65	0.048323054
134	0x3d86a494	0.065743595
135	0x3ec2be4a	0.38035804
136	0x3e3bd40c	0.18342608
137	0x3f29db9c	0.6635072
138	0xbedc4865	-0.43023983
139	0xbe388182	-0.18018153
140	0x3e6b26fa	0.22964087
141	0x3ef4ee39	0.47838
142	0xbf6fcca5	-0.9367164
143	0xbe2973bf	-0.1654806
144	0x3d7bc58b	0.06146769
145	0xbf469d17	-0.7758345
146	0x3e8dec23	0.2771922
147	0xbf53c478	-0.8272166
148	0xbf38bd49	-0.72163826
149	0xbd1f6900	-0.038918495
150	0xbe971bfb	-0.29513535
151	0x3e4f4b2b	0.20243518
152	0x3e55f521	0.2089429
153	0x3dcb110b	0.0991536
154	0x3d735d84	0.059415355
155	0x3ee4b1d0	0.4466691
156	0xbee28f4f	-0.4424996
157	0x3d51727a	0.051134564
158	0x3eaf370c	0.34221685
159	0xbef26a2e	-0.47346634
160	0x3e8261c3	0.2546521
161	0xbf92222b	-1.1416677
162	0x3f4c7dbd	0.7987936
163	0xbf3d5e0c	-0.7397163
164	0x3db7f01e	0.089813456
165	0x3d81b507	0.06333356
166	0xbe0bc3b5	-0.13648875
167	0x3e2468d4	0.16055614
168	0x3e243e2e	0.16039345
169	0xbe3255bd	-0.17415519
170	0xbed0b03a	-0.4075945
171	0xbf555254	-0.8332875
172	0xbf96b2cc	-1.1773314
173	0x3ef0123f	0.4688892
174	0xbc9b5f0d	-0.018966222
175	0x3eb43f10	0.35204363
176	0x3e8d81a7	0.2763798
177	0xbf18f858	-0.5975394
178	0x3ed84b2b	0.4224485
179	0xbea1a94b	-0.31574473
180	0xbe8a75a2	-0.27042872
181	0xbe23ecf5	-0.1600836
182	0x3ec1bb69	0.37838295
183	0x3f0767b7	0.5289263
184	0x3e4aca61	0.19803764
185	0xbe889c27	-0.26681635
186	0x3e809425	0.25113025
187	0xbeb8816a	-0.36036235
188	0xbf3c8f48	-0.7365613
189	0xbcc7bacf	-0.02438107
190	0x3cb1f277	0.021722062
191	0x3f091fc9	0.53564125
192	0x3e5f35d0	0.21797872
193	0x3e787413	0.24263029
194	0x3e48e2ed	0.19617815
195	0x3e724319	0.23658408
196	0x3e32776f	0.17428373
197	0x3e0308a1	0.1279626
198	0xbe9c8a93	-0.30574474
199	0xbf2d9051	-0.67798334
200	0x3e5aa2e3	0.21351199
201	0x3deb6a9e	0.11494945
202	0xbea7568f	-0.32683226
203	0x3f1f47c0	0.62218857
204	0xbd27a33a	-0.04092715
205	0xbd1c8b7a	-0.038218953
206	0x3d3bb796	0.045829378
207	0xbe968209	-0.29396084
208	0xbed34e8c	-0.41270864
209	0xbcf837b9	-0.030300008
210	0x3d7fe435	0.062473495
211	0x3e1e7100	0.15472794
212	0x3d174d42	0.036938913
213	0x3f256012	0.64599717
214	0xbc4b7b6d	-0.012419564
215	0xbf165a3f	-0.58731455
216	0x3ecc83a2	0.39944178
217	0x3e2c3ef3	0.16820888
218	0xbd3d9bd5	-0.04629119
219	0x3d0a1aa5	0.033716816
220	0xbe8a2c40	-0.26986885
221	0xbf2678cd	-0.6502808
222	0xbeafb11b	-0.34314808
223	0x3ec5c77e	0.38628763
224	0xbcea792e	-0.028622236
225	0x3f098071	0.5371161
226	0x3e1ef818	0.15524328
227	0xbde1adf4	-0.11019507
228	0xbf2d8fae	-0.6779736
229	0xbeccc587	-0.3999445
230	0xbdae4a97	-0.08510321
231	0x3d2bb4da	0.04192052
232	0xbe4ed19a	-0.20197144
233	0xbe9ac3da	-0.30227548
234	0xbd260079	-0.040527795
235	0xbda0d545	-0.07853178
236	0x3df7b69e	0.12095378
237	0x3f1c5818	0.6107192
238	0xbe167c45	-0.14695843
239	0xbf8cc48a	-1.0997479
240	0x3f017c38	0.5058017
241	0xbd9a7611	-0.07542051
242	0x3d7ea908	0.06217292
243	0xbb91277a	-0.004429755
244	0xbed54aaa	-0.41658527
245	0x3e94ed66	0.2908737
246	0xbeddcc3f	-0.4331989
247	0x3e6b7597	0.22994076
248	0xbf2281d2	-0.6347934
249	0xbdbf0d47	-0.09328704
250	0xbec40a32	-0.38289028
251	0x3e99ed3e	0.30063814
252	0x3e9a1bfa	0.3009947
253	0xbe9db480	-0.30801773
254	0x3ef5c282	0.4799996
255	0xbe78d017	-0.2429813

fc1.bias f4 [256]
0	0xbe2eaf19	-0.17058982
1	0x3f2530f2	0.6452781
2	0x3ece77e9	0.4032586
3	0x3ee549cc	0.44782865
4	0x3ef05cd8	0.46945834
5	0x3f0026b8	0.5005908
6	0xbed92b5f	-0.42415902
7	0xbdff0575	-0.12452213
8	0xbe8e6e4b	-0.27818522
9	0x3e96ec5b	0.294772
10	0xbf01fbfe	-0.50775135
11	0xbe0d731e	-0.13813445
12	0x3ebb4dc8	0.3658278
13	0x3d2f926b	0.042864244
14	0x3f078390	0.52935123
15	0xbf20f976	-0.6288065
16	0x3eec7f97	0.46191093
17	0xbe1d904c	-0.15387076
18	0xbe0880af	-0.13330339
19	0x3f0b8aa7	0.5450844
20	0xbf14c847	-0.581181
21	0xbcaed6db	-0.021342685
22	0xbe6374a6	-0.22212467
23	0xbe8d8461	-0.2764006
24	0x3f0ff8a7	0.5623879
25	0x3f443775	0.7664712
26	0x3ec4ab2f	0.38411853
27	0xbd6ca105	-0.057770748
28	0xbefc1da4	-0.49241364
29	0xbd2e0734	-0.04248734
30	0x3e5de157	0.21667992
31	0x3e687c94	0.22703773
32	0xbe977854	-0.2958399
33	0x3ea2e784	0.31817257
34	0x3ea24246	0.31691188
35	0x3ed5b141	0.41736796
36	0xbe5ad424	-0.21369988
37	0x3ddeae1f	0.10873055
38	0xbe71f7d8	-0.23629701
39	0x3eb1d45e	0.34732336
40	0x3efcbc1a	0.4936226
41	0x3c54bb97	0.012984178
42	0xbcee6249	-0.0290996
43	0x3ebf9767	0.37420198
44	0xbe4d281a	-0.20034829
45	0x3f13a289	0.57669884
46	0x3e956952	0.29181916
47	0xbec5281f	-0.38507172
48	0xbca75423	-0.020425862
49	0x3e85e9a7	0.26154825
50	0x3e75d0b5	0.24005397
51	0x3a2b9d57	0.0006546578
52	0x3e8f40ad	0.2797903
53	0x3d499904	0.049218193
54	0xbf349a36	-0.7054781
55	0x3ea590e3	0.32337102
56	0xbf0b7c06	-0.5448612
57	0x3f48b466	0.78400266
58	0x3e149f93	0.14513998
59	0xbea0b699	-0.3138931
60	0x3f3f4d41	0.74727255
61	0xbee595ff	-0.44841
62	0x3ec8bcbb	0.3920649
63	0x3d678898	0.05652675
64	0x3f487bdd	0.78314
65	0xbe583d7f	-0.21117209
66	0xbd8b75f5	-0.06809608
67	0xbebfd241	-0.37465099
68	0xbd02b757	-0.031913128
69	0x3eec9b09	0.46212032
70	0xbeae0f7c	-0.3399619
71	0x3f33b93c	0.7020452
72	0xbdf47edc	-0.11938259
73	0x3e5c4eb3	0.21514396
74	0x3da296f6	0.0793895
75	0xbeeb8697	-0.4600112
76	0x3e2e5145	0.1702319
77	0xbd2c8327	-0.042117264
78	0x3d38747c	0.045032963
79	0x3ea79890	0.32733583
80	0xbe1e05a8	-0.15431845
81	0xbbf973b9	-0.007612672
82	0xbc5cab66	-0.013468599
83	0xbc8391a3	-0.016060656
84	0x3e93b63a	0.28849965
85	0xbdb9e01d	-0.09075949
86	0x3db5dc03	0.088798545
87	0x3f2fb38f	0.6863336
88	0x3ec8b272	0.39198643
89	0x3ea7d57b	0.3278006
90	0x3e2bbf0c	0.16772097
91	0xbf5c52ce	-0.8606385
92	0xbdcd1222	-0.10013224
93	0x3ebf7fb2	0.3740211
94	0x3e6bf169	0.2304131
95	0x3c8c77fb	0.017147055
96	0x3f222724	0.63340974
97	0x3e462a76	0.19352135
98	0xbda8b13b	-0.08236929
99	0x3f34b4ef	0.7058858
100	0xbe692317	-0.22767292
101	0xbdcc6469	-0.09980089
102	0x3f0ab39a	0.541803
103	0xbf1c62ef	-0.6108846
104	0xbd8d8029	-0.0690921
105	0x3f11d2f2	0.569625
106	0xbe077239	-0.13227166
107	0xbd81835a	-0.063238814
108	0xbd9b8bc4	-0.075950176
109	0xbcabf722	-0.020991866
110	0x3e11f983	0.14255337
111	0xbe273330	-0.1632812
112	0xbebf6812	-0.37384087
113	0xbea10836	-0.31451577
114	0xbeda9258	-0.42689776
115	0xbea2b47c	-0.31778324
116	0x3f0aeb86	0.5426563
117	0x3eee920b	0.46595797
118	0x3e323eac	0.1740672
119	0x3e48ec52	0.19621399
120	0xbe09a3cb	-0.13441388
121	0xbe8c2318	-0.27370524
122	0x3e3c34cb	0.18379514
123	0x3f39dd56	0.72603357
124	0x3eab90df	0.33508965
125	0x3f10c108	0.5654454
126	0x3ecb4437	0.3970048
127	0xbf036329	-0.5132318
128	0x3eb6f30f	0.35732314
129	0x3f3bc4be	0.7334708
130	0xbeaf17fd	-0.3419799
131	0x3ee2c6c8	0.44292283
132	0x3f327454	0.6970875
133	0x3e601cf9	0.21886052
134	0x3e91641c	0.2839669
135	0x3f2270f9	0.6345363
136	0xbe98e573	-0.29862556
137	0x3f7c51da	0.98562396
138	0xbb226f51	-0.0024785588
139	0x3f49ce0b	0.7883002
140	0xbebb0c65	-0.36532894
141	0x3d7429bc	0.059610114
142	0x3e9446cc	0.28960264
143	0x3f2d5f7e	0.67723835
144	0x3e8f73bf	0.28017995
145	0x3d51c10a	0.051209487
146	0xbe385430	-0.18000865
147	0xbe90c98e	-0.28278774
148	0xbdc44ad9	-0.095845886
149	0x3ee1eff7	0.4412839
150	0x3e8339bf	0.25629994
151	0xbe7a0800	-0.24417114
152	0x3f4da7e3	0.803343
153	0x3ebc80db	0.3681706
154	0xbe9285b0	-0.2861762
155	0x3f3a2480	0.72711945
156	0x3f3fcdd1	0.74923426
157	0x3d95a552	0.07306923
158	0x3ed2c178	0.4116323
159	0x3ebd38f7	0.36957523
160	0xbe0ea413	-0.13929777
161	0x3ef6e267	0.48219606
162	0xbe89d17f	-0.26917645
163	0x3ebc0e18	0.36729503
164	0xbe908e22	-0.2823344
165	0xbe47b67e	-0.19503209
166	0x3e3759ca	0.17905346
167	0xbda400d4	-0.080079705
168	0xbf0ecb54	-0.55779004
169	0x3ea2ad4a	0.31772834
170	0x3ec1c9f2	0.37849385
171	0xbd9417ab	-0.07231077
172	0xbd2267bd	-0.039649714
173	0x3d584940	0.05280423
174	0xbdd485ed	-0.10377107
175	0x3e26b4ea	0.1627995
176	0x3dca1c10	0.09868634
177	0x3e7fdb96	0.24986109
178	0x3e002e71	0.12517716
179	0xbd50e091	-0.050995413
180	0x3f0a3411	0.539857
181	0x3e91ad76	0.28452653
182	0xbd1fb438	-0.03899023
183	0x3e353ab5	0.17698176
184	0xbddc1203	-0.10745623
185	0x3f2dcd22	0.6789113
186	0x3e584899	0.21121444
187	0x3d96ba7b	0.07359787
188	0xbe81850c	-0.2529682
189	0x3e8be293	0.273213
190	0xbdd0ad86	-0.10189347
191	0xbec2548f	-0.37955138
192	0xbf23d0e1	-0.639906
193	0xbe2b9ee3	-0.16759829
194	0x3e41be7a	0.18920317
195	0xbeb7f7da	-0.35931283
196	0xbd499f80	-0.049224377
197	0x3d960265	0.073246755
198	0x3f107679	0.56430775
199	0xbed3665d	-0.41289034
200	0xbf0ab533	-0.5418274
201	0x3ef519a1	0.47871116
202	0x3e30fb21	0.17283298
203	0x3ea6f302	0.32607275
204	0x3efb6864	0.4910308
205	0x3f54bf4f	0.83104414
206	0x3f651d08	0.89497423
207	0x3f196e9c	0.599344
208	0x3f3587da	0.7091042
209	0xbedd76bf	-0.4325466
210	0xbf0eb66b	-0.557471
211	0x3ec5c524	0.3862697
212	0x3e4da28f	0.20081542
213	0xbebacf04	-0.36486065
214	0x3e4dee4d	0.20110436
215	0xbe814015	-0.25244203
216	0x3e81f6ff	0.25383756
217	0xbdae0d34	-0.08498612
218	0x3eca52d2	0.39516312
219	0x3e16ae61	0.14714958
220	0xbae051b8	-0.0017114198
221	0xbea41125	-0.3204433
222	0x3f02eabd	0.5113943
223	0xbf1a811a	-0.60353243
224	0x3e85f350	0.26162195
225	0xbe060b5e	-0.13090274
226	0x3ef3188e	0.4747967
227	0x3eafceb8	0.343374
228	0x3e90c39f	0.28274247
229	0x3e9a67ff	0.30157468
230	0x3ea0be0d	0.31394997
231	0xbe93baef	-0.28853557
232	0x3ea203cc	0.31643522
233	0x3e6f5b3f	0.23374651
234	0xbe11d905	-0.14242943
235	0x3f3f46be	0.7471732
236	0x3f5da47e	0.8657912
237	0xbe9acd4a	-0.30234748
238	0x3dd7ff81	0.105467804
239	0xbd1d01e4	-0.03833188
240	0x3e7dde84	0.24791914
241	0xbf1b8c59	-0.6076103
242	0xbeb07941	-0.3446751
243	0x3eb51dcf	0.35374305
244	0x3eb57fed	0.35449162
245	0x3eed889d	0.4639329
246	0xbac07fd5	-0.0014686534
247	0xbdd75440	-0.10514116
248	0xbd3fca28	-0.04682365
249	0x3e6fce46	0.23418531
250	0x3ed408b8	0.41412902
251	0xbdec1ff1	-0.1152953
252	0x3e3d4c80	0.18486214
253	0xbe424771	-0.18972565
254	0x3f5002f8	0.8125453
255	0x3e179239	0.14801873

fc2.weight f4 [128, 256]
0	0x3b565f7c	0.0032710722
1	0x3dcd0693	0.100110196
2	0x3e42a101	0.1900673
3	0xbdfb0bdb	-0.122581206
4	0x3e01c3e7	0.12672387
5	0x3da5b49f	0.08091091
6	0xbdb31323	-0.087438844
7	0xbc95a4c8	-0.01826705
8	0xbd03a522	-0.032139905
9	0xbd2ce808	-0.04221347
10	0xbd803d88	-0.06261736
11	0x3e59eace	0.21280977
12	0xbca24786	-0.019809496
13	0x3e33e8cc	0.17569274
14	0xbe2ae0ab	-0.16687267
15	0xbdbadd80	-0.09124279
16	0x3dbde467	0.0927208
17	0x3e25106c	0.16119546
18	0xbe241c8d	-0.16026516
19	0xbe674aaf	-0.22587083
20	0x3f5e980c	0.86950755
21	0x3e0627a6	0.13101062
22	0x3a15fd72	0.0005721665
23	0x3d98d504	0.074625045
24	0xbdfd346c	-0.12363514
25	0xbe078f6b	-0.13238303
26	0xbe9f9a00	-0.3117218
27	0xbd7f04b8	-0.06226036
28	0xbe337660	-0.17525625
29	0xbe15e5bf	-0.14638422
30	0xbe256f93	-0.16155843
31	0x3f20d39c	0.6282289
32	0xbe67655a	-0.22597256
33	0x3e1d94e0	0.15388823
34	0x3eb445a7	0.3520939
35	0x3e64205b	0.22277968
36	0x3d918853	0.0710608
37	0xbe40d763	-0.18832164
38	0xbebdab7d	-0.37044898
39	0x3da0537e	0.07828425
40	0x3e16fcf7	0.14744936
41	0xbe742025	-0.23840387
42	0x3e0a8418	0.13526952
43	0xbf2b46d2	-0.6690494
44	0xbe65371f	-0.22384308
45	0x3cec5400	0.028848648
46	0x3ce9903d	0.028511161
47	0xbe701993	-0.23447256
48	0x3ee0bc02	0.4389344
49	0x3d603212	0.05473525
50	0xbdaca01e	-0.084289774
51	0xbf09502a	-0.53637946
52	0x3e88b2eb	0.26699004
53	0xbd52667f	-0.05136728
54	0xbf1d4c25	-0.6144431
55	0x3ea5f2bb	0.3241175
56	0xbdcf27ea	-0.10115035
57	0x3d4eb965	0.050469775
58	0x3ce502ad	0.027955377
59	0x3ed8c6e3	0.4233924
60	0x3bdb8fdc	0.006700499
61	0xbf6c7ee0	-0.92381096
62	0xbf37dd4d	-0.71822053
63	0x3dab1739	0.08354039
64	0x3e17a6d6	0.14809737
65	0x3d713440	0.05888772
66	0x3c2d4945	0.010576551
67	0x3f079570	0.529624
68	0x3ec981c7	0.39356825
69	0xbe494aa8	-0.19657385
70	0xbe091960	-0.13388586
71	0x3e0527b2	0.13003424
72	0x3e9a555d	0.30143252
73	0x3e59704e	0.21234247
74	0x3c9a41a9	0.018830137
75	0xbf286355	-0.6577657
76	0xbdb43fa2	-0.088011995
77	0x3d5dab67	0.05411854
78	0xbe7d209b	-0.24719469
79	0x3ca1c3be	0.019746657
80	0x3cf177d0	0.029476076
81	0xbf287399	-0.6580139
82	0x3e247fe7	0.16064416
83	0xbeb5f05d	-0.35534945
84	0x3cd2e96a	0.025746066
85	0xbcf85fea	-0.030319173
86	0x3e81edb2	0.2537666
87	0x3b5961a1	0.0033169764
88	0xbd48eae7	-0.049052145
89	0x3d1ace80	0.03779459
90	0x3d838ee9	0.06423742
91	0x3ee5c71c	0.4487847
92	0xbe5bf274	-0.21479207
93	0x3e297fb4	0.16552621
94	0x3e126c70	0.14299178
95	0x3dfbb73b	0.12290808
96	0x3d6117be	0.054954283
97	0xbdbedffb	-0.09320065
98	0xbe386ad6	-0.18009505
99	0x3e63f863	0.22262721
100	0xbdc77fbb	-0.097411595
101	0x3e33b76a	0.17550436
102	0x3e38f588	0.18062413
103	0xbf14a305	-0.5806125
104	0xbf8b1b69	-1.086774
105	0x3c7c518f	0.015400304
106	0x3e80c42a	0.2514966
107	0xbcc12f20	-0.023582041
108	0xbecf720b	-0.40516695
109	0x3de174d2	0.1100861
110	0x3e4fd5b7	0.2029637
111	0x3de9bbd3	0.11412778
112	0xbe80dda9	-0.25169113
113	0xbddefe62	-0.108883634
114	0xbee5d089	-0.44885662
115	0xbe5133e0	-0.20429945
116	0x3e640597	0.22267757
117	0xbe3debdf	-0.18547009
118	0x3c9ba562	0.01899976
119	0xbb1cf0d4	-0.0023947256
120	0xbdf6470b	-0.12025269
121	0x3e1d8823	0.15383963
122	0x39646f2f	0.00021785194
123	0xbdac2e0e	-0.08407222
124	0xbe4383a6	-0.19093189
125	0xbd8eec54	-0.0697867
126	0xbdbf0f1a	-0.09329052
127	0xbe2217b3	-0.15829353
128	0x3db492e7	0.08817082
129	0x3e1f22c4	0.15540606
130	0xbd9530ca	-0.072846964
131	0xbe9c8d9f	-0.30576798
132	0xbd9af419	-0.07566089
133	0xbe8caff7	-0.27478
134	0x3ce1d93c	0.027569406
135	0xbde1d241	-0.11026431
136	0x3df10a75	0.11769573
137	0x3fb6235e	1.4229543
138	0xbf75a471	-0.9595404
139	0x3e81e00c	0.25366247
140	0xbef65b2d	-0.48116437
141	0x3dd08402	0.101814285
142	0xbcf9bb0a	-0.030484695
143	0x3d180ec6	0.037123464
144	0x3e52cf2a	0.2058684
145	0xbd727d16	-0.059201322
146	0xbe1b9912	-0.1519511
147	0x3d26857e	0.04065465
148	0x3da15ed8	0.07879418
149	0xbd833b80	-0.06407833
150	0xbe91b33d	-0.2845706
151	0x3e374d7f	0.17900656
152	0xbd9400b0	-0.07226694
153	0x3e3ae99e	0.1825318
154	0xbed9ee5a	-0.4256466
155	0x3d1ba4ee	0.037999086
156	0xbcfbbe97	-0.030730529
157	0xbdb0d2de	-0.0863397
158	0x3db339f4	0.08751288
159	0x3dd53dd5	0.10412184
160	0xbd543d86	-0.051816486
161	0x3d959a8b	0.07304867
162	0x3ebc2a37	0.36750957
163	0x3e2510c5	0.16119678
164	0x3d2c75c8	0.042104512
165	0xbe89d6e2	-0.26921755
166	0xbea3d1d9	-0.3199604
167	0xbd68049b	-0.056645017
168	0xbf0ad6a1	-0.5423375
169	0x3ce5d2ec	0.028054677
170	0xbdc228b5	-0.094804205
171	0x3ce3ef0f	0.027823953
172	0xbde03cff	-0.10949134
173	0xbed46108	-0.4148028
174	0x3d5d3be1	0.054012183
175	0xbeb281da	-0.34864694
176	0x3e9291c1	0.28626826
177	0x3f0f543b	0.559879
178	0xbe4788cc	-0.19485778
179	0xbe4890fd	-0.19586559
180	0x3d9c3d12	0.07628836
181	0xbebd9d28	-0.37033963
182	0xbd94cf9e	-0.07266162
183	0xbf1f4752	-0.622182
184	0x3e211e6a	0.15734258
185	0x3e16b4a0	0.1471734
186	0xbe63d2be	-0.2224836
187	0x3fadfc7c	1.3592677
188	0xbe160b71	-0.14652802
189	0xbda27545	-0.07932524
190	0xbde517e8	-0.111862004
191	0xbdcb864b	-0.09937724
192	0xbd8bbfe3	-0.06823709
193	0x3de445d5	0.11146132
194	0x3da9849d	0.08277247
195	0xbf441717	-0.7659773
196	0x3e9e8121	0.30957893
197	0x3dfe9c73	0.12432184
198	0x3b04350d	0.0020173222
199	0xbe5036a0	-0.20333338
200	0x3c683c3d	0.014174518
201	0x3dd0b96b	0.10191616
202	0x3cafaf30	0.02144584
203	0x3da32ab6	0.07967131
204	0x3e271416	0.16316256
205	0x3d80433d	0.06262825
206	0x3e0a3b3c	0.13499159
207	0x3e93607a	0.28784543
208	0x3e7bf07e	0.24603459
209	0xbee05ced	-0.43820897
210	0x3bb13c3c	0.005408792
211	0x3ebffb4b	0.3749641
212	0x3c3809f9	0.011232846
213	0xbe856e0b	-0.2606052
214	0xbd230558	-0.039800018
215	0xbd7d4cc2	-0.06184078
216	0xbc80a919	-0.015705632
217	0x3e15c3e4	0.14625508
218	0xbbfa0721	-0.0076302444
219	0x3d0b6808	0.03403476
220	0x3d06db38	0.032923907
221	0x3ed87917	0.42279884
222	0xbd26f34c	-0.04075937
223	0xbf3f2837	-0.7467074
224	0xbd63f914	-0.05565746
225	0x3dad06b4	0.08448544
226	0xbd16128c	-0.03663878
227	0x3e9073dc	0.28213394
228	0xbe846b74	-0.2586323
229	0x3e3d0384	0.18458372
230	0xbc1df902	-0.009641888
231	0xbe18bac4	-0.14914995
232	0xbf10d3e2	-0.5657331
233	0x3e19b720	0.15011263
234	0x3e0eda07	0.13950358
235	0x3ce869dc	0.02837079
236	0x3d5c5888	0.053795367
237	0xbeb2b9cb	-0.34907374
238	0xbdf73216	-0.120701
239	0xbd880172	-0.06640901
240	0x3dbb75b5	0.0915331
241	0x3e147486	0.14497575
242	0xbd0406e8	-0.03223315
243	0xbe111316	-0.14167437
244	0xbe25dd96	-0.1619781
245	0x3cdec02a	0.02719124
246	0x3e21c052	0.1579602
247	0x3d5de857	0.054176655
248	0xbc3532dd	-0.01105949
249	0x3e1f8623	0.15578513
250	0x3d1a69d0	0.037698567
251	0x3cb63a45	0.022244582
252	0x3c548bec	0.012972813
253	0xbd4c674a	-0.04990319
254	0xbdc9e100	-0.098573685
255	0x3e9cdf5d	0.30639163

fc2.bias f4 [128]
0	0x3de6fea9	0.11279041
1	0xbcd355a2	-0.025797669
2	0x3b21eb00	0.0024706721
3	0x3e193176	0.14960274
4	0x3e4d957f	0.2007656
5	0x3e63ba9b	0.22239153
6	0x3cc2f4e8	0.023798421
7	0x3e3404b9	0.17579927
8	0x3ed18413	0.40921077
9	0x3dbab28a	0.09116085
10	0x3e48accc	0.19597167
11	0x3f0685ae	0.5254773
12	0xbba0907b	-0.004900036
13	0xbcba8f20	-0.022773325
14	0x3d27801b	0.040893655
15	0xbc2c6604	-0.010522369
16	0x3dfeb8dc	0.12437603
17	0x3ee9eecb	0.45689997
18	0x3e77dffa	0.24206534
19	0xbc418470	-0.011811361
20	0x3e04a15a	0.12952176
21	0x3e768319	0.24073447
22	0x3e3cc2be	0.18433663
23	0xbd3c6529	-0.04599491
24	0x3e23abf3	0.15983562
25	0xbd220a07	-0.039560344
26	0xbdd1a655	-0.102368034
27	0xbd3e70b0	-0.046494186
28	0xbd03cfa4	-0.032180443
29	0x3dcabdfa	0.098995164
30	0x3d2dbb80	0.042415142
31	0x3e47158a	0.1944181
32	0x3e530bbc	0.20609945
33	0x3d784630	0.06061381
34	0x3e8d6572	0.2761646
35	0x3e6a85f9	0.22902669
36	0x3e588781	0.2114544
37	0x3e2c9cb3	0.16856651
38	0x3e1afc47	0.15135299
39	0x3e5851c0	0.21124935
40	0x3ed1c2f5	0.40969053
41	0x3e7383bb	0.2378072
42	0x3e0a2fbb	0.1349477
43	0x3e39078c	0.18069285
44	0x3e7ac3e4	0.24488789
45	0x3e1d7eee	0.15380451
46	0x3de39262	0.11111905
47	0x3d60d0fe	0.05488681
48	0x3e29a7a8	0.16567862
49	0xbb5f5e9e	-0.0034083496
50	0x3e53ee65	0.20696409
51	0x3ef3013c	0.4746188
52	0x3e034a99	0.12821425
53	0x3dfb083c	0.1225743
54	0x3e2662bd	0.16248603
55	0x3eca2ef8	0.3948896
56	0x3edc5549	0.43033817
57	0x3d0ad066	0.03389015
58	0xbcd91bf4	-0.026502587
59	0x3e886d9a	0.2664612
60	0x3d4ded04	0.050274864
61	0xbd8267b2	-0.063674346
62	0x3e3e6d56	0.18596396
63	0x3e346e67	0.1762024
64	0x3e04332f	0.1291015
65	0x3e7f7c23	0.24949698
66	0x3e30fa78	0.17283046
67	0x3f0c7820	0.54870796
68	0x3e710da2	0.23540357
69	0xbc02daeb	-0.007986764
70	0x3e22a087	0.15881549
71	0x3e2785c1	0.16359617
72	0x3dc45d6e	0.09588133
73	0xbc1d170f	-0.009588017
74	0x3ddcd308	0.107824385
75	0x3e85df91	0.2614713
76	0x3cf32f8b	0.029685756
77	0x3e659175	0.22418769
78	0x3e123c02	0.14280704
79	0xbda1e70a	-0.07905395
80	0xbd22f828	-0.03978744
81	0xbd5418e6	-0.051781558
82	0x3e697068	0.22796786
83	0x3e210f69	0.15728535
84	0x3e4ee67e	0.20205113
85	0x3dbba3e2	0.091621175
86	0xbda7e642	-0.08198215
87	0x3e4ba77c	0.19888109
88	0x3cd29e02	0.02571011
89	0xbd70d513	-0.058796953
90	0x3d32f647	0.0436919
91	0x3e43fed8	0.19140184
92	0xbd48af66	-0.048995398
93	0x3dcbbac6	0.099477336
94	0x3e69b8bb	0.22824375
95	0x3e078028	0.13232481
96	0x3ecaf210	0.39637804
97	0x3d3aa79f	0.045570012
98	0x3d535cbe	0.051602118
99	0x3e451626	0.1924673
100	0x3e4abd55	0.19798787
101	0xbd5819e6	-0.052759074
102	0x3e1932b8	0.14960754
103	0x3e11987f	0.14218329
104	0x3c31f7be	0.010862289
105	0x3e3bdda7	0.18346272
106	0x3e1ff985	0.15622528
107	0x3ee7a05d	0.45239535
108	0x3df14d49	0.11782319
109	0xbd2ebfc5	-0.042663354
110	0x3e254e1c	0.16143078
111	0xbcabf8a7	-0.02099259
112	0xbd88fead	-0.066892006
113	0xbcc96c63	-0.024587816
114	0x3e7d7252	0.24750641
115	0x3e853849	0.26019505
116	0xbd092390	-0.03348118
117	0xbd8d9775	-0.06913654
118	0x3e770fb3	0.24127083
119	0x3e4ed08b	0.2019674
120	0x3e2475dd	0.16060586
121	0x3ef90160	0.48633862
122	0x3f0fc544	0.5616038
123	0x3e0ecf1a	0.1394619
124	0xbb9693cc	-0.0045952555
125	0xbd3f8b65	-0.046763796
126	0x3d2c2771	0.0420298
127	0x3e2eaeba	0.1705884

fc3.weight f4 [4, 128]
0	0x3e7963c1	0.2435446
1	0xbef064dd	-0.46951953
2	0x3aa6f6c0	0.0012738332
3	0xbebf6e0a	-0.3738864
4	0xbe96d257	-0.29457352
5	0xbe9b77dd	-0.30364886
6	0x3bc1780d	0.0059042037
7	0xbea56afe	-0.3230819
8	0x3f84c66f	1.0373057
9	0x3d968259	0.073490806
10	0xbea65e0a	-0.3249362
11	0x3f869646	1.051461
12	0xbe8f7bb4	-0.28024065
13	0x3f8b99af	1.0906276
14	0x3d6f2fd6	0.05839523
15	0x3d85b4fb	0.0652866
16	0xbea5e987	-0.3240473
17	0x3f621164	0.88307786
18	0xbe9eeab6	-0.31038445
19	0xbd2d3407	-0.042285945
20	0xbecf156d	-0.40446034
21	0xbe86c61d	-0.26323023
22	0xbe83f0ae	-0.25769562
23	0xbef9088c	-0.48639333
24	0xbe9d35cd	-0.3070511
25	0x3d59150b	0.052998584
26	0xbedd1b49	-0.4318488
27	0x3db38849	0.08766229
28	0x3bd7e603	0.006588699
29	0x3ed92554	0.42411292
30	0xbc7ad4e2	-0.015309544
31	0xbea4700c	-0.32116735
32	0xbe9f4cde	-0.31113333
33	0x3f1d875b	0.6153466
34	0xbe7cc089	-0.24682821
35	0xbe9f058b	-0.31058916
36	0xbe870dcb	-0.2637771
37	0xbe8082d6	-0.2509982
38	0xbea64a79	-0.32478693
39	0x3ec6e820	0.38848972
40	0x3f23d2e1	0.6399365
41	0xbe85d378	-0.261379
42	0xbef37d38	-0.47556472
43	0xbe68f0e9	-0.2274815
44	0xbe851900	-0.25995636
45	0xbe9e069f	-0.30864426
46	0xbe8d8793	-0.27642497
47	0xbeeb5ce9	-0.45969322
48	0xbe95e2bc	-0.29274547
49	0x3f0df08b	0.55445164
50	0xbe86c4c4	-0.26321995
51	0x3f776e17	0.9665236
52	0x3f47647b	0.77887696
53	0x3dbfd204	0.09366229
54	0xbe81d6fc	-0.25359333
55	0x3f76b310	0.9636698
56	0x3f88e6cc	1.0695434
57	0xbdb29829	-0.087204285
58	0x3d50f0c2	0.051010855
59	0xbe70c32e	-0.23511955
60	0x3d158459	0.03650317
61	0x3d3a6667	0.045507815
62	0xbea6b32d	-0.32558575
63	0xbe9e6668	-0.30937505
64	0xbe34d4d4	-0.17659312
65	0xbe94ef9c	-0.29089057
66	0xbea55188	-0.32288766
67	0x3f7a9151	0.97877985
68	0xbe91e6a2	-0.2849627
69	0xbd3f34f0	-0.046681345
70	0xbe686c10	-0.22697473
71	0xbe9e64de	-0.3093633
72	0xbd43d93e	-0.0478146
73	0xbc4577d1	-0.012052492
74	0x3ebe80a0	0.37207508
75	0xbead4c27	-0.33847162
76	0xbd03cb89	-0.032176528
77	0xbe85627b	-0.26051697
78	0xbe9036a4	-0.28166687
79	0xbefb054c	-0.4902748
80	0x3daace69	0.08340151
81	0x3d81332f	0.063085906
82	0xbe973b1d	-0.29537287
83	0xbe57d01b	-0.2107548
84	0x3f0ec9c1	0.557766
85	0xbe7fd941	-0.2498522
86	0xbea857f2	-0.32879597
87	0xbe81b295	-0.2533156
88	0xbcc5622e	-0.024094667
89	0xbce3bd3f	-0.0278002
90	0xbd1bc34b	-0.038028043
91	0x3de70466	0.11280136
92	0xbc138a16	-0.00900509
93	0xbe91bc5d	-0.28464022
94	0x3edaba7f	0.4272041
95	0xbea973a4	-0.3309604
96	0x3f86e24b	1.0537809
97	0x3d40f1a0	0.04710543
98	0x3d2b9cef	0.04189771
99	0xbe53182e	-0.20614693
100	0xbe77b9a7	-0.24191914
101	0xbd8f5ba4	-0.06999901
102	0xbe8fd4ad	-0.28091946
103	0xbea1e76c	-0.31621873
104	0xbd6acd86	-0.05732491
105	0xbe8b7d1b	-0.27243885
106	0xbea6eda8	-0.32603192
107	0x3f7ff4ce	0.9998292
108	0xbeaefe1b	-0.34178242
109	0x3dac4bf8	0.084129274
110	0xbea21769	-0.31658486
111	0x3d8ed33f	0.06973886
112	0xbd8184d6	-0.063241646
113	0xbe9ab6b2	-0.3021751
114	0x3c1a5813	0.009420413
115	0xbe8035bd	-0.25041
116	0x3d90a6db	0.07063075
117	0x3d8a9351	0.067663796
118	0xbe96802b	-0.2939466
119	0xbe7b3512	-0.24531963
120	0xbe76c08c	-0.24096888
121	0x3f92e815	1.1477076
122	0x3f8063f8	1.0030508
123	0xbea2378c	-0.31683004
124	0xbccf207f	-0.02528405
125	0x3c5bcb28	0.013415135
126	0x3d0af50d	0.033925105
127	0xbea3952f	-0.31949756
128	0x3daa7ef6	0.08324997
129	0xbec49072	-0.38391453
130	0xbcf753e4	-0.03019137
131	0xbee38360	-0.4443617
132	0xbe94bf5c	-0.29052246
133	0xbe762917	-0.24039112
134	0x3d872887	0.06599527
135	0xbe12ae47	-0.14324294
136	0x3f908641	1.1290971
137	0x3e9dfd19	0.3085716
138	0xbe98b66d	-0.2982668
139	0x3f995a81	1.1980745
140	0xbf08de57	-0.53464264
141	0x3fba713c	1.4565806
142	0xbd1541ae	-0.03643959
143	0xbdc69d8a	-0.09698017
144	0xbe8ffaac	-0.28120935
145	0x3f854d95	1.0414301
146	0xbe69dbf8	-0.22837818
147	0x3d707b6e	0.05871146
148	0xbed77e28	-0.42088437
149	0xbe8e693f	-0.2781467
150	0xbe17408a	-0.14770713
151	0xbf0a06d0	-0.53916645
152	0xbeb801ce	-0.35938877
153	0x3db34245	0.08752874
154	0xbf1bf7b2	-0.6092483
155	0x3b287c20	0.002570875
156	0xbc3bc770	-0.011461124
157	0xbea92faa	-0.33044177
158	0x3d08e5fe	0.033422463
159	0xbe8fe67f	-0.28105542
160	0xbeb47db3	-0.3525215
161	0x3f2500a8	0.64454126
162	0xbe2c220c	-0.16809863
163	0xbe91f0a2	-0.285039
164	0xbe99ce94	-0.3004042
165	0xbe4c2b8e	-0.1993849
166	0xbeae1874	-0.3400303
167	0x3eb44581	0.35209277
168	0x3e4454b8	0.19172943
169	0xbea6f7b6	-0.32610863
170	0xbeace4d1	-0.33768323
171	0xbeb97da2	-0.36228663
172	0xbe37bd75	-0.17943366
173	0xbec0cb1e	-0.37654966
174	0xbe5b89e1	-0.21439315
175	0xbe5ec4eb	-0.21754806
176	0xbe8d1de2	-0.2756186
177	0xbbb9bf66	-0.0056685684
178	0xbeb81ec5	-0.35960975
179	0x3f6f2b1c	0.93425155
180	0x3f5d9b5f	0.865652
181	0x3ecf9651	0.4054437
182	0xbe9e98af	-0.30975863
183	0x3f26bc1f	0.651308
184	0x3f533848	0.82507753
185	0x3cbcec37	0.023061855
186	0x3d2169c1	0.039407495
187	0xbe55e739	-0.20888986
188	0xbb87ef87	-0.004148427
189	0x3ca16b14	0.01970438
190	0xbeb18212	-0.34669548
191	0xbe96a49d	-0.29422465
192	0xbeba59ba	-0.3639658
193	0xbe58c5c8	-0.21169198
194	0xbe93fad8	-0.28902316
195	0x3f46f343	0.7771494
196	0xbea9a468	-0.33133245
197	0xbb15b820	-0.0022845343
198	0xbe815da8	-0.25266767
199	0xbebac8e9	-0.36481407
200	0x3e2c5a0a	0.16831222
201	0x3d72dd64	0.059293166
202	0x3e8cc93b	0.27497277
203	0xbe2255ec	-0.15853089
204	0x3d63c21c	0.05560504
205	0xbeb744d4	-0.357947
206	0xbeb259fe	-0.34834284
207	0xbec4bbb4	-0.38424456
208	0x3d57a18c	0.052644297
209	0xbd8c2257	-0.06842487
210	0xbe5349e9	-0.20633663
211	0xbed6e1ec	-0.4196924
212	0x3f2237e7	0.6336655
213	0xbeb75ba8	-0.35812116
214	0xbeedd231	-0.46449426
215	0xbea5ea93	-0.32405528
216	0x3d3ba9c9	0.045816217
217	0x3d0e824b	0.034792226
218	0x3d526d51	0.051373783
219	0xbeb64ab2	-0.35603863
220	0x3d502608	0.05081752
221	0xbeba97df	-0.36443993
222	0x3f297ac9	0.6620298
223	0xbe98c898	-0.2984054
224	0x3f99ab03	1.2005314
225	0x3d89dd1a	0.06731625
226	0x3c8e8764	0.017398544
227	0xbe5d9ec2	-0.21642593
228	0xbe9d59f8	-0.30732703
229	0xbda6d35c	-0.08145782
230	0xbeb70613	-0.35746822
231	0xbe91a210	-0.28443956
232	0x3d5187fc	0.051155075
233	0xbe2cd4d7	-0.16878067
234	0xbe81803e	-0.25293154
235	0x3f98e797	1.1945676
236	0xbe8f9dfd	-0.28050223
237	0xbd5cac5f	-0.053875323
238	0xbe898109	-0.2685626
239	0x3ce5978c	0.028026365
240	0xbd716c56	-0.058941208
241	0xbeb0ebcf	-0.34554908
242	0x3ecf4903	0.4048539
243	0xbe67196a	-0.22568288
244	0x3cd46e23	0.025931424
245	0x3d86be20	0.06579232
246	0xbe7b7f92	-0.24560383
247	0xbe8c7e56	-0.27440137
248	0xbed5b3dd	-0.41738787
249	0x3f7b2055	0.9809621
250	0x3f7297c9	0.94762856
251	0xbe8f300e	-0.2796635
252	0xbea0dbe3	-0.3141776
253	0x3cdbd5ad	0.026835287
254	0x3d818108	0.06323439
255	0xbe9238e1	-0.2855902

fc3.bias f4 [4]
0	0xbd0a8c0f	-0.033824977
1	0x3dcebb6c	0.10094342
2	0xbd36c8e4	-0.044625178
3	0xbe7b8519	-0.24562491
