models/model_run_8.pth (torch, 145925 bytes, 6 tensors)

fc1.weight f4 [256, 8]
0.030608118 -1.5792738 -0.21790831 -0.06383705 0.39461592 0.66862285 0.07394721 0.12771736
-0.0009144546 0.117190786 0.23826331 -0.21459743 0.23486316 0.78756565 0.24706778 -0.14372095
0.24812786 -0.62812287 0.3446388 -0.521937 -0.5874245 0.17313845 -0.30240703 -0.060204953
0.43602565 -0.27474928 -0.06263421 -0.41085038 -0.58079594 -0.30022287 0.027644346 0.060532644
0.24769378 0.42429027 -0.50208807 -0.20811288 0.10840172 -0.35043514 0.05555524 -0.16742288
-0.58573115 0.036608223 -0.36642182 0.6602333 0.64186186 -0.13064589 -0.8097276 -0.022112599
-0.2820472 -0.20619363 -0.39211753 -0.7056427 0.47045058 -0.08497005 0.054150574 -0.103470206
0.113321945 -0.5929444 0.7168128 -0.653737 -0.727414 0.2202226 -0.17923225 0.04742911
-0.5491959 -0.45332205 0.06072195 1.3817056 0.94492996 -0.7002619 -0.096146174 0.17073797
0.46942976 -1.9738631 0.10796664 0.062335577 -0.24902977 0.60497516 -0.12104428 0.008711273
-0.6782361 -0.21152446 0.17790066 0.28014672 -0.38502264 0.39036343 0.49888125 0.26406255
-0.25522816 0.05399182 0.21475984 0.10746587 0.034366306 0.6480836 0.45008188 -0.19112314
0.21993375 -0.57015467 0.11578885 -0.62575555 -0.18875885 -0.08710897 0.07356407 0.034589294
0.30462238 0.090492055 0.10696091 0.09755113 0.4469836 0.18780124 0.2814511 0.37155414
-0.09116196 -0.14571916 -0.031464733 -1.0014396 0.05553782 -0.02197323 0.04960168 0.12431412
0.5853606 0.3686793 0.51010156 -0.43544847 0.023122406 0.090764925 -0.31980485 -0.30798593
-0.005322472 -0.1770157 0.26192564 -0.14965257 0.14722787 0.76440734 -0.4475019 0.028518647
0.008082183 -0.13687335 -0.95678073 0.08141195 0.41853765 0.4857008 0.45564803 0.007980347
-0.79907894 0.004172541 -0.62067485 0.3206638 0.10361142 0.29485855 0.0020937806 0.6994639
0.13906348 -1.4596651 0.35069966 0.19348142 0.02884559 -0.58589524 0.22278264 -0.016778214
0.23780197 -0.16537184 0.30921012 -0.27134675 -0.75925905 -0.08423935 -0.80333954 0.705871
0.124870636 0.08394269 0.010101079 0.0420113 0.45045295 -0.09308647 0.0061292113 0.42967147
0.23962563 0.10827994 0.29649645 -0.059080288 -0.24311785 -0.21079409 -0.2892994 0.18486339
0.09583126 -0.59236234 0.22309113 -0.2464842 -0.7184347 -0.22717641 -0.012315057 0.28473163
-0.005497688 0.39592552 -0.26176262 0.6675325 0.52378833 0.7129958 -1.0721338 0.012709309
0.13871157 0.46365467 -0.23681861 0.1481266 -0.3436757 -0.29188195 0.13486609 0.5151726
0.31312472 0.052654676 0.06930708 0.00065945106 0.5819622 0.1097165 0.48363736 0.11797825
0.3631397 0.41107482 0.10819008 0.23304316 -0.7030011 -0.6746425 -0.3501278 0.16921751
-0.439063 -0.28867364 0.20030203 0.24802317 0.24737187 0.13685556 0.31297016 0.4204473
0.06665449 -0.07606078 0.05688842 0.08578337 0.09112642 0.75484055 -0.47684592 0.103000045
-0.39890975 -0.4276315 -0.18460877 -0.11077777 0.048437186 0.13894686 0.22877781 0.048920088
0.9251121 0.011067569 0.4469753 -0.09333096 1.0650365 -0.7091395 -0.29938218 0.23209876
00000000: e0bd fa3c a525 cabf 5b23 5fbe 00bd 82bd
00000010: 190b ca3e de2a 2b3f a371 973d 57c8 023e
00000020: 02b8 6fba b901 f03d 4cfb 733e 6ebf 5bbe
00000030: f87f 703e e79d 493f 56ff 7c3e 962b 13be
00000040: 3b15 7e3e a9cc 20bf 7f74 b03e aa9d 05bf
00000050: 7461 16bf 354b 313e 18d5 9abe 7899 76bd
00000060: c13e df3e f0ab 8cbe 5d46 80bd fb5a d2be
00000070: 0baf 14bf d0b6 99be 6576 e23c 14f1 773d
00000080: 70a3 7d3e 933c d93e d888 00bf 8b1b 55be
00000090: b901 de3d 3c6c b3be e48d 633d e770 2bbe
000000a0: 7af2 15bf 81f2 153d a49b bbbe 0d05 293f
000000b0: 0f51 243f 09c8 05be 4f4a 4fbf 7b25 b5bc
000000c0: 7e68 90be 6c24 53be a1c3 c8be 00a5 34bf
000000d0: e6de f03e c704 aebd fecc 5d3d 30e8 d3bd
000000e0: 5615 e83d 34cb 17bf 0b81 373f 4f5b 27bf
000000f0: ce37 3abf 0982 613e a988 37be 0745 423d
00000100: 1a98 0cbf d419 e8be 94b7 783d bbdb b03f
00000110: eee6 713f 5d44 33bf 49e8 c4bd efd5 2e3e
00000120: 1959 f03e 8ca7 fcbf 9d1d dd3d 9753 7f3d
00000130: a901 7fbe a7df 1a3f 10e6 f7bd bab9 0e3c
00000140: e2a0 2dbf de99 58be 972b 363e 646f 8f3e
00000150: b021 c5be b7dd c73e 5d6d ff3e 3533 873e
00000160: 44ad 82be 8726 5d3d 01ea 5b3e 1117 dc3d
00000170: afc3 0c3d cfe8 253f 2271 e63e c9b5 43be
00000180: 5036 613e a8f5 11bf b422 ed3d 8431 20bf
00000190: 004a 41be 3066 b2bd c2a8 963d 81ad 0d3d
000001a0: 77f7 9b3e e653 b93d 520e db3d e3c8 c73d
000001b0: 09db e43e f84e 403e 5c1a 903e 583c be3e
000001c0: 1fb3 babd 6737 15be 2ae1 00bd 2c2f 80bf
000001d0: a07b 633d 3401 b4bc 222b 4b3d 6798 fe3d
000001e0: 31da 153f 89c3 bc3e 0496 023f 1af3 debe
000001f0: 336b bd3c f6e2 b93d 76bd a3be 55b0 9dbe
00000200: 2268 aebb 9b43 35be 1e1b 863e 863e 19be
00000210: e7c2 163e 33b0 433f f81e e5be f09f e93c
00000220: 226b 043c 8728 0cbe 95ef 74bf 4fbb a63d
00000230: 914a d63e c6ad f83e b34a e93e 00c0 023c
00000240: 7090 4cbf d0b9 883b 8ce4 1ebf 0c2e a43e
00000250: 3932 d43d b3f7 963e cf37 093b 1110 333f
00000260: a866 0e3e 4ed6 babf e88e b33e fe1f 463e
00000270: 964d ec3c 3bfd 15bf 2221 643e 7772 89bc
00000280: 5c82 733e 3c57 29be ca50 9e3e f6ed 8abe
00000290: cd5e 42bf ae85 acbd a9a7 4dbf f6b3 343f
000002a0: 2dbc ff3d 25ea ab3d ff7e 253c 0a14 2c3d
000002b0: c5a1 e63e 1fa4 bebd 8dd7 c83b e6fd db3e
000002c0: 6c60 753e e0c1 dd3d 62ce 973e 2cfe 71bd
000002d0: e3f3 78be 68da 57be 0d1f 94be d44c 3d3e
000002e0: 2e43 c43d 0fa5 17bf 0072 643e 5b66 7cbe
000002f0: 56eb 37bf efa0 68be 18c5 49bc 58c8 913e
00000300: f325 b4bb c0b6 ca3e c005 86be 69e3 2a3f
00000310: fe16 063f e586 363f ae3b 89bf b53a 503c
00000320: 680a 0e3e 2564 ed3e 9480 72be 80ae 173e
00000330: 43f6 afbe 8d71 95be 561a 0a3e 5ae2 033f
00000340: e251 a03e 6eac 573d dff0 8d3d 03df 2c3a
00000350: 7afb 143f 0bb3 e03d 519f f73e 959e f13d
00000360: 72ed b93e 6678 d23e c392 dd3d dea2 6e3e
00000370: e1f7 33bf 5fb5 2cbf f343 b3be 5b47 2d3e
00000380: decc e0be 08cd 93be fa1b 4d3e c9f9 7d3e
00000390: 0d4f 7d3e dd23 0c3e a03d a03e de44 d73e
000003a0: 2682 883d c1c5 9bbd d503 693d 31af af3d
000003b0: 7da0 ba3d 3b3d 413f 2625 f4be b0f1 d23d
000003c0: e63d ccbe 84f2 dabe 150a 3dbe 75df e2bd
000003d0: 1266 463d 1648 0e3e bb44 6a3e 6e60 483d
000003e0: 26d4 6c3f c054 353c f2d9 e43e 4d24 bfbd
000003f0: 1e53 883f 2b8a 35bf 9f48 99be 4cab 6d3e

fc1.bias f4 [256]
0.13598813 -0.3297742 -0.17336842 -0.16562012 0.5331715 0.06401452 -0.2666306 -0.454183
-0.3724763 -0.2538548 0.004938093 -0.09993664 -0.16906624 0.26646608 -0.31244785 0.1885057
0.19297218 -0.0046105376 -0.00018910818 0.32967442 -0.34602883 0.3365435 0.34363288 0.2627432
0.14665613 0.660157 0.3800226 -0.09861495 0.35444352 0.049553685 0.22285798 0.011439547
-0.10180725 0.26353177 0.036956675 -0.13377897 0.25192502 0.1942812 -0.26141778 -0.087286115
0.1259154 0.3018594 0.26766893 0.08986023 0.35651875 -0.16284639 0.5648926 0.6612769
-0.35430044 0.11256531 -0.31279233 -0.2572544 -0.08837625 0.56543887 0.30791414 -0.22030774
-0.12541904 0.28124633 0.27330518 -0.2509102 -0.3348033 0.099719174 0.061059132 -0.05164344
-0.24787913 -0.43417585 -0.14461386 0.106925204 0.16389228 0.41974586 0.25336856 0.45008892
0.1254593 0.15195113 0.1542323 0.5993905 0.82335657 -0.28340015 0.010341829 0.016302459
0.32567942 0.17716473 0.48951605 0.013458612 0.15191045 0.015683021 -0.6225914 -0.10055663
0.05723773 0.14359047 -0.31901723 0.6568226 0.117888466 -0.017377285 0.40490696 -0.21032462
-0.55077654 0.17621838 0.6552582 -0.07585153 0.08079345 0.25581726 -0.47738597 0.1891183
0.46298602 -0.45795763 0.48861313 0.45638567 -0.2513289 0.27368587 -0.20190203 -0.05242234
-0.39960307 -0.4800618 -0.23233517 0.4477995 -0.14135283 0.28135037 -0.082163215 0.2057799
0.28080523 0.3781245 0.502391 0.37141302 0.062166963 -0.11320017 0.55389315 -0.16687284
-0.04307472 0.5240185 -0.016953992 0.047182553 -0.17072164 0.23085393 0.4315199 -0.12136836
0.23707715 0.6668373 0.276995 -0.20467104 -0.20787501 0.044217817 -0.08198495 0.27606666
0.08626083 0.4247149 0.40382215 0.07819049 0.351128 0.18379954 -0.12030774 0.04823403
0.044199634 -0.48798293 0.25737298 -0.35093132 0.4908618 0.25063848 0.28984076 0.012549451
0.09942108 0.010941422 -0.33598974 0.27343747 -0.15026434 0.62834686 -0.17711064 -0.23255914
0.38443205 0.24999899 0.4183521 0.34034866 -0.34058693 -0.06741342 -0.11372215 -0.29681936
-0.13298298 0.47782654 0.06091113 0.47337148 0.057634026 -0.1412676 0.5813631 -0.31859127
0.5238664 -0.28075224 0.008181967 -0.22481352 -0.37470558 -0.0722858 -0.10670636 -0.09505704
0.087244414 -0.2786681 0.7363637 -0.13546082 0.4922763 -0.038170885 0.17586951 0.36756247
0.44215572 -0.009075503 -0.017888663 0.37597793 -0.36615148 0.36772987 -0.09249249 0.14738442
-0.17682602 0.23264097 0.2276309 0.35027364 -0.14988285 0.5781151 -0.19974114 0.24563481
-0.21179482 0.013539437 0.294359 0.13465059 0.15230834 0.2966345 0.03785621 -0.46770298
-0.2734798 0.5379078 0.19638582 0.26795384 -0.4737057 0.5394856 0.2835721 -0.10883534
0.22149028 -0.6399563 0.3071267 -0.07244141 0.24851602 0.5687685 0.13036968 0.4072321
-0.40919882 0.690962 -0.24750428 0.6316315 -0.056197595 0.23387618 -0.3424019 0.6541848
0.44036925 0.17125075 0.28816476 0.21989383 -0.16484262 0.2998449 0.3130549 0.24816297
00000000: 7940 0b3e 2ad8 a8be 7e87 31be 5298 29be
00000010: ed7d 083f 0b1a 833d ce83 88be ad8a e8be
00000020: 37b5 bebe 42f9 81be bacf a13b 95ab ccbd
00000030: b31f 2dbe 3e6e 883e 2af9 9fbe a307 413e
00000040: 809a 453e fe13 97bb 574b 46b9 16cb a83e
00000050: b12a b1be 6e4f ac3e a6f0 af3e 4786 863e
00000060: 062d 163e 0d00 293f 5292 c23e a3f6 c9bd
00000070: 9f79 b53e cef8 4a3d e234 643e f06c 3b3c
00000080: 5280 d0bd a3ed 863e e25f 173d 5bfd 08be
00000090: 51fc 803e a7f1 463e 8dd8 85be 10c3 b2bd
000000a0: f7ef 003e 518d 9a3e e70b 893e a408 b83d
000000b0: a089 b63e 34c1 26be cd9c 103f 7149 293f
000000c0: de66 b5be a488 e63d 5126 a0be d9b6 83be
000000d0: 9bfe b4bd 9ac0 103f eca6 9d3e 5a98 61be
000000e0: d96d 00be 85ff 8f3e a8ee 8b3e 4d77 80be
000000f0: 576b abbe 9139 cc3d 2419 7a3d 1288 53bd
00000100: 07d4 7dbe 4c4c debe a815 14be 9afb da3d
00000110: 61d3 273e eee8 d63e 86b9 813e 0e72 e63e
00000120: 6778 003e 1499 1b3e 12ef 1d3e a871 193f
00000130: 7fc7 523f d319 91be c670 293c bc8c 853c
00000140: 74bf a63e ac6a 353e d9a1 fa3e 8381 5c3c
00000150: 6a8e 1b3e ae79 803c 2662 1fbf a2f0 cdbd
00000160: 1c72 6a3d 6109 133e 3a56 a3be 8725 283f
00000170: 826f f13d cf5a 8ebc f74f cf3e 565f 57be
00000180: b1ff 0cbf 9772 343e 00bf 273f 0c58 9bbd
00000190: 0977 a53d 7bfa 823e ef6b f4be 3aa8 413e
000001a0: 810c ed3e 6c79 eabe 802b fa3e 62ab e93e
000001b0: 2eae 80be 8e20 8c3e 68bf 4ebe cfb8 56bd
000001c0: c698 ccbe a9ca f5be 45e9 6dbe fa45 e53e
000001d0: ccbe 10be 280d 903e 3045 a8bd f7b7 523e
000001e0: b4c5 8f3e 8999 c13e b29c 003f d929 be3e
000001f0: c9a2 7e3d 7ed5 e7bd f1cb 0d3f b7e0 2abe
00000200: 1e6f 30bd 1426 063f 19e3 8abc 7e42 413d
00000210: a7d1 2ebe f964 6c3e 2df0 dc3e fa8f f8bd
00000220: 5ac4 723e d9b5 2a3f 4ad2 8d3e 4995 51be
00000230: 30dd 54be be1d 353d bae7 a7bd 9c58 8d3e
00000240: 85a9 b03d 3b74 d93e c7c1 ce3e 5622 a03d
00000250: 0dc7 b33e f235 3c3e e863 f6bd 0c91 453d
00000260: ad0a 353d e6d8 f9be 64c6 833e 45ad b3be
00000270: 3d52 fb3e b053 803e 0266 943e 369c 4d3c
00000280: 479d cb3d a643 333c d906 acbe ffff 8b3e
00000290: e5de 19be 57db 203f 7e5c 35be fc23 6ebe
000002a0: 47d4 c43e bcff 7f3e 3f32 d63e 2e42 ae3e
000002b0: 6961 aebe 0c10 8abd 29e7 e8bd b5f8 97be
000002c0: b12c 08be aea5 f43e f37d 793d bf5d f23e
000002d0: a811 6c3d 74a8 10be 36d4 143f 651e a3be
000002e0: 1c1c 063f c2be 8fbe a80d 063c 8435 66be
000002f0: 69d9 bfbe 940a 94bd dd88 dabd 44ad c2bd
00000300: 33ad b23d 96ad 8ebe 5582 3c3f 3eb6 0abe
00000310: a40b fc3e 1359 1cbd 2317 343e 2631 bc3e
00000320: 3c62 e23e 6bb1 14bc 3f8b 92bc 2e80 c03e
00000330: 3578 bbbe 1747 bc3e b46c bdbd f1eb 163e
00000340: e111 35be 6f39 6e3e 1318 693e 1157 b33e
00000350: e47a 19be 5aff 133f f188 4cbe b187 7b3e
00000360: bee0 58be 84d4 5d3c 39b6 963e d8e1 093e
00000370: b8f6 1b3e 7ae0 973e 1d0f 1b3d c476 efbe
00000380: 8b05 8cbe 53b4 093f 5d19 493e 3f31 893e
00000390: 8e89 f2be ba1b 0a3f 5d30 913e 10e5 debd
000003a0: 59ce 623e 2dd4 23bf b63f 9d3e 295c 94bd
000003b0: fc7a 7e3e d09a 113f a17f 053e ba80 d03e
000003c0: 8282 d1be e3e2 303f c371 7dbe 9ab2 213f
000003d0: 732f 66bd 3d7d 6f3e 4d4f afbe a878 273f
000003e0: 1478 e13e 5b5c 2f3e 558a 933e d92b 613e
000003f0: 81cc 28be 4585 993e bb48 a03e 6f1e 7e3e

fc2.weight f4 [128, 256]
0.46802983 0.056168724 -1.2723954 -0.44540763 -0.1814028 0.02686393 0.196732 -1.1682868
0.41444167 0.6031236 0.18567267 0.29421607 -0.1090682 0.29445463 0.29441324 -0.96708983
0.15446872 0.23873748 -0.10357527 0.42329794 -1.6769663 0.15362604 -0.49426484 -0.15946247
0.2690036 -0.061945863 0.1319049 -0.4263597 0.17107153 0.15842538 0.15354149 -0.24928947
0.2896969 0.04797891 0.088595 0.23751189 0.29672387 0.26744565 0.14189288 -0.00820321
0.10205966 0.029393863 -0.17519873 0.09662606 0.3515517 0.022959342 -0.038737297 -0.01181438
-0.17784056 0.22061002 0.03159136 0.24753243 -0.39989647 0.08502226 -0.14338213 -1.3900905
-0.60111713 -0.31518063 0.35663658 0.18250133 0.17575698 -0.35210195 0.21238807 -0.6812554
0.24452427 0.5962085 -0.14409468 0.48044926 0.054978274 -0.1896448 -0.4903378 -0.007560222
-0.4317407 0.18272798 0.1957264 -0.08380982 0.50474006 0.45942608 0.2535064 1.0423208
0.1015676 0.23952411 -0.17704834 -0.07032965 0.15442084 0.2309713 -0.00078401197 -0.7485113
0.11682341 0.41553554 -0.76523966 0.15771909 -0.019605506 0.68887573 -0.5988052 -0.066999674
-0.035756346 -0.8302232 0.47293577 0.13310948 -0.15110275 0.19092008 -1.0578479 0.12795882
-0.18693341 -0.12111933 0.042553984 0.1663747 0.14332092 -0.035598457 -0.523526 0.23816586
0.06527176 0.17011797 -0.091007814 0.16408475 -1.2980896 0.16565889 -1.2062857 0.16528052
0.07578227 0.16054349 0.093750015 -1.2097943 0.5577857 -0.09587845 0.16360106 -0.4652552
0.03455252 0.068916366 0.06523311 -0.7105374 -0.15639177 0.18279037 0.035417918 0.25203937
0.2937732 -0.18802445 0.14431821 -0.7683905 -0.5635722 0.21793294 0.3481746 0.20767754
0.23100436 -0.7239771 -0.30921865 0.03178639 0.17717661 0.14183058 -0.031305246 0.566766
0.14938647 -0.46506363 0.33201107 0.54623926 -0.12881754 0.20133324 0.3037325 0.25044683
-0.19966333 -0.69304836 -0.38886535 0.37782317 -1.1190417 0.09276921 0.2969115 0.30651152
0.01978953 -1.1430255 0.10146864 -0.018089872 0.07451695 0.21594518 0.44588712 0.23459303
0.36242768 0.30215284 0.03558123 0.07725063 0.16869831 -0.013055392 0.03684052 -0.7748821
-0.7236826 0.17821296 -0.47049975 -0.7569189 -0.61574817 -0.0023497578 0.23864946 0.5878944
0.06054984 0.087624 -0.097745806 -0.29158083 0.12237405 -0.1382626 0.012716353 -0.258253
0.189655 0.27080712 0.5836747 0.10185695 0.033536375 1.1922545 0.40921655 0.20576544
-0.15193364 0.2529714 0.06892658 -0.19878241 0.96131057 0.6217318 -1.506142 0.034133147
0.083075084 -0.58657885 0.2748341 0.29261246 -0.7136914 -0.26140174 0.13607307 -0.6944591
0.18851791 0.38001397 -0.10155618 -0.29750746 0.2117367 0.018776264 0.20713915 1.5130156
0.41079706 -0.47389406 -0.51069856 0.28588304 0.017001322 0.09290066 -0.2542022 -0.14329182
-0.31863523 0.04862186 0.17526747 0.13911101 0.3313711 -0.038318705 -0.15853031 0.73673207
0.36422488 0.25544673 -0.74385136 -0.49787703 -2.343641 0.0692949 1.5214394 0.21707481
00000000: 9ba1 ef3e 2d11 663d dadd a2bf 780c e4be
00000010: a8c1 39be bf11 dc3c 1d74 493e 6c8a 95bf
00000020: b331 d43e 4f66 1a3f fa20 3e3e 7da3 963e
00000030: 265f dfbd c2c2 963e 55bd 963e 3393 77bf
00000040: 0c2d 1e3e 9977 743e 451f d4bd 82ba d83e
00000050: d5a6 d6bf 2550 1d3e 4810 fdbe 214a 23be
00000060: d7ba 893e f2ba 7dbd 1412 073e d24b dabe
00000070: 602d 2f3e 433a 223e fb39 1d3e bd45 7fbe
00000080: 2753 943e 8985 443d 4c71 b53d 5136 733e
00000090: 31ec 973e a3ee 883e 5e4c 113e c266 06bc
000000a0: a804 d13d 66cb f03c 4c67 33be e2e3 c53d
000000b0: 96fe b33e 3b15 bc3c 00ab 1ebd 1a91 41bc
000000c0: d61b 36be 98e7 613e f165 013d 2479 7d3e
000000d0: 3bbf ccbe 2720 ae3d c4d2 12be 7cee b1bf
000000e0: d0e2 19bf 5b5f a1be 1299 b63e a1e1 3a3e
000000f0: a3f9 333e b546 b4be 427c 593e c166 2ebf
00000100: 9264 7a3e 1fa1 183f 8e8d 13be 72fd f53e
00000110: e630 613d 3f32 42be 8e0d fbbe bdbb f7bb
00000120: 1e0d ddbe 0b1d 3b3e 806c 483e 7ca4 abbd
00000130: a536 013f e539 eb3e 97cb 813e c56a 853f
00000140: ad02 d03d cf45 753e 294c 35be fe08 90bd
00000150: 7f20 1e3e be83 6c3e 2786 4dba 709e 3fbf
00000160: 1d41 ef3d 13c1 d43e bfe6 43bf 1d81 213e
00000170: ba9b a0bc 295a 303f 4c4b 19bf 2037 89bd
00000180: 3f75 12bd 8289 54bf a324 f23e da4d 083e
00000190: aeba 1abe 8e80 433e 8f67 87bf a307 033e
000001a0: 796b 3fbe 690d f8bd 164d 2e3d 215e 2a3e
000001b0: b8c2 123e b0cf 11bd cd05 06bf c0e1 733e
000001c0: 33ad 853d 6833 2e3e 4e62 babd d505 283e
000001d0: cd27 a6bf 7ca2 293e 9267 9abf 4c3f 293e
000001e0: bc33 9b3d 8365 243e 0200 c03d 8ada 9abf
000001f0: 0bcb 0e3f ec5b c4bd 0987 273e ee35 eebe
00000200: f186 0d3d 0624 8d3d f098 853d c7e5 35bf
00000210: 2a25 20be 662d 3b3e 6112 113d 4e0b 813e
00000220: 7169 963e 7b89 40be 27c8 133e 3db5 44bf
00000230: 4546 10bf d029 5f3e f143 b23e 6ca9 543e
00000240: 688c 6c3e 9056 39bf e851 9ebe 7232 023d
00000250: c96d 353e 093c 113e ee39 00bd 9417 113f
00000260: c4f8 183e d21c eebe 5bfd a93e 56d6 0b3f
00000270: bfe8 03be 4d2a 4e3e d482 9b3e 913a 803e
00000280: 8b74 4cbe 9e6b 31bf 5c19 c7be 0a72 c13e
00000290: c23c 8fbf c9fd bd3d c904 983e 14ef 9c3e
000002a0: a71d a23c a94e 92bf cace cf3d 3631 94bc
000002b0: 589c 983d bc20 5d3e 514b e43e 2839 703e
000002c0: 1f90 b93e c7b3 9a3e a0bd 113d 9435 9e3d
000002d0: 40bf 2c3e 48e6 55bc 16e6 163d ac5e 46bf
000002e0: 4343 39bf 757d 363e 58e5 f0be 70c5 41bf
000002f0: aca1 1dbf 65fe 19bb 8660 743e 3f80 163f
00000300: 1c03 783d 3674 b33d f42e c8bd 154a 95be
00000310: 3f9f fa3d b694 0dbe 4058 503c bd39 84be
00000320: ec34 423e 3ba7 8a3e b56b 153f 609a d03d
00000330: 705d 093d cc9b 983f d584 d13e 2db4 523e
00000340: 7e94 1bbe 7885 813e 6129 8d3d 9e8d 4bbe
00000350: 7318 763f d129 1f3f 43c9 c0bf 33cf 0b3d
00000360: 4523 aa3d 082a 16bf 0eb7 8c3e 4dd1 953e
00000370: 7bb4 36bf 73d6 85be bd56 0b3e 12c8 31bf
00000380: d70a 413e 3191 c23e b0fc cfbd e652 98be
00000390: 81d1 583e aed0 993c 491c 543e 7faa c13f
000003a0: fe53 d23e 3ea2 f2be 24bd 02bf 435f 923e
000003b0: 5b46 8b3c b442 be3d ca26 82be 17bb 12be
000003c0: 2824 a3be b727 473d 5179 333e 1e73 0e3e
000003d0: 79a9 a93e 13f4 1cbd c555 22be 799a 3c3f
000003e0: af7b ba3e eac9 823e 0b6d 3ebf bde9 febe
000003f0: 37fe 15c0 7cea 8d3d 87be c23f dc48 5e3e

fc2.bias f4 [128]
-0.13572839 0.30231124 0.007866702 -0.023435557 -0.06517186 0.37189373 0.014559547 -0.03540842
0.23642573 -0.051242888 0.037223116 0.04494124 0.19173685 -0.12329379 0.032074444 0.25803235
-0.0713481 -0.08266989 -0.16648076 -0.16700366 -0.032608204 -0.056192692 -0.08563708 -0.007143557
-0.1914566 0.12181512 -0.06896877 -0.059381843 0.26546958 -0.06743256 -0.049691897 -0.12534082
-0.18693824 0.090280466 -0.13825206 -0.009180894 -0.03029476 0.0009150803 0.12096966 -0.041785885
0.017394137 0.3304019 0.084422946 0.19549598 0.14437738 0.2757047 0.016516834 0.3198824
-0.03588669 0.024594868 0.07444593 0.2645995 -0.062260877 0.025309175 -0.047622677 0.015590246
-0.00011913822 -0.06036954 0.11687136 0.37133956 -0.048419155 0.124727055 0.11728074 -0.007159797
0.15449731 0.019293811 0.16916119 0.36187673 -0.0060446905 0.14489712 -0.1059379 0.113416284
0.050697107 0.19056706 -0.06511176 -0.036093544 0.11124475 0.339795 0.1336561 -0.023940293
-0.13442361 0.41037282 0.39428616 0.32576302 0.15374507 0.0004876059 -0.13291782 -0.040863324
0.045356404 0.01437596 0.14498632 0.18635407 -0.054405063 0.05566108 -0.029176408 0.02315567
-0.16137175 0.041643325 0.15583842 -0.03014639 -0.016000565 -0.062074196 -0.08326601 -0.15546663
-0.09283658 0.120701365 -0.035555806 0.01984756 -0.0571164 -0.004987092 0.026554575 0.2770117
0.0073163635 0.006182536 -0.041737102 -0.06062243 0.23103127 -0.0041995193 -0.19144028 0.11073973
-0.0062028747 0.08157733 -0.02078288 -0.18822752 0.26807603 0.4132803 0.027432201 0.02150609
00000000: 62fc 0abe 8ac8 9a3e 57e3 003c edfb bfbc
00000010: d378 85bd db68 be3e 2b8b 6e3c 6b08 11bd
00000020: 9619 723e 10e4 51bd 4477 183d 4e14 383d
00000030: aa56 443e 7481 fcbd 7e60 033d d11c 843e
00000040: f41e 92bd d54e a9bd ef79 2abe 0203 2bbe
00000050: 2e90 05bd 4f2a 66bd 7e62 afbd 8014 eabb
00000060: 330d 44be 357a f93d 803f 8dbd 603a 73bd
00000070: a1eb 873e 151a 8abd bb89 4bbd 5859 00be
00000080: bd6c 3fbe f7e4 b83d f391 0dbe 766b 16bc
00000090: b72c f8bc 00e2 6f3a f1be f73d ad27 2bbd
000000a0: 267e 8e3c 702a a93e f0e5 ac3d 1930 483e
000000b0: aad7 133e 2b29 8d3e 504e 873c a0c7 a33e
000000c0: ecfd 12bd 2d7b c93c 1c77 983d 9679 873e
000000d0: 4305 7fbd 3055 cf3c ff0f 43bd 3b6e 7f3c
000000e0: d8d9 f9b8 0d46 77bd 405a ef3d 3820 be3e
000000f0: 2a53 46bd e670 ff3d e230 f03d bb9c eabb
00000100: 8b34 1e3e 0e0e 9e3c 9738 2d3e e847 b93e
00000110: 8a12 c6bb e95f 143e f8f5 d8bd cc46 e83d
00000120: c5a7 4f3d 0324 433e 5059 85bd d3d6 13bd
00000130: 4ad4 e33d 9cf9 ad3e 25dd 083e 6f1e c4bc
00000140: 58a6 09be 631c d23e e0df c93e 69ca a63e
00000150: 596f 1d3e 5ba5 ff39 9c1b 08be 4d60 27bd
00000160: a3c7 393d 2689 6b3c 4b77 143e 9ad3 3e3e
00000170: d8d7 5ebd dffc 633d 5d03 efbc f6b0 bd3c
00000180: a33e 25be 3192 2a3d 1b94 1f3e 90f5 f6bc
00000190: 9e13 83bc 8341 7ebd 5f87 aabd a532 1fbe
000001a0: 1b21 bebd 4732 f73d f7a2 11bd 5a97 a23c
000001b0: e3f2 69bd c36a a3bb fb88 d93c 7ad4 8d3e
000001c0: 1bbe ef3b df96 ca3b 86f4 2abd 3a4f 78bd
000001d0: 7693 6c3e 1f9c 89bb ec08 44be 83cb e23d
000001e0: 7c41 cbbb 0412 a73d dc40 aabc b7be 40be
000001f0: 4341 893e 7a99 d33e 7fb9 e03c 8a2d b03c

fc3.weight f4 [4, 128]
0.31843373 1.0212797 -0.023071729 -0.34400517 -0.006946057 0.50228614 -0.2650016 -0.09766807
0.19834097 0.10955752 0.00330863 -0.016035074 0.9741207 -0.3001691 0.022028895 0.80554676
-0.32946032 -0.41782397 -0.21353096 -0.5699113 -0.00891602 0.07245309 -0.39358604 -0.22853845
-0.23928817 0.6821505 -0.065300316 -0.47305083 0.8417688 0.061668925 -0.41497326 -0.36089653
-0.5473136 -0.35409123 -0.45987454 0.029566176 0.034284312 -0.027109526 -0.329796 -0.49084607
-0.057812545 0.8282925 -0.35051513 0.57997257 -0.20428665 -0.43223464 -0.27632424 0.60635376
-0.45561188 -0.33877116 -0.25108284 0.8196032 -0.013686561 -0.24501704 -0.051240727 -0.12232355
-0.27710634 -0.45154586 -0.20950672 0.90980154 0.0472657 -0.32983607 -0.30065536 -0.35029617
-0.49594405 -0.2851959 -0.47818872 0.9585638 -0.4281883 -0.29905197 -0.32323825 -0.2873168
0.07918629 -0.20922068 -0.39532438 0.037438337 -0.28767368 0.81398505 -0.28066298 -0.43199724
0.07807342 0.8078365 1.1538767 0.5633211 -0.274676 -0.24245732 -0.37586948 -0.48356682
0.83274144 -0.28225565 -0.5342705 -0.1518698 -0.3807156 -0.31427294 -0.28286675 -0.37130103
-0.43486667 -0.40965402 -0.4350039 -0.48267916 -0.42807564 -0.27142859 -0.38470796 -0.40518096
-0.50591904 0.19470361 -0.25042066 -0.31495485 -0.42453665 0.015388027 0.544018 0.31323227
-0.42558932 -0.22350122 0.037257303 0.0044921874 0.6697715 -0.36349922 -0.36440942 -0.34257486
0.040422145 -0.7267694 -0.3985792 -0.5031159 0.6337634 0.8392188 0.07287625 -0.07324834
0.62839246 1.0762547 0.062444143 -0.4290137 -0.033389244 0.20945945 -0.347506 0.014280333
0.5733771 0.03331111 -0.009159412 0.027003258 1.0497563 -0.36294463 0.31781065 0.41293636
-0.08622176 -0.45015278 -0.67039895 -0.3453479 -0.0036141574 -0.02342815 -0.4078846 -0.27502045
-0.37498766 0.15270026 0.042965256 -0.38359162 0.7373135 0.052640237 -0.45123747 -0.3779567
-0.33940315 -0.21609093 -0.3286744 -0.0723124 0.042020615 -0.06368166 -0.20088768 -0.16549204
0.021730397 0.8622622 -0.33200848 0.52093387 -0.07021235 -0.16617857 -0.24510063 0.6952396
-0.40894824 -0.27217242 -0.4253647 0.62449247 -0.0036232083 -0.39179265 0.015807876 -0.12931925
-0.42838308 -0.44541693 -0.3240633 1.0674096 -0.068395644 -0.37615404 -0.44117883 -0.40232885
-0.22067754 -0.34327862 -0.2579655 1.0248377 -0.3218109 -0.39941832 -0.37916836 -0.25690672
0.03520187 -0.26742876 -0.38431832 -0.081470594 -0.37394747 0.8887589 -0.3483488 -0.4539249
-0.15313055 0.77651685 1.149792 0.71368176 -0.38904563 -0.27963987 -0.41314793 -0.3205935
0.25697136 -0.8774249 -0.26666093 -0.6718952 -0.32543474 -0.49721372 -0.33129245 -0.28057018
-0.46816602 -0.42871758 -0.33438063 -0.28392527 -0.29551905 -0.16482475 -0.42555043 -0.44061
-0.4854159 0.33443537 -0.21656226 -0.4373099 -0.45811617 0.056631587 0.8773495 0.34476936
-0.47995752 -0.21206214 0.031450085 0.06630719 0.7178408 -0.4289064 -0.28995907 -0.4712628
0.028405761 -0.2790067 -0.43769222 -0.1531432 0.49005353 0.81275904 -0.059350524 -0.040280715
00000000: bf09 a33e 4bb9 823f ec00 bdbc 7221 b0be
00000010: c09b e3bb d395 003f 4aae 87be 3206 c8bd
00000020: e519 4b3e b15f e03d 9ad5 583b fd5b 83bc
00000030: f95f 793f c4af 99be f175 b43c 5038 4e3f
00000040: 06af a8be 06ed d5be dca7 5abe b5e5 11bf
00000050: 8014 12bc 4962 943d 1c84 c9be fc05 6abe
00000060: f507 75be 6aa1 2e3f 2cbc 85bd b833 f2be
00000070: 297e 573f 8e98 7c3d 6077 d4be 6ec7 b8be
00000080: be1c 0cbf 724b b5be ad74 ebbe c434 f23c
00000090: b56d 0c3d cc14 debc 05db a8be 2d50 fbbe
000000a0: d9cc 6cbd fa0a 543f b876 b3be 1579 143f
000000b0: 8530 51be dc4d ddbe 5f7a 8dbe 003a 1b3f
000000c0: f645 e9be 6a73 adbe ee8d 80be 84d1 513f
000000d0: 993d 60bc bfe5 7abe cce1 51bd c584 fabd
000000e0: e2e0 8dbe 0531 e7be ee88 56be c1e8 683f
000000f0: ae99 413d 46e0 a8be 80ef 99be 055a b3be
00000100: 61ec fdbe 3205 92be 27d5 f4be 7064 753f
00000110: 7f3b dbbe 571d 99be 7c7f a5be 301b 93be
00000120: 6c2c a23d f23d 56be f567 cabe f158 193d
00000130: f749 93be 5361 503f 0fb3 8fbe be2e ddbe
00000140: f5e4 9f3d 5fce 4e3f 3bb2 933f d035 103f
00000150: 55a2 8cbe bb46 78be f771 c0be 1296 f7be
00000160: 8b2e 553f d083 90be f4c5 08bf c283 1bbe
00000170: 28ed c2be 62e8 a0be e9d3 90be 2b1b bebe
00000180: d8a6 debe 2cbe d1be d5b8 debe b921 f7be
00000190: bb2c dbbe b0f8 8abe 71f8 c4be e173 cfbe
000001a0: e983 01bf 6260 473e 2337 80be c341 a1be
000001b0: de5c d9be 101e 7c3c c344 0b3f fb5f a03e
000001c0: d8e6 d9be 81dd 64be 1d9b 183d 3333 933b
000001d0: 2576 2b3f 921c babe df93 babe f965 afbe
000001e0: b191 253d 8f0d 3abf 9312 ccbe 34cc 00bf
000001f0: 513e 223f 0bd7 563f 2540 953d 3a03 96bd
00000200: 54de 203f b7c2 893f 6ec5 7f3d afa7 dbbe
00000210: 29c3 08bd 8a7c 563e 4eec b1be 0ff8 693c
00000220: d7c8 123f 3b71 083d 5c11 16bc f035 dd3c
00000230: 6a5e 863f e1d3 b9be 14b8 a23e 656c d33e
00000240: 0995 b0bd 6d7a e6be 449f 2bbf 71d1 b0be
00000250: 80db 6cbb 64ec bfbc 40d6 d0be 7bcf 8cbe
00000260: 62fe bfbe 755d 1c3e 56fc 2f3d 1f66 c4be
00000270: 94c0 3c3f 4a9d 573d 9908 e7be 8a83 c1be
00000280: 40c6 adbe f146 5dbe 0348 a8be 8618 94bd
00000290: cf1d 2c3d 886b 82bd 80b5 4dbe bf76 29be
000002a0: f203 b23c 37bd 5c3f 04fd a9be ec5b 053f
000002b0: 7ecb 8fbd b72a 2abe a9fb 7abe 39fb 313f
000002c0: aa61 d1be 2f5a 8bbe 67c9 d9be bdde 1f3f
000002d0: 5973 6dbb 0c99 c8be 857f 813c 446c 04be
000002e0: 0755 dbbe b00d e4be a0eb a5be e1a0 883f
000002f0: 0413 8cbd 4397 c0be 31e2 e1be 0cfe cdbe
00000300: 4bf9 61be 37c2 afbe 0e14 84be e22d 833f
00000310: 66c4 a4be 8f80 ccbe 5b22 c2be 4789 83be
00000320: d62f 103d 6cec 88be 5fc5 c4be 0eda a6bd
00000330: 0b76 bfbe b485 633f c65a b2be d868 e8be
00000340: 41ce 1cbe cfc9 463f 622c 933f d9b3 363f
00000350: fd30 c7be f52c 8fbe 2088 d3be d524 a4be
00000360: c091 833e eb9e 60bf c887 88be 5301 2cbf
00000370: 629f a6be cc92 febe 2a9f a9be e5a6 8fbe
00000380: 75b3 efbe df80 dbbe f033 abbe a75e 91be
00000390: 464e 97be d2c7 28be bfe1 d9be a297 e1be
000003a0: 6f88 f8be 1d3b ab3e 7fc2 5dbe 15e7 dfbe
000003b0: 348e eabe 86f6 673d fa99 603f 9c85 b03e
000003c0: febc f5be d126 59be ced1 003d 10cc 873d
000003d0: 6ac4 373f 9f99 dbbe 8475 94be 5c49 f1be
000003e0: 33b3 e83c f7d9 8ebe 3219 e0be 92d1 1cbe
000003f0: 4ce8 fa3e fa10 503f 8919 73bd 64fd 24bd

fc3.bias f4 [4]
-0.009555402 0.19759142 0.16003907 0.06766722
00000000: 438e 1cbc 6855 4a3e 48e1 233e 1d95 8a3d
