models/model_run_8.pth (torch, 92165 bytes, 6 tensors)

fc1.weight f4 [200, 8]
000000 cf 30 2e be a1 2c 86 bb 3c d3 13 40 01 11 d6 be
       -0.17010807 -0.0040946756 2.3097677 -0.41809848
000010 35 16 e4 3e bc d3 a8 3e 83 76 8f 3c 67 2c 8c 3e
       0.44548193 0.3297404 0.017512565 0.27377626
000020 95 1d 44 3e 69 c4 af be 61 77 0e 3f 5d b8 b4 3f
       0.1915191 -0.34329537 0.5565091 1.4118763
000030 e2 61 eb bd 69 91 00 be 99 07 9c 3e d0 44 8b be
       -0.11493279 -0.1255547 0.30474547 -0.27200937
000040 0d 74 66 3e 98 7a 36 be cc 6b 05 3e 82 0a a2 bf
       0.22505207 -0.17820203 0.13029402 -1.2659457
000050 b4 e5 12 3d b2 46 6f bb 8f 68 87 bd 22 62 a8 3d
       0.035863593 -0.0036510644 -0.0661174 0.08221842
000060 9e a0 fb 3e ef 02 d9 bf 58 bb 0f bf 51 97 88 3d
       0.4914598 -1.695402 -0.5614524 0.06669486
000070 05 af d8 3e 5e 38 9b be 9e 98 10 3a 2a d7 bc be
       0.4232103 -0.30316442 0.0005515906 -0.36882907
000080 7b b9 78 be 03 d3 95 be 50 08 fd 3e 39 b7 99 be
       -0.24289505 -0.29262552 0.49420404 -0.300226
000090 62 6b bd 3d cc 72 32 be 1c 24 6f be e0 ce cb 3d
       0.09248997 -0.17426604 -0.23353618 0.09951568
0000a0 5d 93 04 3c 17 13 17 be 30 b2 4e bb 56 98 09 bf
       0.008091775 -0.14753376 -0.0031539313 -0.5374807
0000b0 18 7a a1 be 35 b2 32 3e 2a 75 79 3e 77 26 5e 3e
       -0.31538463 0.17450793 0.24361101 0.2169436
0000c0 68 2d 3c 3c b1 79 28 3f 3a 65 8a 3f bb 60 15 bf
       0.011485435 0.65810686 1.0812142 -0.58350724
0000d0 ef ea 2f 3d e2 a7 ea be aa b6 b0 be a1 bb ab bf
       0.04294866 -0.4583121 -0.34514362 -1.3416635
0000e0 93 e7 8a be 10 19 9c 3e 4c 03 dd 3e 74 d1 97 be
       -0.27129802 0.3048787 0.43166578 -0.29651988
0000f0 16 3b a0 3e 3d 1f b0 be 98 87 cd be ba 5a 82 3e
       0.3129508 -0.34398833 -0.40142512 0.25459844
000100 5c 87 2d be 97 d0 3e 3e c0 cd 15 be c1 19 d0 bd
       -0.16946167 0.18634258 -0.14629269 -0.10161162
000110 82 19 89 be 43 7b 00 3e ec e9 82 3e 21 54 83 3e
       -0.26777273 0.1254702 0.25569093 0.25650123
000120 8c ad 57 be 15 58 ad 3e f2 3e bb 3d b4 2c c9 3f
       -0.21062297 0.33856264 0.09142865 1.5716767
000130 9a c1 07 3f 96 c8 ae 3e 75 aa c0 bd 13 15 75 be
       0.5302979 0.3413741 -0.09407512 -0.2393382
000140 3b 41 f1 be 27 89 84 bf 13 6a 74 bf 95 15 27 3f
       -0.4712008 -1.0354356 -0.95474356 0.65267307
000150 87 7d 05 3f 47 08 08 bc 6e d9 03 bf 96 3b 07 3e
       0.52144665 -0.008302755 -0.51503646 0.13206324
000160 49 3d 4a bf 02 f5 5a 3e db 85 02 3f 97 f1 d4 3c
       -0.78999764 0.21382526 0.509855 0.025994105
000170 98 7c 52 bf 41 72 39 3f 45 ab 91 3e 6b 7a a9 be
       -0.82221365 0.7243996 0.2845098 -0.3310121
000180 e0 1f 30 3e 2b fb c3 be a6 71 c1 bd 7f 8a 61 bf
       0.1719966 -0.38277563 -0.09445505 -0.88101953
000190 6a 4a 58 be f9 1f 46 3e bd 0c ad 3d 23 fd 09 3d
       -0.21122137 0.19348134 0.08449695 0.033688676
0001a0 c8 3f ab be 73 74 c9 be 6b 4c 09 bf 33 b2 16 bf
       -0.334471 -0.39346656 -0.5363223 -0.5886566
0001b0 a7 73 42 3f 3d 55 c8 3d 1e 11 03 3f 75 9e 85 3e
       0.7595772 0.09781883 0.51197994 0.26097456
0001c0 b4 21 89 3e d8 b1 49 bf 79 c1 b9 be 25 eb 64 3e
       0.26783526 -0.78786993 -0.3628042 0.22355326
0001d0 7d 11 49 3f 0f 25 a4 3e d4 13 ac be e3 3f 98 be
       0.7854231 0.32059523 -0.33608878 -0.29736242
0001e0 2c dc 48 3e f6 36 2b be 9d 21 84 be de 1d 87 bf
       0.19615239 -0.16720185 -0.25806895 -1.055599
0001f0 a0 95 db 3d ab 46 a7 be f4 9b 96 bd e8 18 19 3e
       0.10721898 -0.32671103 -0.073539644 0.14950907
000200 bf ed d3 3e 77 c3 0f be 7f 7b ac be 58 11 a6 be
       0.41392323 -0.14039408 -0.3368797 -0.32435107
000210 3a b8 56 bd 8a fb 2f bd 91 8e 99 bd e6 b8 02 3e
       -0.052421786 -0.042964496 -0.074978955 0.12765846
000220 43 ab 5f bf 47 66 51 bf 38 b3 05 3f 99 3b c4 3d
       -0.873707 -0.8179669 0.5222659 0.0958168
000230 40 1a 3f bd e3 ba 52 bf e0 fd 58 bd 9b 4f 9a be
       -0.046655893 -0.82316417 -0.05297649 -0.3013886
000240 e2 68 8b be 85 98 00 3f 4b a9 91 be 7a c1 b1 bd
       -0.27228457 0.50232726 -0.28449473 -0.08679481
000250 b2 46 8a 3e 25 a3 aa be ea 94 a6 be 21 f1 01 bf
       0.2700706 -0.33327594 -0.32535487 -0.5075856
000260 8a b6 9d bc 1b c7 7d 3e 8c fb c1 3e 76 19 e0 be
       -0.01925208 0.24782984 0.37887228 -0.43769425
000270 89 ac 6f bd c4 77 e2 be d8 67 5d bf 45 93 89 3e
       -0.05851415 -0.44232 -0.8648658 0.2687017
000280 14 29 6e 3e 42 1f 3e bf b2 4c 84 be 5c 9e ad bf
       0.23257858 -0.74266446 -0.25839764 -1.3563952
000290 40 2c 85 be 31 4c 6e 3e 0d 9f 9b be 0d 6c 05 be
       -0.26010323 0.23271252 -0.30394784 -0.130295
0002a0 dc 2e c6 3c 77 22 15 3e 81 33 95 be 23 0c 5d bf
       0.024192266 0.14563929 -0.29140857 -0.86346644
0002b0 2b 67 e2 3e 46 65 0f 3e 15 26 ac be 7d d3 99 3e
       0.44219336 0.14003477 -0.33622804 0.30044165
0002c0 84 6f 28 bd a2 04 db be 33 79 a2 bd 2f ce 05 be
       -0.041121975 -0.42776972 -0.07933273 -0.13066934
0002d0 88 b2 80 3e 0c 09 33 3f 10 9d df bb 60 6a 47 bf
       0.2513621 0.6993568 -0.006824143 -0.7789669
0002e0 75 f4 89 be 9f 0f 15 3d a2 62 90 bd ad d8 e5 3d
       -0.26944318 0.03639185 -0.07050063 0.11222968
0002f0 ad 13 08 3e d2 b8 83 bd 94 34 b0 3e 79 3f ae be
       0.13288756 -0.06431736 0.34415114 -0.340328
000300 73 06 ac bd 4e fd 29 3f bc f7 79 3e 4c 08 92 be
       -0.083996676 0.6640214 0.2441091 -0.28521955
000310 56 9a 0a bf 2a 84 b5 bc 37 a7 16 be 4d 40 6e be
       -0.5414175 -0.022157747 -0.14712225 -0.23266716
000320 ee bb 8c be 81 61 17 3e fb 5d 61 bc 4f ba 41 bf
       -0.2748713 0.14783289 -0.013755317 -0.7567491
000330 70 bb e9 bd 30 a4 80 3d 67 17 e3 bd 5a 59 8d 3e
       -0.11412704 0.06281316 -0.11088448 0.27607232
000340 07 5e bd bd af f6 fb be 6a db aa be 1b 56 09 be
       -0.0924645 -0.49211642 -0.33370525 -0.13411753
000350 6f bc fd 3e 2b 6a 3f 3e b3 97 9d 3d 18 f5 0b be
       0.49557826 0.18692844 0.0769495 -0.13667715
000360 88 7f d6 3e 6b b7 38 3e e0 d7 83 be bf da 57 be
       0.41894174 0.18038718 -0.25750637 -0.21079539
000370 1d 2e 65 3f b6 35 5f 3e 92 5c 84 be fd 69 8f be
       0.8952349 0.21797833 -0.25851876 -0.2801055
000380 5a 2f 21 3f 78 67 57 be 8f f5 93 bd b8 c3 e4 bd
       0.6296288 -0.21035564 -0.07224571 -0.11170143
000390 9e 10 96 3d 30 1b 16 3f 49 ac 04 3e 47 37 1a 3e
       0.07327388 0.58635235 0.12956347 0.15060149
0003a0 d8 ba 55 3e 9d 57 e9 3e c5 ae 43 bf e3 14 92 be
       0.20872056 0.45574656 -0.7643855 -0.2853156
0003b0 d9 ca e7 bd 6d f2 72 be ec 78 a3 be c8 7c 14 bd
       -0.11317987 -0.2372529 -0.31928194 -0.036251813
0003c0 59 2d 79 3f 33 41 1a be 8a 69 9f 3f ad 3c 45 be
       0.9733482 -0.15063934 1.2454083 -0.19261427
0003d0 3e 23 c3 be 89 a5 ff 3e 18 6c 25 be 6c 50 e5 be
       -0.38112825 0.4993098 -0.16154516 -0.4478792
0003e0 ed e6 04 be b8 30 d9 be 98 e9 21 bf dd 1e bd be
       -0.12978716 -0.42419982 -0.6324706 -0.3693761
0003f0 03 8e 15 3f 81 38 a2 3e b0 fc 07 3f d4 bb de 3d
       0.5841982 0.31683734 0.53119946 0.10875669

fc1.bias f4 [200]
000000 c9 46 9c be a3 c8 08 3f bc 85 85 be 82 21 6b 3e
       -0.30522755 0.5343115 -0.26078594 0.22962001
000010 80 47 13 3f 91 7b 12 3e 8b bd 35 be 29 69 0e 3f
       0.57530975 0.1430495 -0.17748086 0.5562921
000020 71 0e 2d 3f c3 ab 4e 3f 4a d8 9d be 6c 9f 15 be
       0.6760016 0.8073084 -0.30829078 -0.14611596
000030 49 26 d6 3e 9b 72 2b be 9c 28 6b bf db e5 1e 3f
       0.41826084 -0.16742937 -0.9185884 0.6206948
000040 d7 e0 e6 3e a7 aa e7 3d 64 40 67 3f aa f8 17 3f
       0.45093414 0.11311846 0.9033263 0.59363806
000050 60 1f 3b 3e 0b d9 80 3e 74 b1 c8 3e 93 aa 4a 3f
       0.18273687 0.2516559 0.39197886 0.79166526
000060 27 4d 62 3f 8f 34 f4 3e d0 d7 cc 3e e8 11 1a bf
       0.88398975 0.4769635 0.40008402 -0.6018357
000070 9f 83 b8 3e 67 92 fa 3e 47 59 c1 bc 02 71 23 be
       0.3603792 0.4893982 -0.023602141 -0.15961078
000080 53 ee ec 3d 68 5c b9 3e 10 fd 66 3e 09 af b9 3e
       0.11568894 0.36203313 0.22557473 0.36266354
000090 60 54 0e 3f 3a 37 8e 3e 63 28 f8 3e a2 69 bf 3d
       0.55597496 0.2777651 0.48468313 0.0934632
0000a0 a0 7b 53 3f 03 a7 e2 3e 06 44 a5 3e cc 01 ac be
       0.8261051 0.44268045 0.3227846 -0.3359512
0000b0 3c 32 14 3e d4 66 58 3e c2 b0 2e 3e 5e 97 7b bb
       0.14472288 0.21132976 0.17059615 -0.0038389782
0000c0 df 82 c1 3e 4f ad 07 3f 72 a5 1e bd 59 9f 72 bd
       0.3779516 0.5299882 -0.038732 -0.059233997
0000d0 6e a3 5d 3f fb d1 0e 3f 5a 16 6d 3e 71 e1 f9 bb
       0.865775 0.55789155 0.23153058 -0.0076257517
0000e0 47 dc 3e bc 9e 99 42 3d 42 31 4f be e0 5b d1 be
       -0.011649198 0.047509782 -0.20233634 -0.40890408
0000f0 67 43 cb 3d 85 de 28 3f 99 e2 33 bf 0d 00 2f 3f
       0.09924965 0.6596454 -0.70267636 0.6835945
000100 19 65 a6 bd 52 ce 3d 3f 3b d2 aa be 1e 43 a9 3e
       -0.081247516 0.74142945 -0.33363518 0.3305902
000110 9e 9f 3c bf 39 9c ff 3e c2 b4 24 3f fc 1e ef 3e
       -0.73681056 0.49923876 0.64338315 0.46703327
000120 7a 3e 02 3f 9e 14 e3 be 39 ea ae 3e 3c 4c c1 3e
       0.5087658 -0.44351667 0.34163073 0.37753475
000130 82 a8 a7 3d e1 51 f1 3e 82 ef 3f 3f ea 62 3e 3e
       0.08186437 0.4713278 0.74974835 0.1859242
000140 c4 6a 27 3e e9 15 0b 3f 3c 55 30 3f 18 f4 3a 3f
       0.16349322 0.5433031 0.6888006 0.7302871
000150 ce eb ab be 9b a1 bf 3e 81 7e 52 be ab 9e bd 3a
       -0.33578342 0.37427983 -0.2055607 0.0014466842
000160 a1 57 47 3f 7a 27 07 3f e0 13 29 bf ae ba fd 3e
       0.77868086 0.5279461 -0.6604595 0.49556488
000170 b0 34 d7 3e bc fd df be 68 03 93 3e 7f 0c 2c 3f
       0.42032385 -0.4374827 0.28713536 0.6720657
000180 8a 2c d7 be e2 d9 11 3e 9a 54 4e 3f 60 72 4e 3e
       -0.42026168 0.14243272 0.8059784 0.20160818
000190 fe e7 ad be f8 9e 03 3f cf 57 12 bf c5 fa 2d 3f
       -0.33966058 0.5141444 -0.57165235 0.6796077
0001a0 ab b9 27 3f 45 12 43 be 48 19 95 3e e7 b2 b3 3e
       0.6551768 -0.19049938 0.2912085 0.3509743
0001b0 20 51 5f 3d 1c 35 ba 3e e0 9e b2 be a6 6e 56 3f
       0.054520726 0.36368644 -0.34886837 0.83762586
0001c0 3c 1a 41 3f e0 d7 ea 3e c9 66 fd 3d 75 f6 49 3f
       0.75430655 0.45867825 0.1237312 0.7889169
0001d0 dc 28 81 3f 59 66 f5 3e f6 57 cf be 3a 6c f1 be
       1.0090594 0.47929648 -0.40496796 -0.47152883
0001e0 04 0a 12 be d2 72 5c 3f 34 7c ec 3e 42 65 ac 3e
       -0.14261633 0.861127 0.4618851 0.33671004
0001f0 26 0c f8 3e 89 51 a3 3e 04 12 ab 3e f1 38 59 3e
       0.4844677 0.31898144 0.33412182 0.21213128
000200 28 93 5d 3f 3b ee 96 be 94 17 18 3f f6 4f fd 3e
       0.8655267 -0.2947863 0.5941098 0.49475068
000210 91 95 31 3f 86 a9 24 3f a7 55 15 3d 91 3d 0c 3f
       0.69368845 0.6432117 0.036458638 0.5478144
000220 5c 45 5b 3d e4 dc ac 3e c7 80 df 3e 2f 54 a8 be
       0.053532943 0.33762276 0.43652937 -0.32876727
000230 07 4b 10 3f 84 de 3e 3d 44 ac e1 3e d5 0c 82 bf
       0.5636448 0.046598926 0.4407674 -1.0160166
000240 a8 5c ac be 38 03 20 3f af 04 e6 3e 4c 41 09 3f
       -0.3366444 0.6250491 0.44925448 0.5361526
000250 69 78 61 3f 9e c5 e7 3e e2 b6 4c 3f da 14 6a 3f
       0.88074356 0.45267957 0.7996656 0.91438067
000260 33 b8 b1 3e 3e 0f 64 3d 88 9a 75 be 3a 2b 3b bf
       0.34710845 0.0556786 -0.2398473 -0.73112833
000270 4d 64 44 3f 0d 7d 7b 3e 0e 1e a5 bd 2a 5f 65 3f
       0.76715547 0.24559422 -0.08062373 0.89598334
000280 0f 5c 1b bd 68 05 e7 3e 50 ad 88 bd 5e 23 e2 3e
       -0.03792959 0.45121312 -0.06673682 0.44167608
000290 6c dc 16 3d 6f 89 49 3e a9 3c 48 bf e3 9b 98 3e
       0.036831304 0.19681333 -0.7821756 0.29806432
0002a0 1e 7b 82 3e 7a dc f4 3d fd b0 47 be 60 68 59 be
       0.25484556 0.11956115 -0.1950111 -0.21231222
0002b0 1b df 26 3f 3b ea ec bc b4 78 8a 3e 98 10 23 3e
       0.6518418 -0.028920284 0.27045214 0.15924299
0002c0 0f 55 4d bf f1 76 1c be 15 4f 79 3d 9c 73 e1 be
       -0.80207914 -0.15279748 0.060866434 -0.44033515
0002d0 8d 0b 59 3f 18 9c 0c 3f 3b 34 ca 3e e9 a1 3f 3f
       0.8478325 0.5492568 0.39492974 0.7485643
0002e0 17 7f 23 be f0 e2 a7 3d ef 3a 93 bd 32 ad 14 3f
       -0.1596645 0.08197582 -0.07188975 0.58076775
0002f0 4d 7c cb bc df 77 59 3e b2 f3 3f 3f a5 dc 2d bf
       -0.024839545 0.21237133 0.74981225 -0.679148
000300 3f 02 3d be e4 8f 2e 3f 6f d8 a0 bd 0f 2e fd 3d
       -0.18457888 0.6818831 -0.078537814 0.123623006
000310 1a 8a 98 3e c2 a0 d4 be 5e 81 46 3f 9e a9 30 3f
       0.29792863 -0.41528898 0.7754115 0.69008815

fc2.weight f4 [100, 200]
000000 b4 03 27 3d 71 b4 08 bd bf 3f 58 bd c3 ac 7c 3c
       0.040775016 -0.033375207 -0.052795168 0.015422049
000010 b8 c5 89 bd 74 fe 27 3d e6 e2 62 bd 97 6b 13 bd
       -0.06727165 0.04101415 -0.05539217 -0.035991278
000020 6a 70 8a 3c 47 21 71 3c b1 c4 53 bd f9 02 43 bc
       0.016899306 0.014717407 -0.05170125 -0.011902564
000030 06 a1 cb 3c 3c 4d 0b 3d 66 87 a8 bc ec ac 7e bc
       0.024857055 0.034009203 -0.020572376 -0.0155441575
000040 f8 46 0b bd 36 e6 31 3d fd 5d 94 bd 05 5f 21 3d
       -0.034003228 0.043432437 -0.07244489 0.03939726
000050 50 e0 6c bc d2 72 8e bd bf 21 ec b8 7d 63 99 bd
       -0.014457777 -0.06955494 -0.000112596426 -0.07489679
000060 a7 8f 1a bb bc bb e2 3c e9 7a 51 bd de bc 82 bc
       -0.0023584159 0.02767741 -0.051142607 -0.0159592
000070 c1 5e 76 bd ac cb 6c bc 9f 08 3f bd fa 34 73 3d
       -0.060148958 -0.014452856 -0.04663908 0.059376694
000080 6a db bd 3b 81 4f 8d bd 98 ab 60 3d 10 57 02 3d
       0.0057939785 -0.0689993 0.054851145 0.03182131
000090 af 38 11 bd 00 0b 59 3b d0 c8 23 bc 21 10 2e bd
       -0.03545445 0.0033118129 -0.009996608 -0.04249585
0000a0 b2 31 99 bd 99 63 a6 bd 21 e6 81 bd 80 08 53 bb
       -0.07480182 -0.081244655 -0.06342722 -0.0032201111
0000b0 57 6f a4 bd 1c ef c7 3c 28 43 b9 bc 12 d4 15 3d
       -0.08029049 0.024406008 -0.02261503 0.0365792
0000c0 15 0b da 3c 70 6d d9 bc e2 22 cf bc a0 82 36 3d
       0.026616612 -0.026541442 -0.025285188 0.044558167
0000d0 e8 be 90 bd ed 77 07 3d a5 83 64 3c fe 61 c9 bc
       -0.070676625 0.033073355 0.013947402 -0.02458286
0000e0 09 a6 64 3c b4 77 9b bc 4c 16 94 bd bc 5b 49 3d
       0.0139556015 -0.018977977 -0.07230815 0.04915975
0000f0 e5 d7 74 3b 4c 1f 6a bd 80 a9 28 bd 26 bb f3 3c
       0.0037360128 -0.057158753 -0.041177273 0.029752325
000100 1b 6d cb 3b 1b 2d 24 bd 72 80 28 3a b1 7f ad bc
       0.0062080747 -0.04008208 0.0006427831 -0.021179052
000110 5a 67 b6 3c 87 0e 83 bd 91 4a 9c 3c 98 71 57 3c
       0.022266079 -0.06399255 0.019078525 0.013149641
000120 91 ba 76 bd 16 83 f3 3c 1c 70 a1 bd 44 5f 0a 3d
       -0.060236517 0.029725593 -0.07882711 0.03378226
000130 34 8c 7f bd 5c 7a 98 bd 19 28 95 bd 8e a5 1a 3d
       -0.062389567 -0.07445213 -0.07283039 0.03775554
000140 c0 25 41 3c 24 ef ca bc 3b 8f a0 bd 8f e1 47 3d
       0.011788785 -0.024772234 -0.07839819 0.048799094
000150 f4 a4 c7 bc a8 89 18 3d a5 8c 36 3d 9a 11 8d bd
       -0.024370648 0.037240654 0.044567723 -0.06888123
000160 77 ec 40 3c d9 2a bd bc fe 07 0b bd 75 53 c9 bc
       0.011775128 -0.02309172 -0.03394317 -0.024575928
000170 bd f8 79 3d ce 32 17 bd 11 8d c9 3c 1a e3 4b 3d
       0.06102823 -0.036913686 0.024603399 0.049777128
000180 c2 e2 3d bd af 6a 71 bd 3c cc 18 bd 63 e9 5f bd
       -0.04635883 -0.058939632 -0.037304148 -0.054665934
000190 20 5c 14 bb 5c 6f 88 bd 1c f7 59 bd 04 f0 d0 3c
       -0.0022637919 -0.06661865 -0.053214177 0.025505073
0001a0 21 82 b5 bc aa c6 23 3c a3 27 a8 bb 43 c0 d2 bc
       -0.022156777 0.009996096 -0.005131678 -0.025726443
0001b0 91 43 e9 3b 38 3a 11 3c 84 ed cf 3c 53 6e 08 bd
       0.0071186502 0.008863978 0.025381811 -0.03330834
0001c0 25 b4 6d bd e7 41 7a bd 4a c2 ad ba d7 3b 18 bd
       -0.058033127 -0.061098006 -0.0013256755 -0.037166443
0001d0 a6 55 6c bd ee cc 07 3d ae 6b 65 bd 02 52 f4 bc
       -0.05769887 0.03315442 -0.056010894 -0.02982426
0001e0 6f c8 f7 bc e4 23 9b bd 70 05 9c 3c 03 5e 97 bd
       -0.030246941 -0.07575205 0.019045562 -0.07390978
0001f0 06 bf a1 3c df 41 10 3d 9a a8 41 3d 3d 21 41 3d
       0.019744407 0.03521907 0.04727993 0.04715084
000200 ea 57 66 3d f7 12 85 bd 0d be 51 3d ae 09 69 3d
       0.056236185 -0.06497758 0.051206637 0.056893997
000210 11 e0 c5 3b f7 c6 22 bc 4d 3b 9f 3c 02 99 4d bd
       0.0060386737 -0.009935132 0.019437457 -0.050194748
000220 70 92 02 3c f0 3d b3 3c 05 2f cd bc dd 01 2e 3c
       0.007969484 0.02188012 -0.025046835 0.010620561
000230 02 07 b0 bd 68 46 90 bd aa 7d 6b 3d 24 4f 38 bd
       -0.08595087 -0.07044679 0.05749289 -0.04499735
000240 89 dd 54 b8 23 00 2b 3d 80 43 ad bd 4c f1 2a 3d
       -5.075106e-05 0.041748177 -0.0846014 0.041734025
000250 cd 9d 84 bb 00 17 fe b9 66 ba 9c bd 65 b2 2b bc
       -0.0040471316 -0.00048463792 -0.0765274 -0.010479544
000260 2c 08 be bc dd e8 c9 3b a6 a6 70 3d 4f 6f 82 3d
       -0.023197256 0.0061617927 0.05875268 0.06368887
000270 ce aa 7a bc 20 96 4d 3d b9 8e 46 3d c1 a9 12 3c
       -0.015299512 0.050192 0.048475955 0.008951605
000280 8e 78 af bd e4 ec fa 3c 1c 4d 7e 3c 23 9c 8d bd
       -0.08567916 0.030630536 0.015521314 -0.06914546
000290 95 95 f8 bb 90 03 de 3c 58 64 17 3c d3 48 86 3d
       -0.007586191 0.027101308 0.009240232 0.06556859
0002a0 1c d7 6e bd 10 3c d0 3c e9 79 12 3d e8 56 2a bd
       -0.058310613 0.025419265 0.035760794 -0.041586787
0002b0 cf 07 9f bd 65 9a bf 3c 4d cf bc bc 96 ad 78 3c
       -0.07765161 0.02338905 -0.023048067 0.015178105
0002c0 20 21 8a bb c1 37 04 bd 4a 55 6e bc 4a de 05 3d
       -0.0042153746 -0.032279734 -0.014546702 0.032682694
0002d0 4a aa b2 bd 5c 50 46 3d e5 2e 2b bd b6 57 8a bb
       -0.08723886 0.04841648 -0.04179277 -0.0042218817
0002e0 84 fe 84 bd b8 ed 9e bc fd 34 06 3d 02 3f 70 bd
       -0.064938575 -0.019400463 0.032765377 -0.05865384
0002f0 6b 78 70 bb b8 a2 9c bd 26 cc 5c bd cd 7d 80 bd
       -0.0036692868 -0.07648224 -0.05390563 -0.062739946
000300 63 13 55 38 9c 7e 71 b9 00 87 05 3c cf 9d f7 3c
       5.0801213e-05 -0.00023030717 0.008149862 0.030226616
000310 a6 7e ad bc 69 5f 84 3d 81 56 37 bd 70 cc 8d bd
       -0.021178555 0.064635105 -0.04476023 -0.06923759
000320 95 03 b0 be 98 dd 97 be 80 d5 e1 3e 1d e9 f5 bd
       -0.34377733 -0.2966125 0.441082 -0.120073535
000330 33 61 12 3d f1 5b 80 bd 1a 02 31 bf 51 6b 5b bd
       0.035737228 -0.062675364 -0.6914383 -0.05356914
000340 79 13 c5 3c 8f 71 14 bd 5f 1e 2f 3f d0 39 0c 3f
       0.024057137 -0.03624111 0.6840572 0.54775715
000350 9f b5 45 bd ef ab 13 3d 32 a3 78 bf b2 aa cf bb
       -0.04826891 0.03605264 -0.97124016 -0.006337487
000360 9e d4 0d 3d 30 67 9e be c7 9f f8 3d d6 c7 04 be
       0.034626596 -0.309381 0.1213985 -0.12966856
000370 70 9d 0d 3e 9d 57 eb 3d 8f 93 3d bd de dc ca 3d
       0.13829589 0.1149132 -0.0462833 0.09905408
000380 30 5d 37 3e 4e 52 8b bb 08 32 51 bc 4c 25 0a be
       0.17906642 -0.004251755 -0.012768276 -0.1349079
000390 8b 98 82 bd 6e 25 07 3e de 2f a0 3f 1f 2a 17 be
       -0.063767515 0.13197872 1.2514608 -0.14762162
0003a0 d9 31 c5 3e db 7b d5 3e 4e 57 5f 3e 5b 7b 95 bd
       0.38514593 0.41696057 0.21810648 -0.07298919
0003b0 18 79 90 bc 8c d4 08 3e 4b 9f 4e 3c ba 2f a8 3d
       -0.017635867 0.1336233 0.012611221 0.08212228
0003c0 5e 77 46 3b 05 13 08 3f cc c4 2e bd c6 32 99 3e
       0.003028355 0.5315402 -0.04266815 0.2992155
0003d0 20 e3 b4 be 73 9a 44 be 17 24 a8 3e 44 ae 91 3e
       -0.35329533 -0.19199543 0.32840034 0.28453267
0003e0 6d 0f 51 be 39 c2 b7 3c 89 1c a2 be a1 e5 d0 bc
       -0.2041604 0.02243148 -0.31662396 -0.02550012
0003f0 95 f7 0a 3e 8e bc 4b be 08 e6 df 3e 01 c1 62 bf
       0.13571008 -0.19896147 0.43730187 -0.8857575

fc2.bias f4 [100]
000000 c4 0d b4 3c 40 71 1c 3e f4 29 21 3d a5 c8 40 bd
       0.02197922 0.15277576 0.03934665 -0.04706635
000010 00 3f 39 3e 50 fa 6b 3c 92 6c d7 3e e2 75 58 3d
       0.18090439 0.014402941 0.4207502 0.052846797
000020 99 f2 20 bd 00 ec e6 3c 12 5f 0a 3c fd 34 1d 3e
       -0.03929386 0.028188705 0.008445518 0.15352245
000030 ee 88 0b 3f 15 07 a4 3d dd 06 e8 3e 59 b8 ba 3e
       0.54505813 0.08009163 0.45317736 0.3646877
000040 50 6d 06 3f 2a b4 f9 3e b5 6f ba bc 58 b6 1c 3e
       0.5251055 0.48770267 -0.022758344 0.15303934
000050 a6 a7 0f 3e 10 cb 1c be 4e c2 f4 3e a4 4f 13 bc
       0.14028797 -0.15311837 0.47804493 -0.008991156
000060 c8 ef 3a 3e 16 b5 ce bd b2 db ac bd e5 38 0f 3e
       0.18255532 -0.10093133 -0.08440341 0.13986547
000070 5e ef e9 3e a7 04 a2 3e 5a 88 b1 3e e0 7c d0 3e
       0.45690435 0.31644174 0.3467434 0.40720272
000080 d6 c0 49 bd 94 e4 21 bd 34 d0 80 3e 21 98 fe 3e
       -0.04925617 -0.03952463 0.25158846 0.4972544
000090 05 38 a6 bd a2 22 94 bd f5 b6 b0 bd 01 fc d6 bd
       -0.08116154 -0.07233168 -0.08628646 -0.10497285
0000a0 68 d8 b4 3e f0 22 e7 3e a8 c1 c0 3e 27 74 f3 3e
       0.35321355 0.45143843 0.37647748 0.47549555
0000b0 c9 bc ee 3d b4 b4 b8 3e 02 c1 9a 3e 44 c0 57 3c
       0.11657102 0.36075366 0.30225378 0.013168398
0000c0 41 e1 04 3e 17 5e 19 3d bb 0c 81 3d 01 00 c5 bb
       0.12976553 0.037443247 0.06301256 -0.0060119634
0000d0 ec 59 63 bd e5 a7 c2 bb 02 4b 82 3d fc 4f 0c bc
       -0.055505678 -0.0059404247 0.06361963 -0.008563992
0000e0 d9 e2 d7 3e 9e e4 9a 3e 12 9a 63 be fc dd 6c 3e
       0.4216526 0.30252546 -0.22226742 0.23131555
0000f0 35 8a 23 3d 73 fd 52 3e d7 4c 9b bd 4e 20 0a 3f
       0.039926726 0.20604496 -0.075830154 0.53955543
000100 63 bc db 3e 5d 76 f0 3d 7b 91 e0 3e 67 be a4 3b
       0.42917165 0.11741326 0.43860993 0.0050275805
000110 e0 a5 93 bd 7b de 34 3d 0e 35 1e 3d 60 99 a1 3c
       -0.072093725 0.044157486 0.038624816 0.019726455
000120 01 68 28 3e cc 0d 3a 3e 62 82 10 3e 9a 0e 5d bd
       0.16445924 0.18169326 0.14112237 -0.053969003
000130 2f 2b ec bd 47 9c bc 3e 08 b8 04 bb fc c1 5a 3e
       -0.11531674 0.3683798 -0.0020251293 0.21363062
000140 e7 4e 39 3e 37 a1 2f 3d 80 79 05 bc b1 e4 02 3e
       0.18096505 0.042878356 -0.008146644 0.12782551
000150 b5 ba c0 bc ae d9 99 bd 45 c4 7c 3e cc a0 3d bd
       -0.023526529 -0.07512222 0.24684246 -0.046295926
000160 85 b1 36 3e 1f b5 c1 3e 86 21 de bd 23 bd 10 3d
       0.17841156 0.37833497 -0.10846238 0.035336625
000170 98 f8 88 bd fa 0a 9b 3e 4d fe 52 bc 3d 56 54 3e
       -0.066880405 0.30281812 -0.012878013 0.20736022
000180 f8 4a 7a 3e ba ff b4 3c d9 04 ac 3b 81 85 9e 3e
       0.24442661 0.022094596 0.0052496013 0.3096123

fc3.weight f4 [4, 100]
000000 20 29 26 bd 60 6c f1 be b4 1c 06 bf c4 7c ae 3d
       -0.040566564 -0.47152996 -0.5238755 0.08519891
000010 50 d8 f6 3e b0 14 25 bf 32 e5 cf be 18 c5 2c bc
       0.48211908 -0.6448469 -0.4060455 -0.010545038
000020 e8 3e 1d bf 66 d3 e1 be b4 11 0d bf 5b df 26 bf
       -0.6142411 -0.44106597 -0.5510514 -0.65184563
000030 d3 b5 8d 3f 54 b3 41 3e 6f d0 c2 3f ad 2d 43 3f
       1.1071113 0.18916065 1.5219859 0.7624157
000040 34 78 92 3f 02 3c c3 be 86 89 9f ba ee 3f 26 bf
       1.1442933 -0.3813172 -0.0012171722 -0.649413
000050 67 e1 1a bf e1 27 39 bf 8e b4 16 bf e8 3b a3 bd
       -0.60500187 -0.72326475 -0.58869255 -0.079704106
000060 3e 14 16 3f 5c cf ca be f6 75 b3 be f7 22 48 bf
       0.5862464 -0.39611328 -0.35050935 -0.7817835
000070 cc cf da be 81 9b bc 3f 83 ff ce 3f 82 c2 b0 3f
       -0.4273666 1.4734956 1.6171726 1.3809359
000080 2e 3a 20 bf 04 e2 c3 bc 0f fd 6c 3f 39 07 85 3f
       -0.62588775 -0.023911484 0.92573637 1.0392829
000090 b5 95 56 bf e9 f5 af 3d 1c bc 9d be ae 57 11 bf
       -0.83822185 0.085918255 -0.3080758 -0.56774414
0000a0 30 9f e5 3f 98 11 b9 be 9e 3e b5 be e3 7d d9 3f
       1.7939205 -0.36146235 -0.35399336 1.6991543
0000b0 82 51 45 bf 20 07 cc be c6 69 82 3f 7e 11 41 3d
       -0.77077496 -0.39849186 1.018853 0.047135822
0000c0 71 8f 9e be 2c 43 d8 bc 19 83 0d bf 08 d0 88 3b
       -0.30968812 -0.026399218 -0.55278164 0.00417519
0000d0 d8 ca 6c 3c cf 0a b4 be cd a3 b9 be 77 7f 39 bf
       0.014452659 -0.35164496 -0.36257783 -0.7246012
0000e0 44 88 82 be e8 b2 0f bf d2 3c ab be 2f f7 dd 3f
       -0.25494587 -0.56132364 -0.3344484 1.734106
0000f0 68 89 ca bc 15 50 18 bf 98 e6 97 bc 52 8f 82 3f
       -0.024723724 -0.59497195 -0.018542573 1.0199988
000100 26 92 1b 40 c5 db 10 bf dc 1a d2 be 30 a9 09 bf
       2.4307952 -0.5658534 -0.41036117 -0.53773785
000110 10 5c 22 bc 94 f7 59 bf 40 db da be ca 97 48 bd
       -0.009909645 -0.851434 -0.427454 -0.048972882
000120 b8 6d 19 3f 4a 39 86 be 71 7b 26 bf 23 78 8d 3d
       0.5993304 -0.26215583 -0.65032107 0.0690768
000130 d8 af 30 bf 99 a7 86 3f 2e bc 44 3d 5d cf bb 3f
       -0.69018316 1.0519897 0.048031025 1.4672657
000140 5a db 23 bf ac 0d 06 bf 9f 73 b4 bd 04 80 08 bf
       -0.6400658 -0.5236461 -0.088111155 -0.53320336
000150 dc 29 c7 bc a7 b9 73 bf 4c df da be 25 f0 a6 3d
       -0.024311952 -0.9520516 -0.42748487 0.08151273
000160 57 65 18 bf f5 8e 72 be 7b 75 10 bf 5b ef 3b bf
       -0.5952963 -0.23687346 -0.5642926 -0.734121
000170 92 30 ae 3d 20 dd 60 bf 22 fe f7 3d cd df de be
       0.08505358 -0.8783741 0.12109019 -0.4353012
000180 83 35 bf 3f 84 67 19 3d 3e 4f 80 bd c0 9a a6 3f
       1.4938205 0.037452236 -0.06265114 1.3015976
000190 a4 b5 12 bd 6a d8 3b be db 38 dc be 3b 6a 7b 3d
       -0.035817757 -0.18344274 -0.43012127 0.061380606
0001a0 0b 1b 0c 3e f7 d4 fc be f9 e6 07 bf 3b b2 b9 bd
       0.13682191 -0.4938123 -0.5308681 -0.09067198
0001b0 c8 c3 ac be 83 11 18 bf 5b 1b 2c bf 8f c7 65 bf
       -0.3374312 -0.5940172 -0.6722924 -0.8975763
0001c0 05 10 c6 3f 83 a0 29 3f b9 0a ae 3f 97 6a 58 3d
       1.5473639 0.66260546 1.3597022 0.052836027
0001d0 97 db 9c 3f 4b 13 2d bf a3 1e 1c bd c5 32 2c bf
       1.2254514 -0.67607564 -0.038115155 -0.6726497
0001e0 5c f2 92 bf 2f 1b 13 bf b0 15 37 bf 0a 95 09 bc
       -1.1480212 -0.57463354 -0.7151747 -0.00839735
0001f0 94 2e 86 3f 6a 8e 3a be 95 8f 7a be 20 8d 6c bf
       1.0482965 -0.18218389 -0.24468835 -0.9240284
000200 48 8d a1 be cf 5c c6 3f f4 9e ce 3f fa dd ad 3f
       -0.31553102 1.5497073 1.6142259 1.3583367
000210 6f de db be c2 92 0d 3d 9b fc e7 3e f1 51 ba 3f
       -0.4294314 0.034563787 0.4530991 1.4556257
000220 67 26 9f be 61 9e 03 bd d8 96 09 bf 4f ec bf be
       -0.31083986 -0.032133464 -0.53745794 -0.37484977
000230 1f 41 c2 3f af eb d8 be 32 d9 a1 be 77 75 d7 3f
       1.5176123 -0.42367312 -0.3161102 1.6832722
000240 b1 a5 5e bf 6d 46 63 be d5 f6 0d 3f 55 45 4e 3d
       -0.86971575 -0.22194834 0.5545476 0.05035909
000250 49 07 10 bf ca 3a b3 bc 83 5c 53 bf c8 6b 69 3d
       -0.56261116 -0.021878619 -0.82563037 0.056987554
000260 37 0f b2 3d ea 98 35 bf 64 5b 2e bf 07 a3 90 be
       0.08694308 -0.70936453 -0.681082 -0.2824938
000270 85 62 bf be a1 52 56 bf 1e 9a bc 3d ca 34 ce 3f
       -0.37379852 -0.8371983 0.09209083 1.610986
000280 c4 ca 1b 3e 55 2a 2f bf bc 5d eb 3c 15 77 c9 3f
       0.15214068 -0.6842397 0.02873122 1.5739466
000290 6c 53 18 40 84 78 f4 be 1f 24 09 bf b3 4f 30 bf
       2.3800917 -0.47748196 -0.5357074 -0.6887161
0002a0 c5 13 a6 bd 1d 78 f7 be 9b 11 26 bf 51 cb 16 bd
       -0.081092395 -0.48333827 -0.64870614 -0.03681499
0002b0 ac b6 a9 3d 5f 3e 2b bf b6 8e b9 be 98 80 b4 bc
       0.08286795 -0.66892046 -0.36241692 -0.022033975
0002c0 95 ce 04 bf 7d 0d 36 3f d9 c8 8b bc 9a a5 af 3f
       -0.5187772 0.7111433 -0.017063545 1.3722413
0002d0 81 63 6b bf f8 ea b7 be f4 5f 82 3c f9 a4 12 bf
       -0.91948706 -0.35921454 0.015914895 -0.5728298
0002e0 4f c1 34 bd 08 b9 6d be 0b 57 cc bd 17 e4 a1 3d
       -0.044129666 -0.23215115 -0.0997754 0.07904833
0002f0 09 33 d3 be 28 17 c4 be 69 93 f4 be c3 bf 09 bf
       -0.41249874 -0.38298917 -0.47768715 -0.5380823
000300 28 b5 6b 3c 05 de f8 be d2 13 a5 3e a8 a1 3e bf
       0.014386453 -0.48606887 0.32241684 -0.7446542
000310 e4 18 b5 3f 3d 65 18 bd 7f b5 a0 3c e1 6c c1 3f
       1.4148221 -0.037205923 0.019617794 1.5111352
000320 3b 94 c9 bb 15 b9 0f bf bb 57 34 bf fc 17 97 bd
       -0.0061517037 -0.5614179 -0.70446366 -0.073776215
000330 c2 da 0f 3f 5b 0b 0e 3d d3 fd bc be 91 fe c8 3d
       0.5619317 0.0346788 -0.36912403 0.0981418
000340 bf 09 6b bf 18 14 5e bf 1b d8 e5 be be 5e d0 be
       -0.91811746 -0.8674941 -0.44891438 -0.40697283
000350 96 ce 34 3f 9e 53 ff bd 4d ba ae 3f 77 ef 16 3f
       0.70627725 -0.124671206 1.3650604 0.58959144
000360 61 ca 85 3f b9 ab 49 bf b0 4a ba bd 72 c9 28 bf
       1.0452386 -0.7877765 -0.09096277 -0.6593238
000370 d5 c9 2e be 86 3f 5d bf 70 f3 d8 be 46 e3 09 3d
       -0.1706918 -0.86425054 -0.42373228 0.03366401
000380 13 2b 0f 3f 75 2d 4a bf 40 7d 52 bf 66 59 cd be
       0.559251 -0.7897561 -0.82222366 -0.40107268
000390 08 85 f9 bd ef 3f dc 3f c9 e7 c7 3f 44 28 a3 3f
       -0.12183577 1.7207011 1.561761 1.2746663
0003a0 a8 5b 19 bf 56 0e b5 3d 26 a0 56 3f 17 95 85 3f
       -0.5990548 0.08840625 0.8383812 1.0436124
0003b0 40 53 4f bf 58 ab 3b 3c 61 a8 1c bf 80 63 42 bf
       -0.80986404 0.011454426 -0.61194426 -0.75933075
0003c0 90 30 cc 3f c4 e8 92 be 3f b3 e7 be 7f d5 c4 3f
       1.595232 -0.2869321 -0.4525394 1.5377654
0003d0 0c fb 72 be 16 9f 80 3e f4 f7 ae 3f b4 fe 6d bd
       -0.2372858 0.25121373 1.3669419 -0.058104232
0003e0 f5 e8 8e bf a0 90 60 3b 61 11 aa be 50 0a 68 3d
       -1.1164843 0.003426589 -0.33216384 0.05665046
0003f0 62 70 14 bd 29 1e d3 be ba 62 7e bf 0d 89 0c bf
       -0.03623999 -0.41233948 -0.99369395 -0.5489662

fc3.bias f4 [4]
000000 7e e2 90 bd 53 96 d3 be 67 f4 a8 3d b8 f6 40 38
       -0.0707445 -0.41325626 0.08249741 4.6006142e-05
