models/model_run_12.pth (torch, 92177 bytes, 6 tensors)

fc1.weight f4 [200, 8]
000000 18 d6 80 bd 1a 8a 21 bd f0 22 10 3e d7 35 c3 3d
       -0.06290835 -0.039438345 0.14075828 0.095317535
000010 fb c2 74 3f 37 37 55 3f 8f 2c f4 be c9 5b 9f 3d
       0.95610017 0.83287376 -0.47690246 0.077811785
000020 cf ae 8c 3e 25 88 94 bb bb 10 ae bd 85 5e bd 3e
       0.27477118 -0.0045328313 -0.08499285 0.36986175
000030 45 08 6b bf 0e ac c0 be 77 67 3c 3f fb 73 39 3f
       -0.91809493 -0.37631267 0.73595375 0.724426
000040 73 e8 36 3f 15 41 c1 3d 7d 8c f8 3f 2e 67 0e be
       0.7144844 0.094362415 1.9417874 -0.13906547
000050 1c 3a 20 bf 27 e5 f7 bd 2e 86 cf 3d 5e cc b3 be
       -0.6258867 -0.12104254 0.101330146 -0.35116857
000060 ba c5 5d bd b7 64 1d 3e 86 64 6b be 98 71 1c 3e
       -0.054143645 0.15370451 -0.22987565 0.15277708
000070 b6 eb 4b 3e bf d5 68 3f ad 10 40 be 47 0a 09 bd
       0.19914135 0.9095115 -0.18756361 -0.033457067
000080 08 5d 9f be 06 93 07 bf bb 44 1b bc cb a4 ea 3f
       -0.31125665 -0.52958715 -0.009476836 1.8331541
000090 43 05 ea 3e 22 55 a4 bd 6d e5 9b 3e 3d 57 50 3f
       0.4570714 -0.0802405 0.30448475 0.81383115
0000a0 68 c9 ac 3d 89 fc 31 bf b6 d7 c0 3e 2b 77 68 bf
       0.08436853 -0.69525963 0.37664574 -0.90806836
0000b0 d7 e2 28 3f 9b a7 33 bf bb f1 5a be eb d1 47 be
       0.6597113 -0.7017762 -0.21381275 -0.19513671
0000c0 bc 25 24 3f 9e c4 1b bf 25 e5 4e 3e 55 30 3b bf
       0.6412008 -0.6084689 0.20204599 -0.73120624
0000d0 b7 fa a1 bf 9a 0f ca bd e7 2b e6 be 79 17 03 3f
       -1.2654637 -0.09866257 -0.4495537 0.5120769
0000e0 87 21 67 3d cf a4 d2 bd 28 6d cc 3e 73 1a 4b bf
       0.05642846 -0.10285341 0.3992703 -0.79337233
0000f0 20 18 80 bf 4a 4e 82 bf 2c 2a b4 be 8b 4f 35 bf
       -1.0007362 -1.0180142 -0.35188425 -0.708245
000100 02 19 93 bf 0c 34 88 be f6 8a 92 3f f2 c6 19 3f
       -1.1492007 -0.2660221 1.1448658 0.6006919
000110 54 3c 63 3e 77 2c 0f be 19 a2 0d 3d b7 75 ec 3e
       0.22190982 -0.13981806 0.034578416 0.4618356
000120 ea f5 40 3f d1 38 2b 3f e7 f4 62 bf a2 5f 49 be
       0.75375235 0.6688357 -0.8865494 -0.19665387
000130 69 70 5d bd 50 9b 44 be 95 da 49 be e5 bc a7 bd
       -0.05406228 -0.19199872 -0.19712289 -0.08190326
000140 1d f7 4e bf 00 dd 48 3f d2 06 7e 3e 71 8c 72 be
       -0.80845815 0.7846222 0.24807289 -0.23686387
000150 a9 16 98 3f 18 2d db be cf 77 10 be f1 53 01 3f
       1.1881915 -0.4280784 -0.14108203 0.5051871
000160 e6 2d 22 3e dd 32 2b be 5d b4 96 3c 50 93 41 3e
       0.15837821 -0.16718622 0.01839655 0.18903852
000170 d8 ce 80 3e 99 9e 56 be dc 20 15 be a1 b9 99 3e
       0.2515781 -0.20958938 -0.14563316 0.30024436
000180 26 a6 51 3f 69 1d 64 3e 1f d3 4f 3f 2b bc 55 3e
       0.8189415 0.22276844 0.8118152 0.20872562
000190 d1 5c d7 be 75 ec 53 bf 4b 6f 69 3c d6 13 de 3e
       -0.42063 -0.8278268 0.014247726 0.4337451
0001a0 11 9f ce 3e 1c 8c 48 3e 2a a6 bb be 40 74 4c bf
       0.40355733 0.19584697 -0.3665021 -0.79864883
0001b0 61 88 00 3f 88 72 81 3c 3e 15 53 be 3b de 29 bf
       0.502081 0.015801683 -0.20613572 -0.6635472
0001c0 24 8f cc 3d 08 04 89 bc 1b 34 c7 3e 64 54 fa 3c
       0.099882394 -0.016725555 0.3890694 0.030557819
0001d0 ec e2 da be c3 4d a8 3d 3b fb 0f be 6d 76 65 bd
       -0.42751253 0.08217957 -0.1406068 -0.056021143
0001e0 7c 17 d2 3e 06 8e 6f 3e c7 a4 3f 3f f6 b6 cb be
       0.41033542 0.23394021 0.74860805 -0.39788026
0001f0 99 f9 06 bf 50 0c 31 bf 1b 61 54 3e ad 89 27 3f
       -0.52724606 -0.6915941 0.20740168 0.6544445
000200 be 98 1b 3e ce 3c 23 3f 95 f5 91 be d1 02 1a be
       0.15194985 0.63764656 -0.28507677 -0.15040137
000210 38 cd 34 3f 28 20 a1 3e 72 fa 4d bf 6a 74 14 bf
       0.7062564 0.31469846 -0.80460274 -0.57990134
000220 2e aa 04 bf e7 04 fe be 94 6f c5 3d 6f 0b 29 40
       -0.51822174 -0.49613115 0.096404225 2.6413229
000230 bd 18 8a bf 0b d9 20 bf 22 b6 cb 3c c1 8f 42 3d
       -1.07888 -0.6283118 0.024867121 0.047500376
000240 ad 2a 9a be 75 40 2a bf 1e 2d 14 bf d6 67 b6 3f
       -0.30110684 -0.66504604 -0.57881343 1.4250438
000250 17 57 d4 3e 8c cf 0a bf 38 8a fe be 42 2a 70 3f
       0.41472694 -0.5422294 -0.49714828 0.9381448
000260 7d 19 09 be 98 0d 3b bf 2b 62 19 be 4a 73 96 3f
       -0.1338863 -0.7306762 -0.14978854 1.1753933
000270 28 dd d5 bf ca b5 bd bd fd 14 85 3f 65 d9 79 be
       -1.6708117 -0.09263189 1.039703 -0.24399336
000280 6a 02 50 be b1 50 5a 3e c6 13 1c 3f 05 65 5d 3c
       -0.20313421 0.21319844 0.6096767 0.013512854
000290 90 39 92 3f 7b 1b ec 3c 3c 70 1a bf 00 26 8c 3e
       1.1423817 0.028821697 -0.60327506 0.27372742
0002a0 30 36 6c 3f d1 66 b9 bd 1e 30 21 bc e3 10 f9 bd
       0.92270184 -0.09052814 -0.009838132 -0.12161424
0002b0 9d 36 a0 bf fa f3 ec 3d e8 57 d3 3e 26 d9 b9 be
       -1.2516667 0.11569972 0.41278005 -0.36298484
0002c0 fb 7a 6e 3f fd 6b 6f 3f 65 79 f4 3c 45 8f b3 3e
       0.93156403 0.9352415 0.029843042 0.35070243
0002d0 dd 54 f0 3e 60 c9 db be 28 3d 55 bf c7 1b e4 3e
       0.46939746 -0.42927074 -0.8329644 0.44552442
0002e0 15 f1 19 bf 7b ae cc 3e 06 b7 1d 3d fb 50 04 3f
       -0.60133487 0.39976868 0.038504623 0.51686066
0002f0 1b a9 72 3f 0b 56 80 3e d9 0e 7f bf 94 3a 98 bf
       0.94789284 0.25065646 -0.9963203 -1.1892877
000300 6a 5e 3c be 28 b7 ee 3e 33 0e fe be 62 e0 d2 3d
       -0.18395391 0.46624112 -0.49620208 0.10296704
000310 00 a1 3a 3e 74 86 99 bf a0 b3 bf bc d3 04 9c be
       0.18225479 -1.1994157 -0.023401082 -0.3047243
000320 eb 3b 8f 3f 76 37 9d be ae e4 83 3d 5e c3 fc be
       1.119016 -0.30706376 0.064401016 -0.49367803
000330 84 1f 1d be 81 8e 0b 3d b0 34 7a 3e 7d a9 7f 3e
       -0.15344054 0.03407145 0.24434161 0.24966998
000340 fb 02 d2 3d 75 9a b5 be 9a de af 3e 31 6f 23 bf
       0.10254475 -0.35469404 0.3434952 -0.6384154
000350 c0 6e 82 bf aa 7f ab bc 53 e9 0f bd d8 6c 2d 3f
       -1.0190048 -0.020934898 -0.035134625 0.6774421
000360 16 47 1a 3d 97 5b 15 3f 99 b1 34 be 2e 0b 4d 3d
       0.03766545 0.5834288 -0.17645873 0.05005949
000370 4e e7 f4 be 21 03 43 bf d8 e8 39 3c 9b 98 03 bd
       -0.4783272 -0.7617665 0.011347018 -0.032127958
000380 e1 f3 39 be 54 c5 03 be d7 3c c8 be 0b e4 c2 be
       -0.18159439 -0.12868243 -0.39108917 -0.38064608
000390 36 d2 ca be 00 f7 ab 3e 24 f4 87 bf c2 15 3c bf
       -0.39613503 0.33586884 -1.0621381 -0.734707
0003a0 a1 25 96 3e c0 46 f8 bd 20 f4 48 bf f5 27 fb be
       0.29325584 -0.121228695 -0.78497505 -0.49053922
0003b0 8e bb 2a 3f 32 3e 7a be 30 f4 17 3f b1 6b ea 3e
       0.66692436 -0.24437788 0.59356976 0.45785287
0003c0 ce 21 b7 bd 66 e0 55 bf e4 29 31 bd 96 ed 2d bf
       -0.089419946 -0.8354553 -0.04325284 -0.6794065
0003d0 45 89 29 bf a5 1f bc be 7a cf ee 3e 39 28 2f 3f
       -0.6622508 -0.36742893 0.46642667 0.6842075
0003e0 eb 36 f6 3e b1 6d db be bf 5f e7 bd 02 8c 3f bf
       0.48088774 -0.42857125 -0.11297559 -0.7482301
0003f0 e7 fb 9a 3e 63 b1 f3 3e bc 73 44 3f 4d 75 5b 3e
       0.3027031 0.47596273 0.76739097 0.21431465

fc1.bias f4 [200]
000000 e8 82 75 3d a4 e0 84 bd 21 39 7f bf fe 71 24 3f
       0.059939295 -0.06488159 -0.99696547 0.6423644
000010 7a 5b cf bc 65 99 08 bf 9f 35 42 be fd ce 36 bf
       -0.025312174 -0.5335906 -0.18965767 -0.7140959
000020 3e 32 87 3e 2a be 64 bf 4f d8 a2 bd ae 48 21 3f
       0.2640552 -0.8935267 -0.07951414 0.63001525
000030 ff 2a c0 3d 38 61 9d 3e 4b 9b 2e 3f 06 ca 8f 3e
       0.09383201 0.30738235 0.6820571 0.2808382
000040 f2 6b 41 be 3f 60 e3 be d1 d7 05 3f 2b 11 a1 3d
       -0.18888834 -0.44409367 0.52282435 0.07864603
000050 64 c5 f5 3e 1b 75 a1 3e 32 4e 8c 3e e5 6e 03 3f
       0.4800216 0.31534657 0.27403408 0.51341087
000060 d2 7c 36 3e d7 5e 78 3e 06 63 e9 be 66 24 3f 3f
       0.17821053 0.24254929 -0.4558336 0.74664915
000070 a8 c1 d6 3e 25 1d e5 bd 57 d2 77 be 85 3b 3b bf
       0.41944623 -0.111871995 -0.24201332 -0.73137695
000080 da 4f e1 be ab f4 3f 3f 33 85 a3 be 24 7c 1d 3f
       -0.44006234 0.7498271 -0.3193756 0.6151755
000090 c3 0f 16 3f 6a 11 16 3f 59 d5 18 3e 4f 03 fd 3e
       0.586178 0.5862032 0.14925136 0.49416587
0000a0 bb 35 47 3d 17 4e 00 3f 10 59 d3 be 62 c2 3f 3f
       0.048635226 0.50119156 -0.41278887 0.7490598
0000b0 16 5f d8 bc c1 48 e8 3e da b7 5c be 91 17 21 bd
       -0.026412528 0.45368007 -0.21554509 -0.039329115
0000c0 a8 b7 47 3f ab 84 cb be 0e 41 28 bc 93 15 79 3f
       0.7801461 -0.39749655 -0.0102694165 0.97298545
0000d0 43 f3 57 be 25 d3 d4 3e 12 73 7b 3e b1 9b c6 3c
       -0.2108889 0.4156734 0.24555615 0.024244161
0000e0 df af 1e 3f 83 84 cb 3e bc 7d d1 3e 12 c2 13 3f
       0.6198711 0.39749536 0.4091624 0.57718
0000f0 e7 ef 24 3f b6 14 de 3e 3f 34 3c 3f 0b 2d f6 3e
       0.6442856 0.43375176 0.7351722 0.4808124
000100 56 b4 23 3f 33 5c 00 bf 20 f8 35 3f 1f 89 20 3f
       0.63947046 -0.50140685 0.71081734 0.6270923
000110 fc 3c 51 bf 77 24 30 3e ce a8 28 bf 60 23 05 bf
       -0.8173368 0.1720141 -0.65882576 -0.520071
000120 81 e5 52 3e db 49 0f 3e e1 17 33 3f c3 f3 e5 3e
       0.20595361 0.13993017 0.6995831 0.44912538
000130 9c d5 95 3d fe 68 0e 3f 1f 31 13 3f 50 5f 26 3f
       0.073161334 0.55628955 0.5749683 0.64989185
000140 af 3c ab be e3 51 b4 3e 92 30 a8 3e bf 80 b8 bd
       -0.33444735 0.35218725 0.32849556 -0.09008931
000150 b1 55 31 3f 8e 38 e2 3d e6 57 c0 3d 01 81 fa 3e
       0.6927138 0.11045943 0.09391765 0.48926547
000160 93 0b 30 3f 27 8c 77 be cc f0 5c be f4 b8 de 3e
       0.6876766 -0.24174558 -0.21576232 0.43500483
000170 73 1e 47 3f 90 67 b3 be 8b 8f fa 3e 40 13 95 3e
       0.77780837 -0.3503995 0.4893764 0.2911625
000180 8e 06 3d be e7 ef 81 3e ec 65 43 3f dc 33 3c 3e
       -0.18459532 0.25378343 0.76327395 0.18379158
000190 3c 48 96 3a 31 84 1c 3f 11 44 d0 bd 68 0c 24 be
       0.0011465619 0.6113921 -0.10169233 -0.16020358
0001a0 aa 19 f0 3c 97 2d f8 bd b0 0a d2 3c c9 bb bf 3e
       0.029309113 -0.121180706 0.025639862 0.37447956
0001b0 c1 1b f2 bd 01 cb d4 be d9 fa 60 bf fd 68 1c 3f
       -0.118217 -0.4156113 -0.87882763 0.610977
0001c0 e7 d4 25 bd fd 8b 64 3e d2 4a 16 bf 00 db 18 3b
       -0.040486243 0.22319026 -0.58707917 0.0023323894
0001d0 91 27 09 3f 67 94 6f be 79 0d d1 bd fa 42 91 3e
       0.53576 -0.23396455 -0.10207648 0.28371412
0001e0 d1 6b 7c bd 78 5b 4b be 07 06 19 3f 9f 90 37 3f
       -0.06162626 -0.19859111 0.5977482 0.7170505
0001f0 f1 a2 be bd 2f 46 9e be cf b3 ea 3e ee 93 6c 3d
       -0.09308422 -0.3091292 0.45840308 0.057758264
000200 20 0c ce be bb 3b ed 3e 74 97 a9 3d d5 60 69 be
       -0.40243626 0.46334633 0.082808405 -0.22790845
000210 c2 76 93 3f ca 1f 4b 3f 66 6d d3 bd df 59 c5 3e
       1.1520617 0.7934538 -0.103236005 0.3854513
000220 de df 01 bf 99 db f1 be fb 1f 13 3e b0 67 54 be
       -0.5073222 -0.47237852 0.14367668 -0.20742679
000230 21 20 ed 3c 22 7e 23 3f 2e 6a c6 3e 5b 2b d4 3e
       0.028945984 0.6386434 0.38752884 0.41439328
000240 5a 07 61 3f 70 ed eb 3e cb 4f a1 3e df 22 b1 be
       0.8790184 0.46079588 0.3150619 -0.34596917
000250 2a fb ab 3e 19 0e f5 3e 88 84 cb be 2d c2 5c 3f
       0.3359006 0.47862318 -0.3974955 0.8623379
000260 55 bb cd 3e 72 29 47 3f 5f c8 80 3e d7 84 28 3f
       0.40181985 0.77797616 0.2515287 0.658277
000270 9a c9 47 3f 8f 78 3a 3f 36 67 08 3f e5 c0 39 3f
       0.78041995 0.7284021 0.5328249 0.7255996
000280 21 e9 f3 be 68 ab 46 3f 94 d6 cf 3d f6 a4 d9 3e
       -0.476388 0.77605295 0.101483494 0.42508668
000290 af 80 20 be db 3d 89 3e 4b 7f 11 3f 7d c6 14 3f
       -0.15674089 0.26805004 0.5683486 0.5811537
0002a0 c1 72 13 be b9 91 b9 be f5 03 5e 3e 74 cb 2c bf
       -0.14399244 -0.3624399 0.21681197 -0.67497945
0002b0 09 4a 0f 3f ae 62 79 bd be c9 35 bf aa 6c e7 be
       0.55972344 -0.060885124 -0.7101096 -0.45200092
0002c0 3d 0a 4b be a2 ae 5d be 48 6c 94 3e ca 06 5d 3f
       -0.19828124 -0.21648648 0.28988862 0.86338484
0002d0 6a 12 7c 3e d4 0a 52 3e 78 aa a6 bd 20 19 3b 3f
       0.246164 0.20511943 -0.08137983 0.7308521
0002e0 99 6f b4 be 1b 67 d0 3e 8e 2f 14 3e 6c 8f a8 3e
       -0.35241392 0.40703663 0.14471266 0.32921922
0002f0 4c b8 45 3f 27 95 d8 3d c4 d9 a5 bc 92 c0 a1 3e
       0.7723434 0.105753236 -0.02024544 0.31592232
000300 31 7b 14 3f 83 b1 12 3f 13 ae c8 3e 1f b5 39 3f
       0.58000475 0.5730211 0.39195308 0.72541994
000310 b9 6c ff 3d 4d f0 27 be 12 3e ef 3e 01 ee c4 3e
       0.12471909 -0.16400261 0.46727043 0.38462833

fc2.weight f4 [100, 200]
000000 4a c3 76 bd 1b 90 f2 3c 38 5b 86 bd 50 68 7e 3d
       -0.060244836 0.02960973 -0.06560367 0.0621112
000010 ea 1b 61 bd 08 05 3a bc 25 8e 7d bd 05 e3 50 bd
       -0.05495826 -0.011353739 -0.061903138 -0.050997753
000020 75 c9 85 bb 4d 9f 3f bd e9 05 8c bc a8 23 1b 3d
       -0.0040828534 -0.04678278 -0.017092662 0.0378758
000030 a6 6c 49 3d fb 6d db bc 9e 13 b4 3c 18 39 25 3d
       0.04917588 -0.026785841 0.02198201 0.040337652
000040 69 4b d7 3c c4 a0 40 bd 84 f6 51 3d 80 19 7a bc
       0.026281076 -0.047028318 0.051260486 -0.015264869
000050 59 9d a2 3c 55 c6 9c 3c b6 a5 1e bd 51 3a 8b bd
       0.01985042 0.01913754 -0.038732253 -0.06798232
000060 58 ec af 3c 90 e3 85 bc 78 0d 2a bd d5 7a bd bc
       0.021475002 -0.016343862 -0.04151675 -0.02312986
000070 12 d0 1b 3a b0 10 68 bc e8 4a 64 bd 4e eb b6 3c
       0.00059437857 -0.014164135 -0.0557355 0.022328999
000080 81 e1 74 3d f9 c8 75 bc 4e 15 ec ba c0 63 82 3d
       0.05978537 -0.015001529 -0.001801172 0.06366682
000090 67 f9 64 bd e4 db 69 bd 1f 71 16 bd d0 b6 82 3b
       -0.05590191 -0.05709447 -0.036728974 0.003989078
0000a0 54 50 2c bd 8d 8c 94 bd 4b 2c 7e bd c2 f6 b0 3c
       -0.042068794 -0.072533704 -0.06205396 0.021602038
0000b0 50 05 51 3c 6d f9 f5 bc 04 5e 47 3d f6 0a 18 3d
       0.012757614 -0.030026162 0.048673645 0.03711983
0000c0 6b f9 78 3d b0 f7 9e 3b e8 e0 60 bd 1d fa 07 bd
       0.06078474 0.004851304 -0.054901987 -0.03319751
0000d0 7e c9 45 3d 9d 7a 48 3c bf bb 68 bc 17 ef 39 bd
       0.04828786 0.0122362645 -0.014204918 -0.04539403
0000e0 d4 c6 13 3d 29 eb 1e 3d ca b6 69 bd de 15 bb bc
       0.03607829 0.038798485 -0.057059087 -0.022837576
0000f0 a2 fb 3f bc 45 9f 90 bd 13 07 5b 3d 82 3f ba 3c
       -0.011717709 -0.07061628 0.053473543 0.022735361
000100 a4 4a 98 3b a1 63 3f bd 80 30 86 bd a8 99 61 bd
       0.0046475697 -0.046725873 -0.065522194 -0.05507818
000110 61 64 1a bd c3 06 7d 3d 60 07 8e bd ab 6e 3a 3d
       -0.037693385 0.061774027 -0.069350004 0.045515697
000120 f5 f3 06 bd 92 e1 b5 ba 0e a0 53 bc 67 03 90 3d
       -0.0329475 -0.0013876429 -0.012916578 0.07031899
000130 d0 38 2b bc c0 d1 9c 3c 18 8c 5b bc 85 4d e8 bb
       -0.010450557 0.019142985 -0.0134001 -0.007089319
000140 12 32 38 bd bc 40 7e 3d 69 29 8d bd dd ea 8e 3c
       -0.044969626 0.062073454 -0.06892664 0.017445976
000150 7e 8e 73 3d 81 7f 65 bd 66 cd 0d 3d d8 4c 85 bd
       0.059462063 -0.0560298 0.03461971 -0.065087974
000160 61 81 0f bb e6 aa b0 3c ac 96 99 bd aa 8f 3e 3c
       -0.0021897184 0.021565866 -0.074994415 0.011630932
000170 30 b7 8c bd 88 c4 0c bd 36 1e e6 bc 3f 87 f8 3c
       -0.06870878 -0.034367114 -0.028090578 0.030337928
000180 f0 03 9b bc a7 66 2e 3d 29 2a 81 bc 4c 5b 5a bc
       -0.018922776 0.042578366 -0.015767174 -0.013327431
000190 01 26 92 bd c7 19 c9 bc d0 b1 f1 3b 17 65 01 bd
       -0.07136155 -0.024548424 0.007375933 -0.031590547
0001a0 b4 d5 29 bd 73 d7 d7 bc ec 80 2d bd 9e 20 28 bc
       -0.04146357 -0.026347851 -0.042359278 -0.010261683
0001b0 91 65 78 3c ca e4 4a 3c 1c c9 a9 3c 62 87 71 bd
       0.015160934 0.012383649 0.02072578 -0.058967
0001c0 8f f1 e1 3c 00 51 f0 3c 6c b3 ac 3c 60 ac 55 3d
       0.027581004 0.029335499 0.021081649 0.052166343
0001d0 04 4c 09 3b 11 a3 1c 3b c2 87 4d 3b 04 ee 5f bd
       0.002094985 0.0023900906 0.0031361436 -0.05467035
0001e0 e3 2e e1 3c 2b d9 00 bc 2d bb 14 bd 74 7c 9b bd
       0.027488178 -0.007864277 -0.036311317 -0.07592097
0001f0 af ba 2f 3d 71 68 95 bc 90 be 1f bd 55 55 f8 3b
       0.042902645 -0.018238278 -0.039000094 0.0075785317
000200 ef fe 75 bd d5 42 36 bd f0 0c 27 3d ee 63 3c 3d
       -0.060057577 -0.04449733 0.040783823 0.045993738
000210 a4 42 19 3d 83 e8 67 bd a2 ad 54 bd c2 52 db 3c
       0.03741707 -0.056618225 -0.0519234 0.02677286
000220 2b 22 8e 3d 20 8c 0d 3c ca 78 aa 3c df 7d 83 bd
       0.06940111 0.008639365 0.02080955 -0.064204924
000230 9c 86 1b 3d 1d d5 5e 3d 67 ea 29 3d 80 51 7f bd
       0.03797017 0.05440246 0.04148331 -0.062333584
000240 04 28 89 3c 21 55 5f bd a6 f8 aa 3b e2 04 37 3d
       0.016742714 -0.054524545 0.0052176295 0.04468239
000250 30 79 ab bb 84 ca 1f bd d0 f2 6f bd 25 0a 19 bd
       -0.0052329525 -0.039011493 -0.058581173 -0.03736319
000260 12 37 54 bd c1 6f 19 3d 36 a3 4f bd e3 07 94 bd
       -0.05181033 0.037460092 -0.05069276 -0.07228067
000270 a0 82 bd bb fa 54 47 3d a3 aa 8d 3c 51 5c eb 3c
       -0.005783394 0.048665024 0.01729328 0.028730543
000280 b6 e1 7e bd 6e 32 96 bd f5 11 0a bd 2a fe 1d 3d
       -0.062226973 -0.073338374 -0.03370853 0.038572468
000290 ca e6 a4 bb af 33 2d 3d 78 f7 26 bd 6a e7 c5 bc
       -0.005032395 0.042285617 -0.04076335 -0.024158198
0002a0 cc b6 25 3d 4c 6d 05 3d da 75 8b 3c fa 89 b7 bc
       0.04045753 0.032574937 0.01702397 -0.02240466
0002b0 38 9a 4f bd 1a 8c 81 3c ac c6 3f bc 00 fd d8 bc
       -0.050684184 0.015813876 -0.011705082 -0.026487827
0002c0 67 dd 74 3d 9b 83 10 3d c3 76 4b 3d 47 e5 23 bd
       0.05978146 0.03528176 0.049673807 -0.040013578
0002d0 9c 90 fa bb 99 f4 fb 3c 50 9e d2 bc 8c 4d 14 3d
       -0.0076466333 0.030756282 -0.025710255 0.036206767
0002e0 b4 df 14 3d 73 99 2d 3d 3b 0c 8e bd b4 e7 cc bc
       0.036346152 0.04238267 -0.069359265 -0.025012828
0002f0 3e d3 59 bd bc 63 63 3c c4 2f c0 3c f0 d1 84 bd
       -0.053179972 0.013878759 0.023460276 -0.06485355
000300 2e d3 43 bd c2 77 17 bd 8c 13 18 bd 46 40 26 bd
       -0.04780882 -0.036979444 -0.037128016 -0.04058864
000310 16 2f df bc c0 04 88 bd 83 b9 3f 3d da 22 3b bd
       -0.027244132 -0.06641531 0.046807777 -0.045687534
000320 46 4e 26 bc 54 06 a1 bd 16 53 1a bd 68 b9 5f 3d
       -0.010150498 -0.07862535 -0.037676893 0.054620177
000330 22 b7 79 bd 04 d6 54 3d 28 c5 57 3d d5 6e 5a 3d
       -0.060965665 0.051961914 0.052678257 0.053328354
000340 5b f7 4d 3d c3 76 34 bd a2 8e 0d bd e5 5e 5e bd
       0.050284725 -0.044058573 -0.034559853 -0.054289717
000350 21 a1 52 bd 09 af ec 3c ce 8d 0e 3d 04 c9 75 bd
       -0.051423196 0.028892057 0.034803204 -0.060006157
000360 de 50 ab bd 68 d1 27 bd bf d8 cf 3c c8 72 5a 3d
       -0.083650336 -0.04097119 0.025371907 0.05333212
000370 ff 66 03 3d 62 42 97 bd e0 10 ea 3c 1b 24 81 bc
       0.032080647 -0.073857084 0.0285725 -0.015764287
000380 c7 76 00 3d eb 19 9e bb 5a 01 8c bd 8c 7b 2d bc
       0.031363275 -0.004824867 -0.06836195 -0.010588538
000390 f6 04 8a 3c 74 46 1e bd 80 57 05 bd 89 ff e9 3c
       0.016848069 -0.038641408 -0.03255415 0.028564231
0003a0 ab d3 02 bd ee 33 1d bd 6f 2e 50 3c 45 5e 9e bd
       -0.031940144 -0.038379602 0.012706383 -0.07732824
0003b0 8f f5 3d bd 59 8d be bc 60 2f f8 bb af 74 27 3b
       -0.04637676 -0.02326076 -0.007574007 0.0025551727
0003c0 73 dd 27 bc 1e ea 63 3d 3d 05 96 bc 66 aa ab bc
       -0.010245669 0.055643193 -0.018313045 -0.020955276
0003d0 1e 45 59 3d cd b5 48 bd d0 89 0d 3c 2c 67 9f bd
       0.05304443 -0.049001504 0.008638814 -0.0778335
0003e0 fb 7f 04 bd 16 5c 52 bd 0d cf 6e bd 25 c4 b6 bc
       -0.032348614 -0.05135735 -0.058302928 -0.022310326
0003f0 6d 5c 28 bd f4 27 3a 3d 09 5e 21 3c 8b e9 8b bd
       -0.04110377 0.04544826 0.00984908 -0.06831654

fc2.bias f4 [100]
000000 2e 5e d0 3c 24 aa 0c 3b 2d cc 6d bd 16 14 1a 3d
       0.025435533 0.0021463716 -0.058056045 0.03761681
000010 2c 0a 3c 3e 35 98 60 3d d2 53 c8 3d 00 0f b7 3e
       0.18363255 0.054832656 0.097816125 0.35753632
000020 55 4c 01 3f 39 fd 84 bc 4d c0 1f 3d de c9 05 3e
       0.505071 -0.016234027 0.03900175 0.13065287
000030 c1 14 57 bc 8a b7 88 bd 4a fc b9 bc cd d0 61 bd
       -0.013127507 -0.06675632 -0.022703309 -0.05513077
000040 d2 b5 24 3f 7f 57 ee 3e ad f9 84 3e 1b 19 e6 3e
       0.64339936 0.4655113 0.25971738 0.4494103
000050 bc 90 f8 bc d6 1a 0e bd 98 bc ac 3b 69 eb 0c 3e
       -0.030342452 -0.03469356 0.0052715056 0.13761677
000060 7e 44 d6 3d e1 08 ee 3d 9b 53 18 3e 60 4d 37 3e
       0.104622826 0.11622787 0.14875643 0.1790061
000070 d9 fc f7 3e c5 71 37 bd ef 2a 39 3c 6b 9c 9f bd
       0.48435095 -0.044786233 0.01130174 -0.07793506
000080 42 80 29 3d 97 85 d3 bc ff 86 1b 3f 99 8b 24 bb
       0.04138208 -0.025820537 0.6075286 -0.002510762
000090 d0 76 1f 3e 10 e7 b6 3e 92 ac e2 bc 0c b1 70 bc
       0.15572667 0.35723162 -0.027670179 -0.014690649
0000a0 08 b5 c8 3e 82 55 f3 3e 19 42 89 bd a6 67 0f bd
       0.39200616 0.47526175 -0.0670206 -0.035010956
0000b0 04 b3 ad 3d b8 8d 32 3e 5f fd 05 be f4 23 ad 3e
       0.0848141 0.17436874 -0.13084935 0.33816493
0000c0 53 89 cf 3d f5 5d 23 bd 60 db 8e 3e bb 5c 8a 3c
       0.101336144 -0.039884526 0.27901745 0.01688992
0000d0 e2 5e 97 3e 6f 56 34 3d ba d6 9d 3d 33 0b 06 3d
       0.29564577 0.044027742 0.077069715 0.032725524
0000e0 55 10 1e 3e 53 2f 08 3e 43 e3 df 3d 31 99 49 be
       0.15435918 0.13299303 0.109320186 -0.19687344
0000f0 0c 9e 8a 3e 79 47 29 bd 66 ae 0c 3f db 9a 27 3c
       0.27073705 -0.041327927 0.5495361 0.0102297915
000100 a1 94 21 3e 29 87 b5 bb 11 5d 74 3e 6f b0 6e 3e
       0.15779354 -0.005539794 0.23863627 0.23309492
000110 38 c7 14 3e dc 74 63 bc bc 27 78 3d 64 90 93 3e
       0.14529121 -0.013882842 0.06058477 0.288211
000120 cd 68 b8 bd f3 13 c2 3d 32 4b 1e bd 6e 39 e6 3e
       -0.09004364 0.09476461 -0.03864593 0.4496569
000130 9b b4 c7 bd f4 f8 19 bc 51 b9 19 3e 7f d4 d9 bd
       -0.09751245 -0.009397734 0.15012099 -0.106362335
000140 82 7f 9d bd 5d 2b be bd d9 c4 55 3e 73 65 02 3d
       -0.07690336 -0.09285615 0.20875873 0.03183503
000150 f7 8a 10 bc 2d 6a 5f b9 df 49 b0 bc cb be 5f be
       -0.008822194 -0.00021306491 -0.0215196 -0.21850125
000160 ab cc 53 3d ba 60 20 bc 3f b8 01 bc 52 71 46 3d
       0.05170886 -0.009788686 -0.007917463 0.048447914
000170 08 7c 39 3e 4a bd 2c bd b4 94 06 3e 9e c6 f0 3c
       0.1811372 -0.042172708 0.13142663 0.029391583
000180 6e 1e 18 3d 27 2e bc bc d5 8c 85 3e 35 98 a8 3e
       0.037138395 -0.022971226 0.2608401 0.32928625

fc3.weight f4 [4, 100]
000000 1b 7e c2 bd c8 75 66 3c 45 8a 9f 3d e2 f4 d3 bf
       -0.09496709 0.014066167 0.07790045 -1.6559107
000010 91 ad 1e bf 41 e5 2f bf 4a fa e0 bf a9 53 8a 3f
       -0.6198359 -0.6870919 -1.7576382 1.0806781
000020 d7 09 e3 3f 59 a9 ec 3c 3a 7f dd bf e3 c2 b7 bf
       1.7737378 0.028889345 -1.7304451 -1.435635
000030 78 3d c0 bf 20 b0 dd bf ab 62 1a 3c bc 19 5b 3c
       -1.5018759 -1.7319374 0.009422938 0.013372835
000040 3f 97 d1 3f 77 af 8a 3f 07 d2 b6 bf 1b 56 8c 3f
       1.6374282 1.0834798 -1.4282845 1.0963777
000050 cc c9 85 3d 4f 0b c1 bf ee 77 97 3d 03 06 27 bd
       0.0653263 -1.5081576 0.07395922 -0.040777218
000060 07 fd 04 c0 a6 d4 cc 3c e0 ed d0 bf 87 c9 0d c0
       -2.0779436 0.025003742 -1.6322594 -2.2154253
000070 1b 67 a7 3f 4b e2 1d bd 54 ac cb bf e0 c1 85 bd
       1.307834 -0.038545888 -1.5911965 -0.06531119
000080 dd ad 10 c0 26 a2 3c 40 ea 54 20 bf 6b cc a1 be
       -2.2606118 2.9473968 -0.6262957 -0.3160127
000090 14 e0 1a c0 96 85 f6 3f a2 c9 b0 bf 53 5b f2 3f
       -2.4199266 1.9259517 -1.3811533 1.893412
0000a0 31 d1 4e bf d3 3a 64 3f b0 34 81 bf e4 c5 fd bf
       -0.8078795 0.8915226 -1.0094204 -1.9826016
0000b0 4b c2 a2 3f be 01 02 3f a9 e0 71 bf 6e 99 3e 40
       1.2715544 0.5078391 -0.9448343 2.9781146
0000c0 07 5d 0c c0 48 90 ba bf c7 b8 6c bf 32 6c e3 bf
       -2.193178 -1.4575281 -0.9246945 -1.7767394
0000d0 9b 21 54 3f c7 15 ee bf 93 3f ce be e0 c8 94 bf
       0.8286378 -1.8600396 -0.40282878 -1.1623802
0000e0 1a e3 38 c0 6f 69 01 c0 e3 9e 0e c0 c4 e0 d6 be
       -2.8888612 -2.0220602 -2.2284477 -0.41968358
0000f0 74 c1 17 40 3c 06 a6 bd 38 28 ab 3f 47 0a df bf
       2.3711824 -0.08106658 1.3371649 -1.7425011
000100 1d 6c e2 bf 54 68 af 3e 40 6b 85 bf 8a 80 8c bf
       -1.7689244 0.34259284 -1.0423355 -1.0976727
000110 5a ea 44 be 03 00 ca 3e c0 4e 4a bb ca 54 65 3e
       -0.19230023 0.39453134 -0.0030869693 0.22395626
000120 0a 01 13 be 0a b3 de bf a4 19 88 3d 26 64 e3 3f
       -0.14355865 -1.7398388 0.066455156 1.7764938
000130 89 84 9c be fc c6 de bd 47 43 eb 3f 1c f9 a9 be
       -0.30569866 -0.10877797 1.8379906 -0.33197868
000140 51 16 0b bd 97 dd 6c bd c4 a6 6c 3f e5 73 32 bd
       -0.03395683 -0.057828512 0.92441964 -0.043567557
000150 0d 22 bb 3d 74 05 fb bf 4c 38 d7 bf 70 f4 ef be
       0.09137354 -1.9611039 -1.6814055 -0.4686618
000160 06 c2 94 bb 0d b5 d4 bf 70 3c 2b bd 15 f9 81 bd
       -0.004539731 -1.6617752 -0.041805685 -0.06346337
000170 06 e0 41 be 3e d4 ee bc de 2e a6 bf 20 f7 49 bd
       -0.18933114 -0.02915394 -1.2983053 -0.049307942
000180 32 24 04 c0 66 0e 38 bd 27 71 7e bf 8c 8d ef be
       -2.0647092 -0.044935606 -0.99391407 -0.4678768
000190 d0 9b 2d 3d 7d 38 1f 3c 77 07 cc 3d 69 27 e0 bf
       0.042384923 0.009718058 0.09962361 -1.7512027
0001a0 37 57 0f bf 09 22 53 bf ad 8b e4 bf 24 f4 a2 3f
       -0.55992454 -0.8247381 -1.7855126 1.2730756
0001b0 fe 18 dd 3f b0 04 7f bd d1 9b 04 c0 6c 8c 4c bf
       1.7273252 -0.06226033 -2.0720103 -0.79901767
0001c0 bc 63 cb bf 10 47 da bf e8 4c a3 3c 2a 1f bf 3d
       -1.5889812 -1.7052937 0.019934133 0.09332116
0001d0 83 5c 86 3f ce 03 af 3f 4b 21 c9 bf 3c 48 ba 3f
       1.0496982 1.3673036 -1.5713285 1.4553294
0001e0 2b ff 82 bd 22 e3 c8 bf ac 99 07 3d 68 d1 35 bf
       -0.06396326 -1.5694315 0.033105537 -0.71022654
0001f0 a4 6a fb bf f4 04 52 3f aa a8 dc bf 01 ba 11 c0
       -1.9641919 0.8203881 -1.7238972 -2.2769778
000200 27 14 4f 3f bf ed ae 3c 29 4f 9d bf 1a 75 3e 3d
       0.80890125 0.0213536 -1.2289783 0.046498396
000210 73 00 a2 be 09 1a 3b 40 6d 11 a1 bf 23 6c 55 bd
       -0.31640968 2.923464 -1.2583443 -0.05210508
000220 d1 ca d4 bf c4 b0 fb 3f c5 52 d3 bf 89 ad 7c 3d
       -1.6624395 1.966332 -1.6509634 0.061688934
000230 e4 f2 3d bf 5c 98 8b 3f 4f 72 ca bf 3c 99 d1 bf
       -0.74198747 1.0905871 -1.5816134 -1.6374888
000240 cd 09 a4 3f fa 69 39 3f b3 96 7b bf 19 de 39 40
       1.2815491 0.7242733 -0.98276824 2.9041808
000250 9b c2 ea bf 6c b5 c5 bf d6 fa 34 bf 0c 03 fa bf
       -1.8340639 -1.544599 -0.70695245 -1.953218
000260 38 2d 5b 3f ff b5 f1 bf eb 89 12 3f 92 07 99 be
       0.85615873 -1.8883666 0.57241696 -0.29888588
000270 57 92 49 c0 90 ae e2 bf 2f 92 fc bf 0c dd 1e bf
       -3.1495569 -1.7709522 -1.9732112 -0.6205604
000280 03 fb 05 40 b3 05 86 3d 51 70 af 3f 23 a6 f2 bf
       2.0934455 0.06544056 1.3706151 -1.8956951
000290 ba a6 00 c0 76 b9 8a 3e 14 bf 8b bf be ba 63 bf
       -2.0101762 0.2709462 -1.0917687 -0.8895682
0002a0 20 48 9d 3e 06 99 b1 3e 95 72 43 3d 05 10 4c 3e
       0.3071909 0.3468706 0.047716696 0.19927986
0002b0 68 5a 29 bf 6d 2b e6 bf c8 a8 92 bd 7d 52 e2 3f
       -0.66153574 -1.7982002 -0.07161099 1.7681423
0002c0 79 bc 96 bf 72 d4 99 3f 59 e3 01 40 83 54 b8 3c
       -1.1776267 1.2017958 2.0295012 0.022501236
0002d0 f7 28 a0 3d 57 c2 aa 3d c6 38 58 3f e5 fe 0d bd
       0.078203134 0.08337849 0.8446163 -0.034666914
0002e0 55 fa 67 3d 41 de e7 bf 10 1f da bf 32 e3 1d bf
       0.05663522 -1.8114702 -1.704073 -0.616748
0002f0 2b 3c 84 3d ae 89 ce bf dc 5f a4 bd 71 05 00 3c
       0.06456789 -1.6135767 -0.08026096 0.007813797
000300 74 0c 2c bf 7f a5 b1 3d 16 85 ac bf 41 df bb 3c
       -0.672065 0.08674144 -1.3478115 0.022933604
000310 94 b2 e5 bf 3f 00 9e 3d 86 49 20 bf 5b 53 0c bf
       -1.7945123 0.07714891 -0.6261219 -0.5481469
000320 1a 18 82 bd 14 26 ef 3c c8 5a b7 ba 91 1f 34 c0
       -0.06352253 0.029192962 -0.0013988847 -2.8144267
000330 ae 4a 31 bf d9 79 7d bf c9 4f f4 bf 18 b3 d0 3f
       -0.6925458 -0.9901405 -1.9086848 1.6304655
000340 e6 2f 9b 3f f4 d6 be bc ec 0b be bf 82 b9 04 c0
       1.2123992 -0.023295857 -1.4847388 -2.0738225
000350 19 33 d9 bf 2d 7e 1c c0 41 50 14 bc 0c 2b eb 3c
       -1.6968719 -2.4452012 -0.009052337 0.02870705
000360 34 4c 8a 3f 74 7d 8f 3f d7 ec 27 bf df 75 4b 3f
       1.0804505 1.121016 -0.65595764 0.7947673
000370 63 58 54 3d c9 f3 d6 bf 5b 20 31 bd 0e 03 3b 3f
       0.051842105 -1.6793147 -0.043243747 0.73051536
000380 aa 1f 98 be 0c a0 57 3f e7 be e3 bf 60 c5 a7 bf
       -0.29711658 0.8422859 -1.7792634 -1.3107109
000390 e5 57 a7 3f 3d 75 29 bc 8b 9f 2a c0 4f be 08 bd
       1.3073698 -0.010342893 -2.6659877 -0.033384617
0003a0 90 4c 19 c0 59 d8 4e 40 97 78 2d bf f1 32 61 bf
       -2.395298 3.2319548 -0.6776213 -0.87968355
0003b0 09 16 e9 bf 9c 89 fd 3f 64 a7 d5 bf 35 55 0f bf
       -1.820985 1.980762 -1.6691709 -0.5598939
0003c0 31 98 c5 be d2 61 b9 3f 2b e5 19 c0 53 b4 29 c0
       -0.38592675 1.4482977 -2.4046123 -2.651631
0003d0 20 ba 46 3f 82 99 1e 3f 49 dd 90 bf 13 4d 34 40
       0.77627754 0.61952984 -1.1317531 2.8172042
0003e0 ff 88 b9 bf 07 45 90 bf 0f 0a 29 bf 5a f8 0a c0
       -1.4494933 -1.1271065 -0.66030973 -2.1714082
0003f0 b4 e5 8f 3f f6 53 e5 bf eb 2c 87 3e ad 0a 05 c0
       1.1241975 -1.7916248 0.26401457 -2.0787766

fc3.bias f4 [4]
000000 b9 a3 f3 be e2 82 13 be 7d 64 0c 3e 24 78 02 be
       -0.47585848 -0.14405397 0.13710208 -0.12741143
