models/model_run_12.pth (torch, 92177 bytes, 6 tensors)

fc1.weight f4 [200, 8]
000000 e3 80 4b 3f 04 c0 f7 be 95 75 d4 3e 52 98 e7 3e
       0.7949354 -0.48388684 0.41495958 0.452334
000010 66 96 12 bf cc c9 d4 bd 05 17 d1 3c ab b8 5f 3f
       -0.5726074 -0.10390052 0.025523672 0.87391156
000020 81 52 2a be 45 87 2f 3f b7 d9 33 bf 18 08 0e be
       -0.16633035 0.6856578 -0.7025408 -0.13870275
000030 3f ee d1 3e e5 c8 ff be b6 ea d1 3c b1 6e 9b 3e
       0.4100208 -0.49957958 0.025624614 0.30357888
000040 a9 18 3d be 94 61 b8 3e c2 ae fd be 22 9d 3f bf
       -0.18466438 0.36011946 -0.49547392 -0.7484914
000050 e4 0c d3 3e 9f 4b a0 3e f5 e3 d3 3c 53 42 e6 3d
       0.41220772 0.31307694 0.025865534 0.11243119
000060 3e ac c8 be 91 89 8b bf 20 2f 20 be f1 5c a7 bf
       -0.3919391 -1.0901357 -0.15642977 -1.3075238
000070 a1 b0 3a bf 3e 7b d9 3e 30 0e 81 bd 13 85 aa 3e
       -0.72925764 0.4247684 -0.06301534 0.33304653
000080 db 5d 43 3f d9 22 18 be 8f 6a bb 3e f4 a8 4a bf
       0.7631509 -0.14857043 0.36604735 -0.7916405
000090 21 c1 20 3f 67 c5 1a 3f 29 36 48 3e 2f 7b 64 3f
       0.6279469 0.6045746 0.1955191 0.89250463
0000a0 9c b5 05 3f 1a 3c 55 bd 32 03 42 3f 45 46 8d bf
       0.5223024 -0.05205927 0.75786126 -1.103707
0000b0 fd 05 51 bf 1c d5 fd be 99 b8 84 bf ed 5a 25 be
       -0.8164976 -0.49576652 -1.0368835 -0.16147967
0000c0 dc c7 b4 be 31 35 1c 3e 75 0f 8a bd 21 86 b2 be
       -0.3530873 0.15254666 -0.067412294 -0.34867957
0000d0 f2 f7 20 3f 4f d2 17 bd 60 b1 54 3e a5 bd 08 3d
       0.62878335 -0.0370658 0.20770788 0.033383984
0000e0 cf 88 40 bf 2d ad c0 bf 3d 4d c9 bd 53 9a 0a 40
       -0.75208753 -1.5052849 -0.09829185 2.1656692
0000f0 82 58 d9 3e 94 8a 4f 3f b5 db 4e 3e 5c de ca 3d
       0.4245034 0.8107083 0.20200999 0.09905693
000100 54 49 1e 3f f0 26 14 3f 45 ff 02 bf 4a 0d 95 bf
       0.6183064 0.57871914 -0.5117076 -1.164468
000110 cf 07 86 bf f5 57 11 bd be ad 31 bd a1 b0 59 be
       -1.0471133 -0.035484273 -0.043378584 -0.21258785
000120 a0 96 42 be b5 2a db bf 24 69 4e bf d5 f3 e1 3f
       -0.19002771 -1.7122408 -0.8062918 1.7652537
000130 09 ad 26 bf de 04 be 3e f2 fe 5a 3f 11 5e d7 3e
       -0.6510778 0.37113088 0.85545266 0.42063954
000140 45 64 30 3f 56 82 9e 3e 03 0d 27 bd ae 2e f1 be
       0.68903 0.30958813 -0.040783893 -0.47105926
000150 00 e4 32 3f 9f 4e 22 be a7 7d 53 be 9e 9e 12 3f
       0.6987915 -0.15850304 -0.20653401 0.5727328
000160 33 09 91 3f c5 b8 af be e5 1e 39 3f c6 0f 74 bf
       1.1330932 -0.34320655 0.72312766 -0.9533657
000170 7d 44 97 be 0a c3 49 3e cd cd 42 bb 14 7a 7b 3e
       -0.2954444 0.19703308 -0.0029724718 0.24558288
000180 c0 65 69 be df 22 64 3e 83 9d 56 3f 60 f5 4f be
       -0.22792721 0.22278927 0.83834094 -0.20308447
000190 02 80 8f bf 74 8b 24 be 6a 6a dd 3e fb 7c da 3e
       -1.121094 -0.16068822 0.4324525 0.42673478
0001a0 57 58 80 be 44 d7 07 3f 33 bc 07 be cd 37 a1 be
       -0.25067398 0.53062844 -0.13255386 -0.31487885
0001b0 7d 92 62 3c 67 a6 3c 3f 34 c6 68 3f d5 e7 b0 3c
       0.013828871 0.7369141 0.90927434 0.021594921
0001c0 38 5e 97 bf f5 e0 b9 bd 1a 10 77 bf 4e a7 05 3e
       -1.1825628 -0.0907611 -0.96508944 0.13052103
0001d0 67 5d d1 be 11 a7 da be f6 bc 53 3e 12 53 be 3d
       -0.40891573 -0.42705587 0.20677552 0.09293188
0001e0 09 90 c0 3d 72 d7 33 bf ff 7d f1 bd de 62 88 be
       0.094024725 -0.7025062 -0.1179161 -0.2663793
0001f0 0a 18 ef bd 83 af bd 3f 52 97 66 3e 36 e3 f0 bc
       -0.11674507 1.4819187 0.22518662 -0.029405218
000200 dc 73 71 3d c4 04 09 3f 9d eb eb 3e 99 1d 3d 3e
       0.058948383 0.53522897 0.46078196 0.18468322
000210 43 4b 22 3f 35 c6 bd be f8 e9 ef 3e 47 dd 43 3f
       0.6339609 -0.37065282 0.46858191 0.7650952
000220 24 58 21 bf bc 5f 04 3f 8b a4 83 bf d4 74 8d 3f
       -0.63025117 0.5170858 -1.028459 1.1051278
000230 5c fa 9b 3f dd bd 6d 3e f0 54 39 3e a6 20 a4 3c
       1.2185779 0.23216958 0.18098807 0.0200351
000240 50 7d 4d 3c 46 d1 c3 be 73 af 12 40 d9 da eb 3e
       0.012542084 -0.382456 2.2919586 0.46065405
000250 08 69 92 bd ee 52 0f 3f 03 20 c9 ba 01 99 2b bd
       -0.07148939 0.55985916 -0.0015344623 -0.041893963
000260 ab 68 06 bf 56 98 96 3e 02 ad b6 be e4 a8 bc bd
       -0.5250346 0.29413098 -0.3567887 -0.09211901
000270 ad 5d df bf 33 34 bd be ff e7 1e 3d b9 17 4d be
       -1.7450463 -0.36953887 0.038795467 -0.2002858
000280 ce 5d c0 3f 55 7a 3b c0 44 6d 89 bf 2a 94 5a 3d
       1.5028627 -2.9293416 -1.073647 0.053363957
000290 fa 12 33 bf 75 fc 2a bf 18 09 0c 3f 54 71 c2 be
       -0.6995083 -0.6679147 0.54701376 -0.37977087
0002a0 12 48 41 bf ed b4 8c be eb 2a 84 3d 74 6f b5 be
       -0.75500596 -0.27481785 0.064534985 -0.35436594
0002b0 ee 05 a7 bf 3a 54 4a bf bf 66 f7 3e bd 96 87 3e
       -1.3048685 -0.7903477 0.48320577 0.26482192
0002c0 6e 4c 88 bd 46 a5 b5 bf d5 9c aa 3e 4e 1e 6d 3f
       -0.06655203 -1.4191062 0.33322778 0.92624366
0002d0 db ef c3 bf 3f 62 55 be 1b 7f f6 3e bf a7 11 3f
       -1.5307573 -0.20838259 0.4814385 0.56896585
0002e0 a0 79 69 3f f8 3a ee bd 69 bd d9 3d 02 b1 e7 be
       0.9120121 -0.11632341 0.1063183 -0.45252234
0002f0 0c 65 bb be 93 d4 3d bd cf 77 49 3e fd 4d 86 3d
       -0.3660053 -0.046345305 0.1967461 0.06557844
000300 95 87 85 3f 8c d8 bb bc 3c a4 8c be 48 67 85 bf
       1.0432001 -0.022930406 -0.2746905 -1.0422144
000310 a0 3f e9 3e fa cf 11 bf 38 53 30 bf 70 7b 1f b7
       0.45556355 -0.5695797 -0.6887698 -9.505879e-06
000320 96 44 9b 3f aa 59 c0 bf 51 9e d2 3e a4 9d 29 3c
       1.2130306 -1.5027363 0.4113641 0.010352526
000330 2a 67 9d 3d e6 3f 3a 3f ff fe 03 3d 03 27 da 3e
       0.076856926 0.7275375 0.032225605 0.4260789
000340 5e 08 25 3f a2 fc 83 bf 8a 11 ed 3e 0d 80 9d bf
       0.6446589 -1.0311472 0.46302444 -1.2304703
000350 85 1f 31 bf b7 e4 7e bd d8 3a ef bd 74 f4 80 3e
       -0.6918872 -0.06222984 -0.116811454 0.25186503
000360 82 58 c9 3e d4 42 fc 3e 02 9d ea 3f 2f 65 1b be
       0.3932534 0.49269736 1.8329165 -0.15175317
000370 fe 6a 37 3f 8d d0 eb 3e 4b 9e d8 3d 81 32 7b 3e
       0.7164763 0.4605755 0.10577067 0.24530984
000380 16 f4 d7 be ad be c6 3e 27 c6 a8 be 85 29 0a 3e
       -0.4217841 0.3881735 -0.32963678 0.13492401
000390 7c 85 e2 3e ab de 80 3e ce 6e 30 bc 9f 8c 0e bd
       0.44242465 0.25169882 -0.010768605 -0.034802075
0003a0 37 70 61 3f 08 11 62 3f 15 33 8a 3e a3 bd 49 be
       0.8806185 0.8830724 0.26992097 -0.19701247
0003b0 b3 78 ce 3f 4f 4e e4 bd 2b 73 86 3c 4e 81 dc 3e
       1.6130584 -0.11147749 0.016412338 0.43067402
0003c0 76 6f a1 3f 61 fb 4b be 8f 74 f0 bd 3a 3b 02 bf
       1.261214 -0.19920112 -0.11740982 -0.5087162
0003d0 7f 9a b0 3d db 64 57 3f dc e8 fc 3e 50 f3 0e bf
       0.08623218 0.8413827 0.49396408 -0.55840015
0003e0 af a8 4e 3d fa 54 4b be e3 63 a4 be 35 09 20 bf
       0.050453838 -0.19856635 -0.32107458 -0.6251405
0003f0 41 90 51 3f a0 67 f5 3e de ba 97 3e 76 e3 35 3f
       0.8186074 0.47930622 0.29634756 0.710502

fc1.bias f4 [200]
000000 0f b2 bc bd 9b ed e1 3e 30 17 f7 3e ea 87 84 be
       -0.092136495 0.4412659 0.48259878 -0.25884944
000010 cc 78 07 3e 6d e2 e5 3c 82 b5 16 3f fb 0e 5a 3e
       0.13229674 0.02806207 0.5887071 0.21294777
000020 13 17 de be 7a 14 68 be 0e db 8e be c9 c4 b4 3e
       -0.4337698 -0.22664061 -0.279015 0.35306385
000030 cc 1d f0 bd cb 26 ad 3e 5c a1 1d be d1 c3 e3 be
       -0.11724433 0.3381866 -0.15393585 -0.44485334
000040 da e3 a7 3d e6 56 02 3f 95 c4 25 3d d0 fe b2 be
       0.08197756 0.50913846 0.04047068 -0.34960032
000050 5c 75 fd bd 7e 7b 95 be c5 e4 ba 3c c4 71 03 3f
       -0.123759 -0.2919578 0.022814164 0.5134547
000060 45 17 b1 3d c4 e8 1b 3e 1f cb fd be 74 58 88 3e
       0.086470164 0.15225512 -0.49569032 0.26629984
000070 2c a3 65 3f 0f 23 b5 3e 38 91 f0 bd 5b e8 27 3d
       0.89702106 0.3537831 -0.11746448 0.040993076
000080 43 b3 92 bd 45 51 91 bd a9 9d 18 bf b4 15 4b bc
       -0.07163098 -0.07095579 -0.5961557 -0.012395311
000090 23 0f c5 3e 26 a4 02 be 81 7b 68 be 43 4c 56 3e
       0.3848811 -0.1275793 -0.22703363 0.20927529
0000a0 a4 ba 31 3f f9 06 d1 be 78 df 98 3e 98 57 26 3f
       0.69425416 -0.40825632 0.29857993 0.6497741
0000b0 10 32 74 bf 53 bd 43 3f 2e 10 a4 bc c9 a3 71 3e
       -0.9538889 0.7646076 -0.020027246 0.23597635
0000c0 31 3f 49 3f bd af 81 bf 2b b6 ff be cd 66 2b be
       0.7861205 -1.0131756 -0.4994367 -0.16738434
0000d0 57 c3 13 3f cf d6 98 3f 78 75 2d 3f 1a c2 36 3f
       0.5771994 1.1940554 0.6775737 0.71389925
0000e0 86 fe b7 be 60 df 01 be 69 45 ec 3e 0f f8 b9 3c
       -0.35936373 -0.12682867 0.46146706 0.022701291
0000f0 38 4f 53 3e 1d 3b 7d 3f d9 50 b7 3e 4a 72 04 3f
       0.20635688 0.98918325 0.3580387 0.5173689
000100 7b bb a9 be 97 6d 70 bf fc 59 37 3f d8 e5 08 3f
       -0.3315085 -0.9391722 0.7162168 0.53475714
000110 12 c6 38 3f bb e0 6b 3e 06 19 2e 3f 4b 60 9e 3d
       0.7217723 0.23034947 0.6800693 0.0773321
000120 7e ab 4a 3f 7f ab d3 3e c3 9f 21 3f 81 a3 06 be
       0.79167926 0.4134178 0.631344 -0.1314831
000130 f3 14 2d 3d 9d b9 33 3e 1c 3f 63 be 1b aa 1d 3f
       0.042256307 0.17551275 -0.22192043 0.61587685
000140 c6 af 2e 3f 5a 08 b8 3e a2 83 de 3e 24 37 45 3e
       0.6823696 0.35943872 0.43459803 0.19259316
000150 fe 14 3c 3e 19 1d d3 3e e3 8b f9 be 6d 39 cc bc
       0.18367383 0.41233137 -0.48739538 -0.024929726
000160 4b 1a f0 3e db c1 3e 3e f0 19 ed be 53 c5 de bd
       0.4689506 0.18628637 -0.4630885 -0.1087748
000170 a4 97 e3 3e 1b 92 09 be 60 c4 e5 be 22 f8 88 3e
       0.4445163 -0.13434641 -0.44876385 0.2675181
000180 8c f4 0a bf f3 61 1d 3f ff 1f ab 3e 93 f4 29 3f
       -0.542794 0.61477584 0.3342285 0.66388816
000190 23 4f 15 3f 84 ad 52 3f 9a f7 2b 3d 1e bd 61 3f
       0.5832388 0.82296014 0.041984178 0.88179195
0001a0 91 8f 1a 3f 3c 4d 2f 3f d3 fa 72 be c3 c6 30 3f
       0.60375315 0.68477225 -0.23728494 0.69053286
0001b0 b7 8f c8 bd 27 e5 2d bf 47 94 4b 3f c4 7e 3e 3f
       -0.097930364 -0.67927784 0.7952313 0.7441218
0001c0 48 a2 36 3e 13 63 50 3f d1 05 8a 3b 66 fd 33 3f
       0.17835343 0.81401175 0.004212119 0.7030853
0001d0 43 4a fa 3d 0e db 5e 3f e9 37 ac bd 48 32 06 be
       0.122211955 0.87053 -0.084091015 -0.13105118
0001e0 d7 cc d1 be ad 45 41 3f 73 87 69 be 67 45 46 be
       -0.40976593 0.7549694 -0.22805576 -0.19362412
0001f0 9a 11 15 3f 13 cd ff 3e 84 73 4a 3e de 25 17 3f
       0.5822998 0.49961147 0.19770628 0.59042156
000200 9c 04 b2 3e ac cc 22 be fb 9c 8f 3e 13 41 af be
       0.34769142 -0.15898389 0.28049454 -0.34229335
000210 d9 5f d8 be d3 b2 14 3f 7c 20 2f 3e 99 66 ad 3f
       -0.42260626 0.58085364 0.17102236 1.3546935
000220 d2 3b bd 3e d1 2b 04 bf b6 ce df 3d 87 3c 74 3f
       0.36959702 -0.5162936 0.10928099 0.9540486
000230 6e 51 d7 3d dc bf b2 be b8 da f0 be b7 f8 f0 be
       0.10513578 -0.34912002 -0.4704187 -0.47064754
000240 fd 13 9a bd ce 19 ed 3e 00 a8 9c 3e d9 6c 16 3f
       -0.07523344 0.4630875 0.30596924 0.5875984
000250 13 b6 68 be 06 ce 83 3e 32 92 66 3f 73 ea 14 3f
       -0.22725706 0.2574312 0.90066826 0.5817024
000260 51 76 63 3f 01 df eb be a3 26 4e 3e 81 4d 82 3d
       0.8885241 -0.46068576 0.20131926 0.06362439
000270 14 a9 cc be 5b 86 8f 3e bf 0c c5 3e 69 95 32 bf
       -0.39972746 0.28032193 0.38486287 -0.6975923
000280 1a 71 40 3f 09 37 2a 3f 5e b0 d9 be cf 07 d0 be
       0.7517258 0.66490227 -0.4251737 -0.40630957
000290 1b 68 85 be ab a9 f7 3e 2a d0 3f 3d 5c 9b 18 3f
       -0.2605599 0.48371634 0.04682938 0.5961206
0002a0 9e 39 d1 bd 92 35 db 3e e5 ff a8 3d 03 9c 43 3f
       -0.10216068 0.42814308 0.08251933 0.7640993
0002b0 5e c5 d0 be dd bd 88 be 85 22 1d bf d6 e6 e7 3e
       -0.4077558 -0.26707354 -0.613808 0.452933
0002c0 e9 ac 23 3e aa 99 59 3f be 6d 06 bf 39 e1 60 3c
       0.15983929 0.850001 -0.52511203 0.013725572
0002d0 d2 d9 15 3e d0 f5 71 3e e4 ad 9a 3e 8a ed 15 3f
       0.14633873 0.23628926 0.30210793 0.5856558
0002e0 76 c9 03 3f 6f 16 2a bf d9 51 e1 3d 0a ef 6d 3f
       0.5147928 -0.6644048 0.11001939 0.9294287
0002f0 03 27 75 bd 5e a4 5e 3f a8 e1 3c 3e 10 ac 1f bf
       -0.059851658 0.86969554 0.18445456 -0.6237192
000300 ee 3a 41 3f ce 41 be be 55 c0 31 3f 9f 18 bd 3e
       0.75480545 -0.3715958 0.694341 0.36932847
000310 1e 5e 23 3f 6f 6e 19 3f b1 01 12 bf 18 74 a0 3d
       0.63815486 0.59934133 -0.5703383 0.07834643

fc2.weight f4 [100, 200]
000000 94 77 2d bf 1d da a7 3e 39 d9 f3 be 60 64 42 be
       -0.67760587 0.32783595 -0.47626665 -0.18983603
000010 f7 69 cf 3e 17 55 8c 3e eb d9 8c 3e 3b a7 90 bf
       0.40510532 0.27408668 0.27510008 -1.1301035
000020 00 30 f1 be 53 f1 18 bf 3b 6c 0d bf 21 99 7f 3d
       -0.47106934 -0.5974323 -0.5524327 0.062401894
000030 e2 3f fb be c2 37 9d 3e 4e 96 f7 be cd 86 c0 be
       -0.49072176 0.30706602 -0.4835686 -0.37602845
000040 2d 6b 17 be 1a 66 53 bf 8e 7b 8c 3f 26 28 b7 3e
       -0.14786978 -0.8257767 1.0975206 0.35772818
000050 45 0c e8 3e 43 31 84 3e c7 03 fa 3f 93 f6 97 bd
       0.4532186 0.25818834 1.9532403 -0.07420077
000060 36 8d 90 3e 7e b3 4f 3e e8 90 e8 be 2c 80 69 be
       0.28232735 0.20283315 -0.45423055 -0.228028
000070 0b 9b e6 3e fd 93 6a be a6 0d 15 bf 7b 8b 9c be
       0.45040163 -0.22908016 -0.5822395 -0.30575165
000080 9c 0a 31 be 82 1a 90 bd 52 3c 55 bf ee ab 61 3e
       -0.17289203 -0.07036306 -0.83295166 0.22038242
000090 36 52 1e 3f 72 15 23 bf 44 e3 8c be 6b e9 a6 be
       0.61844194 -0.637046 -0.2751714 -0.3259996
0000a0 c0 41 a2 be fb 0c 4f bf 11 de 85 be 44 0d 06 3f
       -0.31690788 -0.8087918 -0.26145986 0.5236399
0000b0 76 af a6 bf 27 6d ad 3e 96 a7 43 3e b3 fc 40 3d
       -1.3022296 0.3387234 0.19106898 0.047115993
0000c0 4e 84 dd 3d ae fb 03 c0 a4 f6 b9 be dc a7 40 be
       0.10816251 -2.0622363 -0.36320984 -0.18814033
0000d0 c7 ca 17 3f 98 05 11 3f 97 65 7d 3e 91 15 42 bd
       0.5929379 0.5664916 0.24745785 -0.04738385
0000e0 bc a6 d5 be 87 6b 14 bf 36 d8 8f 3e bd cb 58 3f
       -0.4172877 -0.57976574 0.28094643 0.8468588
0000f0 b2 fc a9 be f5 83 38 3e 61 92 39 3d a6 42 56 be
       -0.33200604 0.18019088 0.045305613 -0.20923862
000100 21 2d de 3e 14 a5 2c c0 a3 d3 3a 3f 4c 81 b6 be
       0.43393806 -2.6975756 0.7297918 -0.3564552
000110 31 3e 20 3f 13 05 88 3e 8f b6 ba be e6 1e a9 be
       0.62594897 0.2656637 -0.36467406 -0.33031386
000120 65 b8 0e 3e 7c a3 c8 be f1 c5 34 be 26 b6 1e bf
       0.13937528 -0.3918723 -0.17653634 -0.61996686
000130 47 c2 47 bf 2e ed 9c bd 6a 42 1c 3f a6 50 2c be
       -0.7803082 -0.07662426 0.6103884 -0.1682764
000140 d6 56 3b be 96 77 3a be 65 68 94 be c0 6a ee be
       -0.18294844 -0.18209681 -0.28985897 -0.4656582
000150 7f c3 9f 3f 04 85 83 bc 48 c1 06 bf 5f cf 7e 3e
       1.2481536 -0.016054638 -0.52638674 0.24883793
000160 da 56 2f 3e af 89 71 3e dd 3e 8d bf b6 6d 8c bf
       0.17122975 0.23587678 -1.1034809 -1.0970981
000170 64 75 e7 bd 8d fd 93 bd be 56 77 3f 34 27 87 3d
       -0.11301687 -0.07226095 0.96616733 0.06599274
000180 54 8e 37 bf 32 b4 f0 3e 42 8c 9a 3d 9c 60 04 3f
       -0.7170155 0.47012478 0.07546283 0.51709914
000190 39 9d 0f be 7b 5a 15 be 63 af 26 bf 67 cc 11 3f
       -0.1402482 -0.14585297 -0.6511137 0.5695252
0001a0 9e aa 84 3e f6 3b b9 bd e3 d1 ea 3d 37 3f 7e be
       0.2591142 -0.0904464 0.11465814 -0.24828802
0001b0 c3 cf 38 bf 98 3c a5 bf 18 dc b1 3e ef 87 3a 3f
       -0.7219202 -1.2909117 0.3473823 0.7286367
0001c0 81 e6 67 3d 8e 8e ae be b3 80 52 3d 05 7f 43 be
       0.05661631 -0.34093136 0.05139227 -0.19091423
0001d0 ee 08 ea bd bd 7c 00 3d bf 2d 7f 3f 0d 03 45 be
       -0.114274845 0.03136896 0.9967918 -0.19239445
0001e0 46 79 1f bf 61 74 0a 3f 7e fd 1f 3f bd 61 1d 3f
       -0.62294424 0.5408383 0.62496173 0.6147726
0001f0 d3 ad a8 be 30 f2 15 3e db 93 ec 3d 6d ab bb be
       -0.32945117 0.14643168 0.11551639 -0.36654225
000200 ee 72 b3 3e 01 80 0e 3f 3f 3b 2d 3f de 8c be be
       0.35048622 0.5566407 0.6766853 -0.37216848
000210 4c bd 7f bf 4c c2 80 3d 8b db 33 bf ea a1 8f 3d
       -0.9989822 0.06287059 -0.7025687 0.070133045
000220 6c 07 26 be 4a 61 80 bf 9e 09 33 be d0 a3 2f 3f
       -0.16213769 -1.002969 -0.17484137 0.68609333
000230 1e bb c5 3e 41 46 25 3f ae 5e a3 bf 85 32 db be
       0.38619322 0.64560324 -1.2763269 -0.4281198
000240 18 68 bf be f8 5e 4d bd 3f a9 3e bf 19 aa 2f 3f
       -0.37384105 -0.050139397 -0.74477 0.68618923
000250 60 14 2b bf b9 30 b5 3f c3 b2 89 3f cb f3 95 3e
       -0.66827965 1.4155494 1.0757679 0.29287562
000260 81 8f 0c 3f fc 82 1d bf 08 ec f0 3e d9 86 4f 3e
       0.5490647 -0.6152799 0.47055078 0.20266284
000270 d5 ad cc 3e 64 51 a0 3e cd 67 8e 3f 55 13 98 bf
       0.39976373 0.31312096 1.1125427 -1.18809
000280 00 33 ae 3e 4a fd d0 bd 3c f9 e8 be 64 af 0a bf
       0.34023285 -0.10204561 -0.4550265 -0.54173875
000290 ad 4e 45 3f f3 33 96 3e 4d 90 e9 3e ca 00 d8 3d
       0.77073175 0.2933651 0.45617905 0.105470255
0002a0 f2 0c 02 bf 55 bf 5b bf c5 d3 8b 3d 73 74 b8 be
       -0.50801 -0.85838825 0.06827501 -0.36026344
0002b0 5b 8c b6 be 7d 3b f6 be c8 f8 5e bf 3b ba 6c bf
       -0.35653958 -0.4809226 -0.8709836 -0.92471665
0002c0 54 10 52 be d6 48 46 be 24 58 0f bf 88 eb 95 3f
       -0.20514041 -0.19363722 -0.55993867 1.1712503
0002d0 8e 97 e3 be 4d 54 40 be 03 f7 6d 3e 88 37 b2 bc
       -0.44451565 -0.18782158 0.23238759 -0.021754995
0002e0 c6 cb 6a 3e 5b 02 5c bf da ad d6 be 4b f2 ab 3e
       0.22929296 -0.85941094 -0.41929513 0.33583292
0002f0 72 ef cb 3e e7 7f 09 3f d9 26 4f be 18 18 73 bf
       0.3983112 0.5371079 -0.20229663 -0.9495864
000300 5e 8b 5e 3f 1d 2a fe be 8f 83 36 bd c5 ef 07 3d
       0.8693141 -0.49641505 -0.044559058 0.033187646
000310 94 cb a9 bd 40 2b 2e 3d 1a 1b 91 bf 09 b8 b1 be
       -0.082907826 0.042521715 -1.1336396 -0.3471072
000320 30 a0 81 3e 72 46 85 3e 6c b6 e1 3e 8a b3 1c 3e
       0.25317526 0.26030308 0.4408449 0.15302864
000330 15 fa f7 3c 3c 10 9c be 93 6a 44 3e ae 3a 97 bf
       0.030270616 -0.30481136 0.1918128 -1.1814783
000340 86 f2 cd 3e a2 9b 0c bf ac 4f d2 3e f2 69 b3 3e
       0.40224093 -0.54924977 0.4107641 0.35041767
000350 49 ec bd 3e 27 02 39 3e 5c 44 b9 3e 64 bd dc 3d
       0.37094334 0.18067227 0.36184967 0.10778311
000360 f8 f1 ae 3e 7b e9 00 bf e4 58 e4 bd cf 60 d6 bd
       0.34168983 -0.5035626 -0.11149767 -0.104676835
000370 2d 9f 49 3f 89 6b 57 3e bc ce 51 bf 43 ff bd 3e
       0.7875851 0.21037115 -0.81956077 0.37108812
000380 37 1e 58 bf 06 b9 a8 be ec d0 17 3f 8f b9 1a 3f
       -0.84421104 -0.32953662 0.59303164 0.6043939
000390 4b cd 0c be 89 c6 90 3e 9d a7 23 3e 60 fe bd 3e
       -0.13750188 0.2827647 0.15981908 0.37108135
0003a0 9d f8 96 bf 72 29 6e 3e 21 b0 f7 3e e9 f5 a1 bf
       -1.1794621 0.23257998 0.48376563 -1.2653171
0003b0 6c f5 bf be ab f8 ab 3d 08 4d fb 3d 48 c9 cb 3e
       -0.3749193 0.08397039 0.12270552 0.39802003
0003c0 91 9f 54 3d a1 ff bf bf 7a 33 cc 3e 8c bb 6b bf
       0.051909987 -1.4999887 0.39883024 -0.9208305
0003d0 98 da 1e be d4 a1 bf be 13 79 83 bf de 16 c7 be
       -0.15513074 -0.37428153 -1.0271324 -0.38884634
0003e0 b8 ea 20 bf 78 c4 51 3f f2 54 84 be 11 c8 9b 3f
       -0.6285815 0.8194041 -0.25846058 1.217043
0003f0 40 ec 36 3e 93 fd c8 bf 68 cb 2c 3e 20 45 a7 be
       0.1786356 -1.5702385 0.16874468 -0.32669926

fc2.bias f4 [100]
000000 31 45 06 3f 39 e2 51 be 34 dc 98 bd 1e d8 7c 3d
       0.5244933 -0.20496453 -0.074638754 0.061729543
000010 df 84 a5 bd e7 20 6d 3d 23 3a a7 bd fa 1c 9e bd
       -0.08081984 0.057892706 -0.081653856 -0.077203706
000020 b9 8a 7b 3e 70 59 09 bf b8 89 3e be 77 12 82 be
       0.24564637 -0.53652096 -0.18607223 -0.25404713
000030 f4 cb 26 3e dc d3 44 3e 1e be 43 3d 35 af 3c 3e
       0.1628874 0.19221443 0.04778873 0.18426211
000040 e4 ce 03 3f 08 0c 9a bd f2 d4 ab 3e 22 98 d1 3d
       0.51487565 -0.07521826 0.33560902 0.10234095
000050 07 f7 a9 3c a0 3e e3 3e ef 79 84 3e 8d 06 8a bb
       0.020747675 0.44383717 0.25874278 -0.0042122067
000060 4e a5 bf 3d a3 87 c4 3d d2 e3 09 3e 14 35 bb 3e
       0.09357701 0.09596183 0.13465813 0.36563933
000070 fe 60 00 3e 87 92 01 be 84 6b 08 be c8 03 a5 3e
       0.12537 -0.12653552 -0.13322264 0.32229447
000080 60 ac 24 3d b2 ef 84 bd c2 2e 70 3e 19 a2 a8 bd
       0.040203452 -0.06491031 0.23455337 -0.08234043
000090 7f f9 c5 3e cd 3d 65 3e dd 94 2d be f1 4a 10 be
       0.38666913 0.22386856 -0.16951318 -0.14091088
0000a0 c3 17 cb 3d ec f7 e9 bc 3f 38 63 3c 05 9e 5a 3e
       0.099166416 -0.028560601 0.013868391 0.21349342
0000b0 31 7e 77 3d 96 03 51 bd 66 bb c6 bd 68 0b 3e bd
       0.06042308 -0.05102881 -0.09703712 -0.046397597
0000c0 82 b8 b1 bd fa ae 7d 3b a2 6e 6d 3d cc fb 27 bd
       -0.0867777 0.003870903 0.057966836 -0.041011617
0000d0 e2 48 cd 3d b1 38 0a bc aa fc 25 3d 26 19 ec 3e
       0.10023667 -0.008436368 0.040524162 0.46112937
0000e0 bf 17 42 be 3c 9f ff 3e db e2 aa 3e 57 a8 cc 3d
       -0.18954371 0.49926174 0.33376202 0.09993046
0000f0 81 34 b4 3e 4d 9a b4 3d d9 19 82 3c 26 46 c6 3e
       0.35196307 0.08818493 0.015881466 0.38725394
000100 e4 18 fb 3d 67 46 79 bd 97 41 37 be 24 c9 10 3f
       0.12260607 -0.060858157 -0.17896114 0.56556916
000110 fb 5e 1c bd fa ba 06 3d 59 5a 04 3e a2 40 b5 3d
       -0.038176518 0.03289316 0.1292509 0.08850218
000120 3d 7f ea bc f2 e3 ee bc 6a 90 3c be ba 56 d7 3d
       -0.028625125 -0.029161427 -0.18414465 0.10514589
000130 c1 8e ed 3d 53 42 15 3e 57 5b 13 be dc 1e fb 3d
       0.11599494 0.14576082 -0.14390312 0.12261745
000140 ae ae c6 3e 72 3f d8 3d 81 45 90 bc 8e 48 3c be
       0.38805145 0.10558976 -0.017611267 -0.18387052
000150 47 1d f6 3e cd 72 14 3f e1 74 06 3f a5 ff 18 3d
       0.48069212 0.5798767 0.52522093 0.037353177
000160 fb 9d 04 bf 35 89 31 be 05 43 14 3f 3b 13 f3 bd
       -0.5180356 -0.17337497 0.57914764 -0.11868902
000170 dd e9 0a 3e 89 3d 7f bd 5f e1 1b be 65 48 1b 3d
       0.13565774 -0.062314544 -0.15222691 0.037910838
000180 93 87 1a 3f fd f1 0d 3f f3 04 60 be f2 b1 d9 3e
       0.6036312 0.5544737 -0.21876888 0.42518574

fc3.weight f4 [4, 100]
000000 9c c0 26 3f 44 bb d1 bf 5f c1 b8 bd 98 e9 da 3e
       0.6513765 -1.6385274 -0.090212576 0.42756343
000010 d4 a0 92 bc 83 fe ab 3f 5b 36 9a bd da 26 57 bd
       -0.017898954 1.3437046 -0.07529899 -0.052527286
000020 9d 71 16 bf 90 7e 7e bf 2f 59 c2 bc 9b 61 c1 bf
       -0.5876711 -0.9941187 -0.023724167 -1.5107912
000030 b4 90 22 40 6f b4 1a 40 81 a7 92 3f f3 bb 0d 40
       2.540082 2.4172628 1.1457368 2.2145965
000040 b7 82 63 3f 30 92 4f bd 0b 57 12 bf c1 0b d0 bf
       0.8887133 -0.050676525 -0.5716407 -1.6253587
000050 4d 70 20 3e a3 0b 20 3f 3b 43 fe be c6 fd 2d bc
       0.1566784 0.62517756 -0.49660668 -0.010619586
000060 9f 81 1c 3e 07 90 95 3f c2 84 1c bf d3 79 8f 3f
       0.15283822 1.1684579 -0.6114007 1.1209053
000070 ce 08 bd bf 98 cf 66 3e f6 db 9d bf d3 9c 08 bf
       -1.4768312 0.22540128 -1.2332752 -0.53364295
000080 a3 c8 ae 3d 71 86 a4 3f 80 f5 99 3f 50 f6 1a bd
       0.08534362 1.2853528 1.2028046 -0.03783256
000090 0d 61 a1 3f 0f c6 af be a3 72 80 3e 8b 43 6b 3e
       1.2607743 -0.34330794 0.2508746 0.22974984
0000a0 7c ba cf 3e 52 1c b6 3c 46 9e e6 3e 0d f4 67 3f
       0.40571964 0.022230301 0.45042628 0.90606767
0000b0 a1 7f 96 3f f5 bd 0f 3d 1a 59 a0 bf cb 91 b7 3e
       1.1757699 0.035093267 -1.2527192 0.3585342
0000c0 84 42 20 3c 7f 1d ad 3f e0 0d a3 3b 12 eb 15 3d
       0.009781484 1.3524626 0.0049760193 0.036601134
0000d0 84 b3 a7 3f dd ba 29 bd f3 79 62 3d 80 8f 5c 3f
       1.3101659 -0.041437972 0.05529208 0.86156464
0000e0 a3 64 5d 3e f1 87 78 3f d7 54 34 3f 58 8d 73 bf
       0.21620421 0.9708243 0.70441955 -0.9513755
0000f0 4d 25 44 3f 41 32 09 40 1e 62 b3 3f 98 3f cf 3f
       0.76619416 2.1436923 1.4014318 1.6191282
000100 bc 20 9c bf 37 6b 22 bd 82 58 a0 3f ed 9a 46 3f
       -1.219749 -0.03965303 1.252701 0.7758015
000110 82 2e 10 3d ce 96 7d 3f 2a e6 0e bf cd cd 91 3f
       0.035200603 0.99058235 -0.5581995 1.139093
000120 5e 23 11 3d 0f 20 df 3f 1b e1 27 bf a5 33 00 40
       0.03543412 1.7431659 -0.6557786 2.0031521
000130 57 1a ac 3f 10 02 e0 3e 25 e3 df 3e e1 12 2f be
       1.3445538 0.43751574 0.43727985 -0.17097045
000140 f8 7c 8a 3f 1c 61 12 3f 97 8a 2b bd af ca 10 c0
       1.0819387 0.5717943 -0.041880216 -2.2623708
000150 b9 54 72 3f 03 9c 38 3f 07 5c 57 3f 9e 00 21 3d
       0.94660527 0.72113055 0.841248 0.03930723
000160 d6 53 86 bf f3 40 be 3d a1 c8 25 3f b3 68 c2 bf
       -1.0494335 0.09289732 0.6475926 -1.5188202
000170 91 2a dc 3f 67 70 9b 3e 01 e5 7a 3f a1 f1 6f 3c
       1.720049 0.30359194 0.9800568 0.014645011
000180 da 25 99 3f 3b 5c 75 3f 50 28 89 bf 2f 83 83 3f
       1.1964676 0.9584386 -1.0715427 1.0274409
000190 35 21 2b 3f a0 05 8d bf bb 65 9a 3d f0 0a a7 be
       0.66847545 -1.1017342 0.07538935 -0.32625532
0001a0 cf 29 8e 3d 41 e8 97 3f 1d 2a 26 bd 35 59 9e bd
       0.06941568 1.1867753 -0.040567506 -0.07731859
0001b0 1d a8 6a bf 7c 25 a5 bf 64 7c 55 bf 1f f6 a8 bf
       -0.9166277 -1.2902064 -0.8339293 -1.320011
0001c0 f1 92 0b 40 c7 98 0a 40 56 cc ad 3f 2b 15 ef 3f
       2.1808436 2.1655748 1.3577983 1.8678335
0001d0 17 60 36 3f b7 e3 9b 3d e2 50 17 bf c5 2e e9 bf
       0.7124037 0.076117925 -0.5910779 -1.8217398
0001e0 bd 9a 8e bc 92 fd 7e 3f 1d b2 3a bf 53 59 69 bd
       -0.01740777 0.9960567 -0.7292803 -0.05696995
0001f0 82 51 cb 3e dc dd 9e 3f ef b7 31 be 16 17 47 3f
       0.39710623 1.2411456 -0.17355321 0.777696
000200 68 1d da bf 1e 4e d2 3d 2a c5 02 bf ef 3d 03 bf
       -1.7040224 0.10268806 -0.510821 -0.5126638
000210 e6 63 83 bd d2 4f d1 3f ed c7 93 3f ed 6f 4c bd
       -0.064155385 1.6352484 1.1545388 -0.04991143
000220 03 e9 84 3f e3 4f 5e bf 37 47 85 3f 11 35 c2 bd
       1.038361 -0.8684065 1.0412358 -0.09482778
000230 f3 70 9c 3f 51 9c 84 bc 9a e3 14 be 8e 4a 76 3f
       1.2221969 -0.016187819 -0.14539948 0.9620751
000240 9f 17 c3 3f 49 f6 5c bc 36 0f e5 bf c3 3b e4 3e
       1.5241584 -0.013486453 -1.7895267 0.44576845
000250 5e 44 1f bb 37 ce 80 3f 93 df 85 bc 42 3b 94 bd
       -0.0024302225 1.0062932 -0.01634196 -0.07237865
000260 18 01 86 3f d6 f3 a7 3c dd b3 6e bd e1 49 6b 3f
       1.0469084 0.020502012 -0.058277 0.91909605
000270 03 67 04 3d 30 e6 8c 3f 49 39 73 3f 6c 72 94 bf
       0.032324802 1.1007748 0.95009285 -1.1597419
000280 32 ce 4f 3f af 77 b8 be 01 bd 8b 3f 38 72 bc 3f
       0.81174004 -0.3602881 1.0917054 1.4722357
000290 ea f5 9e bf 9a 2d b5 bd 85 fd 8c 3f e4 bb a2 3f
       -1.2418797 -0.088465884 1.1014868 1.271359
0002a0 fc d3 16 3d d9 96 f3 3f f9 28 0e 3f 39 6b ed 3f
       0.036823258 1.903041 0.5553127 1.8548347
0002b0 08 b7 50 3d df f5 b5 3f 44 69 1d 3f d0 a4 a3 bf
       0.050955802 1.4215659 0.6148875 -1.2784672
0002c0 38 71 b4 3f 90 cf 91 3d 81 e9 21 3f 37 e4 f2 be
       1.4097052 0.071196675 0.63246924 -0.4743974
0002d0 f1 d1 83 3f 59 6d 09 3f da a2 91 3c 6e 9b 54 bf
       1.0298444 0.53682476 0.017777849 -0.83049667
0002e0 cf f7 43 3f f7 c2 2f 3f 6a de 3e 3f 02 53 27 bd
       0.7655 0.6865687 0.74558127 -0.040850647
0002f0 27 fb 81 bf 64 0e 02 3d 9f ae de 3e e0 dd 8e bf
       -1.0154771 0.031752005 0.434926 -1.1161461
000300 9c 13 c8 3f 8b e8 31 3d 1a f3 f0 3f 38 94 8f bd
       1.5630984 0.04343466 1.8824189 -0.07010692
000310 48 f4 71 3f 8d be 57 3f 93 73 bb bf fe b1 53 3f
       0.9451337 0.8427513 -1.4644645 0.8269347
000320 c9 1d 25 3f ec 0c a0 bf 9c 86 83 bd 69 71 0e bf
       0.64498574 -1.2503943 -0.06422159 -0.556418
000330 8e 35 5a 3c 9e 5e b4 3f f2 fc 86 3d 58 94 ae bd
       0.0133184325 1.4091375 0.06591214 -0.08524388
000340 d7 fd 4f be b3 a0 bb bf 2a ca f5 bf 50 5f bc bf
       -0.20311676 -1.4658417 -1.920232 -1.4716587
000350 34 56 12 40 a6 78 05 40 31 61 a3 3f 60 7f e4 3f
       2.2865114 2.0854888 1.2764035 1.7851372
000360 f1 96 62 3f 9b f8 32 3c aa 05 3a bf 51 2e d2 be
       0.8851157 0.01092353 -0.7266489 -0.41050962
000370 03 14 0c 3f be c0 89 3f fb a5 b9 be 14 d6 ab bc
       0.54718035 1.0761945 -0.36259446 -0.020976104
000380 06 8f 93 3f 2c fd 57 3f da 0b d6 be d9 8e 50 3f
       1.1528022 0.84370685 -0.41805917 0.8146797
000390 bf 22 74 3e 26 98 0d 3e 70 ed 59 bf 66 1d 3a bf
       0.2384138 0.13827571 -0.85127926 -0.7270111
0003a0 bd cc ab bd 08 67 f9 3f b4 1f 7e 3f 8d de 5b bd
       -0.0838866 1.9484568 0.99267125 -0.053679038
0003b0 57 3a 3c 3f 53 1f 0b c0 af 76 8e 3d 92 d1 68 3d
       0.7352652 -2.1737869 0.06956231 0.056840487
0003c0 cb a8 5f be fc 80 05 3d 4e 3c bc be ae 42 2a 3f
       -0.21841733 0.032593712 -0.3676476 0.66507995
0003d0 1d cc b1 3f 94 12 71 3d a0 cd d8 bf 29 cd ed 3e
       1.3890415 0.058855608 -1.6937752 0.46445587
0003e0 08 fa 0b bd 7a 73 aa 3f 0b 0e bc 3d a0 c5 5c bd
       -0.034173995 1.3316491 0.09182366 -0.053899407
0003f0 46 e5 c9 3f b0 97 6a bd 89 b8 68 bd 68 47 87 3f
       1.5773094 -0.057273567 -0.05681661 1.0568666

fc3.bias f4 [4]
000000 8a 24 b8 bd 5a 4c fc 3d b9 87 4f 3c 67 d3 0c be
       -0.08991344 0.123192504 0.012666636 -0.13752519
