models/model_run_1.pth (torch, 92165 bytes, 6 tensors)

fc1.weight f4 [200, 8]
00000000: 5d6b 0bbe 170d 303f 859a aabe 63d7 6cbe
00000010: 4ca7 86be bb90 b1bc 53a0 e2bc 3597 fe3d
00000020: 8205 1b3f 7e46 263f d315 cfbe 027c b43e
00000030: ec44 a0bd 723b cc3e 1772 0e3e a350 ba3d
00000040: 7383 193d a393 dcbd 31b7 de3d 79e3 2abd
00000050: a0bb 24bf de80 aabe ee1d 9f3b 9627 ddbc
00000060: 981b 5d3b db54 083e 24cc 613f 6190 9a3f
00000070: 3051 e1bd 4a3c 993e 8305 443f 2c57 a2be
00000080: e466 93bf afe0 93bf 2cd8 bebe 1293 07bf
00000090: 1248 0d3c a76e 153e 856d 073e f3cc d73c
000000a0: 4ebb 7e3d 01dc c2be eba4 5d3e 17c6 d2bc
000000b0: c938 17bf 399b 6cbf a765 7cbe 9d61 2c3f
000000c0: 21a6 1e3d c57d 0dbe 37ea a7bd 57ee 92be
000000d0: db15 32bf 4d00 3bbf 10fc 27bf ecfb 323f
000000e0: 8f4e eebd 6307 eb3e a495 e83e 4861 533e
000000f0: 027c cd3d df04 0c3f a6e5 04bf e7e0 03bf
00000100: d124 353e 7134 fb3e 737e 8f3e 8298 233f
00000110: d8a2 66bf 3d25 41bf 1fab 41bf 6941 c0bd
00000120: c4b5 5fbf 4fd0 21be b241 e8be 0df5 09bd
00000130: 5fb1 da3d 9b8a 62be 63ed cc3e 472b 1c3c
00000140: 4fcd 4ebe fe7b 81bf 5d5a e53e 2a6f a4be
00000150: 785a e7be b2bb 0bbf dc15 ad3e 5d7c 7b3e
00000160: 200c ff3e c728 4abf 1db2 1dbf d6bb 42bf
00000170: 3531 343f 20d2 163e 7f83 303f 4783 103d
00000180: 5458 613f def6 0bc0 efaa 8b3f e218 a7be
00000190: e0b9 71be 54c2 8a3e 0236 4b3d 8bea b7bd
000001a0: da1e 6abf c0f7 e0bf 2b4f cfbe 76a9 51be
000001b0: 0fb9 953e 5ab8 68be 5a4a 2e3f 62cf 95bc
000001c0: f255 b93d c9fd a43e e152 62be 07dc f13e
000001d0: 97ed 74be f4f4 90be 9569 3cbe 33bd b13e
000001e0: 15cf 3bbf e843 273f 9db6 593e 6a19 e0be
000001f0: 5ae5 8abf 4c01 6abf ff94 033f 2c93 a4be
00000200: 7b9a 673d cd7c 2e3f 1f2c ec3c 1f7f 65bf
00000210: e26e 163f cbdf e43d ee98 efbe 908a d63d
00000220: 8673 dbbd 3891 4cbd c46d c93d 3419 843d
00000230: eab8 443e d8f1 b7bd 3881 d4bd 6cb2 37be
00000240: f466 42bf eb78 6dbf 5ab3 a7be 13be 23bf
00000250: 55c3 293e aac3 a83e 1a4d c33d dba1 e63e
00000260: 3968 e2be e4aa 5b3e a443 98be 13c6 a9be
00000270: de6a 063f 102d c63e c04e d0bb aa86 c1bc
00000280: a528 a0be e5de 433f 36d9 573e 5ec8 27bf
00000290: 2fe9 2b3f a40b 90be 1048 2cbe 6339 2cbf
000002a0: cd48 7abf 9133 adbe 1527 e9be f06c de3d
000002b0: 487a 3ebe ea51 1ebe 2f62 813c 5e0b 9cbd
000002c0: f7dc a63b 9d46 0f3f 8dec 353f d0be 513c
000002d0: 17af 103f 4482 303f b5bb 203e 0f83 b93e
000002e0: 3ec8 1ebe a57f 103f f1ac c6be 171e 22be
000002f0: b4c1 b7be 2f69 4d3f 198d 33be 65d6 a0be
00000300: 45fc c0bd 882b 52be 30d0 4dbe bf88 77bf
00000310: 0b2c 2ebf be1f 9fbe 677c 883e 1482 4fbf
00000320: a171 8f3d 9c8c 33bf 67bc 453e 0c4c ecbd
00000330: 0727 4c3f 6579 ff3e 0172 9e3e 5523 f1bd
00000340: 2481 87be 641f 01bf 4499 ad3e ecf5 a8ba
00000350: edb1 0ebf ac64 d1be 9d82 2a3e 33a3 cc3d
00000360: 02d1 063f f360 85be 6411 71be ff3d 99bf
00000370: 249f 223e d7c6 24bf f5b4 1dbe 67b4 923e
00000380: 6bd3 2fbe f323 523e 74b8 1abe 90b3 bf3e
00000390: d02e 303f 64b4 483f 9250 393f f066 2e3e
000003a0: 1185 b53c 89ed b43e da66 4abd bc56 92bf
000003b0: a6c1 9b3e 1508 4f3e b9be ecbe 1fbd 193e
000003c0: 91a2 1dbe 79da 983d 9161 23bd aea2 4bbf
000003d0: ac89 313f 66e0 713d 6e56 d0be 304d 663d
000003e0: 5157 80be 5629 4d3f 06c5 b53e b9ac aabd
000003f0: 5ed6 0abf 2538 acbd bf5f 6dbd 3aeb 4dbe
-0.13615175 0.68769974 -0.33321014 -0.23129039 -0.26299512 -0.021675458 -0.02766434 0.12431184
0.6055528 0.6495131 -0.40446338 0.3525086 -0.07825646 0.39889103 0.1391071 0.090974115
0.037478875 -0.10770347 0.10874785 -0.04172084 -0.64348793 -0.33301443 0.004855863 -0.026996415
0.003373837 0.1331362 0.8820212 1.2075311 -0.110018134 0.2992881 0.7657091 -0.31707132
-1.1515775 -1.1552943 -0.372743 -0.52958786 0.00862314 0.14592992 0.13225372 0.026342845
0.062190346 -0.38058475 0.21644942 -0.025729222 -0.5907102 -0.9242435 -0.24648152 0.67336446
0.03873265 -0.13817509 -0.0819897 -0.28697464 -0.695646 -0.73047334 -0.6561899 0.6991565
-0.116360776 0.45904073 0.45426667 0.20642579 0.10033418 0.5469493 -0.51912916 -0.5151505
0.17689826 0.49063447 0.2802616 0.63904583 -0.9009223 -0.75447446 -0.75651735 -0.09387476
-0.8738673 -0.1580212 -0.45362622 -0.033680964 0.10678362 -0.22123186 0.40024862 0.0095318025
-0.20195507 -1.0115964 0.44795504 -0.3211606 -0.4518621 -0.54583275 0.3380574 0.2455916
0.49813938 -0.7896847 -0.61599904 -0.76067865 0.70387584 0.14728594 0.6895065 0.035281446
0.88025403 -2.1869426 1.091154 -0.32636172 -0.23606062 0.27101386 0.049612053 -0.089802824
-0.91453326 -1.7575607 -0.40490088 -0.204748 0.2924275 -0.22726575 0.680822 -0.018287364
0.09049596 0.32224873 -0.22101928 0.4723818 -0.23918758 -0.28311884 -0.18399651 0.3471466
-0.7336286 0.6533799 0.21261068 -0.4376939 -1.0851243 -0.9140823 0.51399225 -0.32143533
0.05654381 0.6815918 0.028829632 -0.89647096 0.58762944 0.111754976 -0.46796364 0.104756474
-0.10715394 -0.04994318 0.09835389 0.064501196 0.19211164 -0.08981675 -0.10376209 -0.17939156
-0.75938344 -0.9276263 -0.32754022 -0.63961905 0.1657842 0.3296178 0.0953619 0.4504536
-0.4422014 0.21451908 -0.29739106 -0.3315893 0.52506816 0.38706255 -0.006357044 -0.023623783
-0.3128101 0.76511985 0.21078953 -0.6554011 0.67152685 -0.2813388 -0.16824365 -0.67275065
-0.97767335 -0.33828405 -0.4553763 0.10860622 -0.18601334 -0.15460935 0.015793888 -0.076193556
0.005092259 0.5596712 0.7106407 0.012801841 0.56517166 0.6894877 0.15696605 0.36232802
-0.15506074 0.5644477 -0.3880382 -0.15831791 -0.3588997 0.8023862 -0.17534293 -0.3141357
-0.094231166 -0.20524418 -0.20098948 -0.9669303 -0.68035954 -0.31078905 0.2665741 -0.8105786
0.07004095 -0.7013643 0.19310151 -0.11537942 0.7974705 0.49897304 0.30946353 -0.11774317
-0.26465714 -0.50438523 0.33905995 -0.0012890673 -0.55740243 -0.4089712 0.16651388 0.09992065
0.5266267 -0.2605053 -0.2354179 -1.1972045 0.1588102 -0.64365906 -0.15401061 0.2865326
-0.17170493 0.20521526 -0.15109426 0.37441683 0.6882143 0.78400254 0.72388566 0.17031455
0.022158178 0.35337475 -0.049414493 -1.1432719 0.3042118 0.20217927 -0.4623926 0.1501355
-0.15394045 0.07463545 -0.03988797 -0.79545105 0.69350696 0.059051894 -0.4069094 0.056225955
-0.25066617 0.801412 0.3550188 -0.083337255 -0.5423335 -0.08409146 -0.05795264 -0.20109263

fc1.bias f4 [200]
00000000: 0fd9 473f 35cd c43e ef5c 143f c291 1e3f
00000010: 8f93 3cbe 572b 063e 2174 7dbe 1f01 f33e
00000020: 2fea 7e3e 9aa8 493e befa 433e de21 04be
00000030: 68cb 6fbe ec98 33be 8cdd 493f 31c1 073f
00000040: 97e3 6e3e 918c 8ebe 53ff 8cbe ab0d f03e
00000050: c720 a33d 3aa2 153f 54e2 2cbc ffc4 f63e
00000060: 0a4a d53e 478d e73e 0b9a f43e fca8 c13e
00000070: b324 593e 1e6a 373e a35b a23e 3d8f 363f
00000080: 41cd 2dbd 5d1e e9bd 6417 173f 8590 0d3e
00000090: afc8 f0bc c9bc 923e b01c 1e3f 67af c1be
000000a0: 5a28 1f3f 6449 80be efd7 1f3e b7c4 53bd
000000b0: 563a 3c3f ac3e fcbe 5660 403f 9e03 65be
000000c0: 5bd4 833e d29e 7bbe b7ef ea3e fa25 f53e
000000d0: e684 e23e 0d23 903e 6165 c4bc 2b29 e83e
000000e0: 7710 81be 3430 c73e f038 463f b736 de3a
000000f0: 7488 753e 792c d6be 78e3 a33d 3631 56be
00000100: 2ac5 2b3f 07e3 2fbf 17ec 0d3f 1fbb 283f
00000110: f270 0f3f 8d43 f43c 9d0a 243f 9695 323f
00000120: 5d2f aa3e e1cf 133e 49ba 183e aca7 003f
00000130: 44cc 083f a5b4 023f feb1 8f3e 0518 c13e
00000140: b7c0 10bd b276 95bc bf4a 023f ef6f 093f
00000150: c4e2 c63e e711 c9be 21af 8dbe 9454 2b3f
00000160: dc04 643f aac0 bc3e 87bc 243c 73c2 1abd
00000170: 2db6 003f f263 2e3f 677c 81bd 4cf7 493f
00000180: 3da8 f3be bdf2 d93e c930 403f de7b 423f
00000190: a928 d63e ef62 d6be 00dc 593f 1c42 20bf
000001a0: 4cf1 b33e ece2 1ebe fe28 6c3e 0c8c 183f
000001b0: 3507 983e a4fb d93e e302 8c3f ad7d 463f
000001c0: 720c bd3e f682 1cbe 917e 4f3f 650b 06bf
000001d0: c526 093e 3c22 fbbd e5ae e6bd 7e0a 2f3f
000001e0: e546 76bd e8b1 ebbe 6d5b b73d 3402 4a3e
000001f0: 03d2 2b3d e95e 7d3c 98ef ac3e cede 273c
00000200: 7691 1f3f 325c 153a c8a2 9a3e bb0b 683f
00000210: b795 183e 3b0f d3be dde7 d33e 4c5e 463f
00000220: 33e5 0e3f eeec 073e c219 7dbe aec6 683e
00000230: 8a22 dfbe 7fde 823d 76e1 47be 5207 333f
00000240: 184b d03e b17d 20be 44a9 f53e 3cf6 923d
00000250: 05de fb3e 081b 2d3f b3c0 0ebf 1a7d 283e
00000260: f522 80be 1a3a 1c3f 3f53 0dbf f6cb 3e3f
00000270: 5360 ee3d fdcc c73e 92ee 2e3e fb5a b03e
00000280: c5c9 883f 7fe8 0d3f cb13 b8be b6be 1f3f
00000290: 0cb5 9a3e c7ba 723e b567 85be 8358 8f3e
000002a0: f9a3 703e 81e3 483e a851 34bf a98c 003f
000002b0: 34c7 ad3e 63be 883c 5c82 3d3f e13c cd3e
000002c0: a48a 423f 9cdc 89bd 6a4d bf3e 6873 c13e
000002d0: 08bf 213f 7a2c 4bbd 2cb7 a33e bdae 233f
000002e0: b22d 79be f22b 303f 0416 99bb 0c6c bcbe
000002f0: db3c 89be 1ba2 c5be 0af7 3cbe 75cf 01bd
00000300: ab1a 45be db3c 523f ea6b e53e c2d9 cb3e
00000310: 7c76 0f3f bbc0 de3a cd0e e03e f0c2 b33e
0.7806558 0.3843781 0.57954305 0.6194116 -0.18415664 0.1310247 -0.24751331 0.47461793
0.24894021 0.19693223 0.1913862 -0.12903544 -0.23417437 -0.17538804 0.7885368 0.5302916
0.23329006 -0.2784162 -0.27538547 0.46885428 0.07965236 0.58450663 -0.010552008 0.4819717
0.4165805 0.45224974 0.47773775 0.37824237 0.21205406 0.17911574 0.31710538 0.71312314
-0.042432074 -0.113827445 0.59020066 0.13824661 -0.029392568 0.28659657 0.61762524 -0.37829134
0.62170947 -0.25055993 0.15609716 -0.051701274 0.73526514 -0.49266565 0.75146997 -0.22364661
0.25747952 -0.24572304 0.45886013 0.47880536 0.44242018 0.28151742 -0.023974122 0.4534391
-0.25207874 0.38903964 0.7743063 0.0016953562 0.23977834 -0.41830805 0.080023706 -0.2091721
0.67097723 -0.6870579 0.5543837 0.65910524 0.56031716 0.029817367 0.64078695 0.697595
0.3323926 0.14434768 0.14914812 0.50255847 0.53436685 0.5105689 0.28065485 0.37713638
-0.035340037 -0.018245075 0.50895303 0.5368642 0.38844883 -0.3927147 -0.27672675 0.6692593
0.89069915 0.3686574 0.010054714 -0.037783097 0.5027798 0.68121254 -0.06322556 0.7889297
-0.47589293 0.42568007 0.7507444 0.75970256 0.41827896 -0.41872355 0.8510132 -0.62600875
0.35145032 -0.15516251 0.23062512 0.59588695 0.29693 0.425748 1.0938381 0.77535516
0.36923558 -0.15284333 0.810525 -0.52361137 0.13393696 -0.12262389 -0.11263827 0.68375385
-0.060126204 -0.4603417 0.08952985 0.19727403 0.04194833 0.015464523 0.33776546 0.010245992
0.6233133 0.0005697637 0.30202317 0.906429 0.14900862 -0.41222557 0.41387835 0.77487636
0.5581848 0.13273975 -0.24716857 0.2273204 -0.4358104 0.06390094 -0.195196 0.69933045
0.40682292 -0.15672947 0.47980702 0.07175872 0.49192825 0.6761937 -0.55762786 0.16453972
-0.2502667 0.61026156 -0.5520515 0.7452997 0.11639466 0.3902358 0.17083195 0.34444413
1.0686575 0.55432886 -0.359526 0.62400377 0.30216253 0.23704062 -0.26055685 0.27997217
0.2350005 0.19618036 -0.704371 0.5021463 0.33941042 0.016692346 0.7402704 0.4008551
0.759928 -0.06731531 0.3736375 0.3778336 0.63182116 -0.049602963 0.31975687 0.63938504
-0.24333838 0.68817055 -0.004671814 -0.36801183 -0.26804242 -0.3860024 -0.18453613 -0.031691987
-0.19248454 0.8212411 0.44808894 0.39814574 0.5604017 0.0016994694 0.43761292 0.35109663

fc2.weight f4 [100, 200]
00000000: 00c1 8f3c 7e83 7d3e 2159 2bbe 3d32 5e3d
00000010: 1ac9 a0be e0d9 55be a765 e6bd d362 7fbb
00000020: 03a2 eabd 6a61 533e b0ab 743d 1432 9a3d
00000030: eb66 443e d43a 1dbe 0378 0b3d 7aac 973e
00000040: baa8 9b3d 19f1 63bd d605 04be 92a7 51bc
00000050: 30c4 0f3f 199a b83e 5fe8 eabd 6981 afbe
00000060: 8206 2c3d 72cc 52be 5125 fa3d c561 ae3c
00000070: d79b 123e 1310 4b3d 4acd 563e 4285 083e
00000080: e139 1abe d140 e43e c6ca ab3e ebcb d1bd
00000090: ab59 3e3f 80e4 853e 8c28 243d 5f2e 9cbe
000000a0: 61ba 1abe 602b 173e ee1a 113d 58d8 a4be
000000b0: 9350 85be 6914 90bd 162c 743d b193 abbd
000000c0: 93cd 03bd 4a2a bebe 2118 8c3e 653b 1e3d
000000d0: e330 53bd 0e80 1dbd 1c59 ef3e 6f6d b9be
000000e0: 5b87 f9be d3b3 a0bb f314 ee3e 9932 e6bd
000000f0: 143c 89bb f950 01be d0d3 afbd 7ae4 08be
00000100: bf58 e5bd 8cd5 8ebe 6886 9dbd 5df6 043d
00000110: c58b 07be d4f3 693f 4c07 053f 5791 6fbe
00000120: 6fe0 08bd 6bdd 63be af2e d1bd 251c 883e
00000130: 4563 0abf d59f f13d 8b10 0a3e 7f34 803e
00000140: 68dc 3fbf 0ceb 4abe 9b79 d93d eb3e 7ebd
00000150: c5d0 b8bd 88f8 08be 8e28 063e 5575 3bbd
00000160: 77c9 073d 663d 8e3d f1b6 89bd 30f2 8c3e
00000170: fe6f cd3d dbb9 a73e 3ba3 c9bd 267c b33d
00000180: dbf5 1f3d 4b83 613e 4f30 9a3e 6693 8c3e
00000190: 8d45 acbd 4342 a0bd 7d46 49bd 5be4 823d
000001a0: 7404 e13d 0a54 a13d 3c9f 913d e1f6 70be
000001b0: b1b9 5fbc 944e 1cbe 581a d63d 92d0 87bd
000001c0: 6fe0 853b a48b a13e 63e5 593e 89b7 e0bd
000001d0: b4c9 3f3e 18d6 8c3d 838b b73d c411 fa3d
000001e0: b6fd 8abd 3968 143e 1826 61bd c035 b43c
000001f0: 307a d33e 02fd 07bf 72cc 843d 5104 27bd
00000200: a972 debd bdca 473e a58c 973a ef6e 93be
00000210: 8ab1 153f 3538 6fbe 0f70 333e 86a0 77bd
00000220: 0ff0 58be dccc 523e 2545 653f 64bf 9abc
00000230: a8b4 48bd 1f8e c2bc d719 983c 3ea8 6c3e
00000240: 6f47 4c3e fb51 c93e ac59 f23c 067f abbe
00000250: b5f5 18be 3a4b 45be 5e22 313f 4a0f 163c
00000260: adf6 fa3d 9c27 0a3d 2d50 663c 9171 80bd
00000270: 5f86 893e de3b a1be 45c9 cf3e 7319 323e
00000280: 4955 2c3d 72d7 a03e dd82 c63e 989d 65be
00000290: 2472 85bc fe3c febd 57cb bf3e add1 8fbe
000002a0: 579b 313e 678d 0fbe 0a87 013e 58d7 2b3e
000002b0: 7588 a6bc 3e8e 883d d31b d9bc d630 343e
000002c0: 8ead 4e3e e855 b23d 53a6 b0bd 1285 043e
000002d0: e1c6 5d3d 2fd0 43be 8641 9fbd fdc1 823d
000002e0: fa4c 2a3e 4cef cf3c 8937 0c3e bf11 803f
000002f0: 5855 5d3e ceb5 c5ba d05a 6d3e 8147 8e3c
00000300: eae3 d73d ddb9 9e3d c2f0 223e 979a 283e
00000310: 9931 3bbd 11b9 cd3d df5b e53d 0105 903d
00000320: 367d 173e 132f b4be 7506 753e b395 7b3e
00000330: de7b a93e e3ef 523e 4c96 513d f0df 413d
00000340: f948 8e3e bf83 0e3f a714 073e 8046 14be
00000350: 329b 103d dd12 0f3f 0784 b73e 0a6b 90bd
00000360: d905 ff3e 0026 b03c 889f b93e d935 923e
00000370: b3c9 453f 5381 d83e ea7a 383e a547 a63c
00000380: 99ae 043e 9fb6 8f3e eac3 9d3e 6d4a d5be
00000390: a91a 823e 63f5 833e 577a 9c3e a5b1 b43e
000003a0: 7e01 8c3e a782 60be 1704 523e ea9f 3e3f
000003b0: f93c 26bf 7dea c33d b3c8 593e c36b 273e
000003c0: 9546 a53e ce22 863e dd97 80be ddf7 00bf
000003d0: cc25 5f3e 661e 9b3e 3f9d 713e 1959 3d3e
000003e0: cadb d33d b5fc 863e 0175 eb3e 55b4 343f
000003f0: 11f4 b93e 808c 883e 4ec7 58be 31e6 79bd
0.017548084 0.24757192 -0.16733219 0.05424713 -0.31403428 -0.20883894 -0.112498574 -0.0038968816
-0.114566825 0.2064263 0.059734046 0.07529083 0.19179885 -0.15354472 0.03405 0.29623777
0.076005414 -0.05564985 -0.12892851 -0.0127962995 0.56158733 0.36055067 -0.114701025 -0.3427842
0.041998394 -0.20585802 0.12214149 0.021286855 0.1431726 0.049575876 0.20976749 0.13332084
-0.15061142 0.445807 0.3355314 -0.102439724 0.7435557 0.26150894 0.04007773 -0.30504128
-0.1511016 0.1476264 0.035426073 -0.32196307 -0.26038036 -0.07035143 0.059612356 -0.08377779
-0.032178473 -0.3714164 0.2736216 0.03863086 -0.051560294 -0.0384522 0.46747673 -0.36216304
-0.4873608 -0.004904249 0.46500358 -0.112401195 -0.00418807 -0.12628545 -0.08585322 -0.13368407
-0.111985676 -0.27897298 -0.076916516 0.032461513 -0.13236912 0.9138768 0.5196426 -0.23395287
-0.03341716 -0.22252433 -0.10213982 0.26583973 -0.54057723 0.11798064 0.13482873 0.2504005
-0.7494569 -0.19816226 0.106188975 -0.062071722 -0.09024195 -0.13376057 0.13101408 -0.045766193
0.033151116 0.069453046 -0.067243464 0.27528524 0.100311264 0.32758984 -0.09845587 0.08763914
0.039052825 0.2202274 0.30114982 0.27456206 -0.08411703 -0.078251384 -0.04913949 0.063912116
0.109871775 0.07877357 0.0711045 -0.23531677 -0.013655112 -0.1526435 0.104542434 -0.066315785
0.0040855925 0.3155185 0.2127891 -0.109725066 0.18729287 0.06876773 0.089621566 0.1221042
-0.06786673 0.14492883 -0.05496797 0.021998286 0.4130416 -0.53120434 0.06484307 -0.0407756
-0.108617134 0.19510932 0.0011562301 -0.28795573 0.5847403 -0.23361285 0.17523216 -0.06045582
-0.21185325 0.2058596 0.8955863 -0.01889009 -0.049000412 -0.02374941 0.018567009 0.23111054
0.19949125 0.3932036 0.029583775 -0.3349535 -0.1493748 -0.19266978 0.69193065 0.009158919
0.12254081 0.03372918 0.014057201 -0.06271661 0.2686033 -0.31490988 0.40583244 0.1739252
0.04207352 0.31414372 0.38771716 -0.22423398 -0.016289778 -0.12413977 0.37459823 -0.28089657
0.17344414 -0.14018784 0.1264917 0.16781366 -0.02032874 0.066677555 -0.026502525 0.17596754
0.20183393 0.087077916 -0.08625474 0.12941387 0.054144744 -0.19122384 -0.077761695 0.063846566
0.16630927 0.02538266 0.1369306 1.0005416 0.21614587 -0.0015084089 0.23179173 0.01736808
0.10541518 0.07750294 0.15912154 0.16465221 -0.045701597 0.10045064 0.11199164 0.070322044
0.14793858 -0.35192165 0.23928244 0.24568824 0.33102316 0.20599322 0.051168725 0.047332704
0.2779005 0.5566978 0.13191472 -0.14480019 0.035304256 0.5588816 0.35842916 -0.07051666
0.4980915 0.021502495 0.36254525 0.28556708 0.77260894 0.42286167 0.18015638 0.020297835
0.12957229 0.28069016 0.30813533 -0.41658345 0.25410965 0.25773153 0.30562088 0.35291782
0.27344888 -0.2192484 0.20509373 0.7446276 -0.64936787 0.095662095 0.21267967 0.16349702
0.32280412 0.2619843 -0.25115862 -0.5037821 0.21791762 0.3029663 0.23595141 0.1849102
0.10344656 0.26364675 0.45987704 0.70587665 0.3631902 0.26669693 -0.21169779 -0.061010543

fc2.bias f4 [100]
00000000: 75c3 023d 17c7 a03d 3ebc 763e a7e4 143d
00000010: b5cd 903e 7d46 08bd 85e0 26be 5bda f43d
00000020: 78ec bc3b 9084 6abe 4c23 7c3e 647d bb3e
00000030: 4bf8 453e 3642 2c3f 8dcd b43e 61cd 443e
00000040: 10a8 86bb 6b39 d7bd 0df9 2b3f f7b1 1e39
00000050: b169 1a3e 3272 0fba 4f71 203f 7f6b bcbd
00000060: b7ef 113f 07e9 ad3e 5471 a33e e38f 583d
00000070: fde5 5dbd eb56 823e 1f7f a33e 26dc 283e
00000080: 7ea6 f53d 95ed 8f3e 14e3 883e 4037 3ebd
00000090: f2c9 543e f018 1b3e c84a 0bbd 3d4b 9e3d
000000a0: 8e88 b73e f0cf f33d 3fc6 bd3d dfa1 a23e
000000b0: 7a7e 793e ff42 563e 0b37 6e3e e781 603d
000000c0: 68da b23e 3e74 b53e d278 72bd c68d f93d
000000d0: 1a3b 9a3e 82bf 2abd fe96 38bd 9e42 063f
000000e0: a53e 273e 7a02 173d 62e5 8a3e 9872 9ebd
000000f0: 1867 1b3b 3c3b 473e ad9c 133e 694e 803e
00000100: 650f ef3e a1ce afbd 5762 6f3d 6021 203e
00000110: 6824 8dbc 8f2f 51be 5667 4d3e ec5c 553e
00000120: 7529 b53d 6bb7 593d 895c 473e 9c18 043d
00000130: 30a7 ed3d cb74 b33d 18b8 45be 9d6a cf3e
00000140: 736a 65bd 9aab 93bd 27dd 253d 6038 0a3f
00000150: f8a7 183e 3f39 fd3d 4f8a 333e 31f9 3abe
00000160: 7af6 8d3e 09be 5d3e e28c f53c 5b97 55bb
00000170: 2f5f a63e a520 123f 9ba9 fc3e b541 bd3e
00000180: bed3 ec3e 83e8 443e 346d ce3e 2365 a33e
0.031924684 0.078504734 0.24095246 0.036350872 0.28281942 -0.033270348 -0.16296585 0.119557105
0.005765494 -0.22902131 0.2462284 0.36619103 0.19332998 0.6728853 0.35313073 0.19218971
-0.00410939 -0.105089985 0.67176896 0.00015134351 0.1507938 -0.00054720335 0.62672895 -0.09200191
0.570064 0.33966848 0.319224 0.052871596 -0.054174412 0.25456938 0.31932923 0.1649023
0.119946465 0.28110948 0.26735747 -0.04643941 0.20780161 0.15146232 -0.034006864 0.07729194
0.3584637 0.11904895 0.09266328 0.31764123 0.24364653 0.20923994 0.23263185 0.054811385
0.34932256 0.35440248 -0.059197254 0.12185244 0.30123216 -0.041686542 -0.045065872 0.524454
0.1633249 0.036867596 0.2712813 -0.07736701 0.0023712572 0.1945619 0.14415236 0.25059822
0.46691433 -0.08584333 0.058443394 0.15637732 -0.017229274 -0.20428298 0.20058951 0.20836228
0.08845798 0.053153437 0.19468893 0.03225003 0.11604154 0.08762511 -0.19308507 0.40511027
-0.05600972 -0.07210465 0.04049411 0.5399227 0.14907825 0.123644345 0.1753323 -0.18259121
0.2772711 0.21654524 0.029974405 -0.0032591436 0.32494494 0.5708106 0.4934815 0.36964193
0.46255296 0.19229321 0.4031769 0.319131

fc3.weight f4 [4, 100]
00000000: 50e7 a0bd ded0 e7be 98c6 c1be a8b6 77bd
00000010: 620c a0be a790 cb3d b316 a4be a8b7 4e3f
00000020: a29b 82bc 2ce5 b5bf a1bc 94be 9587 0c3f
00000030: 2cfe a4be 48a7 243f cf3a 273f 80ca b83f
00000040: ddbf babd 25ce 0abc 603e 473f 8adb b8be
00000050: 36db 8a3f e0b7 22bd 42c1 3b3f a77a 4cbf
00000060: b926 113f 43fc ba3e 32e3 4f3f 021e 623f
00000070: d034 bb3d 2fcf b83e 4140 bcbe e780 c53f
00000080: eb57 79be 46ef 9e3e ddbe b13e 93ae 08bf
00000090: 9791 af3f 06f1 603f d32e 353d c490 cabe
000000a0: d801 c23e 0201 08bf eced f5be 2bf3 6cbe
000000b0: a60b a53e 3479 a8be 6ace f23e 0dd6 83be
000000c0: 6371 e53e c6de 923e ec82 a6bc 5475 c8be
000000d0: ea00 8cbe d655 3e3d 508c 68bd 6940 363f
000000e0: e097 d5be 4831 16bf 37d2 dcbe 052f e23c
000000f0: a573 243c d1cb 83be cb09 ebbe 325d 65be
00000100: c2da 043f 94ca 373b 6a24 7e3e 6041 273f
00000110: cd08 85bf 39e1 e93e 1fcd 8b3f 5842 2f3f
00000120: fbe0 1fbe bf40 093f 0e9f e33e cb89 acbd
00000130: f16c 473f 4664 9f3f 2318 8b3f 8b57 8f3e
00000140: 5846 e8bb 4fec 543c 71d2 823f 9fe1 3b3f
00000150: db21 b03e 709a 90be dd88 bebe 6cdb 13bf
00000160: d9bd 94be c5f3 93be 9959 ac3d a66a 4cbd
00000170: 2c07 2a3f 6a45 373f 0489 783f 677d 523f
00000180: 687a 7e3f 9dfb c9be f17e c23f 3352 3c3f
00000190: b2b1 063f ed71 a8be 0d49 ebbe d4ff 903d
000001a0: 1143 f1be 0c1f 58bd 2b8b fc3d 5627 8b3f
000001b0: 2fd9 adbd 3b03 863e bb68 e4bd acb2 723e
000001c0: 2a87 f1be 38e0 4b3f a389 133f 81d0 b03f
000001d0: 7c7e a3bd c051 dd3c a1fc 553f f5a1 a43e
000001e0: bde9 823f 51f7 933d e939 143f 8b56 823f
000001f0: dc49 573f ac29 0d3f 5736 253f 728a 163f
00000200: 0643 453d 6655 e13e 7f57 e9be deb3 863f
00000210: 4d7a 9d3e 67dd 8f3e 17bd 963e 4c0f 52bf
00000220: 5fa1 c13f f913 6f3f 839b 9abb 9d11 f6be
00000230: f672 ac3e d49e 42be 3084 adbe 7fef dabe
00000240: 668a ff3e b37c bbbe 5227 ac3e c1a3 febe
00000250: da25 bd3e deb9 9a3e 02d3 aebb bc78 bcbe
00000260: 05f0 c3be 875a 483d 8a16 88bd 1c66 573f
00000270: 8de2 d0be 217c 643e 8379 c8be 4752 77bd
00000280: 86d4 d8bd bffe b2be 65ea c9be b919 debe
00000290: 6c31 2f3f adfb 8b3a 0ad9 463f fdd2 813f
000002a0: 0861 72bd 22a8 b83f 0322 123f 3d9b 0a3f
000002b0: 1ac0 37bf a23d 9d3f b026 2c3f 1d39 66bd
000002c0: c6ad ba3e 97c0 7b3f 9c79 273f eae4 ea3e
000002d0: 25e4 ab3d 6ab8 37b9 99c4 313f 2e5a 553f
000002e0: 0e7f e03e 1685 c0be 8395 e1be 9608 08bf
000002f0: 99a1 72be e5d8 cfbe 9ec3 a63d 2796 aa3d
00000300: 8e4c 0e3f 3d6d 4a3f c498 4b3f f794 673f
00000310: 4a7c 253f 782f c5be 04e0 ea3f 5a49 903e
00000320: 4caf 9abe 5083 a6be 202f bebe 289a acbd
00000330: 2449 d7be 5eaa 5a3d 793f 39bf 310f 903f
00000340: 841d 96bd 3326 7cbf c12c 53bf 3b6d f0bd
00000350: fe2a eebe ad47 4b3f 5d40 093f b5a9 b83e
00000360: 63f6 b6ba 93eb 893e 6c4c f23e 3e6d 3abf
00000370: 7a95 813f c068 853c 29e6 133f b828 ce3d
00000380: b1c4 6b3f b426 083f f770 0a3f 6f27 873f
00000390: 735a 55bd cc2c c83e 98e7 f3be c53f e43f
000003a0: a2c5 8f3f 4c8b 163f ff72 013f 1e68 6cbf
000003b0: 7651 cd3f 226d 883f 9c99 4d3d 9547 4dbe
000003c0: 85ae 283f f7bb 29bd a652 ffbd ced5 febe
000003d0: ef4a 1e3f 8280 17bf 0e1d 443e b499 6abe
000003e0: b535 353f e3b2 f03e c492 81bd 69e2 f6be
000003f0: 06ac a0be 00d7 403b 762f 9ebc 50eb 2b3f
-0.07856619 -0.4527654 -0.37846828 -0.06047693 -0.31259447 0.099396996 -0.32048568 0.8074899
-0.015943352 -1.4210563 -0.29050162 0.5489438 -0.32225168 0.6431775 0.6532411 1.4436798
-0.09118626 -0.008472 0.7782955 -0.36104995 1.0848148 -0.039726138 0.73341763 -0.7987465
0.5669971 0.36520585 0.8120605 0.8832704 0.091409326 0.3609557 -0.36767772 1.5429963
-0.24349944 0.31041926 0.3471593 -0.5339138 1.3716305 0.8786777 0.04423411 -0.39563572
0.37892032 -0.5312654 -0.48033082 -0.23139636 0.3223545 -0.3290497 0.47423106 -0.25749245
0.4481307 0.28685588 -0.0203261 -0.39152014 -0.27344447 0.04646858 -0.056774437 0.7119203
-0.41717434 -0.5866895 -0.4312913 0.027610311 0.010037337 -0.25741437 -0.4590591 -0.22398832
0.518963 0.002804433 0.24818578 0.6533413 -1.0393311 0.45679644 1.0921973 0.6846061
-0.15613167 0.5361442 0.44457287 -0.084247194 0.77900606 1.2452476 1.0866741 0.27996477
-0.0070884638 0.0129957935 1.0220472 0.73391145 0.3440083 -0.28242826 -0.37213793 -0.57756686
-0.29051092 -0.2889692 0.08415527 -0.049906395 0.66417193 0.7159029 0.9708407 0.822226
0.9940553 -0.39449778 1.519499 0.73562926 0.5261489 -0.32899418 -0.4595417 0.07080045
-0.4712148 -0.052763984 0.12331232 1.0871379 -0.0848869 0.2617434 -0.11152788 0.2370097
-0.47173434 0.79639006 0.5763189 1.381363 -0.07983109 0.02701652 0.83588606 0.32154813
1.0227581 0.07224906 0.57900864 1.0182661 0.84097075 0.5514171 0.6453604 0.58805
0.04815962 0.44010466 -0.45574567 1.0523641 0.3075737 0.28098604 0.2944114 -0.8205459
1.5127372 0.9338985 -0.0047182455 -0.48060313 0.33681458 -0.190059 -0.33889914 -0.42760846
0.49910277 -0.36618575 0.3362375 -0.4973431 0.3694294 0.3021993 -0.0053352127 -0.36810863
-0.38269058 0.04891446 -0.06644924 0.8414018 -0.40797845 0.22312976 -0.39155206 -0.0603812
-0.10587411 -0.3495998 -0.3943664 -0.43379 0.68434787 0.0010679864 0.77674925 1.0142514
-0.059174567 1.442631 0.5708315 0.54143125 -0.717775 1.2284434 0.6724653 -0.05620681
0.36460704 0.98340744 0.65419936 0.45877773 0.083931245 -0.0001752094 0.6944061 0.8334073
0.43846935 -0.37601537 -0.4405938 -0.531381 -0.23694457 -0.40595165 0.0814278 0.083294205
0.55585563 0.79072934 0.79529977 0.9046168 0.64642775 -0.38512778 1.8349614 0.28180963
-0.30211866 -0.32522058 -0.3714533 -0.084278405 -0.4204799 0.05338513 -0.72362477 1.1254636
-0.073298484 -0.9849579 -0.82490164 -0.11739584 -0.46517175 0.79406244 0.53613836 0.36066976
-0.0013958927 0.2693754 0.4732393 -0.7282294 1.0123742 0.0162853 0.5777307 0.1006636
0.92097 0.53184056 0.5407862 1.0558909 -0.052088212 0.39096677 -0.4763763 1.7831961
1.1232188 0.588063 0.50566095 -0.9234637 1.6040485 1.0658305 0.05019532 -0.20046838
0.65891296 -0.041439023 -0.12466936 -0.49772495 0.6183309 -0.5918046 0.19151708 -0.22910196
0.70785075 0.4701148 -0.063268214 -0.48219612 -0.31381243 0.0029425025 -0.01930974 0.67155933

fc3.bias f4 [4]
00000000: f211 033e f29a 343d 8d2e cebc a4c3 0e3c
0.12799814 0.04409308 -0.025168682 0.008713637
