models/model_run_8.pth (torch, 92165 bytes, 6 tensors)

fc1.weight f4 [200, 8]
0	0x3e06b1b5	0.13153727
1	0x3e168cb4	0.14702111
2	0xbf3658d6	-0.712293
3	0x3e635015	0.22198518
4	0xbec6d248	-0.38832307
5	0xbf58f79f	-0.8475284
6	0xbedb2821	-0.42804053
7	0xbb0039fc	-0.0019565811
8	0xbe318103	-0.1733437
9	0xbf1efe07	-0.62106365
10	0xbd88d9f6	-0.06682198
11	0xbf8f875a	-1.1213181
12	0xbe94883b	-0.29010186
13	0x3e2bd966	0.1678215
14	0x3d4694d1	0.048481766
15	0x3eea0d8b	0.45713457
16	0xbe804956	-0.2505595
17	0xbe01d708	-0.12679684
18	0xbf543b82	-0.829033
19	0x3e8d5354	0.27602637
20	0x3c1b1d6f	0.009467467
21	0xbe80d0cf	-0.25159308
22	0xbd104b49	-0.035228048
23	0xbd8ae015	-0.067810215
24	0xbf4af454	-0.79279065
25	0x3ebb3a04	0.365677
26	0xbddb1231	-0.10696829
27	0x3e9f9ff5	0.31176725
28	0x3e99cdf5	0.30039945
29	0x3f43faad	0.76554376
30	0xbf9e12e8	-1.234952
31	0xbf053ea3	-0.520487
32	0xbed9087c	-0.42389286
33	0x3f322f40	0.6960335
34	0x3d6d6dcd	0.057966042
35	0xbfae83c8	-1.3633966
36	0x3ea061f1	0.31324723
37	0xbd018b73	-0.03162713
38	0xbc2fa9b4	-0.010721613
39	0xbedaf185	-0.4276239
40	0x3f3c4352	0.7354022
41	0xbcae8dee	-0.021307912
42	0xbeb3c890	-0.35113955
43	0x3fccf845	1.6013266
44	0xbf51db89	-0.8197561
45	0x3f377997	0.71669906
46	0xbce8a2e9	-0.028397994
47	0x3e4858dd	0.19565149
48	0xbf024335	-0.508838
49	0x3e72d1c3	0.2371283
50	0x3e6786a5	0.22609957
51	0xbeca754d	-0.39542618
52	0x3e1acb0b	0.15116517
53	0x3f73ae54	0.9518788
54	0xbf3ffaf9	-0.7499233
55	0x3ef0b3ae	0.47012085
56	0x3f117bb2	0.5682937
57	0x3ebc8c11	0.36825612
58	0x3e77906c	0.24176186
59	0x3dda09f2	0.10646428
60	0xbfb1bb85	-1.3885351
61	0x3eaf84ce	0.3428101
62	0xbe1389b5	-0.14408
63	0xbf83f54a	-1.0309231
64	0x3e888817	0.26666328
65	0xbcd0d88b	-0.02549388
66	0x3d65105d	0.05592381
67	0xbf398e72	-0.7248298
68	0x3fd4e7c0	1.6633224
69	0x3d777edc	0.060423717
70	0xbe2d7eee	-0.16942951
71	0xbdcc8755	-0.0998675
72	0x3db34d29	0.087549515
73	0xbe5a8ab9	-0.21341981
74	0xbf257a5e	-0.6463984
75	0x3e6b47b7	0.22976576
76	0x3e68b9e9	0.22727169
77	0x3e9dd6ed	0.30828038
78	0x3efb0d1f	0.49033448
79	0x3e82f63d	0.2557849
80	0x3d36640b	0.044529002
81	0x3de51be8	0.11186963
82	0xbe073bbb	-0.13206379
83	0xbec2bb6b	-0.38033614
84	0x3f6fd4d5	0.9368413
85	0x3e0e0c2d	0.13871832
86	0x3fa0f6fc	1.2575374
87	0x3d78197a	0.06057117
88	0xbda7bbce	-0.08190118
89	0xbeb17e1a	-0.3466652
90	0x3d9fb8b3	0.077989005
91	0xbeb46416	-0.3523261
92	0x3f42c741	0.7608529
93	0x3f0eaa83	0.5572893
94	0x3f02f00e	0.51147544
95	0x3de461e8	0.11151487
96	0x3ea667d3	0.32501087
97	0x3e39a44a	0.18129078
98	0x3f5f2c84	0.871773
99	0x3e06357f	0.13106345
100	0x3ea80461	0.3281584
101	0xbf88ce29	-1.0687915
102	0xbdd6587b	-0.10466095
103	0x3e98b1c0	0.29823112
104	0x3d5b77d6	0.05358108
105	0x3de44b85	0.11147217
106	0xbee4c8c4	-0.44684422
107	0xc0040f41	-2.063431
108	0x3d0118fb	0.031517964
109	0xbe158951	-0.14603163
110	0x3ea9ca01	0.3316193
111	0x3f17ddf3	0.5932304
112	0xbde9b52e	-0.114115104
113	0x3f895b46	1.073098
114	0x3e063fb9	0.13110246
115	0x3d10dcc2	0.03536678
116	0xbddacdd0	-0.10683787
117	0x3e8f4c6e	0.27988
118	0xbedae25d	-0.42750826
119	0x3ee4c60f	0.44682357
120	0xbec2b9eb	-0.3803247
121	0x3ea4f339	0.32216814
122	0x3f6eeda7	0.9333138
123	0x3dd71825	0.10502652
124	0x3ec48cb0	0.38388586
125	0x3f1ca40a	0.61187804
126	0x3ea30a61	0.31843856
127	0x3e0e2074	0.13879567
128	0xbda3095e	-0.07960771
129	0xbea34f1b	-0.3189629
130	0xc04d268c	-3.2054777
131	0x3eff04b3	0.49808273
132	0x3d0e9369	0.03480855
133	0x3ebcee7b	0.36900696
134	0x3d8d419d	0.0689728
135	0xbdad81b3	-0.08472004
136	0xbf106340	-0.56401443
137	0x3f00bed5	0.50291187
138	0xbfab8d40	-1.3402481
139	0x3cdab973	0.026699757
140	0xbe8dcdf6	-0.27696198
141	0x3d1180ad	0.035523105
142	0x3dd029ac	0.10164198
143	0x3f2f3522	0.6844045
144	0xbeb8df5c	-0.3610791
145	0x3ee1de8f	0.4411511
146	0x3da99be7	0.08281689
147	0x3ee44df8	0.44590735
148	0x3e97eabb	0.29671273
149	0x3f902b4a	1.1263211
150	0xbe9c6c4f	-0.30551383
151	0x3e79c23f	0.24390505
152	0xbd9e5c21	-0.07732416
153	0x3e9ddae2	0.30831057
154	0xc027ae9b	-2.620032
155	0x3e6f23f1	0.23353554
156	0xbf19e12a	-0.601092
157	0xbec34f61	-0.381465
158	0x3c3e41d3	0.011612373
159	0x3cbba26e	0.022904601
160	0xbf114eb0	-0.5676069
161	0x3f077cc5	0.5292476
162	0x3e01a286	0.12659654
163	0xbf91efc2	-1.1401293
164	0x3f4cdf7d	0.80028516
165	0x3dd394ac	0.10331091
166	0x3eb06220	0.34449863
167	0x3e86d818	0.2633674
168	0xbe93dd3a	-0.2887972
169	0xbe31993d	-0.17343612
170	0x3c272891	0.010202543
171	0x3e556227	0.20838223
172	0xbf7a4f7b	-0.9777753
173	0xbd383b7d	-0.044978607
174	0xbe53861c	-0.20656627
175	0x3f6b4b18	0.9191146
176	0x3e888041	0.2666035
177	0xbf11d179	-0.56960255
178	0x3e32be65	0.17455442
179	0x3db1ff88	0.08691317
180	0xbf156dd8	-0.58370733
181	0xbf4f8014	-0.81054807
182	0xbeb3ba0c	-0.3510288
183	0x3e8eff8a	0.27929336
184	0x3f5b72cf	0.8572206
185	0x3f140020	0.5781269
186	0x3eaed9fb	0.3415068
187	0x3e4543e9	0.19264187
188	0xbec7aeb1	-0.39000466
189	0xbe8b08df	-0.27155206
190	0xbe2dc96f	-0.16971372
191	0x3dc7ccbb	0.09755846
192	0xbe216a5e	-0.15763232
193	0x3b908e15	0.0044114687
194	0xbd019325	-0.03163447
195	0x3cd84534	0.026400186
196	0x3f9274dd	1.1441914
197	0x3ea48551	0.32132962
198	0x3ecf7126	0.40516013
199	0x3e90923f	0.28236577
200	0x3e0c14ad	0.13679762
201	0x3c92a9ef	0.017903296
202	0xbee79831	-0.452333
203	0x3eaf99a9	0.3429692
204	0x3e8a558d	0.27018395
205	0x3f2999d3	0.6625034
206	0x3e813521	0.25235847
207	0xbf1022cc	-0.56303096
208	0x3f5502c4	0.83207345
209	0xbe48333b	-0.19550793
210	0x3f1cb939	0.6122013
211	0xbe65caf1	-0.22440697
212	0xbf244b09	-0.64176995
213	0x3e3ff710	0.1874659
214	0x3f015462	0.5051938
215	0xbf80430f	-1.0020465
216	0xbe927821	-0.28607276
217	0x3f24dbe0	0.64398
218	0x3ec2263c	0.37919796
219	0x3e5d4aa1	0.216105
220	0x3db3eb73	0.08785143
221	0x3e6a8638	0.22902763
222	0xbeca34a1	-0.39493278
223	0x3e0e0dc3	0.13872437
224	0x3d7e3523	0.062062394
225	0x3e6662a1	0.22498561
226	0x3f3eb075	0.74488
227	0x3f338b96	0.70134866
228	0xbefd05eb	-0.49418578
229	0xbefcbd82	-0.49363333
230	0x3d4ea525	0.050450463
231	0xbe08c3b3	-0.13355903
232	0x3e431b39	0.19053353
233	0xbdf75e99	-0.1207859
234	0x3f165786	0.587273
235	0xbcf1beca	-0.02950992
236	0x3ee4b2aa	0.4466756
237	0x3d99bb89	0.075064726
238	0xbc72b434	-0.014813472
239	0xbd290b79	-0.041270707
240	0x3eff4aaa	0.49861652
241	0xbd33478d	-0.043769408
242	0x3e86bf32	0.26317745
243	0x3e3824b4	0.17982751
244	0xbf5d0b8a	-0.8634573
245	0xbebf3646	-0.37346095
246	0xbebba6f0	-0.366508
247	0x3f0351d2	0.5129672
248	0xbe51c7b9	-0.20486344
249	0xbf04b807	-0.51843303
250	0x3e22ad6a	0.15886465
251	0xbf1918e8	-0.5980363
252	0xbd45ec32	-0.048320957
253	0xbe28d1e8	-0.16486323
254	0xbe6929d0	-0.22769856
255	0xbca198d6	-0.019726198

fc1.bias f4 [200]
0	0xbec8012d	-0.39063397
1	0xbebf78eb	-0.3739694
2	0x3f805473	1.0025772
3	0xbf2fe483	-0.68708056
4	0xbe2d39ce	-0.16916582
5	0xbd69e82b	-0.05710618
6	0xbf0ab615	-0.54184085
7	0x3d84aebd	0.06478641
8	0x3eded4a2	0.435216
9	0x3f31a70e	0.6939553
10	0xbe5a54b4	-0.21321374
11	0x3e053dc7	0.13011847
12	0xbd4b0c30	-0.04957217
13	0x3b001ded	0.0019549087
14	0x3f35f544	0.7107737
15	0x3ebea98d	0.37238732
16	0xbc8c70a5	-0.017143557
17	0x3f0cd12f	0.5500669
18	0x3ed9b636	0.42521828
19	0xbc4e1cad	-0.012580079
20	0xbf5c5652	-0.86069214
21	0xbefaebf2	-0.49008137
22	0x3eae492e	0.34040207
23	0x3f031b16	0.51213205
24	0x3f3b93c8	0.7327237
25	0x3ee7dc1c	0.45285118
26	0x3e9fa9d2	0.3118425
27	0x3f3c61d2	0.7358676
28	0x3f7d5d3f	0.9897041
29	0x3f34a918	0.70570517
30	0xbe46af69	-0.19402851
31	0x3f068925	0.52553016
32	0x3e59bc82	0.21263316
33	0x3ec0ff20	0.37694645
34	0x3e523970	0.20529723
35	0x3e88a7ed	0.26690617
36	0xbf285d08	-0.65766954
37	0x3ea21179	0.31653956
38	0x3dab240c	0.08356485
39	0x3ce395b3	0.027781343
40	0x3f012c97	0.50458664
41	0x3e7967dd	0.24356027
42	0x3f0b81f4	0.5449517
43	0x3e88494d	0.26618424
44	0x3f4942a6	0.7861732
45	0xbe976e76	-0.29576463
46	0xbf12c69c	-0.57334304
47	0x3f032c02	0.51239026
48	0x3e7b4b07	0.2454034
49	0xbf62e74b	-0.88634175
50	0x3f815cec	1.0106483
51	0xbe6f93ea	-0.23396268
52	0x3f349c1d	0.7055071
53	0x3f112df1	0.56710726
54	0xbee1aaab	-0.44075522
55	0x3f2c06f6	0.6719812
56	0x3f5db747	0.86607784
57	0x3edcd757	0.4313304
58	0x3f1fb301	0.62382513
59	0xbea5a320	-0.32351017
60	0xbedb88ef	-0.4287791
61	0xbea63b17	-0.32466957
62	0x3f1364e5	0.5757583
63	0xbf6fd441	-0.9368325
64	0xbe951162	-0.29114825
65	0x3f595678	0.84897566
66	0x3f341b53	0.70354193
67	0x3f1138ad	0.56727105
68	0xbf57be96	-0.84275186
69	0x3e01ccd9	0.126758
70	0x3e116226	0.14197597
71	0x3cc7f147	0.024407042
72	0x3f112e7e	0.56711566
73	0xbf287c00	-0.6581421
74	0xbf19c45f	-0.60065264
75	0xbf0c5bf5	-0.54827815
76	0x3f146af6	0.5797571
77	0xbf0ee64b	-0.5582015
78	0x3f401994	0.7503903
79	0xbf44507c	-0.7668531
80	0xbf48c485	-0.78424865
81	0x3f14c0ab	0.5810649
82	0x3f115679	0.5677257
83	0xbe28713d	-0.16449447
84	0xbe9bb34e	-0.30410236
85	0xbdab1eef	-0.083555095
86	0xbf52cd00	-0.82344055
87	0x3ea6bdbe	0.32566637
88	0xbecc75f0	-0.3993373
89	0xbd14d01b	-0.036331277
90	0x3e79decb	0.24401395
91	0xbdd39c45	-0.103325404
92	0xbef27ced	-0.47360936
93	0x3eab8c30	0.33505392
94	0xbe167592	-0.14693287
95	0xbf2dec0e	-0.67938316
96	0x3f0b3e25	0.543917
97	0x3f210b38	0.62907743
98	0xbd380d18	-0.044934362
99	0x3e8cbe0f	0.27488753
100	0xbf1782c3	-0.591839
101	0x3ef7d943	0.48407945
102	0x3f06da62	0.52676976
103	0x3f316999	0.69301754
104	0xbf8d890c	-1.1057448
105	0xbe512a08	-0.2042619
106	0x3ed32ab7	0.41243526
107	0xbe64e8f3	-0.22354488
108	0xbebd215c	-0.36939514
109	0x3f1cdadb	0.61271447
110	0x3e27c6a6	0.16384372
111	0x3f0674ca	0.52521956
112	0xbe082d74	-0.13298589
113	0x3f3831fa	0.7195126
114	0x3ef4a921	0.47785285
115	0xbe735742	-0.23763755
116	0x3f169bb4	0.58831334
117	0xbe9941f2	-0.29933125
118	0x3ec1a4b9	0.37820986
119	0xbe928020	-0.28613377
120	0x3d01335d	0.031543124
121	0xbf5b8a74	-0.8575814
122	0xbebf5bd4	-0.37374747
123	0x3f0e96e1	0.5569897
124	0x3f1d9b61	0.61565214
125	0xbeb33638	-0.35002303
126	0x3f2a2882	0.6646806
127	0xbea36812	-0.31915337
128	0x3f417074	0.75562215
129	0xbedd1a4a	-0.4318412
130	0x3f9ce67b	1.2257837
131	0xbd3acefd	-0.045607556
132	0xbf2f0e2a	-0.6838099
133	0x3f144838	0.579227
134	0x3e2dc2da	0.16968861
135	0x3e839a0e	0.25703472
136	0x3f07dfb8	0.5307574
137	0xbe36f547	-0.17867003
138	0xbec13a38	-0.3773973
139	0xbf06971c	-0.52574325
140	0xbf117fd4	-0.56835675
141	0xbf3ca96c	-0.7369602
142	0xbecd793c	-0.40131557
143	0xbe8dda3e	-0.27705568
144	0x3ea96b28	0.33089566
145	0x3e18844d	0.14894219
146	0x3ef9e610	0.48808336
147	0x3f32ef77	0.69896644
148	0x3edef0ba	0.43543035
149	0x3ef2d171	0.47425416
150	0xbed2d56b	-0.4117845
151	0x3ed292de	0.41127676
152	0x3d96f081	0.07370091
153	0x3f22c41c	0.6358049
154	0x3f513190	0.8171625
155	0x3f64a2ae	0.8931073
156	0xbf01a6b1	-0.50644976
157	0x3e11d32f	0.14240716
158	0x3e541814	0.2071231
159	0x3f0387d1	0.51379114
160	0xbefa778b	-0.4891933
161	0xbe60618f	-0.21912216
162	0xbc5debb3	-0.013544965
163	0x3ef4f246	0.4784109
164	0xb97fe4e1	-0.00024403959
165	0xbf1519fc	-0.58242774
166	0x3f1c260b	0.6099555
167	0xbf1f2562	-0.62166417
168	0xbe37a289	-0.17933096
169	0xbe28e10d	-0.164921
170	0x3f55e06a	0.83545554
171	0x3f201687	0.62534374
172	0x3f2ae848	0.66760683
173	0xbdd02a7b	-0.101643525
174	0xbd9e2234	-0.077213675
175	0xbe4f2e4a	-0.20232502
176	0x3ebb5e0f	0.365952
177	0xbece66af	-0.40312716
178	0xbc9cb439	-0.019128906
179	0x3f0926ae	0.53574646
180	0x3eb3910a	0.35071594
181	0xbf6ecb20	-0.93278694
182	0xbf044474	-0.5166695
183	0x3f829c70	1.0203991
184	0xbdae0205	-0.08496479
185	0x3e8e1a82	0.277546
186	0x3e489bda	0.19590703
187	0x3ee481ab	0.4463018
188	0xbf3cbe98	-0.73728323
189	0x3f617d8f	0.8808221
190	0x3e997d83	0.2997857
191	0x3eb1983e	0.34686464
192	0x3f0d6c56	0.5524343
193	0xbf2f3dda	-0.68453753
194	0x3efb781f	0.49115083
195	0xbe8a4dab	-0.2701238
196	0xbd2fe0d4	-0.042939022
197	0x3f23fc4a	0.6405684
198	0xbed1ac27	-0.40951654
199	0x3f304bf9	0.68865925

fc2.weight f4 [100, 200]
0	0xbeee0fca	-0.4649642
1	0x3f24aeec	0.6432941
2	0xbe306328	-0.17225325
3	0x3f1c612f	0.6108579
4	0x3ed18c68	0.40927434
5	0xbfc74e51	-1.5570775
6	0xbefe58a4	-0.49677002
7	0x3efa8c9c	0.489354
8	0x3f099299	0.53739315
9	0xbe5160a0	-0.20447016
10	0xbed67266	-0.41884154
11	0x3e1cc528	0.15309584
12	0xbf19c49b	-0.6006562
13	0xbe4477fb	-0.19186394
14	0x3d2c55e6	0.042074107
15	0xbe228697	-0.15871654
16	0x3d80a184	0.06280807
17	0xbe0aadb0	-0.13542819
18	0x3e8d168c	0.27556264
19	0xbe82d8ec	-0.25556123
20	0xc021061a	-2.5159974
21	0x3f1a8012	0.6035167
22	0x3ea043ef	0.3130183
23	0x3ebdc804	0.37066662
24	0xbe888fef	-0.26672313
25	0x3e86a030	0.26294088
26	0x3ea5b386	0.32363528
27	0x3deee9cd	0.11665688
28	0xbf36a931	-0.71351916
29	0x3df6c1cc	0.120486826
30	0x3ef5a26d	0.47975484
31	0x3d89796d	0.06712613
32	0xbf23a3a2	-0.6392156
33	0x3d340d01	0.043957714
34	0x3e778d6e	0.24175045
35	0xbf856ef7	-1.0424489
36	0x3dc2860e	0.09498225
37	0xbf0e8f13	-0.55687064
38	0x3ede1074	0.43371928
39	0x3f0805d0	0.5313387
40	0xbea0e70c	-0.31426275
41	0x3ed94949	0.42438725
42	0x3ea1a396	0.3157012
43	0x3eb06c36	0.34457558
44	0x3dbde166	0.09271507
45	0x3f805407	1.0025643
46	0x3e10cb2b	0.14140002
47	0xbecc8c94	-0.39951003
48	0x3df4e5ad	0.1195787
49	0x3f312fe1	0.6921368
50	0xbe528bbd	-0.20561118
51	0xbf3bef2d	-0.7341183
52	0xbdd4a00f	-0.10382091
53	0x3ab1b364	0.0013557491
54	0x3ed6c558	0.41947436
55	0xbeb6c89c	-0.35699928
56	0x3e07add1	0.132499
57	0xbd93a20b	-0.072086416
58	0xbee33763	-0.44378194
59	0xbf85f9d4	-1.0466866
60	0xbdf3c00c	-0.119018644
61	0x3ed025de	0.4065389
62	0xbea9087e	-0.33014292
63	0x3d953fad	0.07287536
64	0xbed9479b	-0.42437443
65	0x3d801147	0.062532954
66	0xbe13659e	-0.14394233
67	0xbf1747f1	-0.5909415
68	0x3ed74261	0.4204283
69	0xbf69f79d	-0.9139345
70	0x3e8c904c	0.2745384
71	0x3ee79e06	0.4523775
72	0xbed1c458	-0.4097011
73	0x3dabe775	0.08393756
74	0x3ea831c5	0.3285047
75	0x3f3b2a56	0.73111475
76	0xbe8f61a6	-0.28004187
77	0x3f43cb08	0.76481676
78	0xbe88972a	-0.2667783
79	0xbd8efdb5	-0.069819845
80	0x3fbeda1d	1.4910313
81	0xbd151fd8	-0.03640732
82	0xbedae3f8	-0.4275205
83	0x3f1c9839	0.61169773
84	0x3efbcf99	0.49181822
85	0xbe35be8f	-0.17748474
86	0x3f764174	0.96193624
87	0xbe153295	-0.14570077
88	0x3d0ab4e6	0.033863924
89	0x3e96dec0	0.2946682
90	0x3e7e9601	0.2486191
91	0x3e86ea22	0.26350504
92	0x3ecc80ba	0.3994196
93	0x3e67180e	0.2256777
94	0x3f35a47d	0.70954114
95	0x3ef9e1d9	0.4880512
96	0x3ede43dc	0.43411148
97	0x3e1aa043	0.15100197
98	0x3e1438f3	0.1447485
99	0xbeee1e15	-0.46507326
100	0x3f2d2617	0.67636245
101	0x3e46b76e	0.1940591
102	0x3ee851b1	0.45374826
103	0xbdac4e9d	-0.08413432
104	0xbcb4b89e	-0.022060689
105	0x3ea723b3	0.32644424
106	0xba3e44be	-0.0007258168
107	0x3e469b5b	0.19395201
108	0x3de802ac	0.113286346
109	0xbe4a5c10	-0.19761682
110	0xbf352e40	-0.70773697
111	0x3c670732	0.014100837
112	0x3f1dae1e	0.61593807
113	0x3db0e57d	0.086375214
114	0x3ee0a5ef	0.43876597
115	0x3e659f61	0.2242408
116	0x3de73e1b	0.112911426
117	0xbf08e052	-0.53467286
118	0x3e349722	0.17635778
119	0x3eb7bdc2	0.3588696
120	0xbdd7d15d	-0.1053798
121	0x3d3944fb	0.0452318
122	0x3eedc1eb	0.4643701
123	0xbfb4e11c	-1.4131198
124	0x3eaa1da0	0.33225727
125	0xbd44e267	-0.048067477
126	0xbf687e7e	-0.9081801
127	0x3da4b709	0.08042724
128	0x3e0f3e9a	0.13988724
129	0xbe86aee0	-0.26305294
130	0x3d777469	0.06041375
131	0x3f057f7d	0.52147657
132	0x3eb22ab1	0.34798196
133	0xbd6d5d3e	-0.05795025
134	0x3e88c27d	0.26710883
135	0x3e21d80a	0.15805069
136	0x3e92516f	0.28577754
137	0x3f05d7c3	0.5228235
138	0x3ee3eec1	0.44518092
139	0x3ecdcca0	0.4019518
140	0x3fa887ca	1.316644
141	0xbf79a0f8	-0.97511244
142	0x3ee6580e	0.44989055
143	0x3e8d9ab2	0.27657086
144	0xbf69746f	-0.9119329
145	0x3e709969	0.23496021
146	0x3e9753a4	0.29556
147	0xbd6c8b49	-0.05775002
148	0x3e863bb1	0.26217416
149	0x3db67ec8	0.089109
150	0xbe9f92f2	-0.31166798
151	0xbe9ab27e	-0.30214304
152	0x3e8b1c08	0.27169824
153	0xbec86615	-0.39140382
154	0xbd007833	-0.03136463
155	0x3d689b50	0.056788743
156	0xbeca0d53	-0.3946329
157	0x3f41276b	0.7545077
158	0xbe33638e	-0.17518446
159	0xbebb0a2f	-0.36531207
160	0x3f36cb2f	0.71403784
161	0x3efe0206	0.4961092
162	0x3ed16bc5	0.40902534
163	0xbd195670	-0.03743595
164	0x3f2f4c3b	0.68475693
165	0x3f915aa4	1.1355786
166	0x3e8e0921	0.2774134
167	0xbe6f5862	-0.23373559
168	0xbf72a770	-0.9478674
169	0x3e37c1be	0.17945
170	0x3c99a975	0.018757561
171	0xbd643472	-0.05571408
172	0x3ef73b25	0.4828731
173	0xbe7363f2	-0.23768595
174	0x3d345352	0.044024773
175	0x3e95b2f2	0.29238087
176	0xbe29b072	-0.16571215
177	0x3ee3a455	0.44461313
178	0x3dcb24c1	0.099191196
179	0x3e8cf6cc	0.2753204
180	0x3ee27987	0.44233343
181	0xbf1dcea8	-0.6164346
182	0x3f3d90ee	0.7404927
183	0x3db0b5bc	0.08628413
184	0xbd9d5053	-0.07681336
185	0x3f0f05af	0.5586805
186	0x3f1cf5ba	0.6131245
187	0xbdf7897c	-0.1208677
188	0xbec13122	-0.37732798
189	0x3b8958ba	0.0041914852
190	0x3ea03ca9	0.3129628
191	0x3e46d66f	0.19417737
192	0x3ddade1f	0.106868975
193	0x3c7a9561	0.015294404
194	0x3ea3e840	0.3201313
195	0x40127af3	2.2887542
196	0x3ed5068e	0.41606563
197	0xbedd677a	-0.4324301
198	0x3ec97bb2	0.39352185
199	0xbebd60da	-0.36987954
200	0x3ea60ee4	0.32433236
201	0x3f10c5af	0.5655164
202	0xbd7788e3	-0.06043328
203	0x3edfa8b1	0.4368339
204	0x3ef3ad84	0.4759332
205	0xbfb90869	-1.4455692
206	0xbedc77bd	-0.43060103
207	0x3ee6afbd	0.45055953
208	0x3f10ca1b	0.5655839
209	0xbe58be22	-0.2116628
210	0xbea79e5a	-0.32738
211	0x3ec568ca	0.3855651
212	0xbeb8c1a0	-0.36085224
213	0xbe4f5d14	-0.2025035
214	0x3ceb87fd	0.028751368
215	0xbe864e39	-0.26231554
216	0x3e9cbf91	0.30614904
217	0xbe74daed	-0.23911639
218	0x3e244988	0.16043675
219	0x3e3b1bc7	0.18272315
220	0xc018befc	-2.3866568
221	0x3ea44af1	0.32088426
222	0x3e03e3ef	0.12879919
223	0x3e5a4300	0.21314621
224	0xbd88f31c	-0.066869944
225	0x3eda7100	0.42664337
226	0x3f487fe3	0.7832014
227	0x3d866021	0.06561304
228	0xbf8c384e	-1.0954683
229	0x3d746814	0.05966957
230	0x3eb7f377	0.35927936
231	0xbd35e49e	-0.04440748
232	0xbf46948a	-0.775704
233	0x3c9ce7df	0.019153534
234	0xbd93bbf4	-0.072135836
235	0xbfa15db3	-1.260672
236	0x3e3e0ef7	0.18560396
237	0xbf2c21ce	-0.6723908
238	0x3ee00d24	0.43760026
239	0x3ea38ae5	0.31941906
240	0xbed87820	-0.42279148
241	0x3e875016	0.26428288
242	0x3e6de8ed	0.23233385
243	0x3effe9d9	0.499831
244	0x3c85b57a	0.016321886
245	0x3fa0b0d7	1.2553967
246	0x3ee0ce13	0.43907222
247	0xbe9eda97	-0.31026146
248	0x3e9e852d	0.3096098
249	0x3f5b26b2	0.8560592
250	0xbea2276e	-0.31670707
251	0xbf4048e1	-0.75111204
252	0xbea28393	-0.31741008
253	0xbbb934e9	-0.0056520593
254	0x3eb1fbc5	0.34762397
255	0xbef2c147	-0.47413084

fc2.bias f4 [100]
0	0x3da04a53	0.07826676
1	0x3ccfee5a	0.02538221
2	0x3df081bb	0.11743494
3	0xbd44347a	-0.047901608
4	0xbe338d22	-0.17534307
5	0xbd9eb3ad	-0.07749114
6	0xbe91491d	-0.28376094
7	0x3d5a26bf	0.053259607
8	0x3ed0f07e	0.4080848
9	0x3f30695e	0.6891078
10	0x3ee4ed4d	0.44712296
11	0x3f1219d5	0.57070667
12	0xbe694c42	-0.22782996
13	0xbe1f8eea	-0.15581861
14	0x3efb31ab	0.4906133
15	0x3effc4ce	0.49954838
16	0x3dc52e86	0.09628014
17	0x3f330110	0.69923496
18	0x3d0b3d82	0.033994205
19	0x3e72f8b5	0.23727687
20	0x3bbd5c7a	0.0057788463
21	0x3d1ca247	0.038240697
22	0xbc300532	-0.010743426
23	0xbddb8cad	-0.10720191
24	0x3f0d58e8	0.55213785
25	0xbc1bd991	-0.009512321
26	0xbdeaec0c	-0.114708036
27	0xbd160a9e	-0.03663122
28	0x3c3cd3a7	0.011525071
29	0xbda031ef	-0.07822024
30	0xbd7fa1f7	-0.06241032
31	0x3dfc9f9c	0.123351306
32	0x3d9590e3	0.073030256
33	0xbc0ba02d	-0.008522076
34	0x3dbc2b5a	0.09187956
35	0x3a50b23c	0.00079611293
36	0x3e03e671	0.12880875
37	0x3f2279e8	0.63467264
38	0x3d5df5bd	0.054189432
39	0xbd77b3f2	-0.060474344
40	0xbda0e27f	-0.07855701
41	0xbd5a049d	-0.053227056
42	0x3e897602	0.26847845
43	0xbd0cfe98	-0.034422487
44	0xbc5ed047	-0.013599462
45	0x3f06fa78	0.52725935
46	0x3c538a67	0.012911416
47	0x3d80fea1	0.062985666
48	0xbca2f5ab	-0.019892534
49	0x3cb81208	0.022469535
50	0x3cd1ea39	0.025624381
51	0x3ca25b12	0.019818816
52	0x3d7f00a0	0.062256455
53	0x3f0874fe	0.53303516
54	0xbd992207	-0.07477193
55	0x3d6a5c7b	0.057217102
56	0x3e5cfbbf	0.21580409
57	0x3d918657	0.071057014
58	0xbcd75670	-0.026286334
59	0xbbab7b88	-0.005233232
60	0x3c7dea3c	0.01549774
61	0x3e9f7b67	0.31148836
62	0x3d1c428d	0.038149405
63	0x3e301569	0.17195667
64	0xbd53bf92	-0.051696368
65	0x3f04931a	0.5178696
66	0xbd9a40d1	-0.07531894
67	0x3e318e10	0.17339349
68	0x3f35878e	0.70909965
69	0xbd8d0a86	-0.06886773
70	0x3e2decfd	0.16984935
71	0xbdfecc1a	-0.12441273
72	0x3e952f40	0.2913761
73	0x3d33f245	0.043932218
74	0xbd856364	-0.06513098
75	0xbded2176	-0.11578648
76	0x3dd9c384	0.10632995
77	0xbcb04eea	-0.021522004
78	0x3ea9b506	0.33145922
79	0xbcda0ee0	-0.026618421
80	0xbbc23920	-0.00592722
81	0xbc213be8	-0.009840943
82	0xbca64e03	-0.02030087
83	0xbe089450	-0.13337827
84	0x3f2b0031	0.6679717
85	0xbdaf2771	-0.08552445
86	0x3e942562	0.2893477
87	0xbebbb0ec	-0.36658418
88	0x3ee3fe63	0.4453002
89	0xbd927310	-0.07150853
90	0x3e05dd33	0.13072662
91	0x3e725075	0.23663504
92	0xbedbedde	-0.42954916
93	0xbe48161a	-0.19539681
94	0xbdcd3596	-0.10019986
95	0x3da4846d	0.08033071
96	0x3c00483b	0.007829721
97	0xbd1ce255	-0.038301785
98	0x3f1909cc	0.59780574
99	0xbe45698d	-0.19278546

fc3.weight f4 [4, 100]
0	0xbfa09b80	-1.2547455
1	0xbf2697c5	-0.6507533
2	0x3e77222a	0.24134126
3	0xbd53160c	-0.051534697
4	0x3e345e4c	0.17614096
5	0xbfdf1179	-1.7427207
6	0x3fa0f390	1.2574329
7	0xbf751895	-0.95740634
8	0x3e1b125f	0.15143727
9	0x3f9d7f65	1.2304503
10	0xbedc3f77	-0.4301717
11	0x3fd2c32b	1.646581
12	0x3f9fd380	1.248642
13	0xbe60405d	-0.21899553
14	0xbf071399	-0.5276428
15	0xbe786cf7	-0.24260317
16	0x3fa2f22a	1.2730153
17	0x3fbecb78	1.4905844
18	0xbf6b8f6d	-0.92015725
19	0xbf1d6d86	-0.61495245
20	0x40057688	2.0853596
21	0xbf8f61ff	-1.1201781
22	0xbfa1115b	-1.2583421
23	0xbfa70f0b	-1.3051466
24	0xbef20653	-0.4727045
25	0x3d240783	0.040046226
26	0x3f89141c	1.0709262
27	0xbfb19566	-1.3873718
28	0x3f1fe8d9	0.6246467
29	0xbfaeebf4	-1.3665757
30	0x3ce0cdb1	0.027441831
31	0xbef32b27	-0.4749386
32	0x3d5a7724	0.053336278
33	0x3facec10	1.350954
34	0xbfee1250	-1.8599339
35	0xbf47056e	-0.7774266
36	0xbf64912b	-0.8928401
37	0x3fc198bc	1.5124736
38	0xbfb5e168	-1.4209414
39	0xbf147f0c	-0.5800636
40	0xbd63e89d	-0.05564176
41	0xbf1ec4fd	-0.6201933
42	0x3ff2d259	1.8970443
43	0xbe3fcbfc	-0.18730158
44	0x3f542f7e	0.8288497
45	0x3fb9e49b	1.452289
46	0x3ced7e53	0.0289909
47	0xbf4524f0	-0.7700949
48	0xbf8a75bb	-1.0817178
49	0xbf813229	-1.0093433
50	0x3d3dd3ca	0.046344556
51	0xbfb202a6	-1.3907058
52	0xbf83daee	-1.0301187
53	0xbf0dd82e	-0.5540799
54	0xbb9c4948	-0.004769478
55	0xbf9fd2bf	-1.248619
56	0xbfa0e1bb	-1.2568887
57	0xbf902eec	-1.126432
58	0x3c5efb13	0.013609665
59	0x3d4955a3	0.049153935
60	0x3d520055	0.051269848
61	0x403cf6a6	2.9525542
62	0xbff5a924	-1.9192243
63	0xbf55d86a	-0.83533347
64	0x3d10e09a	0.035370447
65	0xbee0626b	-0.43825087
66	0xbfcb1ed6	-1.5868785
67	0xbf19588f	-0.59900755
68	0xbfadd978	-1.3581991
69	0xbc170600	-0.009217739
70	0x3f359f94	0.7094662
71	0xbcc071c3	-0.023491746
72	0xc02d6a38	-2.709608
73	0xbf9ea38c	-1.239366
74	0xbf4df93f	-0.80458444
75	0xbde30876	-0.11085598
76	0x3f6f59f2	0.9349662
77	0xbf8e39c1	-1.1111375
78	0x3fe040fe	1.7519834
79	0x3c3cf419	0.011532807
80	0xbf8a6688	-1.081254
81	0xbf3937df	-0.7235088
82	0xbfb70154	-1.429728
83	0xbf80e400	-1.006958
84	0x3fb03f65	1.3769346
85	0xbfc935a1	-1.5719491
86	0xbf433a4c	-0.7626083
87	0x3f778f04	0.967026
88	0xbf903f98	-1.1269407
89	0x3d6c3bd7	0.057674255
90	0xbfcdb874	-1.6071916
91	0xbf32125c	-0.69559264
92	0x3fdae032	1.7099669
93	0x3fc0adbe	1.5053022
94	0xbe8ca6a0	-0.27470875
95	0xbf91a90f	-1.1379718
96	0x3d618d70	0.055066526
97	0xbfb570cb	-1.4175047
98	0xbf100817	-0.56262344
99	0x3faa9c4c	1.3328948
100	0xbf73bd10	-0.9521036
101	0xbf877a7e	-1.0584257
102	0x3fc2ccd2	1.5218756
103	0xbca6d959	-0.020367311
104	0xbe74555f	-0.23860691
105	0xbf81eff2	-1.015135
106	0x3f895819	1.073001
107	0xbf76f688	-0.96469927
108	0x3f929e95	1.1454645
109	0x3f8c41ec	1.0957618
110	0xbed4cd0e	-0.41562694
111	0x3f85af7a	1.0444176
112	0x3fa59355	1.2935587
113	0xbf5a37fd	-0.8524168
114	0xbf04ca0e	-0.5187081
115	0xbf3e4137	-0.7431826
116	0x3fb7f58b	1.4371809
117	0x3f9022f6	1.1260669
118	0xbf9f623d	-1.2451855
119	0xbfd7e1a2	-1.6865733
120	0x3fe66038	1.7998114
121	0xbfe759f3	-1.8074325
122	0xbfb332a6	-1.3999832
123	0xbfe83197	-1.8140134
124	0xbef0434d	-0.46926346
125	0x3b0747d2	0.0020642173
126	0x3f0b146a	0.54328024
127	0xbecf4b8b	-0.40487322
128	0x3f1f8616	0.62313974
129	0xbe8a8025	-0.27050892
130	0x3d8a6dcb	0.067592226
131	0xbfcee115	-1.616244
132	0x3eaa88a7	0.33307382
133	0x3fc5a7d2	1.544184
134	0xbf66e27b	-0.9018933
135	0xbf3757b6	-0.7161821
136	0xbe46de4c	-0.19420737
137	0x3fb6d383	1.4283298
138	0xbfacf744	-1.351296
139	0xbf92186a	-1.14137
140	0xbbfe1820	-0.007754341
141	0xbd54e7ab	-0.05197875
142	0x3fe6c73a	1.8029549
143	0xbf2fdf24	-0.6869986
144	0x3beef716	0.0072926385
145	0x4000a944	2.0103312
146	0x3d6c02d6	0.057619892
147	0xbf679629	-0.904635
148	0xbf9b6a61	-1.2141839
149	0xbf9ca81d	-1.2238804
150	0x3af272ed	0.0018497385
151	0xbfa80931	-1.3127805
152	0xbfac9d3f	-1.3485488
153	0xbe96bbab	-0.29440054
154	0xbdcaf712	-0.09910406
155	0xbfc1c4bc	-1.5138164
156	0xbeabb313	-0.3353506
157	0xc0074201	-2.1134036
158	0x3d68aa8b	0.056803267
159	0xbddabf98	-0.10681075
160	0x3d8ba237	0.068180494
161	0x403001bc	2.7501059
162	0xbf39c6e4	-0.7256911
163	0xbfd81248	-1.6880579
164	0x3d2145c7	0.039373185
165	0xbea611ea	-0.32435542
166	0xbee20c0f	-0.44149825
167	0xbe911584	-0.28336728
168	0xbf9c1723	-1.2194561
169	0xbd588ebd	-0.0528705
170	0x3f6a58c0	0.9154167
171	0xbf13b92c	-0.57704425
172	0xc00fb951	-2.2456858
173	0xbfa1d729	-1.2643787
174	0xbf5f7488	-0.8728719
175	0xbe720fd0	-0.23638844
176	0x3f6e4a8c	0.930825
177	0xbf4212df	-0.75810045
178	0x3ff65875	1.9245745
179	0x3d6e8f23	0.058241975
180	0xbf71182b	-0.941775
181	0xbe0a87e8	-0.13528407
182	0xbeccb911	-0.39984944
183	0xbf8b8a2d	-1.0901543
184	0x3fc137d3	1.5095161
185	0xbf94e251	-1.1631566
186	0xbfbb262e	-1.4621027
187	0x3f53d336	0.8274416
188	0xbf8200a8	-1.015645
189	0x3da4571c	0.08024427
190	0xbf1568ce	-0.58363044
191	0xbe478ded	-0.19487734
192	0x3fd2036c	1.6407294
193	0x3fc6408f	1.5488452
194	0xbf6d2142	-0.9262887
195	0xbfe26bf4	-1.7689195
196	0x3bfdcb51	0.0077451845
197	0xbfba937b	-1.4576257
198	0xbeefe2e8	-0.46852803
199	0x3f91911f	1.1372412
200	0xbf9306a0	-1.1486397
201	0xbf4bf171	-0.79665285
202	0x3fb6332b	1.4234365
203	0xbd4ca8d7	-0.049965706
204	0xbfd2c52a	-1.646642
205	0xbfa2493b	-1.2678598
206	0x3fc16c1e	1.511112
207	0xbf867f14	-1.0507531
208	0xbf25ef00	-0.6481781
209	0x3fbc7037	1.4721745
210	0xbec707a3	-0.38873014
211	0x3fcfa9fb	1.6223749
212	0x3fb6cb3a	1.428077
213	0xc0078b9a	-2.1178956
214	0xbec03475	-0.37540022
215	0xbf974b33	-1.1819824
216	0x3fb3b129	1.403844
217	0x3fdeb078	1.7397604
218	0xbfa844e1	-1.314602
219	0xbf0ac464	-0.5420592
220	0x3ffe9ebb	1.9892191
221	0x3ee329d2	0.44367844
222	0xbfd850c9	-1.6899654
223	0xbeb10dee	-0.3458094
224	0xbeb190db	-0.34680828
225	0x3d91801c	0.07104513
226	0x3fc698e3	1.5515407
227	0xbfc27837	-1.5192937
228	0x3f857ee5	1.042935
229	0xc021c120	-2.5274124
230	0xbb6a1c61	-0.0035722482
231	0xbf856489	-1.0421306
232	0xbfaad294	-1.3345513
233	0x3fabbbe8	1.341672
234	0xbe83e780	-0.25762558
235	0xbffcc760	-1.9748344
236	0xbf9a0d55	-1.2035319
237	0x3fbd8c73	1.4808487
238	0xbf661b13	-0.8988506
239	0xbfba0ca5	-1.4535109
240	0x3da82277	0.08209699
241	0xbfcfce0d	-1.6234757
242	0x3fe9969f	1.8249091
243	0xbfe596e6	-1.7936676
244	0x3f7c0286	0.9844135
245	0x3fd272c3	1.6441272
246	0x3a4d0b3d	0.0007821804
247	0xbf68fae9	-0.9100786
248	0xbfecabe6	-1.8489959
249	0xbfcb758b	-1.5895246
250	0x3b9ac7ec	0.0047235396
251	0xbea3aa21	-0.31965736
252	0x3c087787	0.008329279
253	0xbec448ed	-0.38336888
254	0xbda87933	-0.08226242
255	0xbf8cc149	-1.0996486

fc3.bias f4 [4]
0	0xbe927aa6	-0.28609198
1	0xbd8e2d18	-0.06942195
2	0xbe1f4839	-0.15554895
3	0xbe516ec1	-0.20452406
