models/model_run_5.pth (torch, 145925 bytes, 6 tensors)

fc1.weight f4 [256, 8]
000000 4f 3a b0 3e fb 48 c6 3d 8e c2 22 3d 46 de 53 be
       0.34419486 0.09681889 0.039736323 -0.2069026
000010 65 71 c6 bd db 6f 6a 3f 9f d6 14 3e 0a 1c 92 3e
       -0.09689597 0.9157693 0.14534996 0.28537017
000020 1f 2f ce 3c f2 2e 6c 3e 28 59 ad 3e f3 b0 8d 3e
       0.025168953 0.23064783 0.33857083 0.27674064
000030 0a b4 9e be e5 c7 30 bf 64 7c 8d be fe ac 1e bf
       -0.30996734 -0.69055015 -0.27633965 -0.61982715
000040 73 82 84 bf 9f e1 e1 3e 96 80 40 be 81 cd d4 3e
       -1.035231 0.44117448 -0.18799052 0.41563037
000050 43 c9 3e 3e 6a ee a8 bd 29 12 85 3d 54 c0 5a 3d
       0.18631463 -0.08248599 0.064976044 0.053406075
000060 5f 04 fc bd 2b 8d 80 3e 76 99 a8 bd c1 f1 d5 3e
       -0.12305521 0.25107703 -0.08232395 0.41786006
000070 2c 92 de 3e 3b 62 01 3f 84 3f bb be e0 50 2c be
       0.43470895 0.5054051 -0.36571896 -0.16827726
000080 b8 a6 e8 bd 8f 5e 2e 3e 6a 02 d6 3d 87 9c 69 bf
       -0.11359924 0.17028259 0.10449679 -0.91254467
000090 82 48 58 bc d5 95 bf bc 0b 06 8c bd 99 96 a0 3d
       -0.013200881 -0.023386875 -0.0683709 0.07841224
0000a0 62 f6 29 be d4 06 ce 3d d3 2d 31 3c 95 21 85 3e
       -0.16597894 0.10059896 0.010814148 0.26002184
0000b0 cc 25 b4 3f 33 54 35 3e f1 ab ff bc 17 a5 e3 bf
       1.4074035 0.177079 -0.031209918 -1.7784756
0000c0 2a 27 54 3e a4 77 2e 3e 0c 86 a3 be bf d1 c1 3e
       0.20718065 0.17037827 -0.31938207 0.37855336
0000d0 5c 1d 8e 3d d9 6f c7 3e d3 db e5 3e 1b 30 b8 be
       0.069391936 0.3895252 0.44894275 -0.35974202
0000e0 40 63 70 3d c8 30 dd bf 1c 4a 54 3e f4 d6 ed bd
       0.058688402 -1.7280512 0.20731395 -0.11613265
0000f0 ed ba 9a be 3f 3b fb be b7 fe 1a 3f 02 17 5f 3d
       -0.30220738 -0.4906864 0.60544914 0.0544653
000100 8f a5 89 be f9 ce 84 bf 27 4b c2 3e 66 e8 dc be
       -0.26884124 -1.0375663 0.37947962 -0.43146056
000110 99 2f de 3e a5 f7 0e be 68 52 91 3d 5a 97 65 be
       0.4339569 -0.13961656 0.07095796 -0.22421017
000120 e8 46 ea bd e8 38 7a 3e e3 3a 21 be d9 fd 16 3f
       -0.114393055 0.2443577 -0.1574512 0.5898109
000130 8a d7 15 3f 82 45 4a 3f 17 68 b6 be 6d a1 aa bd
       0.5853201 0.7901231 -0.3562629 -0.08331571
000140 60 7c 53 3e 81 1c c1 3d e5 d8 73 3e bc ef ac 3e
       0.20652914 0.09429265 0.23813207 0.33776653
000150 d0 da 78 3e 0a 4c 0b bf ea 7a 0b bf 83 58 26 3e
       0.2430222 -0.544129 -0.54484427 0.16244702
000160 26 78 b4 3e a5 c6 82 3e e0 f0 0f 3f bd a2 85 3e
       0.35247916 0.2554218 0.5622692 0.26100722
000170 8d 73 31 bf 04 4e 87 be d8 75 8a 3e 0d c0 d9 3e
       -0.6931694 -0.2642671 0.27043033 0.42529336
000180 3f 6a 99 bd 26 8d cb be ed 74 80 bf 04 a5 5a 3f
       -0.07490968 -0.39756125 -1.0035683 0.85408044
000190 c3 bb 89 be 17 ee c9 be 36 1a 85 be 64 84 69 bf
       -0.26901063 -0.3943946 -0.2599656 -0.9121764
0001a0 9c 22 3f 3e bb 32 57 3e 6d d2 94 3e 28 31 93 be
       0.18665546 0.21015446 0.29066792 -0.2874844
0001b0 a5 02 9f be d2 8f 71 be c2 13 1b bf d4 49 e3 3c
       -0.31056705 -0.2359002 -0.60577023 0.027745165
0001c0 94 03 d3 bd 46 17 c5 3e 7f fe c3 3e e2 52 42 bd
       -0.10303417 0.3849432 0.38280103 -0.047442324
0001d0 ae 3a 01 3f c4 8e 4c 3f 90 45 37 3f 8f df 81 be
       0.50480163 0.79905343 0.7159052 -0.25365874
0001e0 0d 49 65 3e 34 c4 94 be c2 56 9b 3e ff 11 ae be
       0.22391148 -0.2905594 0.30339628 -0.33998105
0001f0 f0 8f 16 bf 1b aa 3d be 37 20 49 3e 98 ec 97 3e
       -0.5881338 -0.18521921 0.19641195 0.29672694
000200 73 31 4c bd f9 53 43 bf 93 79 7d 3f 4d 1e a5 3e
       -0.049851846 -0.7630001 0.9901363 0.3224968
000210 a7 86 f5 3e 8e bc 96 3d a2 a8 20 3e 25 da 03 3f
       0.47954294 0.07360183 0.15689328 0.5150474
000220 cf 13 0d be a4 5b c9 3e 56 1e 29 be 48 56 ec 3d
       -0.13777088 0.3932773 -0.16515478 0.11539894
000230 b3 9d 84 3e 5e 3f 9a 3e 26 b1 86 3d 7b 78 00 3f
       0.25901565 0.3012647 0.06576757 0.5018384
000240 db 91 66 bf 5b bb 28 3f d7 ed 3f 3f 22 33 84 be
       -0.9006631 0.6591088 0.7497229 -0.2582026
000250 10 a9 06 bf f5 31 b3 3d af 70 28 3e d7 34 81 be
       -0.5260172 0.08749763 0.16449235 -0.25235626
000260 99 a5 10 bc 82 b9 ad be 1d d5 87 be 1e b1 7f 3e
       -0.008828544 -0.33930594 -0.2652978 0.24969909
000270 f3 a3 e6 3e 63 c5 cf 3e 18 8e cc 3e e6 74 85 be
       0.45046958 0.40580282 0.3995216 -0.2606575
000280 43 52 bd bd ad c7 8d 3e 6a 48 9e be 84 9c e7 3e
       -0.09244206 0.27691403 -0.30914623 0.452366
000290 c6 3c 20 3e c4 35 6c 3e 3d 3b fd 3e 7f 39 60 3d
       0.15648183 0.23067385 0.49459258 0.054742333
0002a0 05 ff 11 be ed 65 99 3e 3e 22 fa bd 49 75 a7 3e
       -0.14257438 0.29960576 -0.122135624 0.3270667
0002b0 87 9f 76 3f ab b9 f5 3e 87 a8 0c bf 95 d3 2b bf
       0.9633717 0.47993216 -0.5494465 -0.67119724
0002c0 89 ca 76 be f5 29 d9 3e ba de 7e 3e 0f 11 0b 3d
       -0.24100699 0.42414823 0.24889651 0.033951815
0002d0 95 07 d7 bd 3b 63 b9 bd cb d8 c6 3e 06 b3 68 3c
       -0.10499493 -0.0905213 0.38837275 0.014202839
0002e0 d6 09 94 3e d0 08 ee bd 3e 27 bc 3d cf 66 21 be
       0.28913754 -0.116227746 0.09187172 -0.15761875
0002f0 0c fd 81 3c 15 3d 00 be d7 56 4b bf af d7 2f be
       0.015867732 -0.12523301 -0.7942938 -0.1717212
000300 ac d4 4f bd f9 4a c7 3e b8 84 b6 bc 0b 50 4a 3e
       -0.05073993 0.38924387 -0.022280082 0.19757096
000310 02 de 41 3f e1 a0 31 3f 28 3c 76 be 8b 45 0d 3f
       0.7572938 0.69386107 -0.24046385 0.5518424
000320 1d db 36 bf 28 d3 a9 ba 91 26 9c be 0d 2d e6 bd
       -0.7142809 -0.0012956606 -0.30498174 -0.112390615
000330 7a 04 a4 be e3 85 c4 bd 62 e4 b8 3e 66 e7 40 3d
       -0.32034665 -0.09595849 0.36111742 0.04709568
000340 09 d2 88 bc dc f8 00 3e 76 c6 88 be e2 06 39 be
       -0.016701715 0.12594932 -0.26713914 -0.18069032
000350 4f 28 81 bd dd 90 45 3b ad 73 25 3d 6d db 49 be
       -0.063065164 0.003014616 0.04039352 -0.1971261
000360 7d 8d c5 bc 70 46 13 3e 95 ba 0e 3e d0 53 b0 3e
       -0.024115318 0.14382339 0.13938363 0.34438944
000370 be fe fe be 3f 3a 6a bf 17 00 00 3e 10 ba d2 be
       -0.49803728 -0.91495126 0.12500034 -0.4115758
000380 fc 85 c2 be da 3f ed bd d4 e0 31 bf db 19 c2 be
       -0.37992847 -0.11584444 -0.69483685 -0.3791035
000390 65 db a1 bd 17 43 ed 3e 94 86 7f 3e 86 96 cd 3e
       -0.07903174 0.46340248 0.24953681 0.40153903
0003a0 cc c1 1d bf 56 38 6c 3e 31 84 86 be 7f 1d 49 bf
       -0.61623836 0.23068365 -0.2627273 -0.7856063
0003b0 46 65 34 3e 63 2e a4 3d be 7b 18 be dd 68 87 be
       0.17616758 0.0801666 -0.14890954 -0.26447192
0003c0 2a 11 1a bf 08 17 df be fd 0c ba be b4 66 72 be
       -0.6018244 -0.4357226 -0.36338034 -0.2367199
0003d0 34 76 ee 3e 77 c8 8b be db 5b 06 3f d3 b3 68 bd
       0.46574557 -0.2730138 0.5248391 -0.05681212
0003e0 ef 5b e7 bd 0c 0f 4c 3e 01 92 c4 3e a9 62 ab be
       -0.11296832 0.19927615 0.38392642 -0.3347371
0003f0 a5 45 ba be c0 7f f6 3e df 82 81 be 94 9c 06 bf
       -0.3638126 0.4814434 -0.2529516 -0.5258267

fc1.bias f4 [256]
000000 3d c1 e6 3e 3c 2f ac 3d 45 76 a2 3d ea ef 42 3e
       0.45069304 0.08407447 0.079327144 0.19036832
000010 b0 ab 4b be dd f5 f7 bd 3d 65 66 3e fa 84 15 3e
       -0.19889712 -0.121074416 0.22499557 0.14601508
000020 66 ef 8c 3e 31 8c b0 3e 74 6a 1b bf 07 7a 9d 3d
       0.27526397 0.34481958 -0.6070931 0.076892905
000030 e7 4f 14 3e 78 ab 06 3b 5b 3c 2b 3e 1c 5c c9 bd
       0.14483605 0.002054898 0.16722243 -0.098320216
000040 a2 ac 5d 3e 24 a5 48 be c4 f8 b0 3d a6 0a bf 3e
       0.21647885 -0.19594246 0.08641198 0.37312812
000050 06 1d 0b 3f a6 dd 3c 3d 9c 1e 50 3f ba d5 03 3f
       0.5434116 0.046109818 0.81296706 0.51497996
000060 c0 3e 5a 3e 90 50 be bc 68 c9 1b 3f 10 04 8b 3e
       0.21313 -0.023231775 0.60854197 0.27151537
000070 bf fc f3 be a0 1a a7 bc ed e4 d9 3d f7 6e 1e 3e
       -0.47653767 -0.020398438 0.10639367 0.15472017
000080 44 77 cd 3e 5e e1 cb bd 69 6a 22 be ec 28 c7 3e
       0.40130055 -0.09955095 -0.15860905 0.38898408
000090 24 ed d3 be b8 ae 00 3f 53 4b 23 3d 00 32 83 3e
       -0.4139186 0.502666 0.039866757 0.25624084
0000a0 ae 23 7f 3e b5 21 d9 3c b1 5c 9e 3e 18 55 c9 bc
       0.24915954 0.02650533 0.30930093 -0.024576709
0000b0 10 c5 9f 3e 37 ef ba be 2e b5 66 be d3 9f ac be
       0.31205034 -0.3651063 -0.22530052 -0.33715686
0000c0 22 51 ef be 77 74 8e bc 7a db 7e be 13 9e da 3d
       -0.46741587 -0.01738952 -0.24888411 0.106746815
0000d0 a0 43 f9 3c ab 76 8b 3e d0 0a 0b bc 9a 24 fe 3e
       0.030427754 0.27238974 -0.008486465 0.496373
0000e0 e8 ab 2c 3f e1 7a 4d bd 60 a7 1d bf b1 2e 9f 3e
       0.6744981 -0.050166015 -0.6158352 0.3109031
0000f0 89 07 67 bd f3 2f 11 be 30 83 59 3f a6 e6 b8 be
       -0.05640367 -0.14178447 0.849658 -0.3611347
000100 4b 74 aa 3e 90 1f 94 3e a9 f5 b8 3c d7 1e df be
       0.3329185 0.2893033 0.022578077 -0.43578216
000110 3f d9 35 bd a8 b2 0e be d6 63 df be 74 12 b7 be
       -0.044396635 -0.1393534 -0.43630856 -0.35756266
000120 a4 f5 83 3e 93 16 23 3e a8 a6 50 3e f0 7c 80 be
       0.25773346 0.1592658 0.20376074 -0.2509532
000130 b3 26 cc 3e d0 75 85 be 02 17 c2 3d f2 c3 bb be
       0.39873275 -0.26066446 0.09477045 -0.36672932
000140 5f 9c 78 3e 5f ee 02 3f f6 17 46 be 85 38 aa 3e
       0.24278401 0.51144975 -0.19345078 0.33246246
000150 c5 02 af be 5a bf b2 be d3 4e 17 bf 41 2a ed 3b
       -0.341818 -0.34911615 -0.5910465 0.007237703
000160 4b 7d 45 3e ee 48 b6 bd 1a ff 2a ba a1 14 8b 3e
       0.19286077 -0.08900629 -0.00065229984 0.27164176
000170 8d db 02 3e 8d a9 87 be d2 6e a3 3e ef 18 c3 be
       0.12779064 -0.26496544 0.31920487 -0.3810496
000180 a3 04 f3 be 79 b8 05 3f ae b6 9f be b2 d6 ad 3e
       -0.47464475 0.5223461 -0.3119406 0.33952862
000190 f7 7e b6 bd 60 dc 4c be ce 0e ab be ac cf 83 3e
       -0.08910935 -0.20005941 -0.33409733 0.2574438
0001a0 8d 37 91 be e9 54 86 bd 72 3b 96 3e 97 23 b4 3e
       -0.28362694 -0.06559164 0.29342228 0.35183403
0001b0 4b dc 1e bd 97 93 ee be c0 49 72 3e 8d e1 87 be
       -0.038784306 -0.46596977 0.23660946 -0.2653927
0001c0 22 ab b5 3d 51 42 f0 3d de 88 b7 3e a2 97 2a 3e
       0.088705316 0.11731399 0.3584661 0.16659406
0001d0 d9 d2 85 be 72 56 a2 3c e7 8b 37 3f 30 26 84 3e
       -0.26137426 0.019816611 0.7169785 0.25810385
0001e0 d3 2a 70 bd f1 3c bb 3e 5d f0 8d be 3a a0 b0 bb
       -0.05863459 0.36569932 -0.27722445 -0.0053901942
0001f0 ff 0e 98 be f0 2a a2 3e b3 41 c5 3e 90 22 d1 3e
       -0.2969894 0.31673384 0.38526687 0.40846682
000200 72 d9 4d 3f 2d 94 ba bd c5 cc 0b bf 94 f7 ee 3d
       0.8040992 -0.091102935 -0.5460933 0.116683155
000210 51 ad b0 be 6a c6 2c be 0f e1 14 3f 7f 68 e6 3e
       -0.3450723 -0.16872564 0.5815591 0.450016
000220 c4 48 03 bc 48 3a 2f 3e 0c f4 01 3f aa 9c 83 bc
       -0.008012954 0.17112076 0.5076301 -0.016065914
000230 ad 42 15 3e ce 88 36 3f ed 78 27 3d 3b 3b e8 bd
       0.14576216 0.713025 0.04088681 -0.11339422
000240 ec 30 45 3f 7f 40 7c bd 32 5b d2 3e ef 80 35 be
       0.77027774 -0.061584946 0.41085202 -0.17724966
000250 82 d7 e3 3e 7b 91 34 be 1c f0 58 bd b0 dd f0 be
       0.44500357 -0.17633621 -0.05296336 -0.47044134
000260 38 05 79 3e b2 7c 13 3f bd 0b 14 3f 65 e3 4d 3e
       0.24318397 0.57612145 0.5783041 0.20106275
000270 40 21 de 3e e1 53 b0 3e c4 a2 61 3e b1 55 11 bc
       0.43384743 0.34438995 0.22034746 -0.008870528
000280 0d 8b 22 bf 4a 68 cf 3e 06 63 05 bd 8a ac 87 bd
       -0.63493425 0.40509254 -0.03256514 -0.06624706
000290 72 b6 b1 be 60 ed 78 3d 0b 10 9c 3d 22 41 b6 3e
       -0.34709507 0.060773253 0.076202475 0.35596567
0002a0 92 e0 ea be 2a 3b 5c 3f be d6 26 3f 82 9c 58 be
       -0.4587446 0.8602778 0.6517142 -0.21153453
0002b0 ef ce 25 3e 78 c0 b5 be d5 ed 91 3e bb 87 03 be
       0.1619222 -0.35498405 0.28501764 -0.12844746
0002c0 15 5f 84 3c 96 fc 26 3e 55 11 a0 3e 46 d4 3a 3e
       0.01615862 0.16307291 0.31263223 0.18245038
0002d0 58 af 9f be 26 f2 a5 3e 37 bc 1b be 27 2e ca 3c
       -0.31188464 0.32411307 -0.15208517 0.02468021
0002e0 fc 53 4d be a6 d8 9e bd 7e 7a a3 bd 5a ca a4 be
       -0.20051569 -0.07756166 -0.07982348 -0.32185632
0002f0 9e 3e 1b 3e 50 94 ca 3e 40 df ae be fa 7f 03 3f
       0.15160605 0.39566278 -0.341547 0.5136715
000300 1c e9 a5 3e 01 46 91 be c1 18 14 bf a3 fb bc 3e
       0.3240441 -0.2837372 -0.5785027 0.36910734
000310 86 fe cd 3e 9a 0a 2e 3e 35 c1 7c 3e d1 43 13 3f
       0.40233248 0.16996232 0.24683078 0.57525355
000320 98 2b 54 3d 4f 29 07 be 40 db 4d bd f3 3f 8d be
       0.051799387 -0.13199352 -0.05025792 -0.27587852
000330 cf 7c 86 3e fd 58 47 be 05 77 05 be 45 d0 9b be
       0.26267096 -0.1946754 -0.13033684 -0.30432335
000340 5f 24 3a 3f 2a 06 31 3e d1 88 b4 be 2d 98 ed be
       0.7271175 0.17287508 -0.35260633 -0.46405163
000350 1a 50 94 bd 2b 18 9a 3e 8d 55 5d bd 81 29 95 3e
       -0.07241841 0.30096564 -0.054036666 0.29133227
000360 5f a5 69 3f a7 b6 1f 3f ce 8b 86 be 02 36 5c be
       0.9126796 0.6238808 -0.26278538 -0.21504977
000370 9f f9 c9 3e 85 87 bd 3d 99 f5 67 3e 7d 4b e2 3d
       0.39448258 0.09254364 0.22652282 0.110495545
000380 c5 a6 9d bc 9d a4 21 3f 44 a2 13 3f e9 3d 21 3c
       -0.019244561 0.63141805 0.5766947 0.009841421
000390 3f 00 8f 3e 5d 99 54 3e cc ef 78 be 36 8a d5 3e
       0.27929875 0.20761628 -0.24310225 0.4170701
0003a0 71 75 5a bb da ef 0c bf 45 f9 14 3d 54 14 1f 3f
       -0.003333416 -0.55053484 0.036370534 0.62140393
0003b0 fe 5c 2d 3a 65 29 22 3f 7a 94 0f 3f 0d 12 34 3d
       0.0006613283 0.63344413 0.5608593 0.043962527
0003c0 a1 1a 1a 3e cf 01 0d 3e a4 c7 9b be a3 57 0b 3f
       0.1504922 0.13770221 -0.3042575 0.544306
0003d0 6c 2d 4d 3f e5 75 2c be 9b 8b b5 be 7d c7 98 3e
       0.80147433 -0.16841848 -0.35458073 0.29839697
0003e0 fe 29 7c be cd 48 06 3e e1 8e 12 3e 34 00 8c be
       -0.24625394 0.13113709 0.14312316 -0.27343905
0003f0 c4 d3 db 3e 38 dd 9f bd fc f3 b5 be 81 bf 0f 3e
       0.42935002 -0.07805866 -0.35537708 0.14037897

fc2.weight f4 [128, 256]
000000 23 fa e1 bd 3b 7e 14 3d 3f 66 b0 3e 92 d7 95 bd
       -0.11034038 0.036253195 0.34453008 -0.073165074
000010 14 5e 05 3e bf a0 ad bf 65 d6 16 3e a1 46 e1 bd
       0.13024169 -1.3564681 0.14730223 -0.109997995
000020 77 74 ef bd 09 01 31 3e 75 16 6f bf 1d 54 b5 3c
       -0.11692136 0.17285551 -0.9339364 0.022134835
000030 95 ec 2a bf ab 10 8d 3c f4 24 66 3d 4c d8 9b bd
       -0.66767246 0.017219862 0.056187585 -0.07609615
000040 81 62 88 be 79 38 70 3d 75 fa 5f 3d aa 8c 24 3e
       -0.26637653 0.058647607 0.054682214 0.16069284
000050 a2 3d 66 3d ca 83 1b 3e b9 5c c1 3d 44 ee 54 bd
       0.05621112 0.15186992 0.094415136 -0.05198504
000060 23 6e 53 be 6b 11 e7 3d 19 9e 6c 3d 83 eb 2c 3e
       -0.20647483 0.11282619 0.05776796 0.16886716
000070 a7 cb 9b be 66 51 b8 3d 28 0a 4a bd f9 46 eb bd
       -0.30428812 0.089999005 -0.049326092 -0.11488146
000080 cb 4f 63 3f e4 8b 27 3e d7 7f 35 3e 3f e6 6b bd
       0.8879363 0.16361958 0.17724548 -0.057592627
000090 a8 8a 87 3e 51 37 5f bf cc 3e b3 3e c1 a1 e0 3d
       0.26472974 -0.8719378 0.35008848 0.10968352
0000a0 35 86 e2 be eb 6a ad bd 2e 3f 7d 3d 7c 67 77 3d
       -0.44243017 -0.084676586 0.06182783 0.060401425
0000b0 f0 e2 5a bc 80 49 28 3e 03 67 b4 be 3a 1a a4 3e
       -0.01335977 0.16434288 -0.35234842 0.3205126
0000c0 b4 01 bf 3d b3 5f 37 bd 34 61 25 3e ac 17 a7 be
       0.09326497 -0.044769 0.16150361 -0.32635248
0000d0 6f e0 3d 3e 8c a8 e9 3d d0 5a 97 3e c4 81 dc bd
       0.18542646 0.11409101 0.29561472 -0.10766938
0000e0 4a a0 83 3c e9 f3 29 bf 47 4b ff 3d 3c f4 61 3b
       0.016067643 -0.663878 0.1246553 0.003447785
0000f0 05 6d 86 be 12 a5 c9 be e5 54 d8 3d 52 57 46 3e
       -0.2625505 -0.3938375 0.10563067 0.19369248
000100 08 1a 93 bd 73 c1 aa 3d c6 0e 04 bf 19 d5 3e bf
       -0.071826994 0.08337679 -0.5158504 -0.7454391
000110 14 d7 42 3c 83 44 77 3d cb ba c7 be 94 fb a7 bd
       0.011892099 0.060368072 -0.390097 -0.082022816
000120 e3 e1 71 3e b6 e1 ed 3c 27 e8 43 be c2 4c 52 3e
       0.23621325 0.029038291 -0.19131528 0.20537093
000130 df 08 33 3e 7c 88 29 3e 98 e3 29 3e 2e 86 ef 3d
       0.17483853 0.16555971 0.16590726 0.116955146
000140 ed 9f 4f be f0 86 bf bd 72 f7 47 bd 0a 9a f1 bd
       -0.2027585 -0.09351909 -0.048819967 -0.11796959
000150 c8 99 22 3e bd f3 35 3d c1 7f da 3e 08 f8 6a 3d
       0.15878975 0.0444219 0.42675593 0.057365447
000160 c7 3e 9a 3e 8e f1 4b 3c 9d 5c c7 3d e9 a4 24 3f
       0.3012602 0.012447728 0.097344615 0.6431413
000170 12 5a dd 3d 70 27 69 3e 41 67 ba 3e 68 eb 6a 3e
       0.10808195 0.2276895 0.364069 0.22941363
000180 e1 47 18 bf 5b 05 64 3e 6a c3 e2 3d 33 e0 4a 3e
       -0.5948468 0.22267668 0.110724285 0.19812088
000190 48 13 a5 3e 74 f2 ba bd a3 b8 f1 3d f2 87 0b 3c
       0.32241273 -0.091282755 0.11802795 0.008516299
0001a0 47 2c b0 3e e7 5b 2a 3e 0a 46 69 bb 4f 19 a3 3d
       0.3440878 0.1663662 -0.0035594725 0.079638116
0001b0 84 b6 1b bf 80 c7 4a 3e ae bc f7 3d dc dc 1e 3f
       -0.6082537 0.19802666 0.12096535 0.62055755
0001c0 97 40 d0 bd 43 d3 21 3c 8a 8f 18 3e 2c 0a 41 3e
       -0.101685695 0.009877029 0.14898506 0.18851537
0001d0 37 64 52 3e cf c2 a4 3c e6 6e 8d 3d 08 ca b6 3d
       0.20546041 0.020112423 0.06905918 0.08925253
0001e0 d8 33 e6 be d6 88 0f 3e cd c9 c0 bd 6e 99 7b bf
       -0.4496143 0.14017043 -0.094134904 -0.9828099
0001f0 d4 7a 2f 3e a3 1f e8 bd 11 4e 4c 3e 56 30 68 3d
       0.17136699 -0.11334159 0.19951655 0.05668672
000200 ad 8b 5c 3d a1 4b 0d 3e 43 19 a0 3e be ab bb 3c
       0.053844143 0.13798381 0.31269273 0.022909041
000210 85 62 0b 3e f4 61 a6 3e 7f 94 32 3e 60 c6 08 3e
       0.13611801 0.32496607 0.1743946 0.13356924
000220 cd ae 48 3e 4c 13 1d 3e c1 ab 47 be 73 32 08 bc
       0.19597931 0.15339392 -0.19499113 -0.008312809
000230 65 76 52 3e 83 da 4f bc 3e f3 dd be fc ae 38 3e
       0.20552976 -0.012686375 -0.43349642 0.18035501
000240 c7 27 04 3d ce d1 94 be 2c 42 b0 3e ce cb 87 bd
       0.032264497 -0.29066318 0.34425485 -0.066306695
000250 e6 a1 28 bc 12 94 29 3d a5 48 84 bd 45 89 1b 3f
       -0.010292506 0.041400976 -0.06459168 0.6075633
000260 45 fd df bd 4a f9 ab 3e 8f 97 a1 bd 86 11 ff 3c
       -0.10936979 0.3358863 -0.07890236 0.031136286
000270 d1 a7 dd 3d 3c 65 8f 3e fc 24 2f 3e 90 5c 32 3c
       0.10823024 0.28006923 0.17103952 0.010886326
000280 e3 79 f5 bb 8a 95 46 3e 35 ae ff be e7 85 0c 3e
       -0.0074913367 0.19392982 -0.49937597 0.13722955
000290 24 7b 1f bd 30 c9 a5 3d a3 6c 21 3e 5b 44 3a 3e
       -0.038935795 0.08095014 0.15764098 0.18190138
0002a0 8f a8 48 3f fa c0 47 3e 98 67 d0 3c 49 8b 0b 3e
       0.783822 0.19507208 0.025440022 0.13627352
0002b0 4f 2b f4 3c 65 13 84 3d 55 74 90 bd aa 45 e8 3d
       0.029805807 0.06449012 -0.070534386 0.11341412
0002c0 f6 3b 29 bf 21 2e b1 3e 7c af d9 3d d8 c0 83 bd
       -0.6610712 0.34605506 0.10629174 -0.064332664
0002d0 1c fd 8c 3e 5d f0 59 bc 4d 91 ba 3e 36 f6 2d 3e
       0.27536857 -0.013301936 0.3643898 0.16988453
0002e0 fc 84 25 bc e6 2e fa 3c 23 26 25 3e 0e 9d 98 bd
       -0.010102507 0.030539941 0.16127829 -0.07451831
0002f0 9d 88 1f bf ae cf 48 bc e6 de c5 bd 46 68 ee bd
       -0.6231783 -0.012256546 -0.09661655 -0.11640982
000300 89 d2 1d be fd 90 55 3e d4 a9 1e 3f 03 05 84 bb
       -0.15412344 0.2085609 0.6197789 -0.0040289178
000310 0a 09 56 bd 17 fe 02 3e b7 a2 fa bd f9 82 43 bd
       -0.052254714 0.1279224 -0.12238067 -0.047732327
000320 4c d1 b7 be 09 d5 8f bc 3e 02 6c bc cc 1c 12 3d
       -0.35901868 -0.017557638 -0.014404831 0.035671994
000330 d2 94 a0 3d 2f 16 84 bd ae a2 71 bf 9f da 06 3e
       0.07840885 -0.06449544 -0.94388855 0.13169335
000340 42 e1 0b bc 1b 9d 9f 3d 67 9f d1 3d 73 5e d6 3d
       -0.008537592 0.07793637 0.10235482 0.104672335
000350 99 47 96 3d da d1 e4 3d 5a ae 07 3e 0a 8c bc 3e
       0.07337875 0.111728385 0.13250104 0.3682559
000360 17 60 c0 3d 27 86 02 3d 30 20 db 3d 58 42 38 bf
       0.09393328 0.03186622 0.10699499 -0.7197623
000370 be 23 90 bd 1f fd 9f 3c ac 6a e1 3d c0 0f c9 3e
       -0.07038067 0.019529877 0.11006674 0.3926983
000380 09 3e ec 3d 28 25 09 3e 38 a1 52 3d 9a a9 9d 3e
       0.1153527 0.1339308 0.05142328 0.30793458
000390 9a 23 ab 3d 27 c9 19 3e 9e 49 35 3e 90 e7 df 3e
       0.083564 0.1501814 0.17703864 0.43731356
0003a0 5d 61 2e bf be a1 d6 3e fd 4d c3 be bc 10 08 3e
       -0.68117315 0.41920274 -0.38145438 0.13287634
0003b0 50 04 cc 3e 47 7b dc 3c 6d 58 d2 3c fa 31 07 3d
       0.3984704 0.026914252 0.02567693 0.033006646
0003c0 ab 61 c4 3d 6f a7 aa 3e cf 17 1e 3e 9d c1 a3 bc
       0.09588941 0.33330867 0.1543877 -0.019989783
0003d0 b8 84 85 3d 07 b4 0e 3d 54 ee e6 3c de 79 81 be
       0.06519455 0.034839656 0.028189816 -0.2528829
0003e0 77 38 5c 3e 31 3b 05 bd 98 b1 bf 3e 4b 30 c8 3e
       0.21505915 -0.032527152 0.3744018 0.39099345
0003f0 44 9a 42 3e 7b 55 7d be 85 c7 3c 3d 4b 79 42 be
       0.1900416 -0.2473964 0.046088714 -0.18991582

fc2.bias f4 [128]
000000 c6 12 10 3e ef 35 af 3d 84 af 23 3d 3a 2a ed 3e
       0.14069661 0.08555209 0.039962307 0.4632128
000010 53 24 c8 3c 06 6f e2 3c f5 ba 3e 3e 3c 05 ea 3c
       0.024431383 0.02764083 0.18626006 0.02856695
000020 7b 1a 02 3e 47 01 48 3e b3 8b 73 3b ee 70 b6 3e
       0.12705414 0.19531737 0.0037162125 0.35633034
000030 f8 c9 8f 3d d0 c0 1e 3e 82 52 2e 3c 44 04 49 3c
       0.07020944 0.1550324 0.010639789 0.012269083
000040 69 41 22 3e 5a 69 b8 bd d3 94 19 3e 45 4c c0 3b
       0.15845264 -0.09004469 0.14998178 0.005868467
000050 f0 f8 db 3d 6f ba 30 3c f3 4f 20 3e 7f 5b b1 bd
       0.107408404 0.010786637 0.15655498 -0.086600296
000060 ac 57 35 3e 74 7a 38 3d 1e 17 1a bd 13 bb f3 3d
       0.17709225 0.045038655 -0.037619703 0.11900916
000070 68 3f 16 3e 78 e6 f4 3d 22 f7 00 3e aa 21 9d 3e
       0.14672625 0.11958021 0.12594274 0.30689746
000080 4a 01 9a bd 32 82 55 3e 9a 4c a2 bd cd f9 30 3e
       -0.07519777 0.20850447 -0.07924767 0.17282791
000090 4b c9 a1 3d 05 d6 ff bd cc d3 f6 3e f4 44 06 bd
       0.07899722 -0.12491993 0.48208463 -0.032780603
0000a0 b4 26 1c 3e 8d d9 6e 3e 50 ad 6a 3e 2f 7f 2e 3e
       0.15249139 0.23325177 0.22917676 0.17040704
0000b0 72 67 81 3c 79 dd 1c 3e 71 1f 33 3d 1a 6f 15 3e
       0.015796397 0.1531886 0.043731157 0.14593163
0000c0 42 83 09 3e d2 f6 11 3e a3 44 7f 3d 52 20 14 bc
       0.13428977 0.1425431 0.062321316 -0.009040909
0000d0 c7 e6 8f bb 4d c9 24 3e 36 6a 1f bd 16 43 2f 3d
       -0.0043915245 0.16092415 -0.03891965 0.042788588
0000e0 f2 49 2d 3e 44 79 4e 3c b1 ba e4 3d 80 d8 18 3f
       0.16922739 0.012602154 0.11168421 0.5970535
0000f0 3d e4 78 3c 42 9b 65 bd d1 55 e7 3d 87 2b 71 bb
       0.015191135 -0.05605627 0.11295665 -0.0036799626
000100 74 ac 60 be 5d c6 fe bc 6d 53 30 3e c3 78 6e bd
       -0.21940786 -0.031100446 0.17219324 -0.058220636
000110 7d 0f a2 bd e2 6e f0 3c 7c f7 85 3e 45 82 63 3d
       -0.079131104 0.029349748 0.26165378 0.055544157
000120 33 c4 e4 3d 68 91 f5 3e 31 8e ca 3d 96 33 bd 3e
       0.111702345 0.479625 0.09890402 0.3695342
000130 e9 eb 0d 3e b6 9f 15 3e 5d ab bc 3e 5c 04 02 3e
       0.13859524 0.14611706 0.3684949 0.12696975
000140 fb 09 83 3d 1d 80 08 be cb 0a a9 3c de 2e 60 bd
       0.06398388 -0.13330121 0.02063503 -0.054732196
000150 57 09 19 3d 6c 1b a3 bd cd 7b 34 3d e2 c2 ee 3d
       0.037362423 -0.07964215 0.044063378 0.11658265
000160 c1 41 21 3e 96 dc e1 3e 82 dd 17 bd cf 47 7d 3d
       0.1574774 0.44113606 -0.03707648 0.06183606
000170 9e 49 c6 3c 54 22 f5 3d 1a c3 34 3e 04 91 00 bd
       0.024205025 0.11969438 0.1765255 -0.031388298
000180 98 5b f6 3d cb a4 34 bd 59 8f fa 3d e2 0a c5 3d
       0.12029189 -0.04410247 0.12234373 0.09621216
000190 07 05 1c 3e 1f 61 38 3d 87 f6 46 3e a3 48 1c 3e
       0.15236293 0.045014497 0.1942998 0.15262084
0001a0 23 ac d9 3d e0 3e 95 3e 5b c4 1c 3d 84 37 1f 3e
       0.106285356 0.29149532 0.038273197 0.15548521
0001b0 c3 43 93 3e 80 99 34 3e e3 99 2c be 2e 91 80 3d
       0.28762636 0.1763668 -0.16855578 0.06277691
0001c0 c9 7e ae 3d b7 e5 5b 3d 45 70 8c 3d 98 9e 17 bd
       0.08520276 0.05368587 0.06857351 -0.03701648
0001d0 ae f5 73 bd 96 19 c9 3c 1c 64 5f 3e 7b 12 02 3e
       -0.05956047 0.024548333 0.21815532 0.12702362
0001e0 1a 03 11 3e bd 6d d8 3b e7 fd 92 bc 84 c7 da 3e
       0.1416134 0.0066048787 -0.017943336 0.42730343
0001f0 3b ff 49 3d 49 e2 0d 3f 70 5d a7 3c 3f 49 0d 3f
       0.049315672 0.5542341 0.020430297 0.5518989

fc3.weight f4 [4, 128]
000000 ba ba a0 be 12 4b 64 be 53 87 8e 3d 05 21 80 3f
       -0.3139246 -0.22294262 0.06959405 1.0010077
000010 cf 39 97 3d a4 6c 25 bd 58 5d a2 be b8 03 f6 bc
       0.07384073 -0.04038681 -0.3171184 -0.03003107
000020 7f af 88 bb 74 af d5 be ae 21 e3 bc dc 07 9f 3f
       -0.0041713114 -0.41735423 -0.02772602 1.2424273
000030 7a 4c 82 be 2c 29 c4 be 75 8d 86 3d e6 10 80 3d
       -0.25448972 -0.38312662 0.065699495 0.06253223
000040 22 30 bd be 13 35 11 be 06 af 97 be 29 ef a0 3c
       -0.36950785 -0.14180402 -0.2962572 0.01964529
000050 64 f0 ad be f5 0b 91 bc 11 fa 85 be e8 53 d2 bd
       -0.33972466 -0.017705897 -0.26167348 -0.1026991
000060 43 ad 8e be 0a 22 a3 3d 60 99 b0 3c b7 a9 a2 be
       -0.27866563 0.07965477 0.02155751 -0.31770107
000070 75 08 74 be 05 af 7b be 9e 74 75 be 7e 61 39 3f
       -0.23831351 -0.24578483 -0.23970267 0.72414386
000080 c7 03 9d bc fa ee ac be e1 b8 8b 3d 12 95 b4 be
       -0.01916684 -0.33776075 0.06822372 -0.35269982
000090 ad 08 01 be 5b 03 95 3e 9d 50 9f 3f 29 56 c7 be
       -0.12600966 0.29104123 1.2446476 -0.38932922
0000a0 9e 48 a3 3f 1f 85 a3 3d d4 4b b0 be 08 e3 65 be
       1.2756536 0.07984375 -0.34432852 -0.22449887
0000b0 dc 3e 12 3d 2c e7 99 be 1d 47 c5 be 34 01 ab be
       0.03570448 -0.30059183 -0.38530818 -0.33399355
0000c0 28 0c b9 be f9 2e c2 be ab db 9e be 51 b6 eb be
       -0.36142087 -0.37926462 -0.31026968 -0.46037534
0000d0 76 44 2e 3c a9 18 87 be 61 3a 00 bc 72 a0 ad bd
       0.01063644 -0.26386002 -0.007826419 -0.08477868
0000e0 ad 4a b9 be 94 92 fd bd 56 61 ad be 98 e9 8f 3f
       -0.36189786 -0.12381473 -0.33863324 1.1243162
0000f0 13 e4 1c bd 84 bd 31 3e c7 45 a7 be 2c a1 07 bd
       -0.038303446 0.1735745 -0.32670423 -0.03311269
000100 52 c4 14 be 7b 55 62 3d c4 44 b7 be 7b d2 0a 3d
       -0.14528015 0.0552573 -0.35794652 0.033892136
000110 a9 0e 4c 3d 9b bc 81 3d 1d ae 93 bf 48 95 59 bd
       0.04981867 0.06334802 -1.153751 -0.05312088
000120 60 06 89 be 98 77 9c 3f 0a 5a c1 3e ed 78 2d 3f
       -0.26762676 1.2223997 0.37764007 0.67762643
000130 b3 a9 af be 89 4e 4b 3d 84 b1 22 3f f7 6b ab be
       -0.34309158 0.049635444 0.6355212 -0.33480808
000140 87 c9 88 be 49 a4 45 be 4f cf 10 3e 31 23 bc be
       -0.26716253 -0.19300951 0.14141582 -0.367456
000150 8f 35 9c be d7 75 e6 be 88 1c b3 3c 3b 18 6d be
       -0.30509612 -0.4501178 0.02186419 -0.23153774
000160 64 08 a1 be d1 f3 b2 3f 30 1b 4f bd 9b 90 b8 be
       -0.31451714 1.3980657 -0.050563037 -0.36047825
000170 67 5a 3e bd 42 88 2f be b0 4e b9 be 2a 82 8f bd
       -0.046472933 -0.17141822 -0.36192846 -0.07007249
000180 ad 0e ad be 07 94 75 bc ee 31 9f be 9a 60 b5 be
       -0.3380026 -0.014988906 -0.3109278 -0.35425264
000190 3f 38 98 be e7 61 a3 be 29 ed a0 be 34 14 ad be
       -0.29730412 -0.3191063 -0.3143094 -0.33804476
0001a0 d1 a5 af be 18 70 49 3f b4 31 8c bd 40 a0 9c be
       -0.34306195 0.78686666 -0.068454176 -0.3059101
0001b0 1f 99 1a 3e 71 5d b0 be 09 6d a4 3e f5 af 8b be
       0.15097474 -0.3444629 0.32114437 -0.27282682
0001c0 7b aa 88 be b3 50 8d be fc 9f 3e bf 00 d4 90 3d
       -0.26692566 -0.2760063 -0.74462867 0.07071686
0001d0 f5 fd aa 3d 59 2e a6 be 03 47 94 be 7d c6 65 be
       0.0834922 -0.32457235 -0.28960428 -0.22438999
0001e0 8d 34 4b 3e 69 73 81 3d fa 23 81 be 9a 88 6f 3f
       0.19844265 0.06320841 -0.2522276 0.9356781
0001f0 52 fc 13 bf b6 66 5f be 85 03 ce 3c 24 85 98 3f
       -0.57806885 -0.21816525 0.025148163 1.1915631
000200 ff 0f 73 be 24 95 f0 be 9d c9 a8 3c ed 7e 4d 3f
       -0.23736571 -0.46988785 0.02060395 0.802718
000210 ab 64 14 3d 4b b8 93 3d 79 51 58 be e4 b7 95 3d
       0.036228817 0.072128855 -0.2112483 0.07310465
000220 60 3a 07 3e 65 13 e1 be af 9b 88 3d 65 d7 a2 3f
       0.13205862 -0.4396011 0.06670319 1.2721983
000230 b2 a9 82 be 68 d9 ab be 9f 93 0b 3c 89 30 df 3b
       -0.25520092 -0.33564305 0.008519082 0.0068112058
000240 bc 24 81 be 72 f6 f3 be 1e 07 d3 be bd 4b af 3e
       -0.2522334 -0.4764896 -0.41216367 0.3423747
000250 4d ad 7a be ae 26 4e 3d 11 9f f4 be ae e5 24 3d
       -0.24480172 0.050329857 -0.47777608 0.040258102
000260 48 ea a7 be f3 8b 8e 3d 35 c2 9b 3d 87 2e 5e be
       -0.3279593 0.06960287 0.076054014 -0.21697436
000270 44 44 ce be 75 90 ae be 1c 54 93 be 41 7d 67 3f
       -0.40286458 -0.34094587 -0.28775108 0.904255
000280 8b a1 95 3c 23 df 86 be e3 6a c9 3c ab 43 bb be
       0.018265506 -0.26342115 0.0245871 -0.36575064
000290 d4 17 ad be 53 da 6b 3f 79 11 9e 3f 4d ae a6 be
       -0.33807242 0.9213001 1.2349082 -0.32554856
0002a0 9f f1 cf 3f a9 a5 b7 3e 69 ac 09 bf 0e da af be
       1.6245612 0.35868576 -0.537787 -0.3434605
0002b0 bb ba a5 bb 0f 8b c3 be 92 43 8d 3d 51 08 c5 be
       -0.0050576604 -0.3819203 0.06897654 -0.38482907
0002c0 f3 c2 66 be 64 f9 b2 be 54 35 82 be 66 0d 02 3e
       -0.22535305 -0.34955895 -0.2543131 0.12700424
0002d0 1f df 62 3d 41 09 ed be 60 cc af 3c c3 ba 09 3d
       0.055388566 -0.46296123 0.021459758 0.033625375
0002e0 2a 10 c6 be 9e 67 e6 3d fd 8d 80 be 73 13 9d 3f
       -0.38684207 0.11250232 -0.25108328 1.227156
0002f0 8b a2 7e bd 96 d2 00 3e a5 5f 9a be 62 5b ce 3c
       -0.06216673 0.12580332 -0.30151096 0.02519006
000300 d8 1a cc 3e 27 2f a6 3c 82 f3 d0 be 76 64 2b 3d
       0.3986423 0.020286156 -0.40810782 0.041843854
000310 7c fd a3 3d 80 44 db 3c 0b 49 87 bf 91 cb 71 bc
       0.08007333 0.026766062 -1.0569166 -0.014758007
000320 13 74 ca be e6 62 82 3f 6d e8 32 3e 79 81 4e 3f
       -0.39541683 1.0186431 0.17471476 0.8066631
000330 c3 28 58 be 77 dd f4 bd 4d 49 5d 3f b1 3a 69 be
       -0.211093 -0.119563036 0.86439973 -0.22776295
000340 27 56 8b be 06 c6 d1 be 3f 1e 1c 3e 96 f4 c5 be
       -0.27214167 -0.40971392 0.15245913 -0.38663167
000350 2a 0b 8f be 4f 28 1a bf b6 6a 01 3d 0e c8 c5 be
       -0.27938205 -0.60217756 0.031595908 -0.38629192
000360 73 05 89 be 4a f8 a4 3f a8 55 ad bd cb 97 5c be
       -0.2676197 1.2888272 -0.08463603 -0.2154228
000370 f9 cf 6a bc 56 2c 90 be 9e ed 0b bf 11 06 54 3d
       -0.014331811 -0.28158826 -0.5465945 0.051763598
000380 20 64 8c be e1 9d 22 3c e2 fc 92 be 8c 4b 5f be
       -0.2742014 0.009925337 -0.2870856 -0.21806163
000390 a4 b7 ca be e8 b2 ef be 89 d8 bf be 4f 03 b0 be
       -0.39593232 -0.46816182 -0.3746989 -0.34377524
0003a0 28 de 6c be e7 ad 90 3e 3c a9 91 3c 69 18 e6 be
       -0.23131621 0.28257677 0.017780893 -0.44940498
0003b0 e8 c7 59 3e ac 2c 92 be 29 3b 02 3f 42 14 97 be
       0.21267664 -0.28549707 0.5087152 -0.29507643
0003c0 50 f6 76 be b2 36 88 be 82 fa 82 bf 32 89 8b 3d
       -0.24117398 -0.2660423 -1.0232699 0.06813277
0003d0 0d 33 86 3e ac 72 00 bf 5f a4 56 be 67 aa a2 be
       0.26210824 -0.50174975 -0.2096114 -0.31770632
0003e0 bb 8f 5d 3d d9 2b 02 bd 26 5e 02 bf 09 10 6d 3f
       0.05409215 -0.031780098 -0.5092491 0.9260259
0003f0 ec dc 47 bf 73 d5 a6 3e 80 9c 29 bc e6 6a af 3f
       -0.78071475 0.32584724 -0.010352254 1.3704498

fc3.bias f4 [4]
000000 3c e0 99 bd 7e f8 b8 bd ea 05 9c 3d 46 0e 37 bd
       -0.075134724 -0.09031771 0.076183155 -0.044691347
