models/model_run_12.pth (torch, 145937 bytes, 6 tensors)

fc1.weight f4 [256, 8]
0	0xbd1302f7	-0.0358915
1	0x3e094200	0.13404083
2	0x3ea467e2	0.32110506
3	0xbf293fb1	-0.6611281
4	0x3d57611a	0.052582838
5	0x3ce2d394	0.027688779
6	0x3ec6548b	0.38736376
7	0xbeb6b370	-0.35683775
8	0x3e183a5a	0.1486601
9	0x3e6ef707	0.23336421
10	0xbe879bfb	-0.2648619
11	0xbfa2a539	-1.2706672
12	0x3efc9039	0.49328783
13	0x3dc14e88	0.09438807
14	0x3e232cca	0.15935054
15	0xbd8b2af2	-0.067953005
16	0xbf460823	-0.77356166
17	0x3eef78c2	0.46771818
18	0x3d0fe333	0.035128783
19	0xbf8368d4	-1.0266366
20	0x3c425360	0.011860698
21	0x3e34ea11	0.17667414
22	0x3e58bd95	0.2116607
23	0xbe87465c	-0.26420867
24	0xbe1a4a27	-0.1506735
25	0x3ee46f78	0.44616294
26	0x3ed12c06	0.408539
27	0x3e10a6ac	0.1412608
28	0x3e686ee4	0.22698551
29	0xbe57d0b2	-0.21075705
30	0xbda93a35	-0.08263055
31	0xbdfa4916	-0.12220971
32	0xbe09ad8c	-0.13445109
33	0xbe2216bf	-0.1582899
34	0xbe25eae0	-0.16202879
35	0x3eca90bc	0.3956355
36	0xc009db9e	-2.1540294
37	0x3e99e96e	0.30060905
38	0x3f4a6ef1	0.79075533
39	0xbe5cc5bf	-0.21559809
40	0x3e6a4b73	0.22880344
41	0x3f064c15	0.5245984
42	0x3e67be9d	0.22631307
43	0x3ef980ad	0.48730984
44	0xbf0c4604	-0.54794335
45	0x3db31102	0.08743478
46	0x3c5a4741	0.013322652
47	0xbe6f4a83	-0.23368268
48	0xbd843693	-0.06455722
49	0x3e26ce84	0.16289717
50	0xbf243ba9	-0.64153534
51	0xbeb77519	-0.35831526
52	0xbdc14845	-0.094376124
53	0xbf03ad84	-0.5143664
54	0xbe849345	-0.25893608
55	0xbf187b65	-0.59563285
56	0xbe72f73f	-0.2372713
57	0xbe6ec68f	-0.23317932
58	0xbea50560	-0.32230663
59	0xbe3cbc00	-0.18431091
60	0x3ea9bdb7	0.33152553
61	0x3e344a88	0.17606556
62	0x3e0f9f0b	0.14025514
63	0xbe0f8ad6	-0.14017805
64	0xbed945d5	-0.4243609
65	0xbd38ff02	-0.04516507
66	0xbfa2158c	-1.2662826
67	0xbd5e43d5	-0.05426391
68	0x3da66569	0.08124811
69	0x3ed58e4a	0.4171012
70	0x3d6ab964	0.05730571
71	0xbef63618	-0.48088145
72	0xbe8be36b	-0.27321944
73	0xbd84c81c	-0.0648348
74	0xbeb97cab	-0.36227927
75	0xbe8eed9b	-0.27915654
76	0x3ea1bdb2	0.3159004
77	0x3ec906ee	0.392631
78	0x3efad0ff	0.48987576
79	0xbd72e38c	-0.059299037
80	0x3f960482	1.1720126
81	0x3e80fb7d	0.2519187
82	0x3f9deaa8	1.2337236
83	0xbe98bae3	-0.29830083
84	0xbea367f4	-0.31915247
85	0x3e0ad26d	0.13556834
86	0xbbe32be6	-0.0069327233
87	0xbd126de3	-0.035749327
88	0xbf1f28f6	-0.62171876
89	0xbd83a953	-0.064287804
90	0x3e2b3d98	0.16722715
91	0xbe9067c3	-0.28204164
92	0xbf04aeda	-0.518293
93	0xbeae8bcc	-0.34091032
94	0x3ebbd705	0.36687484
95	0xbd60bf2c	-0.054869816
96	0x3df79ea0	0.12090802
97	0x3ec380a8	0.38184094
98	0xbeb14cc2	-0.34628874
99	0xbe1ed7b5	-0.15511973
100	0x3eef4d47	0.46738645
101	0x3ef04b11	0.4693227
102	0xbf1b2b21	-0.60612684
103	0x3e2dbd79	0.1696681
104	0xbee19532	-0.4405914
105	0x3dfdc8ab	0.1239179
106	0xbe9eaccc	-0.3099121
107	0xbe51f33f	-0.20502947
108	0x3f13eeca	0.5778624
109	0xbea1d19a	-0.31605226
110	0x3df57527	0.11985236
111	0xbe931c20	-0.28732395
112	0xbd8f8c60	-0.07009196
113	0x3ede3159	0.43397024
114	0x3f6f12eb	0.9338824
115	0xbefab3b3	-0.48965225
116	0xbe857a0f	-0.26069686
117	0x3e3c74ad	0.18403883
118	0x3da341cd	0.07971535
119	0x3e171d41	0.14757253
120	0xbf75b87c	-0.95984626
121	0x3f35b158	0.7097373
122	0x3ec891b0	0.3917365
123	0x3e94cfee	0.29064888
124	0x3e9d4536	0.30716866
125	0xbf0da5c5	-0.5533107
126	0xbe48e762	-0.19619516
127	0x3d9d1cce	0.0767151
128	0x3d683b53	0.0566972
129	0xbe99f1cc	-0.3006729
130	0x3e7d9693	0.24764471
131	0xbefc9d1e	-0.4933862
132	0xbf11ac10	-0.5690317
133	0xbef229a9	-0.4729741
134	0x3b9aba36	0.004721905
135	0x3ec91f48	0.39281678
136	0x3e06f87e	0.1318073
137	0x3ec172a3	0.37782773
138	0x3e8e8ce3	0.27841863
139	0x3e7a1920	0.24423647
140	0x3e764a00	0.24051666
141	0x3f2310ad	0.6369732
142	0xbf37e754	-0.71837354
143	0x3df45154	0.119295746
144	0xbe88c4d5	-0.2671267
145	0x3e8847e7	0.26617357
146	0x3f203c17	0.6259169
147	0xbd9aad3d	-0.07552574
148	0xbf0b4c1e	-0.5441302
149	0xbea60d2c	-0.32431924
150	0x3dec932e	0.1155151
151	0xbf01bb27	-0.50676197
152	0x3c3fa639	0.011697345
153	0x3dc54cf9	0.09633822
154	0x3fa06a0a	1.253236
155	0xbfa0d270	-1.256422
156	0x3d01fa99	0.03173313
157	0x3efd12ae	0.49428314
158	0x3e7c7fc0	0.24658108
159	0xbe968a74	-0.29402506
160	0xbf3380f6	-0.70118654
161	0x3f45a333	0.7720215
162	0x3eb69bbb	0.35665688
163	0xbf259b72	-0.64690316
164	0xbe9daa9f	-0.30794236
165	0x3de4b8c0	0.11168051
166	0xbe498d36	-0.19682774
167	0x3dd068e4	0.10176256
168	0xbe1eb6c2	-0.15499404
169	0x3ec664c7	0.38748762
170	0xbe47703e	-0.19476411
171	0xbebebd74	-0.37253916
172	0x3f086358	0.53276587
173	0x3f6e5b74	0.93108296
174	0x3eef65b1	0.46757272
175	0xbe4d47cc	-0.2004692
176	0x3e0f5484	0.13997084
177	0x3e88cf01	0.2672043
178	0xbe40b138	-0.18817604
179	0x3eb42362	0.35183245
180	0x3d96f7ef	0.07371508
181	0x3f2a531f	0.6653308
182	0x3f05eb63	0.52312297
183	0xbee02dda	-0.43784982
184	0x3d03ce62	0.032179244
185	0x3d049994	0.032373026
186	0x3ff63afc	1.9236751
187	0xbf2f40d1	-0.68458277
188	0x3cc26422	0.023729388
189	0x3e146149	0.14490236
190	0xbc8d782c	-0.017269216
191	0xbc979418	-0.018503234
192	0xbc78fec3	-0.015197459
193	0x3e5ef84b	0.21774404
194	0x3ec88193	0.39161357
195	0x3faf2b4a	1.3685086
196	0x3efa058d	0.4883236
197	0x3ca71ae2	0.02039856
198	0x3b6a2bfc	0.0035731783
199	0xbd188677	-0.03723761
200	0xbe50998a	-0.2037107
201	0x3ec5983b	0.38592705
202	0xbdfeb870	-0.124375224
203	0x3f208829	0.62707764
204	0x3e40fd76	0.18846688
205	0x3f052ddf	0.5202312
206	0x3db83ee8	0.089963734
207	0x3e4272fa	0.18989173
208	0xbe8919b2	-0.26777416
209	0x3e0481a8	0.12940085
210	0x3e083669	0.13302006
211	0xbfa0d2f8	-1.2564383
212	0x3cb563e9	0.022142367
213	0x3db7cb57	0.08974331
214	0x3e02ffc6	0.12792882
215	0x3e333362	0.1750007
216	0xbec803ca	-0.3906539
217	0xbd722e88	-0.059126407
218	0x3e036d9f	0.12834786
219	0xbe391e27	-0.18077908
220	0xbeeaa22e	-0.45826858
221	0xbebd2790	-0.36944246
222	0xbd730dc8	-0.059339315
223	0xbb177ea9	-0.0023116267
224	0xbdc6a3f8	-0.09699243
225	0x3f14936a	0.58037436
226	0xbe0213aa	-0.12702814
227	0xbee119d4	-0.43965018
228	0x3efb7b0e	0.4911732
229	0x3f26bc47	0.6513104
230	0x3e5524f2	0.20814875
231	0x3e09e68a	0.1346685
232	0x3dcecb54	0.100973755
233	0x3e43285c	0.19058365
234	0x3da53f07	0.08068662
235	0x3f24693c	0.64223075
236	0x3e8e2ace	0.27767032
237	0x3f094458	0.5361991
238	0x3eacae71	0.33726838
239	0xbcb9b63f	-0.02266991
240	0x3f1ed8cd	0.6204956
241	0xbe78cdea	-0.242973
242	0x3e954856	0.2915675
243	0xbc89867b	-0.016787758
244	0x3eb1218f	0.34595916
245	0xbeb1145d	-0.34585848
246	0x3eb262c8	0.3484099
247	0xbef6ce3a	-0.48204213
248	0x3d20511f	0.039139863
249	0xbd6451c9	-0.05574206
250	0x3f245139	0.64186436
251	0xbe4211c3	-0.18952088
252	0xbf0f6bc9	-0.5602384
253	0xbd9bfb54	-0.076162964
254	0x3f13374e	0.57506263
255	0x3eed0a01	0.46296695

fc1.bias f4 [256]
0	0x3dd4bfea	0.10388167
1	0xbeb98b69	-0.36239174
2	0x3e811057	0.2520778
3	0x3e928df1	0.28623918
4	0x3e06b788	0.13155949
5	0x3f1ce304	0.612839
6	0xbd3a432c	-0.045474216
7	0x3f4a6fd8	0.7907691
8	0xbf20f5db	-0.62875146
9	0x3eb74910	0.3579793
10	0xbe80d8d9	-0.25165442
11	0x3ef585c5	0.4795362
12	0x3d8c5561	0.06852222
13	0x3f10adc6	0.5651516
14	0xbf3705e4	-0.71493363
15	0x3e593942	0.21213248
16	0xbd76c958	-0.06025061
17	0x3ebc98ac	0.3683523
18	0x3ede51b7	0.43421718
19	0x3d335867	0.04378548
20	0x3dca8e93	0.09890475
21	0xbed27638	-0.4110582
22	0x3ea601c4	0.32423222
23	0x3d1b6132	0.03793449
24	0x3ed973b6	0.42471093
25	0x3eba13d1	0.36343244
26	0xbf072528	-0.5279107
27	0x3ed7bc91	0.42136052
28	0xbef73443	-0.4828206
29	0x3f03014e	0.51173866
30	0x3e9c9b5a	0.30587274
31	0xbdc8d8af	-0.09806954
32	0x3f15b8cc	0.584851
33	0x3f03d243	0.5149271
34	0x3f19a760	0.6002102
35	0xbd9efb42	-0.077627674
36	0xbf4679e6	-0.7752975
37	0x3d466d9c	0.048444375
38	0x3e98c8c2	0.29840666
39	0x3e978166	0.2959091
40	0x3f161990	0.58632755
41	0x3f149a02	0.580475
42	0x3ca80fad	0.020515287
43	0xbc92de0e	-0.01792815
44	0x3f56a4d4	0.8384526
45	0x3c984030	0.018585294
46	0xbf3114b9	-0.69172245
47	0x3daa1e2b	0.08306535
48	0x3ec96996	0.39338368
49	0x3eb21f45	0.34789482
50	0x3ed5c77e	0.41753763
51	0x3cea1df5	0.028578738
52	0x3d4a9b8e	0.049464755
53	0x3ef1bf51	0.47216275
54	0xbedffae3	-0.437461
55	0x3ed5067c	0.4160651
56	0xbe5a5c65	-0.21324308
57	0x3da3dae5	0.08000735
58	0xbdf6133a	-0.12015386
59	0x3f1c24fa	0.6099392
60	0xbaf25a7e	-0.0018490104
61	0x3f47acd3	0.77998084
62	0x3ed32b3e	0.4124393
63	0xbd408282	-0.046999462
64	0x3e5fb0c3	0.21844773
65	0x3f060841	0.52356344
66	0x3ecedd2e	0.40403122
67	0xbf16b88c	-0.58875346
68	0x3f63771a	0.8885361
69	0x3c84b3bf	0.01619899
70	0x3ee0b6f2	0.43889576
71	0x3f34e8bc	0.70667624
72	0x3ecc748b	0.39932665
73	0xbe077cf5	-0.13231261
74	0xbe91135e	-0.28335088
75	0x3f86cf24	1.0531964
76	0x3e3c6c8b	0.18400781
77	0xbe939d90	-0.28831148
78	0xbeb35348	-0.35024476
79	0xbd64dac5	-0.055872697
80	0x3ef32579	0.47489527
81	0x3f18c5fc	0.596771
82	0xbd3acbcd	-0.045604516
83	0x3e34d83a	0.17660609
84	0x3ee86a43	0.4539357
85	0xbe8a2ec9	-0.2698882
86	0x3ef33af4	0.47505915
87	0x3f24dad2	0.64396393
88	0x3c1fafaa	0.009746471
89	0xbe713455	-0.2355512
90	0x3f1a14fb	0.60188264
91	0x3f3e6467	0.7437195
92	0x3e096361	0.13416816
93	0xbe062cde	-0.13103053
94	0xbe5efbd4	-0.21775752
95	0x3e5b698e	0.21426985
96	0x3e70b8fc	0.23508066
97	0x3e622080	0.2208271
98	0x3ec3e693	0.38261852
99	0x3ea6c47c	0.3257178
100	0x3e6cc48a	0.23121849
101	0x3ecd9cd5	0.40158716
102	0xbeb2548f	-0.34830138
103	0xbe4574cc	-0.19282836
104	0x3eafee41	0.3436146
105	0x3f1edbb4	0.6205399
106	0x3eec5425	0.46157947
107	0x3e76fc7f	0.24119757
108	0x3f4592b6	0.7717699
109	0x3e9aae7f	0.30211255
110	0x3ecdc0af	0.40186068
111	0xbe87ae90	-0.26500368
112	0x3eeb6814	0.45977843
113	0xbe81a57d	-0.2532157
114	0x3e892c22	0.26791483
115	0x3e9eee0f	0.31041
116	0x3e3df339	0.18549813
117	0xbf0d5079	-0.55200917
118	0x3f68b97c	0.90908027
119	0x3f09a7ec	0.53771853
120	0xbf0ec09f	-0.55762666
121	0xbe86bee0	-0.263175
122	0x3df1f91e	0.118150935
123	0x3efa5807	0.48895285
124	0x3eccd746	0.4000799
125	0x3f166391	0.58745676
126	0x3f805ebb	1.002891
127	0x3e11ddc5	0.14244755
128	0x3e3fc901	0.1872902
129	0x3cfcb586	0.030848276
130	0xbf16aa11	-0.5885325
131	0x3eb85cdc	0.36008346
132	0x3f25b006	0.64721715
133	0x3e73a059	0.23791637
134	0x3ddf9f62	0.10919072
135	0xbee84f48	-0.45372987
136	0x3eb80359	0.35940054
137	0x3f42ce17	0.7609572
138	0x3eb794c5	0.3585569
139	0x3f233739	0.6375614
140	0x3f0543f2	0.520568
141	0x3e0555bf	0.13020991
142	0x3e90569e	0.28191084
143	0x3f4f78cb	0.8104369
144	0xbe93f88e	-0.2890057
145	0xbd27ccfd	-0.040966976
146	0x3eef3f46	0.4672796
147	0x3f39da4e	0.7259873
148	0x3ed42721	0.41436103
149	0xbd68761c	-0.056753263
150	0xbee1f038	-0.44128585
151	0x3f803e9f	1.001911
152	0x3f0579fc	0.5213926
153	0x3e8c7ff5	0.27441373
154	0xbe28c8e2	-0.1648288
155	0x3ec00946	0.37507075
156	0x3e3ab84a	0.18234363
157	0x3d4831fc	0.048875794
158	0x3ec17dfa	0.37791425
159	0xbe7c5e26	-0.2464529
160	0x3f2b1dda	0.66842425
161	0x3f477c00	0.77923584
162	0x3ec7ea3d	0.39045897
163	0x3efaa731	0.48955682
164	0xbf0412c1	-0.51591116
165	0x3e9c95b8	0.30582976
166	0xbe78054e	-0.24220774
167	0x3e3498f6	0.17636475
168	0x3edc353b	0.43009362
169	0x3e89c8fe	0.26911157
170	0x3ef85ee2	0.4850989
171	0x3dd5c185	0.104373015
172	0x3e49a6fe	0.19692609
173	0x3eba7152	0.36414582
174	0x3f623105	0.8835605
175	0x3f3d0573	0.7383644
176	0xbe41c327	-0.18922101
177	0xbea94e9a	-0.3306778
178	0xbea6f739	-0.3261049
179	0xbf244f74	-0.64183736
180	0x3f2e05f9	0.67977864
181	0x3ec5b77e	0.38616556
182	0x3ee7c90b	0.4527057
183	0x3e941f4d	0.2893013
184	0xbd231034	-0.039810374
185	0x3dfbda71	0.12297524
186	0xbe9a1b48	-0.3009894
187	0xbe0f5805	-0.1399842
188	0xbf04255a	-0.51619494
189	0x3d839385	0.064246215
190	0x3efdd49e	0.49576277
191	0x3e1d3b66	0.1535469
192	0x3eadc995	0.33942857
193	0x3d871322	0.06595446
194	0x3e9f4463	0.31106862
195	0xbebd06cd	-0.3691925
196	0xbe52b371	-0.20576264
197	0x3d0a9587	0.033834007
198	0x3e17ac60	0.1481185
199	0x3f29d933	0.66347045
200	0xbdc438a4	-0.09581116
201	0xbcb535e8	-0.022120431
202	0x3e87e2ed	0.26540318
203	0x3dedc4fd	0.11609838
204	0xbe7cecf3	-0.24699764
205	0xbef21891	-0.47284368
206	0x3d4d7910	0.050164282
207	0x3f23be17	0.6396193
208	0x3f026f09	0.50950676
209	0x3f1a81ad	0.6035412
210	0x3f1b71cf	0.60720533
211	0x3f24c8bb	0.6436879
212	0xbe6ad5f1	-0.22933175
213	0xbe56868e	-0.20949766
214	0x3ef1d0dd	0.47229663
215	0x3c6ccbb3	0.014452863
216	0x3f0a8689	0.54111534
217	0x3e6ed7c9	0.23324503
218	0x3e5f1abc	0.21787542
219	0x3e76fe4c	0.24120444
220	0x3f023e01	0.5087586
221	0xbe2e0a37	-0.16996084
222	0x3f171769	0.59020096
223	0xbca867e4	-0.020557351
224	0x3e27498a	0.16336647
225	0x3eac23a9	0.33620957
226	0xbe7b9821	-0.24569751
227	0xbeca9f52	-0.39574677
228	0x3e81e15f	0.25367257
229	0x3eafb570	0.34318113
230	0x3efade88	0.48997903
231	0x3eaecfee	0.34143013
232	0x3f483e35	0.7821992
233	0xbf12314f	-0.5710649
234	0x3edd93c6	0.43276805
235	0x3e940142	0.2890721
236	0x3d8e7bb5	0.06957189
237	0xbdb16bb1	-0.08663119
238	0xbf168a99	-0.58805233
239	0xbd82cad1	-0.063863404
240	0x3f4fdd23	0.811968
241	0xbc704418	-0.014664672
242	0x3eb147e2	0.34625155
243	0x3f1f5ebc	0.6225393
244	0xbce46f76	-0.02788518
245	0x3ec4881e	0.383851
246	0xbe96bf6c	-0.29442918
247	0x3ebf4fcf	0.37365577
248	0x3e2ab2db	0.1666979
249	0x3f016820	0.5054951
250	0x3e920c19	0.28524855
251	0x3f4c4bf9	0.79803425
252	0x3de260da	0.11053629
253	0x3e395c52	0.18101624
254	0xbd388dd5	-0.045057137
255	0xbedee3ff	-0.43533322

fc2.weight f4 [128, 256]
0	0xbd1b4250	-0.037905037
1	0x3e9426b4	0.28935778
2	0x3d0f4d54	0.034985855
3	0x3e5378f9	0.20651616
4	0xbf8e80d2	-1.1133063
5	0x3cabce02	0.020972256
6	0xbd0fb014	-0.03508003
7	0x3e8872cc	0.26650083
8	0x3edd55c8	0.43229508
9	0x3e39e3a3	0.18153243
10	0x3f45bdd6	0.7724279
11	0xbdae7aae	-0.08519493
12	0x3e1685db	0.146995
13	0x3e30bbf2	0.17259195
14	0x3eded401	0.4352112
15	0xbf49ec76	-0.78876436
16	0x3d6488ef	0.055794653
17	0xbb86123a	-0.0040915282
18	0x3e0eeea5	0.13958223
19	0xbf164720	-0.5870228
20	0x3d9b7a66	0.07591705
21	0x3ebac713	0.36480007
22	0x3e6d2fbe	0.23162743
23	0xbf36d3f4	-0.71417165
24	0x3ed468b4	0.41486132
25	0x3ed03cea	0.40671474
26	0x3f2bb247	0.67068905
27	0xbe1b5473	-0.15168934
28	0x3e765c01	0.24058534
29	0x3e94aeec	0.29039705
30	0x3edb4d19	0.42832258
31	0xbdcdfdbe	-0.10058163
32	0x3ec897fe	0.3917846
33	0xbb98c0fc	-0.0046616774
34	0x3eb030d8	0.34412265
35	0xbdd6c9c6	-0.10487704
36	0x3f169dbe	0.58834445
37	0x3ecdc83a	0.40191823
38	0xbef9cbd4	-0.4878832
39	0x3ebd5325	0.36977497
40	0xbcbb0fac	-0.022834621
41	0x3cf85d79	0.030318009
42	0x3e2e74be	0.17036721
43	0xbe37ae40	-0.17937565
44	0x3ea4eaa2	0.3221026
45	0xbdbb5bdc	-0.0914838
46	0x3f0c9bc1	0.5492516
47	0x3e366a1f	0.1781392
48	0x3e1b0167	0.15137254
49	0x3e77f3da	0.24214116
50	0xbe56ec85	-0.20988663
51	0x3de3e5dd	0.11127827
52	0x3df4123f	0.11917543
53	0x3d4f177e	0.050559513
54	0x3f2b3284	0.66873956
55	0x3f63a3c6	0.88921773
56	0xbedcbfba	-0.43115026
57	0xbe676e39	-0.2260064
58	0x3da235cb	0.079204164
59	0x3e019fc7	0.12658606
60	0xbf321b2c	-0.6957271
61	0x3e193e94	0.14965278
62	0x3dea9867	0.1145485
63	0x3e51071c	0.20412868
64	0x3e2bcc62	0.16777185
65	0x3ebac6bc	0.36479747
66	0x3e9109a3	0.28327665
67	0x3f1414ac	0.5784404
68	0xbe52cb24	-0.20585304
69	0x3e91d12e	0.28479904
70	0x3ebb0276	0.36525315
71	0x3f1b0ed6	0.6056951
72	0x3e27821c	0.16358227
73	0x3e82512d	0.25452557
74	0x3e8f34e6	0.27970046
75	0xbf171cc3	-0.5902826
76	0x3d666441	0.056247953
77	0x3e427dee	0.18993351
78	0xbdf9cb26	-0.121969506
79	0xbda00f72	-0.07815446
80	0x3e5ccd94	0.21562797
81	0x3e21e3ca	0.15809551
82	0x3e8bba8c	0.2729076
83	0xbb16a8c2	-0.002298877
84	0x3f0de4b5	0.55427104
85	0xbc97fc50	-0.01855293
86	0x3e90ae8c	0.2825817
87	0x3e81cd03	0.25351724
88	0xbc49424c	-0.012283873
89	0x3e025a43	0.12729745
90	0x3e598c9b	0.21245043
91	0x3dfeb800	0.12437439
92	0x3cb457df	0.022014556
93	0xbe8def6a	-0.2772172
94	0x3e095835	0.13412555
95	0x3ea19b9e	0.3156404
96	0x3e387fea	0.18017545
97	0x3e50a343	0.2037478
98	0x3d58f0d8	0.05296406
99	0x3da85837	0.08219951
100	0x3e3bda59	0.18345012
101	0x3c4877c7	0.012235588
102	0x3eb48e84	0.3526498
103	0xbf25cfbc	-0.647701
104	0xbd03d336	-0.03218385
105	0xbdf94da4	-0.12173012
106	0x3e0c459d	0.1369843
107	0x3e57261b	0.2101063
108	0x3ea5a61b	0.3235329
109	0x3dff04ab	0.12452062
110	0x3e4dcd1d	0.20097776
111	0xbe3688a6	-0.17825565
112	0x3e95f62f	0.29289386
113	0xc002416b	-2.0352428
114	0x3f0f6658	0.5601554
115	0x3dd4f5ab	0.1039842
116	0x3eb16d27	0.3465359
117	0x3f5e1217	0.8674635
118	0xbefe4b65	-0.49666896
119	0x3e629732	0.22127989
120	0x3f93cd7c	1.1547084
121	0x3eaf09d2	0.3418718
122	0x3e2aed1e	0.16692016
123	0x3e1caf5e	0.15301272
124	0x3e624ec0	0.22100353
125	0x3d8277aa	0.0637048
126	0x3ea8b985	0.3295404
127	0x3db0278b	0.08601292
128	0xbd388c7c	-0.04505585
129	0x3f01743c	0.50567985
130	0x3f91af9b	1.1381716
131	0x3e170fae	0.14752075
132	0xbaaaecc0	-0.0013040528
133	0x3e7f8e37	0.24956594
134	0x3e5d64e1	0.21620513
135	0x3e01af0d	0.12664433
136	0x3e22711d	0.15863462
137	0x3e819ef3	0.2531658
138	0xbd84469d	-0.06458781
139	0x3e05a4fe	0.13051221
140	0x3eaa92a2	0.33314997
141	0x3e76d917	0.2410625
142	0x3e38f850	0.18063474
143	0x3e2d8f3e	0.16949174
144	0xbec7ada0	-0.38999653
145	0xbd9906bb	-0.07471987
146	0x3de26752	0.11054863
147	0x3da0ecc9	0.07857663
148	0x3e85cff8	0.2613523
149	0x3e373779	0.17892255
150	0xbf4e45af	-0.8057508
151	0x3d4892f9	0.04896829
152	0x3dd6fd1f	0.10497498
153	0x3da34bbb	0.07973429
154	0x3e6c8738	0.23098457
155	0x3ec1c2e2	0.37843996
156	0xbd822e58	-0.063564956
157	0x3e65a0c5	0.2242461
158	0x3de3ce92	0.111233845
159	0x3ebd421f	0.3696451
160	0x3ebec139	0.37256792
161	0x3e88025d	0.26564303
162	0x3ede14c4	0.43375218
163	0x3e907276	0.28212327
164	0x3ee7ce15	0.45274416
165	0x3e9e02e5	0.30861583
166	0xbe8e4c90	-0.27792788
167	0xbedc5351	-0.43032315
168	0x3e83a36a	0.25710613
169	0x3e98c630	0.29838705
170	0x3eddfa02	0.43354803
171	0xbe03c89c	-0.12869495
172	0x3e257cbe	0.16160867
173	0x3e01c733	0.12673645
174	0x3e8676d9	0.2626255
175	0x3ead8388	0.33889413
176	0x3ed4524e	0.41469043
177	0x3d50cccc	0.05097656
178	0x3e26088b	0.16214196
179	0xbf93ab77	-1.1536702
180	0x3e05b3c9	0.13056864
181	0x3e4aca85	0.19803818
182	0x3eb31c67	0.34982607
183	0x3e4c8ed0	0.19976354
184	0x3e7e7100	0.24847794
185	0x3e70ca8f	0.2351477
186	0x3ea31b1f	0.3185663
187	0xbf0a1ca3	-0.53949946
188	0x3edc0fe4	0.42980874
189	0xbf08319a	-0.53200686
190	0x3e7a2c63	0.24430995
191	0xbf137918	-0.5760665
192	0x3e89cf99	0.26916197
193	0xbeba357d	-0.36368933
194	0x3e217864	0.15768582
195	0x3da2884a	0.07936151
196	0xbdaf1161	-0.08548237
197	0xbf816ab2	-1.0110686
198	0x3ed694a3	0.41910276
199	0x3eaf7ca9	0.34274796
200	0x3e3d1c89	0.18467917
201	0x3d389754	0.045066193
202	0x3f166e58	0.5876212
203	0xbe233bc1	-0.15940763
204	0xbd07b290	-0.033129275
205	0xbd857758	-0.06516904
206	0xbd5aa8ca	-0.053383626
207	0x3e88b5fe	0.2670135
208	0x3ee9a679	0.4563482
209	0x3d6a01ec	0.05713074
210	0x3e5e1dba	0.21691027
211	0x3d2ca9d8	0.042154163
212	0xbdaf23bb	-0.08551737
213	0x3ecd76f9	0.4012983
214	0x3dd40eb4	0.10354367
215	0x3eb7407c	0.35791385
216	0x3db2eedb	0.08736964
217	0x3ead3a6b	0.33833632
218	0x3d1acc12	0.037792273
219	0x3de4a7c2	0.1116481
220	0x3e8e1fdb	0.2775868
221	0x3f516c95	0.8180631
222	0xbf4a17c6	-0.78942525
223	0xbebe47bc	-0.37164104
224	0xbe89aa9c	-0.26887977
225	0x3e81e466	0.25369567
226	0xbf5d9100	-0.8654938
227	0x3ef5b0c1	0.47986415
228	0x3dd51764	0.10404852
229	0xbd1ce1a2	-0.038301118
230	0x3e90063e	0.28129762
231	0xbbb754fc	-0.0055948477
232	0x3e5d5102	0.21612933
233	0x3ee2fd47	0.4433386
234	0xbc4090e7	-0.011753297
235	0xbdeac4ee	-0.114633426
236	0x3e88af2f	0.26696154
237	0x3e3c1a3b	0.18369381
238	0x3e9b2b98	0.30306697
239	0x3c1bb5f6	0.009503832
240	0xbe97524c	-0.29554975
241	0x3e1f99d7	0.15586029
242	0x3e466cd7	0.19377457
243	0x3e17334c	0.14765662
244	0x3f383939	0.71962315
245	0x3e4ac950	0.19803357
246	0x3e7bbc9c	0.24583668
247	0x3c897817	0.016780896
248	0x3d38b327	0.045092728
249	0xbe9795e4	-0.29606545
250	0x3e30d17a	0.17267409
251	0x3c2a28fe	0.01038575
252	0x3ce09031	0.027412506
253	0xbf81b635	-1.013373
254	0xbdb9d221	-0.09073282
255	0x3ece405c	0.40283477

fc2.bias f4 [128]
0	0x3e27fabe	0.16404244
1	0x3f0a8b40	0.5411873
2	0x3f0b612c	0.5444515
3	0x3e534ae6	0.2063404
4	0x3f04a902	0.51820385
5	0xbca74988	-0.020420805
6	0x3e804243	0.25050554
7	0x3ec9e38a	0.3943141
8	0x3db7ddb8	0.08977836
9	0xbc4029ba	-0.011728698
10	0xbcd78f7b	-0.026313534
11	0x3f207483	0.6267778
12	0xbd320552	-0.043462105
13	0x3dcd3ce7	0.10021382
14	0x3ed4c2c1	0.41554835
15	0x3ddda327	0.108221345
16	0xbd06e857	-0.03293642
17	0x3e42497f	0.18973349
18	0x3e24a424	0.1607824
19	0x3e7bf775	0.24606116
20	0x3ed78331	0.4209228
21	0x3e3d4b5a	0.18485776
22	0x3cc2090f	0.02368596
23	0x3d857501	0.06516457
24	0xbd98091a	-0.07423611
25	0x3d8de0fe	0.069276795
26	0xbcbd4ff6	-0.023109417
27	0x3c6cb2d2	0.014446931
28	0x3cee8010	0.0291138
29	0xbd81b1bd	-0.06332729
30	0xbd6feb58	-0.05857405
31	0x3df74018	0.12072772
32	0x3e7b7f76	0.24560341
33	0xbd70af0f	-0.0587607
34	0x3d9a47b3	0.07533207
35	0xbb0910d6	-0.0020914576
36	0x3f01b4bc	0.50666404
37	0x3e1a483c	0.15066618
38	0x3ec33f25	0.38134113
39	0x3a78ee3b	0.00094959483
40	0x3d4ab1be	0.049485914
41	0x3e3f0d6f	0.18657468
42	0xbdcd60d1	-0.10028232
43	0x3d8c4df5	0.068508066
44	0x3e404f3c	0.18780226
45	0x3ef214e4	0.47281563
46	0xbd2e1b82	-0.042506702
47	0x3c8ac919	0.016941594
48	0x3e041c3d	0.12901397
49	0x3e86583e	0.26239198
50	0x3d4cb571	0.049977724
51	0x3dc069aa	0.09395154
52	0x3d98c670	0.07459724
53	0x3e9606ba	0.29302007
54	0x3ea44a7e	0.32088083
55	0x3e09b493	0.1344779
56	0xbca7be24	-0.020476408
57	0x3c0ef379	0.008725041
58	0x3e9b55f3	0.30339012
59	0xbe795dea	-0.24352232
60	0x3dd18bc4	0.10231736
61	0x3ebd0489	0.36917523
62	0x3e09b90f	0.134495
63	0x3ea26ab5	0.31722036
64	0xbc9c8608	-0.01910688
65	0x3bea2134	0.0071450714
66	0x3d920a23	0.0713084
67	0x3e29d294	0.16584235
68	0x3dab511d	0.083650805
69	0xbe352798	-0.17690885
70	0xbcdc0ab1	-0.026860567
71	0x3dd850ab	0.10562261
72	0x3d1788b2	0.036995597
73	0x3c87fc45	0.016599784
74	0x3e58399c	0.21115726
75	0xbd4c703d	-0.049911726
76	0x3e98d1ce	0.29847568
77	0x3ee631c2	0.44959837
78	0x3dd60fa0	0.10452199
79	0xbd926517	-0.071481876
80	0xbd652930	-0.055947483
81	0xbe26ce36	-0.162896
82	0x3d492f82	0.049117573
83	0x3ab5656e	0.0013839433
84	0xbe434d98	-0.19072568
85	0x3cceb4d3	0.025232708
86	0x3c0433f8	0.008069031
87	0x3c246cbc	0.01003569
88	0xbf1d51c6	-0.614529
89	0x3c584442	0.013199868
90	0x3d627294	0.05528505
91	0x3c24ad1e	0.01005104
92	0xbd2f4388	-0.042789012
93	0x3e8303b4	0.25588763
94	0x3e9dffe2	0.30859286
95	0x3f022d2e	0.5085019
96	0x3e0d0ada	0.13773671
97	0x3dc3854b	0.09546908
98	0x3d9ae8f1	0.07563961
99	0x3d742000	0.05960083
100	0x3db48284	0.088139564
101	0xbdc02376	-0.09381764
102	0x3ca352ed	0.019937003
103	0xbd421e30	-0.04739207
104	0x3d08363a	0.03325484
105	0xbd81fcc0	-0.06347036
106	0x3b98ca30	0.0046627745
107	0x3d4586ea	0.048224367
108	0x3e07fdb3	0.13280372
109	0xbbdbaf2b	-0.0067042313
110	0xbde90919	-0.11378688
111	0xbcdaf32a	-0.026727278
112	0x3debaa11	0.11507047
113	0xbcc624e1	-0.024187507
114	0x3e0e074e	0.13869974
115	0x3ed5a8aa	0.41730243
116	0xbd95f4b2	-0.073220626
117	0x3e064778	0.131132
118	0xbd86717a	-0.06564613
119	0x3f0c2029	0.5473657
120	0xbdb9d70f	-0.09074222
121	0x3e30cb02	0.17264941
122	0x3da6b012	0.081390515
123	0x3e5ee093	0.21765356
124	0x3ea42c7a	0.32065183
125	0xbc5d4da0	-0.013507277
126	0xbd952d29	-0.07284004
127	0x3d1a08aa	0.03760592

fc3.weight f4 [4, 128]
0	0xbec76aa1	-0.3894854
1	0x3f6725ab	0.9029185
2	0x3f607e74	0.8769295
3	0x3fd243c1	1.6426927
4	0x3f47551e	0.77864254
5	0xbc94c7f1	-0.018161746
6	0x3edec20b	0.43507418
7	0x3f0d1901	0.5511628
8	0xbed705ec	-0.41996706
9	0xbf98530a	-1.1900342
10	0xbe379bdb	-0.17930548
11	0x3f3893c9	0.721005
12	0xbc86de5c	-0.016463451
13	0xbeb9acd9	-0.36264685
14	0x3f7f2336	0.996631
15	0xbeda4422	-0.42630106
16	0xbd8de9d1	-0.069293626
17	0xbeb30f61	-0.3497267
18	0xbe92a9bc	-0.28645122
19	0x3ee01445	0.43765464
20	0x3edf6b26	0.43636435
21	0x3ddcd727	0.107832246
22	0xbe11295e	-0.14175937
23	0xbea16d4b	-0.31528696
24	0x3da2ff6b	0.07958873
25	0x3e085e76	0.13317284
26	0xbd87ecf0	-0.06636989
27	0x3de867f7	0.11347955
28	0xbe94d39c	-0.29067695
29	0x3d59ee4c	0.053205773
30	0xbdb3d3a1	-0.087805994
31	0xbe9c06d0	-0.30473948
32	0x3edd573e	0.43230623
33	0x3db002bf	0.08594274
34	0xbe06c0fc	-0.13159555
35	0x3d67eb72	0.056621023
36	0x3f3533b0	0.70781994
37	0xbe8b16b2	-0.27165753
38	0x3f5ed06a	0.87036765
39	0xbf984b8a	-1.1898053
40	0xbe821a91	-0.25410894
41	0x3f847a29	1.034978
42	0xbebee9f7	-0.37287876
43	0xbe843e5d	-0.2582883
44	0xbf1f7291	-0.6228419
45	0x3f45b076	0.77222383
46	0x3cf027d8	0.029315874
47	0xbe8f6d11	-0.280129
48	0xbe90db08	-0.28292108
49	0x3f8ab1de	1.0835531
50	0xbe93a2ad	-0.2883505
51	0xbdbc59fa	-0.09196849
52	0xbe7bac90	-0.24577546
53	0x3eda1fe9	0.4260247
54	0xbec458eb	-0.3834909
55	0xbeb48deb	-0.35264525
56	0x3d0152a0	0.031572938
57	0xbdab9c5b	-0.08379432
58	0x3ebe98c0	0.37225914
59	0x3f4919c7	0.7855496
60	0xbe51b036	-0.20477375
61	0x3f0329e9	0.51235825
62	0xbe922431	-0.28543237
63	0x3f84acd3	1.0365242
64	0xbe4da05b	-0.20080702
65	0x3e8758d3	0.26434955
66	0xbe7bf9e8	-0.2460705
67	0x3f7349c0	0.9503441
68	0x3f9962b6	1.1983249
69	0xbf3275ac	-0.69710803
70	0x3d1e6a55	0.038675625
71	0xbe3d7c99	-0.18504561
72	0x3c402a06	0.011728769
73	0xbe2376af	-0.15963243
74	0xbeaac648	-0.33354402
75	0x3d402a0d	0.046915103
76	0x3f2f7427	0.6853661
77	0x3f02f7a1	0.511591
78	0xbec1867e	-0.37797922
79	0xbf7dfb88	-0.9921193
80	0x3d48685c	0.04892765
81	0xbf5a49e2	-0.85268986
82	0xbe6f0a91	-0.23343875
83	0x3ce9add3	0.028525269
84	0xbe3d073a	-0.18459788
85	0x3d97832d	0.07398067
86	0xbbe92bc0	-0.007115811
87	0xbd088147	-0.033326413
88	0x3ef5e637	0.48027202
89	0xbd912be5	-0.0708845
90	0xbefc37c9	-0.4926131
91	0x3ce48945	0.027897486
92	0xbf6fa8bb	-0.9361684
93	0x3f583451	0.8445483
94	0x3f315dc5	0.69283706
95	0x3f00be5d	0.5029047
96	0x3fc96904	1.5735173
97	0xbe9e0b9c	-0.30868232
98	0xbf57dc77	-0.8432078
99	0xbe9f7e1b	-0.31150898
100	0xbe0a96da	-0.13534108
101	0xbea87ffc	-0.32910144
102	0xbc436715	-0.011926432
103	0xbf54d028	-0.8313012
104	0x3d3e54ae	0.046467476
105	0x3cb5eb87	0.022207035
106	0xbdb186c6	-0.08668284
107	0xbe1f35e4	-0.15547901
108	0xbe9d22a2	-0.30690485
109	0xbf2beace	-0.6715516
110	0x3e5e3539	0.2169999
111	0x3f874137	1.0566777
112	0xbe8ae60e	-0.27128643
113	0xbbd37c70	-0.006454043
114	0xbe18c047	-0.14917098
115	0x3f4ed375	0.8079141
116	0xbb7c5c29	-0.003850708
117	0xbdcac8ac	-0.099015564
118	0x3d711ccc	0.058865353
119	0x3f6ce58d	0.92537767
120	0x3fda527b	1.7056421
121	0xbedc8157	-0.43067428
122	0xbe7c7dd0	-0.24657369
123	0xbe987f71	-0.2978473
124	0x3ed21024	0.4102794
125	0xbd526b7a	-0.05137203
126	0xbf155024	-0.5832541
127	0xbe8a6f6b	-0.2703813
128	0xbec286a3	-0.37993345
129	0x3f4abe3f	0.7919654
130	0x3fa4a608	1.2863169
131	0x3fe003f5	1.7501208
132	0x3f5a2156	0.85207117
133	0x3d95a790	0.07307351
134	0x3ed62a30	0.41829062
135	0x3ee60819	0.44928053
136	0xbf01e60e	-0.5074166
137	0xbf9cca5e	-1.2249258
138	0xbe8b8694	-0.27251112
139	0x3f7bc2d7	0.98344177
140	0xbd6c1742	-0.057639368
141	0xbe960017	-0.29296944
142	0x3f778ff8	0.96704054
143	0xbeddb6b1	-0.43303445
144	0x3ce1cbb3	0.027562952
145	0xbe8793ca	-0.26479942
146	0xbe37c2c7	-0.17945395
147	0x3f027572	0.5096046
148	0x3f085a0a	0.5326239
149	0x3e7c9b9e	0.24668738
150	0xbe7e8602	-0.24855807
151	0xbe86dec5	-0.26341835
152	0x3d9540d4	0.072877556
153	0xbf2bf456	-0.671697
154	0x3bc08360	0.005875036
155	0x3e89a093	0.2688032
156	0xbe2a95a1	-0.16658641
157	0xbc92a1fa	-0.017899502
158	0x3da7f439	0.08200879
159	0xbe6802a0	-0.22657251
160	0x3edde28b	0.433369
161	0xbcaad4c8	-0.020853415
162	0xbe8415bd	-0.25797835
163	0x3d8227a1	0.06355215
164	0x3f495328	0.7864251
165	0xbe687ab1	-0.22703053
166	0x3f42bb97	0.7606749
167	0xbf373085	-0.7155841
168	0xbe6a133c	-0.228589
169	0x3f4ab7d8	0.79186773
170	0xbf2a5e4a	-0.66550124
171	0xbea0469f	-0.3130388
172	0xbe2b46f3	-0.16726284
173	0x3f2fd02c	0.6867702
174	0x3cd40d78	0.025885329
175	0xbe5a5d09	-0.21324553
176	0xbe8d4d73	-0.27598152
177	0x3f42016c	0.7578342
178	0xbe349998	-0.17636716
179	0xbea30b19	-0.31844404
180	0xbe9e9f33	-0.30980834
181	0xbeeba03f	-0.46020696
182	0xbedbba6e	-0.42915672
183	0xbd91b980	-0.071154594
184	0x3d461c36	0.048366748
185	0xbeb3db37	-0.35128185
186	0x3f1ce0d8	0.61280584
187	0x3dcf76df	0.10130095
188	0xbe63fef9	-0.22265233
189	0x3ea5834f	0.32326743
190	0xbe6af8f1	-0.22946526
191	0x3fa01d78	1.2508993
192	0xbe45e2dc	-0.19324821
193	0xbe0a21fb	-0.13489525
194	0xbea304a8	-0.3183949
195	0x3f8fc514	1.1232018
196	0x3fa60a0e	1.2971818
197	0x3e6227e4	0.2208553
198	0xbd6caadd	-0.057780135
199	0xbe0585be	-0.130393
200	0x3c4b27c6	0.012399619
201	0xbe8e7197	-0.27821037
202	0xbde1b234	-0.11020318
203	0x3cb6f5d3	0.022334015
204	0x3e9bd349	0.30434635
205	0x3f04360f	0.51644987
206	0xbe89b578	-0.26896262
207	0xbeccd675	-0.40007368
208	0xbd9433cc	-0.07236442
209	0xbf9d1d10	-1.2274494
210	0xbdf7aa12	-0.12092985
211	0x3c876411	0.016527208
212	0xbea3ec39	-0.3201616
213	0x3cd95695	0.026530543
214	0xbcebc1ee	-0.028778996
215	0x3d0dd0bb	0.03462289
216	0x3fa9163e	1.3209913
217	0xbefdeedf	-0.49596307
218	0xbea897d4	-0.32928336
219	0x3d8549ce	0.06508218
220	0x3f94e829	1.163335
221	0x3f823266	1.017163
222	0x3f0e9205	0.5569156
223	0x3f0ff52e	0.5623349
224	0x3fc700bf	1.5547103
225	0xbe806149	-0.25074223
226	0xbf60b61a	-0.87777865
227	0xbdfd0a2f	-0.12355458
228	0xbe9815d3	-0.2970415
229	0xbe62c1b5	-0.22144206
230	0x3f03e54a	0.5152174
231	0xbf993607	-1.1969613
232	0x3d965279	0.07339949
233	0xbbfc5890	-0.007700987
234	0xbd03ff0c	-0.032225654
235	0xbe5df1a0	-0.21674204
236	0xbe8cc02c	-0.27490366
237	0xbedacba4	-0.4273349
238	0x3f422266	0.7583374
239	0x3f4b8414	0.7949841
240	0xbe9232fa	-0.28554517
241	0xbc0bfaa0	-0.00854364
242	0xbe7d43cf	-0.24732898
243	0x3f6c0ccd	0.9220703
244	0x3c7fcf41	0.015613378
245	0xbe7ce540	-0.24696827
246	0xbc5a55bd	-0.013326106
247	0x3f4d8139	0.80275303
248	0x3ff1dfa4	1.8896375
249	0xbea7cc67	-0.32773134
250	0xbeaa27fa	-0.33233625
251	0xbe24e692	-0.1610358
252	0x3f08df87	0.53466076
253	0xbe4d7704	-0.20064932
254	0xbf66458b	-0.89949864
255	0x3d7d0086	0.061768077

fc3.bias f4 [4]
0	0xbd0ad028	-0.03388992
1	0xbc95e169	-0.01829596
2	0xbd7fc791	-0.06244618
3	0x3d70f3b6	0.05882617
