models/model_run_1.pth (torch, 174149 bytes, 6 tensors)

fc1.weight f4 [200, 8]
000000 f5 96 c0 be de 13 3c 3f 48 3b d2 3d 51 40 d6 be
       -0.3761517 0.73467815 0.10265213 -0.41845945
000010 55 4f 8f 3e 19 8e 81 be c4 a2 6b be 44 13 17 3f
       0.27990213 -0.25303724 -0.23011309 0.5901377
000020 fe fe 81 3e 80 09 23 be 3e 9f 80 be bf 66 be be
       0.25389856 -0.15921593 -0.25121492 -0.37187764
000030 e1 35 a0 3d d5 57 13 3f 27 9c 54 3e 6c 1f 19 3e
       0.078227766 0.57555896 0.20762692 0.14953393
000040 c2 68 df 3c 1f 78 aa 3c 1e a7 98 be ed 7e a1 3f
       0.027271632 0.020809231 -0.29815 1.261686
000050 7f 5c 47 bf a3 f6 43 bf 07 08 e9 3a ff 9f a4 bf
       -0.7787551 -0.7654821 0.0017778882 -1.2861327
000060 6c fd fd 3e 1a 59 8c be 0b 4e cf 3d d8 ee 31 be
       0.49607408 -0.2741173 0.101223074 -0.17376268
000070 ab e3 08 3f e2 38 03 3f b7 9a d1 be da 5a 79 3e
       0.53472394 0.5125867 -0.4093835 0.24351063
000080 0a d1 64 3d ba 2a 11 3f d1 13 23 3e 1c 01 eb 3c
       0.055863418 0.5670582 0.15925528 0.028687052
000090 2f 48 0c bf 3d 86 93 3e 73 dc 17 3c 1a a3 95 3e
       -0.54797643 0.28813353 0.009268868 0.29226
0000a0 63 69 a6 bd 8c 35 30 bf fa 80 ee be 98 a1 19 bf
       -0.0812557 -0.68831706 -0.46582776 -0.600122
0000b0 20 66 0e 3f a1 75 0d 3f d5 1a 0c 3d 0c f7 f7 3e
       0.5562458 0.5525761 0.034205277 0.4843067
0000c0 e0 78 eb be 8d aa 5d bf 53 3e 22 3d f8 9d 1c bf
       -0.45990658 -0.86588365 0.03961022 -0.6117854
0000d0 e4 46 42 bd e8 da 20 be ac d9 5e bd fc 14 a4 bc
       -0.047430888 -0.15708506 -0.054406807 -0.020029537
0000e0 fb e2 c7 3e dc 94 15 be dc 9f a7 3f aa 97 99 be
       0.3904036 -0.14607567 1.309566 -0.29998523
0000f0 24 eb cb be 89 45 9e 3e fc 3d 20 3f 7a bd 68 3d
       -0.39827836 0.30912426 0.6259458 0.056821324
000100 7a 40 22 3f 26 9f de 3e e1 74 cb 3e 0f 16 d9 be
       0.63379633 0.43480796 0.3973761 -0.42399642
000110 2b 26 f4 bd ac ba 23 bf 79 0e dc be 20 36 e9 be
       -0.119213425 -0.63956714 -0.42979792 -0.45549107
000120 43 46 15 bf 75 03 4f 3f c0 90 96 be 85 46 f2 be
       -0.58310336 0.8086465 -0.2940731 -0.47319427
000130 c2 32 0a 3f 47 2e f0 3d 00 c0 a0 3c 26 e8 2b be
       0.539837 0.11727577 0.019622803 -0.16787776
000140 7e 35 bc be 62 80 4d 3e 91 cd 45 bd ed ab a8 be
       -0.3675956 0.20068505 -0.048291747 -0.3294367
000150 6f a6 80 be d2 1f ca be 22 da 6a 3e 2d 11 08 3f
       -0.2512698 -0.39477402 0.22934774 0.5315121
000160 d1 d2 f0 bc d7 28 c1 be 11 4e 0a 3f 73 a9 e9 be
       -0.0293974 -0.3772647 0.5402537 -0.45637092
000170 c7 62 4a be 1a 3f 4f bf 06 76 ea 3d 1b fd ef 3e
       -0.19764243 -0.8095566 0.114482924 0.46872792
000180 99 b5 28 be 84 e9 9c bd 1f ab 93 3e bc cd 91 bd
       -0.16475524 -0.07661727 0.28841493 -0.07119319
000190 83 60 23 bf 09 e6 40 bf 13 f2 79 3e 1e 81 9e bd
       -0.6381914 -0.75351006 0.2440875 -0.07739471
0001a0 e2 7f 3c bd cc 7e 2b 3e 4a 25 c7 bc 07 64 a2 be
       -0.046020396 0.16747588 -0.024309773 -0.3171694
0001b0 94 79 1d be e0 60 34 3f 3c 40 b5 3c 94 39 39 be
       -0.1537841 0.7046032 0.022125356 -0.1808837
0001c0 c5 88 66 3d 81 68 41 be c2 f9 80 3e 03 f8 e2 bd
       0.056282777 -0.18887521 0.2519055 -0.11082461
0001d0 69 4e 5f bf 20 38 d9 be bb 6e ee ba b7 81 36 3e
       -0.8722902 -0.42425632 -0.0018190959 0.1782292
0001e0 d8 40 d2 3e 2d aa 2d be 74 0b 11 3e ab 86 9f bc
       0.41065097 -0.16959448 0.14164525 -0.019473394
0001f0 60 74 97 3e 30 21 52 3f af db a9 be c2 58 1a bf
       0.29580975 0.8208189 -0.33175418 -0.60291684
000200 9e d9 24 3e 23 c8 0f bf 08 79 af bd 98 f7 67 be
       0.1609864 -0.5616476 -0.08568007 -0.22653043
000210 7d 61 f3 3e 02 85 99 3f 6b 23 9d 3d 25 b8 03 bd
       0.47535315 1.1993716 0.07672771 -0.032158036
000220 39 03 d9 be c3 d4 0d bd 8c 36 b2 bf a5 ae 2e bf
       -0.4238527 -0.034626734 -1.3922896 -0.68235236
000230 cb e0 cf be 63 42 a5 3e 57 06 8f be 69 a9 40 3e
       -0.4060119 0.32277212 -0.27934524 0.18814625
000240 97 db 99 3e ec c1 2b 3f 13 3c d0 3d 7c 2d 37 3f
       0.30050346 0.67092776 0.10167708 0.7155378
000250 ff a9 71 bf a4 5e 8c bf b5 c2 1e be 68 e4 8a bd
       -0.9440002 -1.0966382 -0.15503962 -0.06781846
000260 8a 12 08 be 32 8f 65 bd 87 4c e7 3e 9f 88 2f bf
       -0.13288322 -0.056044765 0.45175573 -0.6856784
000270 87 4e 93 be 94 e4 f8 bc 70 92 2e bc 40 85 04 3f
       -0.2877085 -0.030382432 -0.010655031 0.51765823
000280 21 88 d8 be 7a 11 23 bf ce 68 d6 3d 99 65 5d bf
       -0.42291358 -0.6369854 0.10469209 -0.8648315
000290 07 57 22 3e df 19 59 3f 7f 0d 5e be f9 d2 ed 3d
       0.15853511 0.848051 -0.21684836 0.116125055
0002a0 1c 61 e0 3e d8 bf 1b 3f 43 a4 3e be 26 3b 10 bf
       0.4382409 0.60839605 -0.18617348 -0.56340253
0002b0 36 94 6c 3e 0d d0 69 3c a5 58 9b 3c 4c 6e 69 3e
       0.23103413 0.014270795 0.018963167 0.22795981
0002c0 14 42 80 bd ca 72 92 bf b7 0a ab 3e bc c1 0d bf
       -0.062626034 -1.1441281 0.33406612 -0.5537374
0002d0 37 ee de be 5d 57 65 bf 2a 6f 88 3e cb 82 41 3e
       -0.43541119 -0.8958643 0.2664731 0.1889755
0002e0 0f 83 87 be 8b bb a8 3e 72 1e 94 3e c1 6b e5 be
       -0.26467177 0.32955584 0.28929478 -0.44808772
0002f0 e8 76 97 be 88 81 91 3f 04 cd bb bd c3 51 a4 be
       -0.29582906 1.1367655 -0.09169963 -0.3209363
000300 d2 37 01 be a2 17 61 3e 3a a3 c9 3d de d3 63 3e
       -0.1261895 0.21981671 0.09845586 0.2224879
000310 9c 90 4b 3e a8 b2 3e bf 3c ee d0 bd 19 26 37 3f
       0.19879383 -0.7449136 -0.102016896 0.7154251
000320 4e 42 d2 be bb e6 df 3d ff 08 86 3e b9 75 49 be
       -0.4106621 0.1093268 0.26178738 -0.19673814
000330 eb cc fd 3e d2 45 54 3f b8 d5 6b 3e d6 d8 e9 3d
       0.49570403 0.8291904 0.23030746 0.11418311
000340 e8 d0 22 be 65 50 a7 bd 34 94 1e bf ca bb 40 bf
       -0.15900004 -0.08169631 -0.6194489 -0.75286543
000350 39 98 ed 3e 4a 00 c2 3e 32 18 69 be e7 46 a5 be
       0.464052 0.37890846 -0.22763136 -0.32280657
000360 cf ff 8f be cf 07 8b 3e 89 9b 5e bf ff 0a 16 be
       -0.28124854 0.27154395 -0.8695608 -0.14652632
000370 7b 46 e7 3e 2e 0c 02 3e 20 c0 7e 3e 9f c5 2f bf
       0.4517096 0.12699959 0.24877977 -0.6866092
000380 c3 22 4a 3e 72 c4 29 bf 9a 2e 11 bf 11 ed 04 bf
       0.19739823 -0.66315377 -0.56711733 -0.51924235
000390 08 4a 8c 3e f2 2b 6f 3e d9 25 f9 be e2 ab 6d 3e
       0.2740023 0.23356608 -0.48661688 0.232101
0003a0 4b 36 9c 3f 91 d7 0e bf 14 8f 21 3f 68 13 f5 3a
       1.2204069 -0.5579768 0.63108945 0.00186978
0003b0 56 2f a6 3c fb f4 87 3e db c9 93 3e 67 94 68 bf
       0.020286243 0.26554093 0.2886494 -0.90851444
0003c0 d3 1e 25 3f 8e 6f 44 bf ba b7 ea bc 28 0f 60 bd
       0.6450016 -0.7673272 -0.02865206 -0.054701954
0003d0 a3 55 39 3f da 4e dd be e1 6a f1 bc f1 86 b9 3e
       0.72396296 -0.4322422 -0.02946991 0.36235765
0003e0 af f2 3b bd fe 69 59 3e d3 5e 23 bf 29 50 d4 3e
       -0.045885738 0.21231839 -0.63816565 0.41467407
0003f0 a0 e3 8f 3e 14 be 9b 3e fa a7 f9 bd 9e 65 cf bc
       0.28103352 0.30418456 -0.12190242 -0.02531701

fc1.bias f4 [200]
000000 a3 88 ab be 62 ea 8c be 19 2a f7 be 8a b6 01 3e
       -0.33502683 -0.2752257 -0.48274305 0.1266729
000010 f8 99 56 3e a1 5c ae bd 36 4d 54 3e 34 43 de 3e
       0.20957172 -0.08513761 0.20732579 0.43410647
000020 ba ff 1f 3d e0 f0 9d bd 0c cf 8b 3e 04 dc 87 be
       0.03906224 -0.07711959 0.27306402 -0.26535046
000030 d9 8c 59 3f bd a9 08 3e 62 0f 14 3f 8a b0 c9 3e
       0.8498054 0.13346 0.5783597 0.393925
000040 b0 98 08 be 12 fc e1 bc 79 8c 6b 3e be 42 2a 3d
       -0.13339496 -0.027586017 0.23002805 0.041567557
000050 d9 03 8b be 13 3b c3 bd 9d 01 22 3e b5 4c a0 3e
       -0.27151373 -0.09532752 0.15820928 0.31308523
000060 bc b8 18 3e 1a 9a e2 be 7b 4d b0 3c 2b e9 d9 3e
       0.1491422 -0.44258195 0.02152132 0.42560706
000070 93 a3 3e be bf d9 98 3c 18 58 d1 3d 8b d6 2c 3f
       -0.18617086 0.018658517 0.10221881 0.67514867
000080 e6 aa 1f be 72 9b 07 bd b0 99 8e be d0 a9 21 bc
       -0.15592536 -0.03310723 -0.2785163 -0.009867147
000090 c5 e0 b0 3e 52 cc 1c 3f 3e 4f 02 3f 1b 64 d0 3e
       0.34546486 0.6124927 0.50902164 0.40701374
0000a0 99 fb 4a bf 50 6c 97 3e 84 f0 05 3c 46 a9 bb bd
       -0.7929016 0.29574823 0.008175019 -0.09163146
0000b0 43 07 ed 3e 85 2e 80 3e 12 6d 71 be 45 72 69 3e
       0.46294603 0.25035492 -0.23576763 0.22797497
0000c0 69 7e 7c 3d d1 a1 1f 3f fb 99 9e bd c6 51 a8 3c
       0.06164399 0.6235629 -0.07744213 0.020546805
0000d0 7d 5c 09 3f 83 c3 eb 3d 1c 5f 79 be b5 31 b9 3d
       0.5365675 0.115119 -0.24352688 0.09042684
0000e0 43 b6 9e bd ab d0 9a 3e ff 12 d5 3e d6 a5 a7 be
       -0.077496074 0.30237326 0.41616055 -0.3274371
0000f0 dd b5 a5 bc 4b c1 dd 3e 3f 97 d0 3e fa 19 2e be
       -0.02022832 0.43311533 0.40740392 -0.17002097
000100 ae c6 b6 bd 2e 2e c6 3e 9c 50 db 3d a6 01 22 bc
       -0.08924614 0.38707107 0.107087344 -0.009888088
000110 8e ab 2c 3f f3 19 c7 bc 5a 20 a1 3e bd d6 74 be
       0.6744927 -0.024304366 0.31469995 -0.23910041
000120 b1 0c 94 3e 6b a9 ac 3d 82 8e 34 bd 9d b0 06 3f
       0.28915933 0.084307514 -0.04408122 0.5261324
000130 36 41 56 3e e3 08 9e 3d 9c 93 3d 3f 24 d1 a6 bd
       0.20923313 0.07716539 0.7405336 -0.08145359
000140 47 af ee 3d 7d 43 93 be f8 3f dc 3e 34 ab 0c 3f
       0.11654525 -0.28762427 0.43017554 0.54948735
000150 42 ea b4 3e 5e f9 90 be e1 e8 f0 be 30 7f 92 be
       0.35334975 -0.28315252 -0.47052673 -0.2861266
000160 5e 85 85 3e 61 9e 4f 3e 10 9b a8 3b b8 cd c2 3e
       0.26078314 0.2027526 0.005145438 0.38047576
000170 b6 b8 08 3f f9 1a 1d 3f 8d a8 98 3c 07 52 8b bb
       0.53406847 0.6136928 0.018635059 -0.004251722
000180 d2 94 ac 3d fe 6a ef 3d 9e b4 c0 bd 0c 76 a9 3e
       0.08426823 0.11690329 -0.0940945 0.33097875
000190 4c d9 b3 bd ef 43 3e be e1 b8 f7 3d ae 23 c3 3e
       -0.087816805 -0.18580602 0.1209581 0.3811316
0001a0 33 7d 02 bf 2d b7 60 3c 4c 66 af 3c 93 ed f2 3e
       -0.5097229 0.0137155475 0.021411084 0.4744688
0001b0 e6 ab 99 3e 14 7c 13 bf 46 bf 9b be 06 39 3b 3e
       0.3001396 -0.57611203 -0.30419368 0.18283471
0001c0 3f fd eb 3d 61 fe 1b 3e 5a a6 32 3e 38 18 34 3b
       0.11522912 0.15233757 0.1744627 0.0027480256
0001d0 df fa cc be 78 19 c3 3e 08 5c 8b 3e e9 53 c8 3e
       -0.4003515 0.3810537 0.27218652 0.39126518
0001e0 57 be fc bd 24 d1 e8 be aa e5 7f 3e 5f 16 c7 be
       -0.12340992 -0.45472062 0.24989954 -0.38884255
0001f0 7d 40 af be ec e0 6b 3f 75 bc 4c 3f 78 c9 56 bc
       -0.34228888 0.9214008 0.7997506 -0.013109557
000200 4a e1 f0 be e0 54 3f be 81 b7 71 bd eb 29 07 bd
       -0.47046882 -0.18684721 -0.059012894 -0.03299896
000210 6f c3 17 be b1 5c b9 be 16 ec ae be c9 4f 2e be
       -0.14820646 -0.3620353 -0.34164494 -0.17022623
000220 e4 68 8f be 0c 03 cb 3e 36 25 92 3d b7 39 9f 3e
       -0.28009713 0.39650762 0.07136004 0.3109872
000230 54 90 d0 bd 8a 81 8e be c6 eb 43 3e 51 97 32 3f
       -0.101837784 -0.27833205 0.19132909 0.6976214
000240 4f 17 d0 be cf 2c 30 3d 58 86 07 3f 6f ad 9b 3e
       -0.40642783 0.043011483 0.5293937 0.30405757
000250 7f ae b3 3e 3d 60 bb bd f3 d5 b9 3e 54 1e de ba
       0.35094067 -0.09149215 0.36296043 -0.0016946294
000260 76 af fc 3e 28 e8 73 3e be 0b d6 3e dc 73 2f 3f
       0.49352616 0.2381903 0.41805834 0.6853616
000270 31 8f 43 3e 7e 54 08 be 58 17 40 3f 14 4f 0f bd
       0.19097592 -0.13313481 0.7503562 -0.034987524
000280 37 77 06 3f 38 7f a0 3e 63 fb ac be 2d 10 91 3e
       0.5252566 0.3134706 -0.33785543 0.28332654
000290 0a 81 cd bd 68 02 1b be 19 85 a1 be 7f 31 73 3e
       -0.10034378 -0.15137637 -0.31546858 0.2374935
0002a0 83 a7 2e be e9 d7 06 bb 7b 45 da bc 8c 47 73 3e
       -0.17056088 -0.002057547 -0.026644459 0.23757762
0002b0 ae 98 2c be be b6 f4 3d f4 fd f6 be 2d a6 72 bd
       -0.16855118 0.11948918 -0.48240626 -0.05924051
0002c0 51 86 19 3f a6 38 ab 3d 90 4f 19 be 41 d4 3d bc
       0.59970576 0.08360414 -0.14971757 -0.01158625
0002d0 42 ec 02 be 9c e9 b0 3e ec 47 a8 be 3b b7 e8 3d
       -0.12785438 0.3455323 -0.32867372 0.113630734
0002e0 d2 af 89 3e 02 bd 2d 3f e1 95 bc bb 73 9b 99 3e
       0.26891953 0.6786653 -0.0057551716 0.3000141
0002f0 17 2e a0 3c 61 f4 81 bd b2 5d f9 3d c9 19 6a 3e
       0.019553227 -0.0634544 0.12176074 0.22861399
000300 9d 38 93 3e 53 01 8a 3e e1 ac 4a 3e 55 d2 97 3d
       0.2875413 0.26954135 0.1979251 0.074131645
000310 fd 2f 84 be de de ed be 7d 3e da 3e d3 f8 d0 3d
       -0.25817862 -0.46459097 0.426258 0.102037095

fc2.weight f4 [200, 200]
000000 b4 2c ec 3e a1 2b 20 3e 1e 18 c3 bf 99 2b a5 be
       0.46127856 0.15641643 -1.5241735 -0.32259825
000010 12 3b 98 bd fb 46 1d 3e 22 69 8c 3e 4e 59 97 bc
       -0.07433142 0.15359108 0.2742396 -0.018475201
000020 04 c7 8e bf 4c e5 ad bd b7 c4 7b bc e0 ef 19 bf
       -1.1154485 -0.084910005 -0.015366725 -0.60131645
000030 90 fe 4b 3e c0 f0 6c 3e a4 80 1c 3d 67 0f 9b be
       0.19921327 0.23138714 0.03820862 -0.3028519
000040 ef b2 4f be 0f 95 f1 3c 65 f0 c3 c0 b1 4f 6e 3e
       -0.20283101 0.029490022 -6.123095 0.23272587
000050 a5 c9 95 3e f3 6e a1 3d 71 8e a3 3a 78 e2 f5 3d
       0.29255405 0.0788249 0.0012478364 0.12006086
000060 af a8 09 be eb 46 e8 3c 23 5d 22 bc d5 f6 23 3d
       -0.13443254 0.028354129 -0.009909901 0.04003032
000070 47 20 f3 bd de af 03 be 6f 26 82 3e b4 2f 80 bd
       -0.11871391 -0.12860057 0.25419948 -0.06259099
000080 16 dd 2c 3d d2 bc cb 3e c5 7e ac bf 9d 98 29 3e
       0.04220303 0.39792496 -1.3476187 0.16562124
000090 55 38 87 be 30 d5 9c 3e cb d8 45 be d9 f2 70 3e
       -0.26410165 0.306314 -0.19320981 0.23530139
0000a0 4a b1 76 bf 53 78 fe 3e 5c 9e 87 be 3d f8 23 bf
       -0.9636427 0.49701175 -0.26488006 -0.64050657
0000b0 71 c9 ce be 13 7d ba bf 59 4e 90 bf 70 8e d9 3d
       -0.40388063 -1.456942 -1.127391 0.10622871
0000c0 bc 55 26 3d 5b 22 00 bf 9f 1e fd bd b4 9d ee 3e
       0.040609106 -0.5005242 -0.12359356 0.46604693
0000d0 c2 34 02 3e e0 b6 4c 3d 17 34 10 3d ba dd 3a bf
       0.12715438 0.04997909 0.035205927 -0.7299458
0000e0 ad d2 f7 3d a8 8f aa 3d 42 8f 07 3c f3 dc ce b9
       0.1210073 0.083281815 0.008273901 -0.00039456002
0000f0 2a 52 98 bf 3f 7d ea 3c 88 89 7f be 4f 3a a5 3d
       -1.1900074 0.028624175 -0.24954808 0.08067762
000100 12 66 93 3c fc 47 18 bf 16 fe 85 3e 78 ce e3 3e
       0.017993007 -0.5948484 0.26170415 0.4449346
000110 f7 aa 11 3d 35 b1 e2 3e 42 0a e0 be fd 47 2c 3c
       0.035563435 0.44275823 -0.43757826 0.01051521
000120 d1 8d 06 c0 29 2d c3 3e df 39 fd 3b 00 57 46 3e
       -2.1024058 0.38120392 0.007727846 0.19369125
000130 5e 91 04 bd 57 dd 95 3e 06 6e 8a 3c 1f 06 87 3d
       -0.032365195 0.2927043 0.016898166 0.065929644
000140 85 66 3e 3c 53 e7 4e bf 6c 13 b9 3e 7c 9e 51 3e
       0.011621122 -0.8082172 0.3614763 0.20470613
000150 a4 24 3e 3e 1d af cd bd 3a 63 97 be 92 63 e7 3e
       0.18568665 -0.10043166 -0.2956789 0.45193154
000160 3b 59 56 be 66 7d 1b 3c 83 af 35 3e e8 61 1c 3e
       -0.20932476 0.009490347 0.17742734 0.15271723
000170 3a 78 5e bd 25 d2 30 3d 76 c6 3a 3e 7a 78 08 bf
       -0.054313876 0.04316916 0.1823977 -0.5330883
000180 15 44 27 3e c7 59 82 3e cb 3e f0 3c 66 99 eb be
       0.16334565 0.2545912 0.029326817 -0.4601547
000190 74 6c 2d be 6b 4a 44 3e 7a 15 a6 bd d2 d5 fd be
       -0.16935903 0.19169013 -0.08109565 -0.49577194
0001a0 06 59 ce 3d dc 32 c6 3e 00 21 98 3d 29 b6 48 bf
       0.100755736 0.38710678 0.07428169 -0.78402954
0001b0 b1 53 a1 bd 97 6d 85 be c2 83 61 3f f9 79 83 3e
       -0.07877291 -0.26060173 0.8809167 0.25678995
0001c0 2c ed 09 bf c8 8f 82 3e 7e 02 06 3e 19 16 a4 3b
       -0.5387752 0.2550032 0.13086888 0.005007517
0001d0 1a 46 70 bf b7 04 7d be c7 19 fb 3e 36 4d a9 be
       -0.93856966 -0.2470883 0.49043104 -0.3306672
0001e0 3c bc 15 bf e2 ae 8e 3e 75 2d 1a 3d 1b 24 04 bf
       -0.5849035 0.278678 0.037641007 -0.5161759
0001f0 f5 42 98 3e b8 32 ba be 13 bb 2f be 07 3d de 3e
       0.29738584 -0.3636682 -0.17161207 0.43405935
000200 6b 9f fb 3d 71 14 e2 bd 37 d7 52 bf ed f2 f2 bd
       0.12286266 -0.11039055 -0.8235964 -0.11862741
000210 17 ba 4e 3d 92 4d 8d be b1 6d 99 3e 90 e3 02 3f
       0.050470438 -0.27598244 0.299665 0.5112848
000220 42 ad 48 bc 22 ea d3 bd ef fe 27 be 19 58 e6 bc
       -0.012248339 -0.10347392 -0.16405843 -0.02811818
000230 90 24 ec be c6 91 51 bf d8 e8 83 3e 4d 8a 43 bd
       -0.46121645 -0.8186306 0.25763583 -0.047739316
000240 0d 68 24 be c1 3e 82 3e 2c b4 f0 3d 6c d7 2a 3e
       -0.16055317 0.25438502 0.11753115 0.1668374
000250 7f be 88 bd 84 e1 10 3e 3a b6 93 be 33 d4 9f 3d
       -0.06676959 0.14148527 -0.28849965 0.07804146
000260 b4 9e a1 3e da e8 e8 3e 05 58 1a 3e 58 c2 00 3e
       0.31566393 0.45490152 0.1507264 0.12574136
000270 98 a3 de be d2 b5 00 3f f9 c1 cf 3c 3d f7 de bb
       -0.43484187 0.50277436 0.025361048 -0.0068043754
000280 c2 ab 51 3d b8 a5 e9 bb 03 70 8a 3e b4 5a 18 bd
       0.05118919 -0.007130351 0.27038583 -0.037195876
000290 b2 22 67 3e 7b 1a 53 3e 5c 97 69 3e 71 0b 0b bc
       0.22571829 0.2061557 0.22811645 -0.008486615
0002a0 29 a3 c7 be fc db 52 3e 55 2c 87 3e b1 2a c1 bd
       -0.3899167 0.2059173 0.2640101 -0.09431971
0002b0 76 51 b3 be 38 93 7b 3d 17 b5 e2 bf 25 e4 8c 3e
       -0.35023087 0.061419696 -1.7711514 0.2751781
0002c0 58 40 48 3e 73 f4 a4 3e b1 b1 43 3e 06 59 f3 3d
       0.19555795 0.3221775 0.19110753 0.11882214
0002d0 b2 09 73 bf 5c 30 c2 3e 69 2f 8b 3e 2e 00 ab bd
       -0.9493667 0.3792752 0.2718461 -0.08349644
0002e0 77 b6 01 bf f0 c0 91 3e 19 a2 a4 3e b6 39 9f 3e
       -0.50669044 0.28467512 0.3215492 0.31098717
0002f0 95 6c f8 bd 0d bd 0d 3d 68 1a bc be b5 51 5d bd
       -0.121300854 0.03460412 -0.36738896 -0.054033
000300 d2 08 a3 bf 8a 6a 31 bd ee 37 8a 3d 71 a8 0a 3f
       -1.2737067 -0.043314494 0.06748949 0.5416327
000310 0c f6 1a 3d 81 fb 2b 3c 81 6a 79 be 92 51 60 bf
       0.037832305 0.010496975 -0.24357034 -0.87624466
000320 8e 48 da bc d0 60 7d 3d 0b 5d a8 bd 4c ac 9d 3c
       -0.026645925 0.061859906 -0.082208715 0.019247197
000330 8d eb 37 3d 89 75 43 bd 3f 23 b4 bd ee 3e 8c 3c
       0.044902373 -0.047719512 -0.08795785 0.017119851
000340 0b 60 25 3d 34 91 94 bd 40 53 1a 3d db 98 88 3b
       0.040374797 -0.07254258 0.03767705 0.0041686124
000350 0b 70 2e bd 64 94 96 bd 92 37 34 bd b0 7b 54 3c
       -0.04258732 -0.07352522 -0.04399831 0.0129689425
000360 ed a0 8f bd da 2b 2c bc 30 16 51 bd 0b eb ba bd
       -0.07013116 -0.010508502 -0.05104655 -0.09126862
000370 95 03 5f bd d7 9f 7a bd 63 2f 9d bc 1d 8e d9 bc
       -0.054446775 -0.06118759 -0.019187635 -0.026557023
000380 73 ee 51 3c 00 c8 b6 3c 6c 3b 33 bb 2b 01 7f bd
       0.012813198 0.022312164 -0.002734865 -0.062256973
000390 d7 2b 88 3d d4 fd 1a 3d 37 aa 04 bd 62 fa 73 bd
       0.06648987 0.037839726 -0.032388892 -0.059564956
0003a0 15 f4 bb bc 8d 44 98 3c e8 e5 4e bd 6a c3 bf 3c
       -0.022943536 0.018587375 -0.050512224 0.02340861
0003b0 d0 b5 23 bd 4b 9d 7b bd e6 a0 0e bc 5e c5 e9 bc
       -0.03996831 -0.061429303 -0.008705353 -0.028536495
0003c0 44 b7 86 bc f5 71 64 3c 62 31 32 3c 98 2c 44 bd
       -0.01644481 0.013943185 0.010876032 -0.04789409
0003d0 41 43 50 bd 25 9b 4b bd 2e b2 2e bd 6d 25 8c bd
       -0.05084539 -0.049708504 -0.042650394 -0.06843076
0003e0 22 47 7c bd 4b 34 19 3d 6f 63 4b 3b 8c 83 64 3d
       -0.061591275 0.037403386 0.003103461 0.055789515
0003f0 62 bd 12 bc fc 5c ef 3c 0f 2e bf bc 41 e6 57 bd
       -0.008956285 0.029219143 -0.023337392 -0.05270982

fc2.bias f4 [200]
000000 d4 55 18 3d a3 80 23 3d 53 42 8b bd 0f 14 29 be
       0.037191227 0.0399176 -0.0679976 -0.16511558
000010 3b 61 6a be e2 6b 42 3e 36 27 a6 bd e0 72 88 bb
       -0.22888653 0.18986467 -0.08112948 -0.004164085
000020 4f 2c fd 39 4b 05 91 3e 89 9c 33 3e 0b 2e 86 3d
       0.00048288933 0.2832435 0.17540182 0.06551751
000030 5c 48 67 3e 5d aa 39 be 88 31 07 3d bf b1 0e 3d
       0.22586197 -0.18131395 0.03300622 0.03483748
000040 2a e8 eb bd 1c a4 cc bd e3 27 b2 3e 2f 85 1a bc
       -0.11518891 -0.09992239 0.34796056 -0.0094311675
000050 50 96 b1 bb c2 73 28 be 9a 03 b4 3d 15 24 2d bd
       -0.00541953 -0.16450408 0.087897494 -0.04227074
000060 ae be 69 be b1 1b 79 be 1b 6a 55 3b 63 38 65 3d
       -0.22826645 -0.2432697 0.0032564464 0.055961978
000070 d4 62 20 bd 71 c4 f7 bd 61 34 9d bd 8d 10 35 be
       -0.03915675 -0.12098015 -0.07676006 -0.17682095
000080 cb 95 58 be be 95 12 3e 27 02 15 3e 4e 97 19 be
       -0.21150891 0.14314935 0.14551602 -0.14999124
000090 8f 99 1f be ac d7 1e 3e a1 c2 38 be 50 3f df bd
       -0.15585922 0.1551196 -0.18042995 -0.10900748
0000a0 4a d8 a7 bd 9a a4 ab bb 47 c1 43 be 7b 3d 3b be
       -0.08195551 -0.005238128 -0.19116698 -0.18285172
0000b0 db 39 27 bd dd cd b0 bd ba e8 8f 3c 99 eb 83 3c
       -0.04082666 -0.08633015 0.017567027 0.016103553
0000c0 1b 81 4d be e6 c3 c0 bc d1 25 8b bd 74 26 fc bd
       -0.20068781 -0.023530912 -0.06794322 -0.12312022
0000d0 02 ba 33 be 28 2e 25 be 94 90 51 be c5 64 62 bc
       -0.17551425 -0.16130888 -0.20465308 -0.013817971
0000e0 e9 17 0b bd 5e 47 60 be 31 ca 1a bd e1 a4 29 bc
       -0.03395835 -0.21902224 -0.03779048 -0.010354252
0000f0 df 41 c9 3c 54 b9 24 be bd f5 c5 bb 41 80 bf 3d
       0.024567543 -0.16086322 -0.006041257 0.09350634
000100 d8 78 1a be 3e c1 4a be 1d 46 ab 3e 52 0e 39 be
       -0.1508516 -0.19800279 0.3345193 -0.18071869
000110 39 a4 33 bc 0b 00 97 be 7e 67 17 3e 97 9f 61 bd
       -0.010964447 -0.2949222 0.14785573 -0.055083837
000120 05 52 4b be 4d 03 aa bd 87 32 58 3e 10 38 58 be
       -0.19855507 -0.08301411 0.21113025 -0.21115136
000130 76 f0 04 be 65 c3 6e bc fd 31 e5 bd dd 85 82 3d
       -0.12982354 -0.014572953 -0.11191175 0.06373189
000140 57 53 64 be 22 e5 73 bd 1f 5b 98 3d cb bc 44 be
       -0.22297417 -0.05954469 0.07439255 -0.19212644
000150 e6 8e d0 bc 96 5a 32 bc 8c 99 fb bd 75 c1 22 bd
       -0.025458764 -0.010885855 -0.12285146 -0.039735276
000160 2a 4e 32 3e b9 8a 68 bd 12 7f b3 bd bf 55 71 be
       0.1741263 -0.05677292 -0.08764471 -0.23567866
000170 2e bd a6 bc 38 ae 6d be f0 39 55 3e 5b 0c a3 bd
       -0.02035388 -0.2321099 0.20822883 -0.07961341
000180 68 4d 84 3c 0d fc 63 3e bc 56 e6 bc c9 79 20 be
       0.016150191 0.22264118 -0.02811753 -0.15671457
000190 49 73 2b bc 2d 8b 0d 3d 92 8b 80 be 34 83 45 bd
       -0.010464498 0.034556556 -0.25106484 -0.04822083
0001a0 e8 4a 87 be d1 68 bb 3e 35 f0 80 bd f5 f7 81 be
       -0.26424336 0.36603406 -0.06295816 -0.2538449
0001b0 9b b5 11 3e 87 e9 b2 bd fc 47 47 be a4 14 3e bd
       0.14229433 -0.08735948 -0.19461054 -0.046406403
0001c0 d6 aa 77 be 6c 32 3c 3e 6b 4c 9f bd b3 08 1e be
       -0.24186262 0.1837861 -0.077782474 -0.15433006
0001d0 66 eb 06 3d d9 e3 52 be be c9 a3 bd f2 a7 75 bd
       0.032939337 -0.2059473 -0.07997464 -0.05997462
0001e0 40 b0 fb bd 5c 2c 34 be 1e 8a d1 3e e8 fd a1 bd
       -0.122894764 -0.17595047 0.40925688 -0.07909757
0001f0 d1 c6 6e 3d ca b7 d1 3e 50 bc a5 bc e4 18 2e be
       0.058295075 0.40960532 -0.020231396 -0.17001683
000200 92 a2 bc bd c2 41 64 3d 8e df fc bc 62 30 b0 bd
       -0.09210695 0.055726774 -0.030868318 -0.08602978
000210 ca f7 70 bd 3e 90 5e be 81 e0 98 be 35 42 17 3e
       -0.05883006 -0.21734712 -0.29858783 0.1477135
000220 ea 00 e4 3c e4 5e 19 be db 50 43 bd e8 6f 39 3d
       0.027832467 -0.14977604 -0.04768453 0.045272738
000230 b1 6f 93 3d 41 e6 44 3d e4 5c 2a bd 7d db 2c 3b
       0.07199038 0.04807115 -0.041592494 0.0026375942
000240 6d 29 1c bb 22 c5 3c be 5f c8 85 bd 90 db 5d bd
       -0.0023828403 -0.18434575 -0.065323584 -0.05416447
000250 98 3a f2 3c f9 62 2f bc cf 5c 59 be c8 a0 f3 bd
       0.029568955 -0.010704749 -0.2122681 -0.11895901
000260 ec e7 44 3c 96 b9 4b be 25 e2 fa bc ac 66 81 be
       0.012018185 -0.19895014 -0.030625412 -0.25273645
000270 ec b1 2c bd 9c eb 61 bd e7 c7 bf bd 5d 5d d6 3d
       -0.042161867 -0.055156335 -0.093643 0.104670264
000280 3b b2 03 be 8a 85 24 be 66 6c 7b be ee 62 7d be
       -0.12860958 -0.16066566 -0.2455307 -0.2474477
000290 df 33 9b bd 08 5e 3d 3e af cc 3f 3d 4d 56 31 bc
       -0.07578253 0.18492901 0.04682606 -0.010823798
0002a0 0a d6 65 bd 2e 9e 47 3e 1c 06 c8 3e 1a f4 2b be
       -0.056112327 0.19493935 0.3906716 -0.16792336
0002b0 62 ea c2 bd af 33 b2 3d fe 01 33 3e cc 8f 16 3e
       -0.09517361 0.08701264 0.17481229 0.14703292
0002c0 6c 71 72 bc 00 20 b9 3c e5 c5 0c be 9e 28 4d bd
       -0.01479755 0.022598267 -0.13747366 -0.050087564
0002d0 cd 18 b0 bd e5 0b 23 3d 18 33 23 3d ce 3f c2 3e
       -0.085984804 0.039806265 0.03984365 0.37939304
0002e0 30 cc 33 be 92 d4 72 3c 58 53 8b bd ec d0 bd 3e
       -0.1755836 0.0148211885 -0.06803006 0.37073457
0002f0 1b 11 53 3d da af 95 3b 81 f3 e9 bd 46 7a b4 bc
       0.051529985 0.0045680823 -0.11423398 -0.02203096
000300 3f ee 7c bd ac 91 00 bc 5b ea 21 bc 54 ba 55 be
       -0.061750647 -0.007847231 -0.009882535 -0.2087186
000310 a0 83 c1 bd 3f 40 2f bb 02 03 17 3d 32 ad fd bc
       -0.094489336 -0.0026741175 0.036868103 -0.030966375

fc3.weight f4 [4, 200]
000000 df 3b d0 3e 5c e0 b3 bc 76 63 9c 3c 5e 79 4a bf
       0.40670678 -0.021957569 0.019090395 -0.7909144
000010 95 83 45 3f 37 0c 4a 3f e7 97 46 bf 8a 1f 1d 3d
       0.77153903 0.7892489 -0.77575535 0.038360156
000020 2d 53 4b bf 61 e3 d1 bc fb 80 60 bf f6 12 fe 3e
       -0.7942379 -0.025621118 -0.8769681 0.4962384
000030 be f4 66 3f b2 44 ec be b9 f6 4e bd a2 3b 15 3d
       0.90217197 -0.4614616 -0.05052826 0.036433823
000040 a7 4d 34 3f 2e 27 82 3f e3 ad 37 bf f4 37 41 bd
       0.7043099 1.0168207 -0.71749705 -0.0471725
000050 d9 bc 47 bd 3a 83 4c bf 46 09 6f 3f 96 e6 09 bd
       -0.048764084 -0.79887736 0.93373525 -0.03366717
000060 89 42 69 3f 85 8e 1f bf 5d f1 16 bf 98 a4 cb 3e
       0.9111715 -0.6232684 -0.5896204 0.39774013
000070 b1 c4 39 bf 9c 86 35 bf dd d1 33 bf 24 c9 07 be
       -0.7256575 -0.7090852 -0.702421 -0.13260323
000080 8c 88 32 bf 3a 13 26 3e 64 7b 19 3f 69 88 3d 3f
       -0.69739604 0.16218272 0.59953904 0.7403627
000090 8e 6d 20 bf 2a 96 bf 3e 6b 84 52 bf 11 b7 2c bf
       -0.6266717 0.37419254 -0.82233304 -0.6746684
0000a0 6f 98 4c bf b9 eb f2 bc b3 e7 3c bf 50 25 89 bf
       -0.79920095 -0.029653417 -0.73791045 -1.0714512
0000b0 dc fc 85 3f 9c a1 47 3f f3 e4 78 3c b6 2c 28 3f
       1.0467792 0.7798097 0.0151913045 0.65693223
0000c0 2b f4 44 bf b4 37 a3 3c 66 c5 48 3d 5f 37 34 bf
       -0.7693507 0.019924022 0.04901638 -0.7039699
0000d0 b9 39 1b bf 16 91 2c bf c6 d7 1f bf 57 e2 94 3d
       -0.6063495 -0.67408884 -0.6243862 0.072697334
0000e0 db 47 8a 3d 15 ad 4d bf ef bd 09 bd e7 5b 6b bd
       0.067519866 -0.8034223 -0.0336284 -0.05746069
0000f0 73 ea 38 3f 3a 92 81 3f 80 a4 03 bf 4c 04 72 3f
       0.7223274 1.012275 -0.5142288 0.94537807
000100 7c ec 21 bf 30 17 61 3f 64 db 68 3f e3 f9 11 bf
       -0.6325147 0.87926006 0.90959764 -0.5702192
000110 34 f7 89 3e 0b da 0a bf e3 72 a1 be 22 62 52 3d
       0.26946414 -0.5423896 -0.31532964 0.051363118
000120 69 6d 37 bf e6 81 22 3f db a1 53 bf ff 07 59 3f
       -0.7165132 0.6347946 -0.82668847 0.84777826
000130 e7 70 20 3f 19 df 5a bf b9 7f 4b bf 83 ba 53 3f
       0.62672275 -0.8549667 -0.79491764 0.8270647
000140 7f fc 15 bf f9 08 36 3f ed ed 3d 3f 79 73 a8 bc
       -0.58588403 0.7110744 0.7419117 -0.020562874
000150 00 6d 47 3f 4f 91 11 bf 47 9d 44 bf 49 82 2f bf
       0.77900696 -0.5686235 -0.76802486 -0.68558174
000160 b6 aa a4 3f 06 63 5a 3d dd ca 21 bf aa 1b 02 bf
       1.2864597 0.053317092 -0.6320017 -0.5082346
000170 5c 32 96 3f 96 c7 2d bf 6d 19 46 3f 58 e2 c3 be
       1.1734118 -0.6788267 0.77382547 -0.38258624
000180 43 6b ad bd 4b 29 1e 3f ad b2 35 3f 4c 9d 46 be
       -0.08467724 0.6178176 0.7097576 -0.19395941
000190 7c 26 c3 bc 78 fa 3f 3c 14 3e e6 be 88 c0 3f 3f
       -0.023822062 0.011717431 -0.44969237 0.74903154
0001a0 9f 69 89 3b 0d d4 14 3f 7b 2d 1a bf 7e 03 26 bf
       0.004193499 0.58136064 -0.6022565 -0.6484908
0001b0 7d 8c 4e 3f da 19 3b bf 19 21 2a bf 4a ba f7 bc
       0.8068312 -0.7308632 -0.66456753 -0.030240197
0001c0 e0 a0 4d 3e d3 5e cd 3e 05 e0 28 bf 11 aa 5c 3f
       0.200809 0.40111408 -0.65966827 0.86197
0001d0 0d d0 90 3f b8 76 3e bf d0 c5 44 bf 84 f3 5e bf
       1.1313492 -0.743999 -0.7686434 -0.87090325
0001e0 85 20 27 bf bc ac cd ba 30 61 97 3f 4d 48 81 bc
       -0.65283996 -0.0015691738 1.1826534 -0.015781546
0001f0 91 cc ea ba b3 6e 82 3f db 71 17 3f 4e db 41 3f
       -0.0017913749 1.0190033 0.59158105 0.7572526
000200 15 7a ae 3e da df 48 bf a2 76 63 bd 28 e8 33 bd
       0.34077516 -0.7846657 -0.05553306 -0.043922573
000210 31 86 0a 3f 65 79 36 bf ef 54 0b 3f 21 17 2f 3f
       0.5411101 -0.71278983 0.54426473 0.68394667
000220 83 05 5d bd 33 1c cc be b9 83 12 3f d5 8d 25 bc
       -0.053960335 -0.39865264 0.5723224 -0.010104616
000230 74 82 0a 3e 80 b8 ff 3e c5 bc 47 bd 20 e1 18 3f
       0.13526326 0.4994545 -0.04876401 0.59718513
000240 02 b6 ae 3e 94 77 44 bf ae 09 0c 3d d7 4d c5 3c
       0.34123236 -0.7674496 0.03418892 0.024084968
000250 b2 59 cb 3d c8 67 35 bf bf 3a 41 be e0 f5 15 bf
       0.099292174 -0.7086148 -0.18870066 -0.585783
000260 66 8a 37 3f ff 92 18 bf b2 f2 2c bc b8 68 92 be
       0.71695554 -0.595993 -0.01055591 -0.2859552
000270 0d 2f 6d bd 11 c6 8a bd 1c dd 48 3f 01 b9 82 bf
       -0.0579062 -0.067760594 0.78462386 -1.0212709
000280 b2 9d 04 bf 2a 37 2d bf cd 09 23 bf df 64 49 3f
       -0.51803124 -0.676623 -0.6368683 0.7866954
000290 34 3d ac 3c 82 5a e6 3e f3 e5 1d bf be 84 3d 3d
       0.021025278 0.44990927 -0.61679 0.04626917
0002a0 ee 11 34 bf f1 91 0a 3f d7 af 10 bf 1b 95 f7 be
       -0.7033986 0.5412894 -0.5651831 -0.48355946
0002b0 6f f9 17 bf 43 cf e6 3c d4 41 f1 3e 28 b9 61 3f
       -0.5936498 0.028175002 0.47120535 0.8817315
0002c0 4a db 73 3f a6 2e 4a 3d 45 61 34 3f bc 59 6f 3f
       0.95256484 0.049360894 0.7046092 0.934963
0002d0 5e ed 45 bf 61 16 b5 3f 10 0f 72 3d b2 ee 8a 3f
       -0.7731532 1.4147455 0.059096396 1.0854094
0002e0 e0 56 32 bf 0c 83 9e be c0 32 65 3d c5 c5 93 3f
       -0.6966381 -0.30959356 0.055956602 1.154473
0002f0 e3 1b 98 3f 39 13 02 bd dd 75 17 bf 45 48 ff 3c
       1.188351 -0.031756613 -0.5916422 0.03116239
000300 e8 16 0d 3d b1 a3 9f bf 97 e6 a0 bc cb 57 3e 3f
       0.034445673 -1.247183 -0.019641204 0.7435271
000310 6b 2a 32 bf 34 f2 05 3c 2e 10 3f 3f 45 42 46 3d
       -0.69595975 0.0081754215 0.74634063 0.048403043
000320 e4 6b f1 be 0e ec 0f bc 6d 7c 5c 3b 63 07 37 bf
       -0.47152627 -0.008784307 0.00336435 -0.71495646
000330 a9 87 17 3f 6a 70 7b 3f 9e 12 07 bf c8 6f d6 3c
       0.59191376 0.98218405 -0.5276278 0.026176348
000340 6e 77 00 bf 7f 8f 21 3e 53 bb 55 3f 45 72 a2 3f
       -0.50182235 0.15777396 0.8348896 1.2691122
000350 d4 cc 50 3f 65 48 0f bf 54 df 61 3d 45 b6 12 bc
       0.8156254 -0.5596984 0.055144623 -0.008954589
000360 af 82 5e 3f e4 59 99 3f 62 85 29 bf b0 ab 33 bd
       0.8691816 1.1980557 -0.6621915 -0.043864906
000370 c4 62 82 bc 2f e8 dd be 17 de 91 3f 23 45 65 bc
       -0.015916236 -0.43341205 1.1395901 -0.013993534
000380 2b 97 36 3f d8 e3 3a bf 09 35 75 bf b9 c5 41 3f
       0.71324414 -0.7300391 -0.9578405 0.75692326
000390 fb 19 0c bf 51 b2 f9 be 24 3b 33 bf 24 c3 cb bc
       -0.54727143 -0.48768857 -0.70012116 -0.024873324
0003a0 86 60 28 bf ae 28 34 3f 09 2f 63 3f 07 0c 13 3f
       -0.65772283 0.7037457 0.88743645 0.5744023
0003b0 f8 49 43 bf 44 35 38 3d c9 f3 1c bf e7 fc 3c bf
       -0.7628474 0.044972673 -0.61309487 -0.738234
0003c0 d3 f8 3d bf 30 60 17 3c 25 cc 1e bf c5 49 38 bf
       -0.742078 0.0092392415 -0.6203025 -0.71987563
0003d0 49 9c 54 3f cc 06 df 3d ad c1 49 3d 8a 52 44 3f
       0.8305097 0.10889968 0.04925697 0.76688445
0003e0 4b 01 53 bf 6d fa 23 3d 48 fe d2 3c a1 8e 21 bf
       -0.8242385 0.040033747 0.025756016 -0.6310826
0003f0 95 db 25 bf 5f 2f d2 be 0b 53 38 bf 0c 5d 6c 3b
       -0.6478818 -0.41051766 -0.72001714 0.0036066202

fc3.bias f4 [4]
000000 98 81 14 be 15 8d fa 3d b8 a6 15 3e 8a b1 f7 bc
       -0.14502561 0.122339405 0.1461438 -0.030236024
