models/model_run_10.pth (torch, 75729 bytes, 6 tensors)

fc1.weight f4 [128, 8]
00000000: bb55 0c3f 1444 143f 9074 033e b7db 263f
00000010: 2c18 98bd 6619 ecbe 160d 9cbf 2d48 2b3c
00000020: 84de 153f 427d 853d 74fb 2d3e e089 c73e
00000030: 9ee3 3c3f 1914 143f 0358 66bf 9e77 f5bd
00000040: 3241 083e 1c40 c73e 50a2 873d c5c0 a4be
00000050: 4a6c 113e ea1d 90be 9551 dabe 19a0 39bb
00000060: cbdd 4e3f aaf7 a9be 58a3 513f 7eb3 893e
00000070: d190 123f e491 313f 1ab5 01bf b58a 3fbe
00000080: b30b c93e afaa 193e ee1a 2bbe 9b28 6fbe
00000090: 4342 76be 3d6f 63bf 89f7 913e 8151 babe
000000a0: af8f 1dbf 79e8 6c3e 5965 c63e 9926 563f
000000b0: c8ad 113f 66c2 58bf 06e6 75be 4c97 46bb
000000c0: dea9 83bf a2d6 08be f595 af3e 534b 6dbe
000000d0: e4b4 9a3c 5d6a e1be b21b 713d da9a c73b
000000e0: a9ca 023f 859f b63e 68d0 373d d5a8 b7bd
000000f0: e84d e4bd 697b 63bf 7c1e b93e 54d1 e33e
00000100: a43c 37bf 4ac8 413d b374 493f a9e2 dbbe
00000110: 3e14 f9bd b18a 803e 66eb d3be 9eb4 fb3d
00000120: b8ce 1ebf 7dde 16bf d34e 9ebd ab8f 3dbf
00000130: 4d1c 0bbf 499d 5cbe 1e7d ccbc 2bcd 1c3f
00000140: 93b0 373e e25f 573e 58e1 4bbe 24ee 4b3e
00000150: 27a4 1bbe 3bf6 c93d 93de d43d b29c 22be
00000160: f0c3 6e3e c899 70bd 45ac 6e3f acf3 8abe
00000170: 2a58 97be 8e5a 093f 2273 003e f16b 95bd
00000180: 5216 b0bd 1419 383e 2e6e 1bbd 79dc 3abf
00000190: 3470 25bf b703 b73d 016e fd3e e8cb babd
000001a0: ea45 90bc 102c c83e 5573 9f3e 7359 223f
000001b0: cf8a 043d e793 2dbf abab aa3e c27a b6bd
000001c0: 4d79 cf3e ef3d f2be 7cfa e73e 4b6c 77be
000001d0: 5468 e6be 030c 74be 5221 833e f311 993e
000001e0: 2e6a 00bf f3bd 9b3e 467e 993e 0169 d83e
000001f0: 7cce 53bf d5cd cfbe 0488 cfbd fe4e c03c
00000200: 9ee0 0b3f fd49 7cbf 0392 8b3e 7326 83bf
00000210: 408c fcbe d08c e4bc 9407 493e 5119 2a3e
00000220: e55a febe 0e55 d33e 0938 083f 212b 1bbd
00000230: a0f7 4bbf 5e32 0bbf db78 3abe 69cf b63d
00000240: a453 03bf 0077 d23e 5e58 4e3f 2544 edbd
00000250: 0879 f3bd 248e 313d 216d 433c 0f47 d03e
00000260: 163f 85be bfd1 9fbe 2790 2abd 7834 05bf
00000270: 0502 18bf 9ecd 05bf 9690 16bf 0e88 ca3e
00000280: 2466 153f 0b31 a23e fda5 153d b232 f03d
00000290: 4f5c b3be 185a 68bf 31b5 81be ab18 af3e
000002a0: 385a 4c3f 5011 073f bec0 4f3f 9175 1e3e
000002b0: 229d b13d 98e7 c63e 8299 37be 38e5 f63e
000002c0: 9828 353e 83c2 c0be c00d b03e 3fcd 1ebf
000002d0: 7052 2dbf eac8 b7bd ba26 033f 9a0e e53e
000002e0: 13a8 193e 8198 6dbd 159e 7d3f e5f5 a83e
000002f0: 66e9 1cbf e921 a53e bc2e 51bf 20da b53d
00000300: 915e 5c3e c5bf 49bf d3d1 d03e 549e 55be
00000310: f48d 2abf 12b7 08bf 5cf7 41bd df71 2e3e
00000320: 553c cd3d 49a5 12be 327e a13e 5b6a 163e
00000330: 6908 473f 1c7e 333f fc45 93bf 9dbe f7be
00000340: c115 acbe f1d0 cbbe 0235 4cbe d6c2 843f
00000350: 4471 693f b9c3 203d 144c 92be b9df 993e
00000360: e5ab 823e b873 d33e e6e3 5c3f dece 1d3e
00000370: 833b 13bf 672c 0e3f 9714 e2be 39bb 0f3f
00000380: e6c3 1d3f 6a88 ae3d 0374 bcbe bbab 54be
00000390: acfe 073d d11d 10bf 2e70 3ebf 772a 0bbf
000003a0: 082d aebe c3ec 7cbf 91d3 bcbe d83d 7cbf
000003b0: 8235 a8be ca83 95bd a620 1d3e d6b2 9f3d
000003c0: 6272 abbd 1fdd c33e 097d 953e dd30 163f
000003d0: f3ec 3ebd 5a3d bbbe cbda 933d 4629 043c
000003e0: 964f 833d 3648 303f 8cf2 74be a6d0 b43e
000003f0: 7326 803f ba06 423f eb89 e23e ae50 0bbf
0.54818314 0.5791638 0.12837434 0.6517901 -0.074264854 -0.46113127 -1.2191494 0.01045422
0.58542657 0.06518032 0.16990453 0.38972378 0.73784816 0.57843167 -0.89978045 -0.11985706
0.1330612 0.389161 0.066227555 -0.3217832 0.14201465 -0.28147823 -0.42640367 -0.0028324185
0.8080718 -0.33196765 0.8188987 0.26894754 0.5725222 0.69363236 -0.50666964 -0.18705256
0.39266738 0.15006517 -0.16709492 -0.23355334 -0.24048714 -0.8884161 0.28509167 -0.36390308
-0.6154737 0.23135556 0.38749197 0.83652645 0.56905794 -0.8467163 -0.24013528 -0.0030302582
-1.0286214 -0.13363126 0.34294096 -0.23173265 0.018885083 -0.4402646 0.058864303 0.006091458
0.51090485 0.3566858 0.044876486 -0.08967749 -0.11147672 -0.88860184 0.3615607 0.44495642
-0.71576905 0.04731015 0.78693694 -0.42946365 -0.12162064 0.25105813 -0.41390532 0.12290309
-0.6203418 -0.5893324 -0.07729878 -0.74047345 -0.5434006 -0.21544375 -0.024962004 0.6125056
0.17938451 0.2103267 -0.1991018 0.19915062 -0.15199338 0.09861418 0.10394015 -0.15880087
0.23316932 -0.058740407 0.9323161 -0.27139032 -0.2955945 0.536538 0.1254392 -0.07295979
-0.08598007 0.17978317 -0.037946872 -0.72992665 -0.64624333 0.089362554 0.4949799 -0.09120923
-0.017611463 0.39096117 0.3114268 0.6341774 0.03235894 -0.67803806 0.33334097 -0.08910133
0.40522233 -0.47312877 0.45308292 -0.24162404 -0.4500147 -0.23832707 0.2561136 0.29896507
-0.5016202 0.30418357 0.2997915 0.42267612 -0.82736945 -0.40586725 -0.10133365 0.023475166
0.54639614 -0.985504 0.27259836 -1.0246109 -0.49325752 -0.027899176 0.19631797 0.1661122
-0.49678722 0.4127583 0.532105 -0.037882928 -0.7967472 -0.5437373 -0.18210165 0.08926279
-0.512995 0.41106415 0.8060359 -0.11585263 -0.11888319 0.043348446 0.011927874 0.40679213
-0.26024693 -0.3121471 -0.04164138 -0.52033186 -0.5937808 -0.5226687 -0.5881437 0.39556926
0.5835898 0.31678042 0.036535252 0.11728419 -0.35031363 -0.9076247 -0.2533355 0.34198508
0.7982516 0.5276079 0.81153476 0.15474536 0.08672549 0.38848567 -0.17929652 0.48221755
0.17691267 -0.376484 0.3438549 -0.6203193 -0.67703915 -0.08973868 0.5123097 0.44737703
0.15005521 -0.058006767 0.9906934 0.33000103 -0.6129364 0.32252434 -0.81711936 0.08879495
0.21520449 -0.7880824 0.40785083 -0.20861179 -0.66622853 -0.53404343 -0.04735504 0.17035626
0.10021273 -0.14320864 0.31541592 0.14689009 0.7774721 0.701143 -1.1505733 -0.48387614
-0.33610347 -0.39807847 -0.19942096 1.0371959 0.91188455 0.039249156 -0.28573668 0.300535
0.2552177 0.41299224 0.86285245 0.15410945 -0.5751268 0.555365 -0.44156334 0.56145054
0.6162704 0.08522113 -0.3680726 -0.20768635 0.03320186 -0.56295496 -0.7438992 -0.5436167
-0.3401873 -0.9879877 -0.36880162 -0.98531866 -0.32853323 -0.073005274 0.15344486 0.07797782
-0.08371426 0.3825464 0.29196957 0.5866831 -0.04661269 -0.36570245 0.07219466 0.008066481
0.06411664 0.68860185 -0.2392065 0.35315436 1.0011734 0.75791514 0.44245848 -0.5441998

fc1.bias f4 [128]
00000000: 76ec c83e 52f3 943e 00eb 023f 1252 ffbe
00000010: 8836 923e 90db 123f c70f e13e ab74 603e
00000020: 462e 6a3e b4aa 9cbe 69c0 2e3f 173e e2be
00000030: 33d7 36ba bb8e 0b3f 81df 61bd 1942 31bf
00000040: c278 6cbe 316d 5dbd 47e4 52bd 37c3 f0be
00000050: 33fa 00bd 5545 b1be 4d27 85be bad8 1dbe
00000060: c72d 083f 278b 7ebe b116 ad3e 5515 4ebe
00000070: 34bc f13e 13c7 acbe ffbc 173f 8c19 7f3d
00000080: 1680 dabd 2858 dcbe c580 b4be e521 433e
00000090: 5e9a 603e b64f 49be d79e a73d d77a 903e
000000a0: 4ce0 b63e 5ed8 413f 2ac3 3f3e 9913 ab3e
000000b0: 1ce2 023f 97f7 8b3c 4bd2 993e bc52 483e
000000c0: 8641 e6bd 5eed 79be cf66 c03d 9f25 883e
000000d0: 3764 cb3e bf24 413e 5df3 acbd 1890 1fbd
000000e0: f0cb 2f3f 3518 4a3f 93bb be3e 54d6 0bbf
000000f0: 637d bc3c de6d 183f 5f2e 73be 3adc 16be
00000100: dac7 1cbf b61c 7b3e 3772 d33e 0499 ef3e
00000110: 5a1d 6dbd e6f7 ae3c 9149 23bf 4150 ba3e
00000120: 38db 66be feb5 9cbe 83b2 9e3d 8e97 283f
00000130: c36d d2be 661e a4be 4e34 2d3d 2fad 2d3f
00000140: fc07 b7be 5a3b 963e 5a1b f33e e1aa 023e
00000150: 7718 b03e c48b 093f f5a0 e73e a05c 773d
00000160: e477 963e 162d 57bd dc76 b03c 89fa f33c
00000170: 0407 913d 92a8 9abe 1bea 233f 72cc f5be
00000180: 05ff 10bc 4831 99be 6913 83be 68fe 233f
00000190: 51cd 943e b3c4 f03e 05ee 8ebe 4a88 83bd
000001a0: e147 2e3e 04b6 af3e 3faa 79bb a929 ad3e
000001b0: b861 b4bc 4369 013f ee6c 69be c55d 833f
000001c0: 6b84 29be 8fe5 043f 3455 0e3f b25f 0f3f
000001d0: 5dbb 28bf 9fcb bd3e 4a51 b53e 2d42 0d3f
000001e0: 652c 023e f9c7 f33e 9389 1f3f 4fb1 f23e
000001f0: 33cf 01be a7a6 eb3e 2884 3f3e 2524 c23d
0.39242905 0.2909189 0.5113983 -0.49867302 0.2855723 0.57366276 0.4395735 0.21919505
0.22869214 -0.30598986 0.68262345 -0.44187996 -0.0006974816 0.54514664 -0.05514479 -0.6924148
-0.2309294 -0.05405921 -0.051487233 -0.47023937 -0.03148861 -0.3462321 -0.26006547 -0.15414706
0.5319485 -0.2485777 0.33806375 -0.20125325 0.472139 -0.33745632 0.5927276 0.062280223
-0.10668962 -0.43036008 -0.35254493 0.19055898 0.21933886 -0.19659314 0.08184593 0.2821872
0.35718 0.75720775 0.18726793 0.3341339 0.51126266 0.017085833 0.30043253 0.1956281
-0.11242966 -0.24406955 0.09394609 0.26591203 0.39724895 0.18861674 -0.08444855 -0.038955778
0.6867056 0.78943187 0.37252483 -0.54623914 0.023009008 0.59542644 -0.23748158 -0.14732447
-0.6124245 0.24522671 0.41298077 0.4679643 -0.05788932 0.021358442 -0.6378413 0.36389354
-0.22544563 -0.306076 0.07748892 0.65856254 -0.41099367 -0.32054442 0.04228621 0.6784238
-0.3574828 0.29342157 0.47481805 0.12760498 0.34393665 0.5372889 0.45239988 0.06039107
0.29388344 -0.05253323 0.021541052 0.02978255 0.07081416 -0.30206734 0.6402909 -0.48007542
-0.008849864 -0.2992041 -0.25600746 0.6406007 0.29062894 0.4702507 -0.2791597 -0.064224795
0.17019607 0.34318554 -0.003809586 0.33820847 -0.022019252 0.5055124 -0.2279546 1.0262991
-0.1655442 0.5191278 0.5559876 0.56005394 -0.65910894 0.37069413 0.3541358 0.551791
0.12712248 0.47613505 0.62319297 0.474009 -0.12676696 0.46025583 0.18702757 0.0947955

fc2.weight f4 [128, 128]
00000000: 457c 003f a3e8 83bf 2530 98be 98ce 373f
00000010: 3347 033e 3772 0dbf 76a0 283e aa52 86be
00000020: ce63 ec3d 8653 d63e 8f27 f13a 28da 633f
00000030: fb29 d23b deed 09bf 6860 173e 014d 063f
00000040: 83ac f53e 9825 d3be 17a8 d53c b9b8 933e
00000050: 9a8c 703e 88ca a93e 3333 933e 059b 29be
00000060: b1c6 243d 2ad1 65bf 0fcb 29c0 d4ae 293e
00000070: 2c7a 5dbe de95 0e3f 89a1 14bf 6f09 85be
00000080: 1c71 6c3e eec7 f43e 82b8 8c3e 8974 113e
00000090: 2000 073e dda8 003f 51ac b03e a319 573e
000000a0: 5c6f 4e3f 4ba1 58bf cbd7 dbbc ea41 813e
000000b0: d1eb 423e 3c89 b83e f67d 5e3e 482d d73e
000000c0: 3c7d 143f 6c3c 473d d542 463e adea 6e3e
000000d0: 8683 0c3b 2fed 10bf bad1 4bbe 4b59 ee3e
000000e0: 233c c2bd 53f4 aabd 32c1 ffbc 1154 213f
000000f0: c42f 23bf 22f2 bf3e 7023 49be 152b 60be
00000100: 3515 163f 0aa3 503e 2efc bc3e 1e57 353f
00000110: d1de 2a3f f803 e83e 9680 ca3f 1c80 41bd
00000120: a2e6 8cbf e6aa 2ebf cc8d e33e a803 1dbf
00000130: 000b fdbc a4e2 c53e ec1f 833d d3d4 383e
00000140: a6f9 28bf 78ee 503e 2804 2bbf 459b a63e
00000150: 8722 133e e0cc 81bd 2ab8 d6be e6ef b33e
00000160: 0267 9c3d 59c4 c9be 5410 80be 1976 e9be
00000170: da51 0abf cb83 94bf 9a2f 303e 7692 81be
00000180: fb39 84be c7b1 0dbe c530 ba3e f90c 373e
00000190: 138d bcbe b6c6 d2be a2ee 893e ad22 ac3e
000001a0: 72a2 253f 08c1 863d 092c 573d d095 473e
000001b0: 0ffb 563e f956 e8bd 3e58 023f 73ac b53c
000001c0: bdb8 103f c0b4 73be b6bc a33d 54a5 b6be
000001d0: f9b7 223f 852c 063f 359c 0ebe 680e 67be
000001e0: eb3c 20be 821b 693d ab80 51bf 23bf b43e
000001f0: 88e1 fa3d e1cd 75be 055e 483e 7c58 af3e
00000200: 97e9 73be 97db 4e3f e133 9c3e beb5 d0bf
00000210: bbf0 6fbe 3895 343f ac9b 08bf edb7 453e
00000220: 1be0 ae3e a7ec b5be 7a29 653e 2e68 3ebf
00000230: c47e ba3e c1f3 db3e a5c1 25be 9764 8dbf
00000240: 87bc 81be f83d dd3e fa44 8d3e a982 23bf
00000250: fd01 12be 5a70 c7be 53ac e7bd 51fa 233f
00000260: 42e5 6cbe d351 8c3f 97d5 833f 2c53 7f3e
00000270: d30d 083f bda8 53bf c2aa 943e 3961 263f
00000280: 3560 aebe d825 18be 3423 0cbf 2ad9 a3be
00000290: fc6a d93c e0de a1be 6eb5 cdbe 6d39 fdbd
000002a0: a7b5 f6be 7d2a 623f a49d d33e a057 93be
000002b0: 4aa1 11bf c202 d1be e8a4 90be 3d6e 19be
000002c0: c439 4bbf 10bd 513e 9b0c 95be d6f7 1ebe
000002d0: 531c 643e ae63 d83e 3caa 1b3f 13a8 97be
000002e0: 6799 bb3e b9c9 dd3d 5c81 033e 08a5 8ebf
000002f0: 9cf6 693f 5333 4abf bd4f 853e 7a53 7d3f
00000300: 055e bdbf 765a 133e ed4d 03bf 64f6 aebe
00000310: abe6 6fbf 91fd debe c2c5 9abf 6643 d1bd
00000320: 9252 603f a49d 303e f816 babe 879a ee3e
00000330: b41a 9c3e c4b8 fbbe ccd3 47bc 0286 4fbf
00000340: c862 703f b38a c6be 80ed 1a3f 587c 16be
00000350: ac13 21bf 1cfa 843e de49 7c3e 12d7 a33d
00000360: f5f9 183e 06ac bf3e 4d68 d53e de22 ce3e
00000370: 1162 0e3f 5fbf 7e3f cabf 453e bb2e 9a3f
00000380: 9318 673f d299 573e 52b0 22bf e4a1 80be
00000390: 7e42 1d3f c586 013f 8dac c8be 282a c33e
000003a0: 5c1a ebbe 63d5 cabe 6623 b73e 2e7c a9be
000003b0: 1488 06be 367c 3c3e 8667 43bf 6d54 0e3e
000003c0: 54ce e4be dba0 5b3e ca80 89be 12f1 ac3e
000003d0: 1dbd 91bf 8944 7abf bac4 183f d5d1 643e
000003e0: e442 623e f7cb 98bc 878b 913f c76c bcbd
000003f0: 7e65 c53e 9f59 8fbf 2219 bcbe d751 a5be
0.5018962 -1.030537 -0.2972423 0.7179961 0.12820129 -0.55252403 0.16467461 -0.26234943
0.11542474 0.41860598 0.001839863 0.89004755 0.006413696 -0.5387858 0.1478287 0.5246125
0.47983178 -0.4123962 0.026081128 0.2885187 0.23491135 0.33162332 0.2875 -0.16563042
0.04022855 -0.89772284 -2.6530187 0.16570598 -0.21628636 0.5569743 -0.58058983 -0.2598376
0.23090023 0.47808784 0.27484518 0.14204611 0.13183641 0.50257665 0.34506467 0.21005873
0.8063867 -0.84621114 -0.026836297 0.252456 0.1903527 0.36042202 0.21727738 0.42026734
0.5800359 0.048641607 0.19361432 0.23331709 0.0021440699 -0.56611913 -0.19904223 0.465525
-0.094841264 -0.083473824 -0.031220052 0.630189 -0.6374476 0.3748942 -0.19642425 -0.21891434
0.5862611 0.20374694 0.36911148 0.70836055 0.6674624 0.45315528 1.5820491 -0.047241315
-1.1007884 -0.6822952 0.4444412 -0.61333704 -0.030889034 0.38649476 0.06402573 0.18049936
-0.66005933 0.20403469 -0.66803217 0.32540336 0.1436864 -0.06337905 -0.4193738 0.35143965
0.07636835 -0.39407614 -0.25012457 -0.45597914 -0.54031146 -1.160272 0.17205659 -0.25307053
-0.25825486 -0.13837348 0.36365333 0.17876042 -0.3682638 -0.4116723 0.26939875 0.33620206
0.64700997 0.065797865 0.05253223 0.19490743 0.20994209 -0.11344714 0.50915897 0.022176957
0.5653189 -0.2379942 0.07994978 -0.3567301 0.6356197 0.5241168 -0.13926776 -0.2256409
-0.15648238 0.056911 -0.81836957 0.35302076 0.12250048 -0.24004318 0.19567116 0.34247196
-0.23819576 0.8080382 0.3050833 -1.6305463 -0.23431675 0.7054019 -0.53362536 0.19308443
0.34155354 -0.35532114 0.22379103 -0.74377716 0.3642484 0.42959407 -0.16187151 -1.1046323
-0.25339147 0.4321134 0.27591687 -0.63871247 -0.14258571 -0.38952905 -0.11312165 0.6405383
-0.2313433 1.0962471 1.0299557 0.24934071 0.53146094 -0.8267935 0.29036528 0.649921
-0.34057775 -0.14858186 -0.54741216 -0.3200162 0.026540272 -0.31615353 -0.40177482 -0.12364469
-0.48185465 0.8834608 0.41331208 -0.2877779 -0.5688673 -0.40822417 -0.28250813 -0.14983459
-0.7938502 0.20482278 -0.2911118 -0.1552423 0.2227643 0.4226355 0.6080663 -0.29620418
0.36640474 0.10829491 0.12842315 -1.1144114 0.9139192 -0.78984565 0.26037398 0.989555
-1.4794317 0.14389977 -0.5129078 -0.34172356 -0.93711346 -0.4355283 -1.2091601 -0.10217933
0.8762599 0.17247635 -0.3634565 0.4660227 0.30489123 -0.49164402 -0.012196492 -0.81063855
0.9390073 -0.38777694 0.60518646 -0.14695871 -0.6292064 0.25972068 0.24637553 0.08000006
0.14939101 0.3743593 0.41681138 0.40260977 0.5561839 0.9951076 0.19311443 1.2045511
0.9027187 0.21054772 -0.63550293 -0.25123513 0.61429584 0.50596267 -0.39194146 0.381181
-0.45918548 -0.39615926 0.35769194 -0.33102554 -0.13137847 0.18406758 -0.7632984 0.13899393
-0.44688666 0.2144808 -0.2685607 0.33777672 -1.1385838 -0.97760826 0.5967518 0.2234567
0.22095829 -0.018651946 1.1370705 -0.09200435 0.38553995 -1.1199225 -0.36737925 -0.32289

fc2.bias f4 [128]
00000000: a91f f7bd 38b6 113b 1e76 ee3e 19c3 913e
00000010: ccb6 4fbd d8e8 ea3e 9772 3d3e b3ce 96be
00000020: 9d21 b43e 8249 8fbd 48ce a4bc adf4 e8bd
00000030: ce4d 71bd c6a2 c83e 0c31 c03e 3e18 4cbe
00000040: 4375 48bd f0e1 713d a6c9 9239 65a6 023e
00000050: 0bc9 0a3f 64ba eabd 1dba c03b 761d 0a3f
00000060: f383 2ebe f65a 9a3e 3fec 1fbe d61a 583e
00000070: 24ba 903e b7da 703e 23ef 11be 1e8d c33e
00000080: af24 c13e ba14 18be 3ed1 883e e4b5 903e
00000090: 5653 263e c66c 91bd c7d4 4b3e d358 823e
000000a0: 37d9 bdbd 8e3b 623d e1b0 6bbd aef8 f53d
000000b0: 0fb1 58bc 271a 2c3e c28f bb3c 210e 243e
000000c0: 78bf 8dbd 7e68 be3e 8af0 0f3e 795c 663e
000000d0: 6453 3e3e 60b5 33bd d5e7 883e ca54 dabc
000000e0: 77bc b5bd 4101 8e3e f15f 903e 2d22 e33e
000000f0: 7463 84bd 9f3b 433e 978c 443d 968d 8fbd
00000100: 760d f43d 04ab 063d 3368 0c3b d497 213e
00000110: 25c7 7dbe 2d9c d0bd 17b6 83bd 57e5 e3be
00000120: b2fb 06bd 511a 513e a1c3 f5bd 9542 01be
00000130: f7a0 213e f06e 94bd e0ce 4c3e 718f c63e
00000140: 56d4 8f3e b575 05be 3d7b a7bd 8eff 6e3e
00000150: 0685 bc3e 5ee0 563e 40d3 f73e 670a 563d
00000160: 2800 b03e a3ad 8e3e 63f9 49bd 9663 ccbd
00000170: a15c b33e 72fc f13d d3e2 7b3e 8d07 d43e
00000180: 8a2f 3dbe eb5c 20be 73ff fa3d b35f f63e
00000190: d44f 07bd 154d 2a3c 0640 763e 4021 163e
000001a0: 54ed 763e e299 ec3b 17d1 6cbd bcc8 a13e
000001b0: 5f80 8dbd 29c1 97bd 5e34 32bc 282d 30bc
000001c0: a18a 113d d249 133e aa30 89be 87c4 d93c
000001d0: ed37 d93d 02ab 0a3d 289c 3d3e 9396 a93e
000001e0: beb3 323e 829b 6dbd 0356 933d f9f2 28be
000001f0: 5bff ee3d 8728 03bd 19be 45be 9745 6e3e
-0.120665856 0.0022233855 0.4657449 0.2846916 -0.050711438 0.4588077 0.18500744 -0.29454574
0.35181895 -0.069964424 -0.020117894 -0.11374793 -0.05891209 0.39186686 0.3753742 -0.19931123
-0.048939954 0.05905336 0.0002799753 0.12758787 0.5421302 -0.114613324 0.0058815614 0.53951204
-0.17042522 0.30147523 -0.15617464 0.21103987 0.28267014 0.23520933 -0.1425138 0.381936
0.377233 -0.14851657 0.2672214 0.28263772 0.16242728 -0.07100825 0.19905387 0.25458393
-0.09269946 0.055232577 -0.05754173 0.120103225 -0.013225808 0.16806851 0.022895698 0.16021015
-0.069212854 0.37189096 0.14056602 0.22496213 0.18586498 -0.043874145 0.26739374 -0.026651759
-0.088738374 0.27735332 0.28198197 0.44362012 -0.06464282 0.19065712 0.04798564 -0.07009427
0.1191663 0.032877937 0.0021424412 0.15780574 -0.24782999 -0.10186038 -0.06431215 -0.4451091
-0.03295488 0.20420195 -0.12000204 -0.12623055 0.1578406 -0.07247722 0.20000792 0.38781312
0.28091687 -0.13033183 -0.08177803 0.23339674 0.3682024 0.20984027 0.48403358 0.052256014
0.3437512 0.2786685 -0.0493101 -0.09979932 0.35031608 0.11815728 0.24598245 0.4141201
-0.18475166 -0.15660445 0.12255754 0.48119888 -0.033035114 0.010394354 0.2404786 0.14661121
0.24113971 0.0072204927 -0.05781659 0.3159846 -0.069092505 -0.07409889 -0.010876743 -0.010752954
0.035532597 0.14383629 -0.2679494 0.02658297 0.1060637 0.033854492 0.185166 0.33122692
0.17451379 -0.058009632 0.0719414 -0.16498937 0.11669799 -0.03202107 -0.19310798 0.23268734

fc3.weight f4 [4, 128]
00000000: 3f72 3ebf d6c2 773f 0b18 a13f ba59 21bf
00000010: 567e 72bf 1d14 a73f 7ed3 d5be 373a 3a3e
00000020: 8409 36bf dbeb 2cbf 05aa f8bc fa0f 493f
00000030: 2fbc 78bf 26c3 5e3f 2e2c 803f 097a 233f
00000040: 4eaa 60bf f656 663f fe41 17bf 0d82 823e
00000050: 2d32 a73f 52cb adbd ef1a 8c3d 6701 a13f
00000060: 75c8 06bf 835b 973f 45b8 56bf a47c 303f
00000070: 486f 10bf f49c dfbe 7cc8 a5bd 73be 0bbf
00000080: 9eb0 0cbf c739 43bf d146 08bf 2fe2 603f
00000090: 6d9f 15bf d2eb 6ebf 4676 37bf 9735 05bf
000000a0: 6795 0bbf 2b3a debe 2468 44bf 2d55 69bf
000000b0: 81b4 0ebf f7d1 21bf d3ec 5b3f 6033 593f
000000c0: 80fe 113d 1331 dc3f 7c63 18bf 0f84 293f
000000d0: 6bdf e8be 0e17 253c 9fe2 c9be 9664 8e3f
000000e0: 4b06 3ebf 2de4 393f 8a38 13bf 4989 133f
000000f0: fcb9 cbbc 00f3 04bf b21c 29bf 36c7 5b3d
00000100: 5391 0d3f 5b5f 7cbd 2588 483f 5655 273e
00000110: cedd 62bf 9d72 0a3d 49f4 6a3f 5ede 8bbf
00000120: d421 13bf 000c 813f 8dec 3dbf e42b 5fbf
00000130: 38b6 3abf 32bd 80bd 6a53 16bf b4b6 a63f
00000140: a15c 563f fcb7 63bf 3415 cfbb 63c6 07bf
00000150: 8677 f53f 4720 60bf 680d ad3f 50a7 d2be
00000160: 3cee 973f 21a5 853f a4a1 85bf 79f5 a0bf
00000170: 9f33 8e3f e27d f5be 62ec b7be fd3c 55bf
00000180: be61 58bf c841 3ebf 1402 27bf 86c3 233f
00000190: 3a15 273e 2e9f c5be 5c64 373f baa4 e9be
000001a0: 23a2 1fbf 9b49 24bf 14bd 38bf 5ac0 d2be
000001b0: 1066 74bf 9a65 e33e a416 69be d1ae 8cbd
000001c0: 2029 93bc fab5 573f f043 55bf 5e2b 22bf
000001d0: a379 09bf d88f a3be c459 1ebf 305d 10bf
000001e0: 757f e33e 1cf4 babc fc9d 03bf afce d4be
000001f0: 48ce f9be db91 073d a35f 51bf c86b c0be
00000200: 6245 16bf b675 443f 3211 a93f d3a8 b8be
00000210: eb67 49bf 82dd b33f 303f 23bf 3121 213f
00000220: 5a36 b9bf 2027 1dbf 3bbc 4a3b 24bb 693f
00000230: 95c0 64bf 3da4 a03f b48e b03f d7f5 1540
00000240: 2e07 a4be 07d0 4a3f b1fa 083e 16b6 86be
00000250: 9c2a ac3f 64ce a73c 095b 82bd fcc6 b43f
00000260: df11 63bf 10ea b33f 0703 45bf 3918 3e3f
00000270: e74b e7be a29d 28bf dc3b f53e 990b 03bf
00000280: fdbb dbbe 760e 58bf 5d0b e9be d8ff 963f
00000290: 64f8 bfbe f84b 27bf b936 79bf 42e6 bcbe
000002a0: 7f39 33bf 3f59 08bf 6062 34bf b1a4 a3bf
000002b0: e41f 7cbf b1e2 b8be 0faf a63e 42a9 593f
000002c0: e6d1 78bc 889d c43f b7aa 42bf 196c 613f
000002d0: ab1e d5be 2fdf b8bc c67d 0dbf db71 523f
000002e0: 4e51 55bf 632a a73f 41a8 b1be 5f28 0b3f
000002f0: c914 cb3b 36b0 07bf 359f 13bf e361 e3bc
00000300: a64c be3e 9a78 9e3d de51 373f 0501 babd
00000310: 91bb 26bf 536d 053d 247e 653f 070d 65bf
00000320: db2f 26bf fba9 ff3e 8f36 50bf e8c2 56bf
00000330: 62b4 12bf 932b bc3d 0fd7 ccbe c399 1a3f
00000340: ff09 a13f cc8f 5abf b172 cb3b 1fde 10bf
00000350: 7f98 d73f d4f9 893e b279 a83f 8c57 24bf
00000360: f8e7 cd3f 0ec3 343f 43e9 d2bf 848e 84bf
00000370: 4f7d 593f 48e0 f1be 618f edbe 4f21 cebf
00000380: f506 51bf c285 39bf 0b0d 9dbe 1d0c df3f
00000390: e1f2 6a3f 09ae 13bf d162 093f 53f9 0bbf
000003a0: a599 b2be 4197 29bf dd36 37bf 2b2b 0dbf
000003b0: b903 52bf 0a40 8e3e 88ad e3be bc41 a4bc
000003c0: 252f 9bbd e63a 333f 73dd 4cbf e109 38bf
000003d0: 0bf2 12bf 886b 14bf 237b a9be 23dc cbbe
000003e0: 3392 62bf 030a 963d 9afb aebe 50e4 5dbf
000003f0: ea36 04bf f043 663d a3eb 2abf 91c3 14bf
-0.74393076 0.9678167 1.2585462 -0.63027537 -0.94724023 1.3053013 -0.41762918 0.1818627
-0.7110827 -0.67547387 -0.03035451 0.78540003 -0.97162145 0.8701652 1.0013483 0.63858086
-0.87759864 0.8997644 -0.5908507 0.25489846 1.3062187 -0.08486046 0.06841075 1.2578553
-0.52649623 1.1824802 -0.83874923 0.68940187 -0.564198 -0.43674433 -0.0809488 -0.5458748
-0.54956996 -0.76260036 -0.5323306 0.8784513 -0.5844639 -0.93328583 -0.71664846 -0.52034897
-0.54524845 -0.43403754 -0.76721406 -0.9114559 -0.5574418 -0.63211006 0.8590824 0.8484402
0.0356431 1.7202476 -0.595268 0.6621713 -0.45482954 0.010076297 -0.3943071 1.1124446
-0.7422835 0.72613794 -0.57508147 0.57631356 -0.024868958 -0.5193329 -0.6605941 0.05365678
0.5529987 -0.061614376 0.7833274 0.16341147 -0.886197 0.03380071 0.91779 -1.0927236
-0.5747349 1.0081787 -0.7418907 -0.87176347 -0.72934294 -0.06286086 -0.5872103 1.3024507
0.8373509 -0.8895261 -0.0063196663 -0.5303709 1.9177101 -0.8754925 1.3519716 -0.41143274
1.1869578 1.0441018 -1.0439954 -1.2574912 1.1109504 -0.47947603 -0.35922533 -0.83296186
-0.8452414 -0.74319124 -0.65237546 0.6397022 0.16316691 -0.38598007 0.7163751 -0.4563349
-0.62356776 -0.64174813 -0.7216351 -0.41162378 -0.95468235 0.44413453 -0.22762543 -0.06869281
-0.017963946 0.8426205 -0.8330679 -0.63347423 -0.5370123 -0.31945682 -0.6185572 -0.5639219
0.4443318 -0.022821479 -0.5141294 -0.41563937 -0.48790193 0.033098083 -0.81786555 -0.3758223
-0.5869962 0.7674211 1.3208373 -0.36066303 -0.7867419 1.4051974 -0.6376829 0.6294127
-1.4469712 -0.61387825 0.0030934948 0.9130118 -0.89356357 1.2550122 1.379355 2.3431299
-0.32036728 0.79223675 0.13376881 -0.26310796 1.3450503 0.020484157 -0.0636502 1.4123225
-0.88699144 1.4055805 -0.76957744 0.7425571 -0.45175096 -0.6586553 0.47897232 -0.5118957
-0.4291686 -0.84397066 -0.45516482 1.1796827 -0.37494195 -0.65350294 -0.97349125 -0.36894423
-0.7000961 -0.5326118 -0.7046261 -1.2784635 -0.9848616 -0.36110452 0.32555434 0.8502389
-0.015186762 1.5360575 -0.7604174 0.8805557 -0.4162496 -0.02256736 -0.5527004 0.8220498
-0.83327186 1.305981 -0.3469868 0.54358476 0.006197546 -0.5300325 -0.57664806 -0.027756637
0.37167853 0.07737847 0.71609294 -0.09082226 -0.65129954 0.032574963 0.896456 -0.89473003
-0.6491677 0.49934372 -0.8133325 -0.83891153 -0.5730649 0.091879986 -0.40007827 0.6039087
1.2581176 -0.85375667 0.0062087406 -0.5658893 1.6843413 0.26948416 1.3162138 -0.64196086
1.6086416 0.7061013 -1.6477436 -1.0355992 0.8495683 -0.47241426 -0.46398452 -1.6103915
-0.8165124 -0.72469723 -0.30674013 1.7425572 0.91776854 -0.5768743 0.53666407 -0.54677314
-0.34882846 -0.6624642 -0.7156809 -0.55143994 -0.8203693 0.27783233 -0.4446833 -0.020050876
-0.075773515 0.70011747 -0.80025405 -0.71890074 -0.5740058 -0.5797658 -0.33101758 -0.39816388
-0.8850433 0.07326128 -0.34176332 -0.866765 -0.5164629 0.056217134 -0.66765803 -0.5811091

fc3.bias f4 [4]
00000000: 42bc 7bbc d281 8fbe 32e8 6f3e 87b2 7f3d
-0.015364708 -0.28028733 0.23428419 0.062426116
