models/model_run_3.pth (torch, 145925 bytes, 6 tensors)

fc1.weight f4 [256, 8]
00000000: dca1 f8be 559b 28bf 4b8c c0be 0f05 cebe
00000010: ede3 653f da46 b73e d167 bb3e eaa9 b6be
00000020: 268f bd3e c5c1 33bf f3b9 193e dc6f 5dbb
00000030: cf13 0fbf f87b 69bf 36d8 c03c c653 1f3f
00000040: f3e3 303c 99d4 f53e ac2c 2fbf 7ac8 f93e
00000050: 8b3a ab3e c82f 7d3e 3a17 cc3e 2a4f 1e3e
00000060: 4621 c7bd ea45 923e 00b9 e8be 4950 b2bd
00000070: 7693 40be 3cd3 283d 233a 863c e85a de3d
00000080: 4c4f b7bd cb00 30bf 1ea1 783c 9e5b 5e3f
00000090: a533 113f 2568 e23e d81a f1be f42d a83e
000000a0: ba03 03bf ab9e 7f3f d89b c83e ee66 6c3b
000000b0: 39b0 0cbe 63e7 3cbf b40d 153e 2317 803c
000000c0: aadf f9be ada6 e13e c21a 0abd 3fc4 253f
000000d0: b4cd a83f 5a33 753e bc91 4c3e c2ef 0bbf
000000e0: fe4d e13d b00c fdbd f483 eabe 2cac 183f
000000f0: 405d 01bf f31c 6e3e 018c 85be 0bdd 14bd
00000100: 005e 163f d24f 013f b379 0fbe 9c78 923c
00000110: 7804 90be 2591 edbb 6019 e2bd 0cea 613e
00000120: 89d0 1e3e 8890 19bf c87a ccbd 8076 26be
00000130: 1109 1b3f e60c 9a3e 037d 083d 9116 fd3d
00000140: b350 cc3d 376e a43d 3d36 c63e 0c0c 0b3e
00000150: 4e36 333d f05e 94bd 56f0 b43e 1917 4e3c
00000160: 2eda 6cbe a4bf 52be cc4f dfbd 9b28 103e
00000170: fdc1 7b3e 336d aebd fe0d a23e 6676 c2be
00000180: 2d55 2b3f f462 90be 41d2 423f c234 65be
00000190: d025 99be 52ce db3e f74d 5d3e d98c a1bd
000001a0: 7205 84bd 5f39 99be 873f 673f 0831 af3f
000001b0: ac63 013f 2bc9 e53e 4d4b 0b3e 62ca 1abe
000001c0: dac1 963e 2011 503e ee3b a5be aa68 ba3c
000001d0: 0139 1fbe ba80 10be 1d44 c83e 1e68 b13e
000001e0: be63 7e3e 6e71 a53e 8474 813f 887f 2fbf
000001f0: c0a2 993e 4ad6 bebd 15f5 253d c373 423b
00000200: f7fa 27bd 4d2f ca3e 7c20 1a3e b975 f03e
00000210: 781a 65be d844 5c3e 9a1c 55be 9582 0bbf
00000220: d314 51be b0cc 153f f7cb 073f cea5 163e
00000230: b084 513e 5e84 033d 3796 0fbf 4735 adbd
00000240: 403b 5bbe 4baa e2be a4b8 633e a4a9 66be
00000250: 961e b03a 3d3b b1bf 1c12 5cbf 5225 d93d
00000260: d290 13bf 7360 293f 5575 173f 1502 3dbe
00000270: 2ec9 483e 8426 1f3f d052 b4be 4ba9 4bbb
00000280: 048b 27be e9cb 33bd 8e57 a9be fadb ac3e
00000290: 354e b83f fcc6 45be af0b 623c 760f 3c3e
000002a0: 2c09 05be e81d 0b3f 2116 19bd f2a8 e03e
000002b0: 6321 0e3e a844 75bd 4d50 423e dbc2 61be
000002c0: 4f38 00be be4c c03e 3462 e2be 4502 a3bd
000002d0: d70b f53e 0216 8cbf 3711 1b3c 7799 f63e
000002e0: 3968 a23d 65c6 193f add4 143f 942f 243f
000002f0: 6c0f 96bf c7e3 b0be 756b fbbd ed5e 6f3f
00000300: 43b9 9f3f e005 c3be f867 c93b 7fc3 43be
00000310: 2bda 88be 344d b13d 4dab 743e 4d9d ab3e
00000320: 49bc 3d3d f62d 3ebf bff8 31be d890 20be
00000330: bdf1 0f3f 9ad4 da3e 748a 0d3e 472b a43c
00000340: e93c 4fbd 75c4 b23e 000a 28bf ef38 80bf
00000350: d14b a13f b03b 95be 1faf ad3d 20eb 90be
00000360: f92a 1d3f 04ac d13c 9368 f0be 429b 803e
00000370: 5dda 0e3f 878d 6abf 02d0 103e 0bab 733d
00000380: 6c00 39bd 2271 2fbc 08cf 2dbd 4594 bdbd
00000390: e993 1340 7150 63be d948 bdbc 7699 5a3c
000003a0: 2a02 ca3e d23c e13e 75fa 613e e38f c3be
000003b0: 0745 1bbf af4b b43e 784d 65bd 3672 7fbe
000003c0: ce47 f83e 8bcd 85be 61cb 6d3f b0dc 2c3c
000003d0: aac9 263f ffd3 b73e 296f 05bf 80a2 36bf
000003e0: 6b08 c8be 38a0 dcbd 9205 223f fdd0 0f3e
000003f0: 605d cb3e c394 dcbd 6a3b 44bc 352a 763e
-0.4856099 -0.6586202 -0.37607035 -0.40238234 0.8980091 0.35796243 0.36602643 -0.3567651
0.37023276 -0.70217544 0.1501234 -0.0033788597 -0.558896 -0.91204786 0.023540597 0.62237203
0.010796535 0.48013762 -0.6842754 0.48785764 0.33443102 0.24725258 0.3986147 0.15459886
-0.09723143 0.28568965 -0.45453644 -0.087067194 -0.18806252 0.041217074 0.016385144 0.10857183
-0.089506716 -0.6875121 0.015175132 0.86858547 0.5671943 0.4422008 -0.47090793 0.3284756
-0.5117756 0.99851483 0.391814 0.0036072093 -0.13739099 -0.7379057 0.14556009 0.015636032
-0.48803455 0.44072476 -0.033716924 0.6475257 1.3187776 0.2394537 0.19977468 -0.54662716
0.11001204 -0.123559356 -0.45803797 0.59637713 -0.50532913 0.23253231 -0.26083377 -0.036343616
0.5873718 0.5051242 -0.14011268 0.017879777 -0.2812841 -0.0072499686 -0.11039996 0.22061938
0.15509237 -0.5998616 -0.09984356 -0.16256142 0.6056071 0.30087966 0.033322345 0.1235782
0.0997633 0.08028834 0.38713256 0.13578814 0.04375296 -0.072446704 0.35339612 0.012578749
-0.23130104 -0.20580918 -0.10903892 0.1407799 0.2458572 -0.08516922 0.316513 -0.37980956
0.6692684 -0.28200495 0.7610207 -0.22383407 -0.2991166 0.42930847 0.21611772 -0.07888193
-0.06446351 -0.29926583 0.9033131 1.3686838 0.5054271 0.4488004 0.13602944 -0.15116265
0.29444772 0.20319033 -0.32272285 0.022754986 -0.15549089 -0.14111605 0.39114466 0.34649748
0.24842736 0.32313102 1.0113683 -0.6855397 0.3000698 -0.09318216 0.04051693 0.002967105
-0.041010823 0.39489213 0.15051454 0.46964815 -0.22373378 0.21510637 -0.20811692 -0.5449613
-0.204181 0.58515453 0.530456 0.14711687 0.20460773 0.032108657 -0.56088585 -0.084574275
-0.21409321 -0.44270548 0.22238404 -0.2252565 0.001343685 -1.3846203 -0.8596513 0.106028214
-0.57642853 0.66162795 0.5916341 -0.18457825 0.19607994 0.62168145 -0.3521943 -0.0031076248
-0.16361624 -0.043895636 -0.3307461 0.3376158 1.4398867 -0.19314188 0.013796731 0.18365273
-0.1299178 0.5434251 -0.03737462 0.43878895 0.13879924 -0.05987993 0.18975945 -0.22046988
-0.1252148 0.3755855 -0.44215548 -0.07959417 0.47860596 -1.0944216 0.009464554 0.4816396
0.07930035 0.6006835 0.5813702 0.641351 -1.1723456 -0.3454878 -0.12276355 0.9350422
1.2478412 -0.3809042 0.0061464272 -0.19117545 -0.2672895 0.086573035 0.23893471 0.33518448
0.04632214 -0.7428888 -0.17380045 -0.15680254 0.5622824 0.42740327 0.13822347 0.020040167
-0.050595198 0.3491551 -0.6564026 -1.0017375 1.2601262 -0.291471 0.08480667 -0.28304386
0.61393696 0.025594719 -0.46954784 0.25118452 0.55801946 -0.91622204 0.14141849 0.05948929
-0.045166418 -0.010708125 -0.04243377 -0.09256796 2.3059027 -0.22198655 -0.023106026 0.013342252
0.39454776 0.43991715 0.22068198 -0.38195714 -0.606522 0.35213992 -0.055982083 -0.24945912
0.48492283 -0.2613338 0.92888457 0.010550663 0.65151465 0.35903928 -0.5212274 -0.71341705
-0.39068922 -0.10772747 0.6328975 0.14044566 0.39719677 -0.107705615 -0.011977056 0.24039538

fc1.bias f4 [256]
00000000: 0f5c 73bf e758 b53e 94d0 12bf efaa ba3d
00000010: 0291 903e 4acd 9e3e 9914 d53e 6d21 383f
00000020: 40e7 8d3e 5cd2 f13e 1d97 483f 0e98 0b3f
00000030: 2e5f 353b 9e23 173c 4810 053f 20d9 c2be
00000040: eaef 363f fa08 123f 9d1e 513d ace6 473e
00000050: f341 42bb 105d 303f 4d72 1bbf 6fe9 dfbe
00000060: 9e79 8d3e 24a3 073f 3a18 3f3e 5d58 1bbe
00000070: 0fee 8bbc d7d3 813e 3b31 753e c06c 2d3f
00000080: 3b48 f73d e321 e93e eb0a ecbd c8cb 413e
00000090: 484e c23e 3fb8 a1bd e8ed bc3e 5599 debd
000000a0: e646 cb3e 3f54 c8be 9633 a63e f677 0b3f
000000b0: 52d8 b1bd 5a77 08be ecc6 fb3d 19af 503f
000000c0: eb6f d43e e770 dfbd f134 a33d e873 803d
000000d0: 56e0 fa3e bbd8 833d ca07 103f 1e20 26bf
000000e0: e6e7 9bbe 44bd f63e b8a9 703d aab9 cf3e
000000f0: 114e cf3e 6aac 523f dbad 7abe 9908 8f3e
00000100: 2e90 d83e 1745 973e 5d09 5a3f ec4a fbbd
00000110: af55 b23e 758f f33e e1f0 613e e001 80bf
00000120: 3a6d f93d b0c3 073f 44ea 4d3e ce47 293f
00000130: 4787 013f c854 963e cef8 d33e db26 a2be
00000140: 4359 133e bf60 3f3f e2c5 8a3e 2893 a8be
00000150: 276e c23e 4e87 2b3f 2efb dc3e 3ff8 1e3f
00000160: bab7 60be 8838 a83d 3144 1f3e 119c 7e3e
00000170: 8569 a7bd d25a e93e ac4e 013f da36 c53e
00000180: b7e5 1a3f 3afe 63be 486a 393f aef6 83be
00000190: a18c 5cbe d9eb b43e 8d0f 353e 5ae6 62be
000001a0: f593 8f3e fe05 b5bc 30bd 873e c001 37bd
000001b0: f873 613d d884 863e 74ed 113e d5cc eebe
000001c0: d9ea 3a3f 1069 933e c44c 433e 3b96 c23e
000001d0: 4e6a 8a3d e4c4 843e c858 ad3e 6a33 1b3f
000001e0: 08a1 f23e 4d6a a63e ebd9 e4bd 09fb 1a3e
000001f0: 9cd4 12bf fca1 88bd a8c7 f13e 6664 193f
00000200: 222a 6c3e fd12 553f 25e4 fc3b 8d2d 643c
00000210: f7fa 573f 339b 59bf 8f4a d1bd 1e4c 323f
00000220: dde8 dd3e 1840 153f 61c7 9f3e bcab 46bd
00000230: 4b4f 3cbf 0af2 463f 9591 063f fb0b bc3d
00000240: 2f55 03be e6ff 993e 7fd3 dc3e 4fc3 88be
00000250: 35f4 053e 5a9e 12bd 968e 173f b08b 093f
00000260: 67a4 153e 2798 9e3e 6633 a23e 3fc5 053f
00000270: 3a11 0b3f 6680 153f e6c5 813c 2ad5 333e
00000280: 9af1 f93e de22 033f 6830 293e 357b 96be
00000290: 3506 243e 79b9 283f 609c 0bbe 5e15 ce3e
000002a0: e343 2abf dee7 353f 4498 e13e c585 b33d
000002b0: b9f0 ec3d 4044 1dbf 030d b13e bdbb 86be
000002c0: bdc4 a2be 00b7 1b3f fd64 f5bd 39da 373f
000002d0: 31c3 c5be 025e 9bbc 9f16 1f3e efec 7d3b
000002e0: c39e ee3e e6c4 d13e 8a11 f73b 4634 ee3e
000002f0: dfba c13e 4da8 c03d c8ed f6be 3fec 563d
00000300: 835d e83e d628 ae3e afc3 a8be e336 513d
00000310: ce22 163f e07a 203e 91fd e2bd 65ed aebe
00000320: 26f5 263f 4ea8 823e 418e 6f3d 29db 48be
00000330: bdad f2be a307 523f a0e9 143f 7feb 21bf
00000340: 4180 e33e 49f6 69bf c40a 473f efba e5be
00000350: 5fc8 ac3e 6ea7 0f3f 0472 4e3e 7b45 70bd
00000360: 3157 723e e687 b33e c502 433f 928c 923e
00000370: 618d 223e 40bd 233f 324b 213f 35cd 683f
00000380: 2092 f33e 07ed 363f 39b5 073f 04b4 d83e
00000390: a4f2 1cbf d2b2 543e fc9d d13e 5e72 33be
000003a0: c8c9 ee3e c434 363e de3c 573e e203 fabc
000003b0: ac75 273f 87a2 d63e 465a 8c3e bb88 ebbd
000003c0: 2fab 4bbf 80c8 d03e 3873 413f 5b7b babe
000003d0: 55e0 ba3e aa3f b13e 72bd b43e b6f7 8cbe
000003e0: 6a4b a33e d5c9 373e b287 063f 26d2 063e
000003f0: ca2e 493e 68c3 f33e 4f49 38be cc1d 883e
-0.95062345 0.3541939 -0.57349515 0.09114634 0.28235632 0.31015998 0.41617277 0.71926004
0.27715492 0.47230804 0.7835558 0.5452889 0.002767514 0.0092248 0.5197797 -0.38056278
0.7145983 0.5704495 0.051054586 0.19521588 -0.002964136 0.68892 -0.60721284 -0.43732783
0.2763185 0.5298331 0.18661585 -0.15170427 -0.017081289 0.25356933 0.23944561 0.67744064
0.12074324 0.45533666 -0.1152552 0.18925393 0.3795035 -0.0789647 0.36900258 -0.108690895
0.3970253 -0.39126775 0.32461232 0.5447992 -0.08683838 -0.13326779 0.12293801 0.8151718
0.41491637 -0.10910206 0.07969082 0.06272107 0.4899928 0.064378224 0.56261885 -0.64892757
-0.30450362 0.48191273 0.058755606 0.40571338 0.40489247 0.82294333 -0.24480383 0.27936247
0.422975 0.295449 0.8517054 -0.122701496 0.34830996 0.47570387 0.22064544 -1.0000572
0.121790364 0.5303297 0.20108896 0.6612519 0.5059704 0.29361558 0.4140076 -0.3167027
0.1438952 0.74757 0.27104098 -0.3292477 0.37974665 0.67003334 0.43160385 0.62097543
-0.21945086 0.082139075 0.15553357 0.24864222 -0.08174423 0.45577103 0.5051067 0.3851841
0.6050677 -0.22264948 0.724278 -0.2577414 -0.2153802 0.35336187 0.17681713 -0.22158185
0.2804257 -0.022097584 0.26511526 -0.044679403 0.055042237 0.26273227 0.14250737 -0.4664065
0.730146 0.28791094 0.19072253 0.38005242 0.06758557 0.25931466 0.33856797 0.60625327
0.47388482 0.32502976 -0.11174377 0.15134825 -0.57355666 -0.06671521 0.47222638 0.5991882
0.23062947 0.832321 0.0077176266 0.013926876 0.84367317 -0.8500244 -0.10219299 0.69647396
0.43341723 0.58300924 0.31206802 -0.048503622 -0.7355849 0.7771307 0.5256589 0.091819726
-0.12825464 0.30078048 0.4313011 -0.2671151 0.13081439 -0.035795547 0.59201944 0.5372877
0.14613496 0.30975458 0.3167984 0.522541 0.5432316 0.58399045 0.015841436 0.17561784
0.4881714 0.5122508 0.16522372 -0.29390875 0.16017993 0.6590801 -0.13633871 0.40250677
-0.66509837 0.71056926 0.44061482 0.08765749 0.11569352 -0.61432266 0.3458024 -0.26315108
-0.31790724 0.6082611 -0.119821526 0.71817356 -0.38625482 -0.018965725 0.15535973 0.003874596
0.466055 0.40970534 0.0075399326 0.46524256 0.37837884 0.09407101 -0.48228288 0.052471396
0.45383844 0.3401553 -0.32961795 0.051077735 0.5864686 0.15671873 -0.1108352 -0.34165493
0.65217817 0.2551903 0.058485273 -0.19614853 -0.47398177 0.820429 0.58168983 -0.63249964
0.44433787 -0.91391426 0.777508 -0.44869182 0.3374662 0.5611485 0.20160681 -0.05866001
0.23666073 0.3506462 0.761761 0.28622872 0.15874244 0.6396065 0.63005364 0.9093812
0.47572422 0.71455425 0.530109 0.4232484 -0.6130774 0.2077134 0.40940845 -0.17524096
0.46638322 0.17793566 0.21019313 -0.03051943 0.6541393 0.41920874 0.27412623 -0.11500689
-0.7955808 0.4077797 0.75566435 -0.36422238 0.36499277 0.34618884 0.35300785 -0.27532738
0.31893474 0.17948087 0.52550805 0.13166103 0.19646755 0.4761002 -0.17996715 0.26585233

fc2.weight f4 [128, 256]
00000000: 263b 9bbe bacf f2be 76f4 8a3e b265 003e
00000010: 943c 083f bbb8 a73e 6437 34bf 20c1 cb3e
00000020: 9864 383e 706b 8dbe 3759 c53d 00dc e23c
00000030: 4756 36be 58ea 5b3f 3414 2e3d 1d89 3bbf
00000040: 2492 d13e c4e4 703e bb98 a9be 64ee 703d
00000050: f002 2c3f 1990 453d f511 24bf c86b 4ebf
00000060: d212 8cbe 9024 d4be 1b2d b83e 70b8 0cbe
00000070: 2f47 863f 730c 1b3e e14c 05bf c75d 303e
00000080: 9ac2 883e c028 72be 54b2 0dbf d37f 4e3f
00000090: 9165 a83d b54d 93be db88 52be d162 6bbe
000000a0: 7349 2b3e 118a 21bf 595a c63d 1975 363f
000000b0: 574a 0a3f a72f 82bf f3fb 093f 6a76 953e
000000c0: bc39 1ebf a3c0 113f f2a8 103f d2be fabe
000000d0: 1aca b73f 3a73 463f 548b 863c 3b20 82bf
000000e0: d975 cd3e 17be ed3d 72b0 bf3e ff12 0b3e
000000f0: faed adbe 814a 353e 570e 10bf 22ca cabe
00000100: 2a4e cbbe ae16 25bd 251e 723e 7f1a 05bf
00000110: 2671 833e 4877 bf3e 97be 193f c1ef 78bd
00000120: b19f fabe ee8e 9ebd 7ef0 22be 56f6 663e
00000130: 2f5a 613e 1d9b ac3e 9643 dcbe 612e 9a3e
00000140: 2919 f8bd af69 273e 9a8c 58bd 49cf 77bf
00000150: fcd1 88bf e33b b53e d678 f7bb 6b7a bb3f
00000160: a612 0b3f c7a2 ecbe a487 c23f 09fc b03c
00000170: b9a9 1ebe 3aa3 623e d55d 7f3e 0a58 95be
00000180: 0d50 8e3e 4a35 b5be 55e5 3b3e bb62 74bf
00000190: df9f dfbe 46fb b23f 3036 5a3e b086 44bf
000001a0: b0de 0d3f d5de ab3e 4d32 c63e 9fb3 cabd
000001b0: 7ade a53e eeb3 053f 4fdb f53d 3a54 26bf
000001c0: fa6b bd3e f6c6 023f c53b a03e 9955 40bf
000001d0: 681c 913f 3f70 c53e cbe4 28bf b462 af3e
000001e0: a813 79be 5b18 1fbe 1696 60be fe97 b63e
000001f0: e561 d73e f91b 3bbf 4ad7 02bf 30f4 5c3d
00000200: 56e6 04bf 5ad6 0b3e b3a6 ba3e 6ff8 753e
00000210: 1cd7 b43e 7369 51bf a615 c8bf a388 a8be
00000220: dd76 123d 18a4 853d 39bf dd3e 5177 c53e
00000230: 066d ebbf 8a9c b33d 22b5 cfbe 6615 60bf
00000240: b650 0d3f 14cb babe 7e00 0f3e 55b4 5bbf
00000250: 3bd7 dc3e 1a52 4bbf c54a 263f d0e0 a53e
00000260: 004e 223f 21d6 6cbe c616 af3d b2ab 5e3e
00000270: dba5 0ebf c46a 603c 4160 ee3e 32c0 9b3f
00000280: 1b57 293f d1e7 bcbe 4508 19bf 3ada 84be
00000290: a109 7abe 2920 373e 51e6 253f 14ee 813e
000002a0: f0b4 94bf 43a4 9f3e de2d ff3e a291 ecbe
000002b0: bec1 343f 7ebe 9ebf bd7b 313d f1d1 553e
000002c0: 595f 87bf 1596 e5be 3d4d 373f 576f a7bd
000002d0: e22e 6e3f 8043 12bf c033 90be 74c5 a23f
000002e0: 54f5 f0be 2db9 883e ccf7 67be 3703 7f3e
000002f0: 4ed5 cebe 7fe9 d8bb e967 67bf 18d8 003f
00000300: ca7e 1a3f 9acf 23bf c449 e43e f233 9b3e
00000310: 0435 b73c e737 873d 0ed9 f8be 9373 2abf
00000320: 0f9e 7a3e c4ae 39bf 323f a03d 5c21 b73e
00000330: f57c 91bf 5090 b33e e662 b33e c1de 9dbf
00000340: 5334 af3f 6c63 95bc 8a05 02bf 514e 43bf
00000350: 8264 d03d 311f 1b3e 1410 88be 0aca c3be
00000360: 1498 d03e f55f b63d ba68 243e 1ce7 c7bd
00000370: e20e 18bf fc3b 1f3f 5af4 c0be 26ff cb3d
00000380: d109 083e 44f6 473b a32d 283f 2231 7abe
00000390: 4a3a b5bf aba0 4bbe 525b 163f 6b2f f9bd
000003a0: c55c 16bf 53f2 033f 8dc9 813f 77c6 f93d
000003b0: 1cea 483e f164 63be 8ba4 103e 6f4f 1bbf
000003c0: 0bba 26bf c5fc 2dbe c221 7cbf e755 23bf
000003d0: b17e 85bd 1508 e0be 9c9b 2abe 2bdb 37bf
000003e0: 35a8 d4be 93d3 773e 6d77 86be 95b6 f33e
000003f0: 4eea 1e3f 140f 3ebe 1d68 473e 388f 0f3f
-0.30318564 -0.47424108 0.27139634 0.12538794 0.53217435 0.32758126 -0.7039702 0.3979578
0.18007123 -0.2762103 0.09636157 0.027692795 -0.1780635 0.85904455 0.042499736 -0.73256093
0.4093181 0.23524767 -0.33124337 0.058821097 0.6719198 0.048233125 -0.640899 -0.8063321
-0.2735811 -0.41434145 0.35971913 -0.13742232 1.0490474 0.15141468 -0.5207043 0.17223273
0.2671097 -0.23648357 -0.5535023 0.80663794 0.08222497 -0.28770223 -0.20560019 -0.22986914
0.16727237 -0.631013 0.09685201 0.71272427 0.54019684 -1.0170792 0.5390007 0.29191905
-0.61806846 0.56934565 0.5650779 -0.4897371 1.4358552 0.7751957 0.016423859 -1.0166086
0.40128973 0.116085224 0.37439305 0.13581465 -0.33970624 0.17704202 -0.5627188 -0.3960734
-0.39708072 -0.040304832 0.23644312 -0.51993555 0.25672263 0.37395692 0.6005644 -0.060775522
-0.4894996 -0.077421054 -0.15912053 0.22554907 0.22007059 0.33712092 -0.43020314 0.3011351
-0.12114174 0.16348909 -0.052868463 -0.9680067 -1.0689082 0.35397252 -0.0075522466 1.4646734
0.5432533 -0.4621794 1.5197644 0.021604555 -0.15494432 0.22132578 0.24938138 -0.2916873
0.2779545 -0.3539222 0.18349202 -0.9546315 -0.4367666 1.3982933 0.21309733 -0.76768017
0.5541792 0.33568445 0.3871025 -0.09897541 0.323963 0.52227676 0.120047204 -0.6497227
0.36996442 0.5108484 0.312956 -0.7513061 1.1336794 0.385622 -0.6597411 0.34254992
-0.24323905 -0.15536635 -0.21932253 0.35662836 0.42066875 -0.7308956 -0.51109755 0.053943813
-0.51913965 0.13655987 0.36455306 0.24020551 0.35320365 -0.8180153 -1.5631607 -0.32916746
0.035757888 0.06525439 0.43309954 0.38567594 -1.8392646 0.08770092 -0.4056788 -0.8753265
0.5520128 -0.3648306 0.13965032 -0.8582204 0.43132958 -0.7942215 0.6495784 0.3239808
0.6340027 -0.23128559 0.085492656 0.21745184 -0.55721825 0.01369733 0.4655781 1.2168028
0.6614854 -0.36895612 -0.59778243 -0.25947744 -0.24417736 0.17883362 0.6480456 0.25376952
-1.1617718 0.3118001 0.4983968 -0.4620486 0.7060813 -1.2401884 0.043330897 0.20880868
-1.0575973 -0.44841066 0.7160223 -0.08175533 0.9304029 -0.57134247 -0.28164482 1.2716508
-0.4706217 0.26703778 -0.22653121 0.2490357 -0.40397114 -0.006619632 -0.9039293 0.5032973
0.60349715 -0.6398865 0.4458753 0.3031307 0.022364147 0.066024594 -0.486031 -0.665826
0.24474357 -0.72532296 0.078245535 0.3576764 -1.1366259 0.3507104 0.3503639 -1.2333604
1.3687843 -0.018235885 -0.507897 -0.76291376 0.1017542 0.15148617 -0.26574767 -0.3824008
0.40741026 0.08905021 0.16055575 -0.097608775 -0.5939771 0.62200904 -0.37686425 0.09960775
0.13284995 0.0030511776 0.65694636 -0.24432805 -1.4158413 -0.19885509 0.58733094 -0.121672474
-0.58735305 0.5154163 1.0139633 0.12196057 0.19620556 -0.22206475 0.14125268 -0.6066808
-0.6512763 -0.16990955 -0.9848901 -0.6380295 -0.06518305 -0.43756166 -0.16660923 -0.718188
-0.41534582 0.24201803 -0.2626299 0.47600237 0.6207627 -0.1856044 0.1947331 0.5607791

fc2.bias f4 [128]
00000000: 2a90 a83e 0981 943d 8548 6c3d 83e6 5bbd
00000010: a50d 1e3d a6a6 673e 9441 11bd 23d9 f6bd
00000020: 538a 843e 5c75 8d3e af6f 16be d8f4 f13e
00000030: b350 cf3d ef7d d23e a7c5 c93e a34f 243e
00000040: a0d2 be3e 36a1 923e 55e7 193d 1cea e13c
00000050: b4b5 d43d 2e59 783e 4c2d eb3e ffb0 153e
00000060: 1126 88bd 2438 e03e 1a52 553e 711b a23e
00000070: 4add dcbc 5218 843e 17ab 9fbd 7c82 53bd
00000080: e43d 1abe 8dc6 493d f51f 8f3e 36f4 c43e
00000090: 4c36 60bc d306 833d 2f63 573e eaa1 563d
000000a0: e58d cd3d 5685 dfbd d15b 0fbd 5ef1 353e
000000b0: 2f10 1f3d a63d 423e e16f 803e 0249 9c3e
000000c0: 50e4 63bd eb09 22bb 0ea3 febd 873c a83d
000000d0: 228b f43d 1511 8bbd ef69 c03d e838 153d
000000e0: b866 4fbd c8f5 95bd c2e2 973e bd3c 8e3e
000000f0: cc48 db3c 9462 cc3e b212 d93d c001 72bc
00000100: 24ae 52bd 5126 1a3e 863f b63e 5413 573e
00000110: 80ac 8c3e b177 263e 7dcb d63d 1fde 89bd
00000120: 8ed8 8e3d e65e 783d 7108 f53d ced1 753e
00000130: 80f2 203e 5577 113d 26c6 91bc 5d6d a83e
00000140: 5ae8 ac3e 81ed af3c 1079 6cbd 9d18 9a3e
00000150: 882c 423d feb1 b6bc b948 9bbd f7ac 153e
00000160: 5f74 29bd 9172 9dbc 8296 67bd fec0 fa3d
00000170: cb15 ff3e 72ca db3c d4a7 db3e 7edc 2f3d
00000180: 92e9 8ebd 6c95 063d 931d 3fbe aef0 073e
00000190: f53e 01bd 753f 1ebd 1c6d d73e fc29 ae3e
000001a0: 2a7d 52bd 3561 203d b0c8 c13d cf9e 913e
000001b0: fbe7 d43e 033d ff3d 239c 573d ea59 263d
000001c0: b9ea b73e c253 643e 789c 4c3e 7838 7dbc
000001d0: b274 943e 30c1 253e d84a 0c3e 8f55 ba3e
000001e0: 1261 af3d 173f 98bd 17d1 b73e d791 5c3e
000001f0: 5b21 df3e 8a01 983e 63c1 2f3d 1e5c 79be
0.32922488 0.07251174 0.057686348 -0.05368663 0.03858723 0.22622165 -0.03546293 -0.12053134
0.25886783 0.276286 -0.14691041 0.47257113 0.10122814 0.41111705 0.3940861 0.16046004
0.3727007 0.2863862 0.03757413 0.027577452 0.103862196 0.2425277 0.45932996 0.146183
-0.066478856 0.43792832 0.208321 0.3166156 -0.026960988 0.25799805 -0.07796305 -0.05163811
-0.15062672 0.04926162 0.2795407 0.38467568 -0.01368482 0.06397786 0.2103393 0.052400507
0.1003683 -0.10914104 -0.034999672 0.17767856 0.038833793 0.1896883 0.25085357 0.3052445
-0.055637658 -0.002472515 -0.12433444 0.0821467 0.119406 -0.067903675 0.09395205 0.036431223
-0.05063507 -0.0732227 0.2966519 0.27780715 0.02676811 0.3991896 0.10599269 -0.014770925
-0.051435605 0.15053679 0.3559534 0.21003467 0.27475357 0.16256596 0.10488031 -0.06731819
0.06974898 0.060637377 0.11964501 0.24005815 0.15717506 0.035514195 -0.01779468 0.32895938
0.3377102 0.021475555 -0.05773264 0.30096903 0.04740575 -0.02230167 -0.0758223 0.14616762
-0.041370746 -0.019219669 -0.05654002 0.122438416 0.49821314 0.026829932 0.4290148 0.042934887
-0.06978144 0.032857344 -0.18663625 0.13275406 -0.03155418 -0.038634736 0.4207543 0.34016407
-0.051388897 0.039155204 0.09462106 0.28441474 0.41583237 0.12462809 0.052639138 0.040613092
0.35921267 0.22297576 0.19981563 -0.015455358 0.2899528 0.16186976 0.13700426 0.363934
0.085634366 -0.074339084 0.3590171 0.21540008 0.43580136 0.29688674 0.042909037 -0.24351546

fc3.weight f4 [4, 128]
00000000: c32e 5a3f 9a22 98bf b4ec 193f 944a 263c
00000010: bd32 253f 28a1 883e ef87 b1bd 7b13 78bf
00000020: ed2b 123f 4183 3c3f 5684 13bf 3b7e 163f
00000030: d3ad 2bbf 97bc 233f 0849 fc3e 7b93 a73f
00000040: f0af 06bf 3dfb a23f 0065 0e3f d89a 5fbc
00000050: e8a6 90bf 8df2 47be 9a0c 4e3f 1000 abbe
00000060: fb63 1abd af92 f23f f567 e3be e2f4 0940
00000070: eb68 b5bd bbba c8be f945 683f 68e4 d03c
00000080: 3d88 0fbf bf4b 88bf 3047 123f f6f6 373f
00000090: f8f2 bebd 28a4 3bbf aa4a c1bd b702 1a3c
000000a0: d389 f63f cf50 70bf 3e66 7d3d cd43 08bf
000000b0: 5d01 babd e09e 8ebf 3994 2d3f 0140 623f
000000c0: b5dd 503e 43cc 8e3d 560e 29bf 7672 90be
000000d0: 074d a5bf 0d4c abbd fbd1 df3f 29f1 243d
000000e0: aaa6 393d 14e3 04bd 93e6 433f bf1c 2e3f
000000f0: 61f5 f9bf afba 333f c792 4ebf 5b55 2a3f
00000100: 85e2 56bd 6a96 abbf 0d9f 003f 5b58 a53e
00000110: 6ebc 853e ce82 183f d086 bcbd 8cc2 ba3c
00000120: 3e50 aebe 3e3e 67bf ccf7 64bf b599 e1be
00000130: f8db 3c3f 9ebc 8f3d 590f aabd 98fb 9ebe
00000140: 1dfb 673f 2657 adbd f993 d5be ad83 c63e
00000150: 5794 4fbf 8a06 1d3d 810a 0ebc 5cd5 f7be
00000160: 9e3d 3bbd 0ce0 73bd 65cd 4ebc c4f2 cb3f
00000170: 3414 0e3f 0dc4 ad3d 5d7b 213f 2058 44bf
00000180: a4e4 a9bd c2f6 2c3d 9f05 71bf 6df8 2dbe
00000190: b088 adbc 5a9c 87bd 5811 1f3f 0595 6b3f
000001a0: 4234 54bf d9ef 3cbf 013a 36bf e90b 473f
000001b0: 3723 033f 33fa 5dbf d607 44bf d88d 9f3f
000001c0: 7667 7f3f 4f37 c2be 4baf 83be 0cfd 14be
000001d0: bdbb 533f 8ff0 07be 3543 0ebf a7fa 993d
000001e0: 6b80 edbe 35e0 32bf cf79 37bf a979 b9be
000001f0: 3ffb 0e3f f499 543f 5aec 483f be03 06bf
00000200: 28e4 0e3f c608 41bf 0aac 25bf 1ed9 a1bd
00000210: 4c81 6b3f 1e04 613f 3860 acbd 0665 3abf
00000220: c026 083f fffe 713f 8614 63bf 4102 3f3f
00000230: 6992 63bf e664 003f 8ae7 7b3e abc6 0d3f
00000240: 1890 2fbf aeaa b03f f411 413f 340e b5bc
00000250: 5927 78bf f059 39bf a95f c83e bd1a 76be
00000260: 0023 b239 b1dd aa3f 7a26 d4be d933 0d40
00000270: 00cb b2bb ca48 d5be f511 d53e 07ec 99bd
00000280: c971 65bf ef40 aebf b83f 553f b02a 3b3f
00000290: c500 bd3b 3540 cfbe ce49 1bbe a9c1 a63c
000002a0: 374f ed3f f15d 42bf ad5b 763d 1de2 30bf
000002b0: ed40 0b3c 6868 6bbf 8f18 043f ff61 8a3f
000002c0: 043a 43bd 8646 88bd e2c9 c8bf 55c6 65bf
000002d0: 0398 ef3c 8fc7 af3c 158a b13f 77e0 dd3c
000002e0: 0e90 113d f03a c13a 4af3 4f3f 7b0e 6c3f
000002f0: 7e64 04bf bf5b 003f 022a 7cbf 6865 133f
00000300: fd9b 9cbd e68f 82bf 5458 593f 72d8 e93e
00000310: 4174 293e 6962 443f a275 9abe f803 8d3d
00000320: db97 8abd e87d 5fbf 0e87 c1be 0c68 eebe
00000330: 1d5c 603f 7480 b63d 1098 52bc 7a7d 63bf
00000340: 484b 833f 9a21 703d 6fad b9bd 43f5 b73d
00000350: 18df 85bf c256 f53b 9e32 e4bc c25c dabe
00000360: f0f0 2f3c 8415 afbc e00f 92bb 88b3 be3f
00000370: 8ed9 223f 067f 743d d436 2f3f a742 95bf
00000380: 06a8 533d b83e 953c 2d43 e0be 7a57 263f
00000390: 494e 4fbd 25ea 853d cdb2 543f acdf 2d3f
000003a0: 4e80 65bf b41a 87bf 1368 2abf 4ffb f83e
000003b0: 0627 4b3f f505 f6be 5ea8 85bf 928a 9c3f
000003c0: d06c 303f dba1 c4be c50d 02bf 1c43 753f
000003d0: c8c9 183f 13ff ef3c b088 ffbe 4eea 36bf
000003e0: d364 4fbe b1b1 0bbf b86c 53bf a808 bebe
000003f0: 7ec5 293f f418 863f 8ef2 e03e c028 55bf
0.852276 -1.188556 0.60126805 0.010149617 0.64530545 0.26685452 -0.086685054 -0.96904725
0.57098275 0.7363778 -0.57623804 0.5878636 -0.6706211 0.6395964 0.49274468 1.3091882
-0.5261221 1.2732922 0.55622864 -0.0136477575 -1.1300936 -0.1952612 0.8048798 -0.33398485
-0.037693005 1.8951014 -0.4441525 2.1555715 -0.08857902 -0.39204964 0.9073177 0.025499538
-0.5606726 -1.0648116 0.57139874 0.7186121 -0.09323686 -0.7329736 -0.09438069 0.009400061
1.9260811 -0.93873304 0.061865084 -0.53228456 -0.09082291 -1.1142235 0.67804295 0.8837891
0.20397075 0.069725536 -0.660375 -0.28212327 -1.2914132 -0.08364115 1.7485956 0.04026905
0.04532496 -0.03244312 0.76523703 0.68012613 -1.9528009 0.7020673 -0.80692714 0.6653649
-0.05246212 -1.3405278 0.5024269 0.32293972 0.26120323 0.5957459 -0.09205401 0.022797845
-0.34045595 -0.9032935 -0.8944061 -0.44062582 0.73773146 0.07018398 -0.083037086 -0.31051326
0.90617543 -0.08463888 -0.41714457 0.38772336 -0.81085724 0.038336314 -0.0086694965 -0.48404968
-0.04571306 -0.05953984 -0.012622212 1.5933461 0.5549958 0.08484659 0.6307886 -0.7669697
-0.08295563 0.042227514 -0.941492 -0.16989298 -0.021183342 -0.066216186 0.6213584 0.9202426
-0.8289224 -0.7380348 -0.71182257 0.7775255 0.5122561 -0.867099 -0.76574457 1.2465162
0.99767244 -0.37932822 -0.25719675 -0.14549655 0.8270834 -0.1327536 -0.555713 0.07518511
-0.46387038 -0.6987336 -0.7167024 -0.36225632 0.5585212 0.83047414 0.78485644 -0.5234946
0.5581689 -0.7540401 -0.64715636 -0.0790274 0.91994166 0.8789691 -0.0841679 -0.728104
0.5318413 0.9452972 -0.8870319 0.74612814 -0.8889528 0.5015396 0.24600044 0.5538127
-0.68579245 1.3802087 0.7541802 -0.0221015 -0.9693504 -0.7240286 0.39135483 -0.24033637
0.00033976883 1.3348905 -0.41435605 2.2062895 -0.0054563284 -0.41657096 0.41615263 -0.07515722
-0.8962675 -1.3613566 0.8330035 0.7311201 0.005767914 -0.40478674 -0.15164873 0.020356016
1.85398 -0.75924593 0.060146023 -0.6909502 0.008499366 -0.91956186 0.51599973 1.0811156
-0.04766275 -0.06654076 -1.568661 -0.89755756 0.02924729 0.021457462 1.3870264 0.027084572
0.035537772 0.0014742296 0.81230605 0.92209595 -0.5171584 0.50139993 -0.985016 0.5757661
-0.0764694 -1.0200164 0.84900403 0.45672947 0.16548254 0.7671266 -0.30167872 0.068855226
-0.067672454 -0.8730149 -0.3779835 -0.46563756 0.87640554 0.08911219 -0.012853637 -0.8886334
1.0257349 0.058625795 -0.09066283 0.08982327 -1.0458708 0.007487149 -0.027856167 -0.42648894
0.010738596 -0.021372564 -0.004457459 1.4898539 0.6361321 0.05969145 0.68443036 -1.1660966
0.05167391 0.018218383 -0.4380125 0.6497723 -0.050611768 0.065388 0.8308533 0.6791942
-0.896489 -1.0555024 -0.66565055 0.48629233 0.7935642 -0.4805142 -1.0442007 1.2229788
0.68916035 -0.38404736 -0.5080226 0.95805526 0.59682894 0.029296434 -0.49908972 -0.7145127
-0.20253305 -0.5456801 -0.82587767 -0.3711598 0.66316974 1.0476365 0.43935055 -0.83265305

fc3.bias f4 [4]
00000000: e2a4 babd 3c93 14bd 2439 343e 8555 f23d
-0.0911348 -0.036273226 0.17599922 0.11832718
